// -----// IR Dump Before Inliner (inline) ('builtin.module' operation) //----- //
#loc = loc("/home/arshadm/Workspace/projects/spinorml/venv/./src/vector_addition.py":10:0)
module {
  tt.func public @add_kernel(%arg0: !tt.ptr<f32> {tt.divisibility = 16 : i32} loc("/home/arshadm/Workspace/projects/spinorml/venv/./src/vector_addition.py":10:0), %arg1: !tt.ptr<f32> {tt.divisibility = 16 : i32} loc("/home/arshadm/Workspace/projects/spinorml/venv/./src/vector_addition.py":10:0), %arg2: !tt.ptr<f32> {tt.divisibility = 16 : i32} loc("/home/arshadm/Workspace/projects/spinorml/venv/./src/vector_addition.py":10:0), %arg3: i32 {tt.divisibility = 16 : i32} loc("/home/arshadm/Workspace/projects/spinorml/venv/./src/vector_addition.py":10:0)) attributes {noinline = false} {
    %0 = tt.get_program_id x : i32 loc(#loc1)
    %c1024_i32 = arith.constant 1024 : i32 loc(#loc2)
    %c1024_i32_0 = arith.constant 1024 : i32 loc(#loc2)
    %1 = arith.extsi %0 : i32 to i64 loc(#loc2)
    %2 = arith.extsi %c1024_i32_0 : i32 to i64 loc(#loc2)
    %3 = arith.muli %1, %2 : i64 loc(#loc2)
    %c2147483647_i64 = arith.constant 2147483647 : i64 loc(#loc2)
    %c-2147483648_i64 = arith.constant -2147483648 : i64 loc(#loc2)
    %4 = arith.cmpi sle, %3, %c2147483647_i64 : i64 loc(#loc2)
    %5 = arith.cmpi sge, %3, %c-2147483648_i64 : i64 loc(#loc2)
    %6 = arith.andi %4, %5 : i1 loc(#loc2)
    %7 = arith.muli %0, %c1024_i32_0 : i32 loc(#loc2)
    %8 = tt.make_range {end = 1024 : i32, start = 0 : i32} : tensor<1024xi32> loc(#loc3)
    %9 = tt.splat %7 : i32 -> tensor<1024xi32> loc(#loc4)
    %10 = arith.extsi %9 : tensor<1024xi32> to tensor<1024xi64> loc(#loc4)
    %11 = arith.extsi %8 : tensor<1024xi32> to tensor<1024xi64> loc(#loc4)
    %12 = arith.addi %10, %11 : tensor<1024xi64> loc(#loc4)
    %c2147483647_i64_1 = arith.constant 2147483647 : i64 loc(#loc4)
    %c-2147483648_i64_2 = arith.constant -2147483648 : i64 loc(#loc4)
    %cst = arith.constant dense<2147483647> : tensor<1024xi64> loc(#loc4)
    %13 = arith.cmpi sle, %12, %cst : tensor<1024xi64> loc(#loc4)
    %cst_3 = arith.constant dense<-2147483648> : tensor<1024xi64> loc(#loc4)
    %14 = arith.cmpi sge, %12, %cst_3 : tensor<1024xi64> loc(#loc4)
    %15 = arith.andi %13, %14 : tensor<1024xi1> loc(#loc4)
    %16 = arith.addi %9, %8 : tensor<1024xi32> loc(#loc4)
    %17 = tt.splat %arg3 : i32 -> tensor<1024xi32> loc(#loc5)
    %18 = arith.cmpi slt, %16, %17 : tensor<1024xi32> loc(#loc5)
    %19 = tt.splat %arg0 : !tt.ptr<f32> -> tensor<1024x!tt.ptr<f32>> loc(#loc6)
    %20 = tt.addptr %19, %16 : tensor<1024x!tt.ptr<f32>>, tensor<1024xi32> loc(#loc6)
    %21 = tt.load %20, %18 : tensor<1024x!tt.ptr<f32>> loc(#loc7)
    %22 = tt.splat %arg1 : !tt.ptr<f32> -> tensor<1024x!tt.ptr<f32>> loc(#loc8)
    %23 = tt.addptr %22, %16 : tensor<1024x!tt.ptr<f32>>, tensor<1024xi32> loc(#loc8)
    %24 = tt.load %23, %18 : tensor<1024x!tt.ptr<f32>> loc(#loc9)
    %25 = arith.addf %21, %24 : tensor<1024xf32> loc(#loc10)
    %26 = tt.splat %arg2 : !tt.ptr<f32> -> tensor<1024x!tt.ptr<f32>> loc(#loc11)
    %27 = tt.addptr %26, %16 : tensor<1024x!tt.ptr<f32>>, tensor<1024xi32> loc(#loc11)
    tt.store %27, %25, %18 : tensor<1024x!tt.ptr<f32>> loc(#loc12)
    tt.return loc(#loc13)
  } loc(#loc)
} loc(#loc)
#loc1 = loc("/home/arshadm/Workspace/projects/spinorml/venv/./src/vector_addition.py":19:24)
#loc2 = loc("/home/arshadm/Workspace/projects/spinorml/venv/./src/vector_addition.py":24:24)
#loc3 = loc("/home/arshadm/Workspace/projects/spinorml/venv/./src/vector_addition.py":25:41)
#loc4 = loc("/home/arshadm/Workspace/projects/spinorml/venv/./src/vector_addition.py":25:28)
#loc5 = loc("/home/arshadm/Workspace/projects/spinorml/venv/./src/vector_addition.py":27:21)
#loc6 = loc("/home/arshadm/Workspace/projects/spinorml/venv/./src/vector_addition.py":30:24)
#loc7 = loc("/home/arshadm/Workspace/projects/spinorml/venv/./src/vector_addition.py":30:16)
#loc8 = loc("/home/arshadm/Workspace/projects/spinorml/venv/./src/vector_addition.py":31:24)
#loc9 = loc("/home/arshadm/Workspace/projects/spinorml/venv/./src/vector_addition.py":31:16)
#loc10 = loc("/home/arshadm/Workspace/projects/spinorml/venv/./src/vector_addition.py":32:17)
#loc11 = loc("/home/arshadm/Workspace/projects/spinorml/venv/./src/vector_addition.py":34:26)
#loc12 = loc("/home/arshadm/Workspace/projects/spinorml/venv/./src/vector_addition.py":34:35)
#loc13 = loc("/home/arshadm/Workspace/projects/spinorml/venv/./src/vector_addition.py":34:4)


// -----// IR Dump Before Canonicalizer (canonicalize) ('tt.func' operation: @add_kernel) //----- //
#loc = loc("/home/arshadm/Workspace/projects/spinorml/venv/./src/vector_addition.py":10:0)
module {
  tt.func public @add_kernel(%arg0: !tt.ptr<f32> {tt.divisibility = 16 : i32} loc("/home/arshadm/Workspace/projects/spinorml/venv/./src/vector_addition.py":10:0), %arg1: !tt.ptr<f32> {tt.divisibility = 16 : i32} loc("/home/arshadm/Workspace/projects/spinorml/venv/./src/vector_addition.py":10:0), %arg2: !tt.ptr<f32> {tt.divisibility = 16 : i32} loc("/home/arshadm/Workspace/projects/spinorml/venv/./src/vector_addition.py":10:0), %arg3: i32 {tt.divisibility = 16 : i32} loc("/home/arshadm/Workspace/projects/spinorml/venv/./src/vector_addition.py":10:0)) attributes {noinline = false} {
    %0 = tt.get_program_id x : i32 loc(#loc1)
    %c1024_i32 = arith.constant 1024 : i32 loc(#loc2)
    %c1024_i32_0 = arith.constant 1024 : i32 loc(#loc2)
    %1 = arith.extsi %0 : i32 to i64 loc(#loc2)
    %2 = arith.extsi %c1024_i32_0 : i32 to i64 loc(#loc2)
    %3 = arith.muli %1, %2 : i64 loc(#loc2)
    %c2147483647_i64 = arith.constant 2147483647 : i64 loc(#loc2)
    %c-2147483648_i64 = arith.constant -2147483648 : i64 loc(#loc2)
    %4 = arith.cmpi sle, %3, %c2147483647_i64 : i64 loc(#loc2)
    %5 = arith.cmpi sge, %3, %c-2147483648_i64 : i64 loc(#loc2)
    %6 = arith.andi %4, %5 : i1 loc(#loc2)
    %7 = arith.muli %0, %c1024_i32_0 : i32 loc(#loc2)
    %8 = tt.make_range {end = 1024 : i32, start = 0 : i32} : tensor<1024xi32> loc(#loc3)
    %9 = tt.splat %7 : i32 -> tensor<1024xi32> loc(#loc4)
    %10 = arith.extsi %9 : tensor<1024xi32> to tensor<1024xi64> loc(#loc4)
    %11 = arith.extsi %8 : tensor<1024xi32> to tensor<1024xi64> loc(#loc4)
    %12 = arith.addi %10, %11 : tensor<1024xi64> loc(#loc4)
    %c2147483647_i64_1 = arith.constant 2147483647 : i64 loc(#loc4)
    %c-2147483648_i64_2 = arith.constant -2147483648 : i64 loc(#loc4)
    %cst = arith.constant dense<2147483647> : tensor<1024xi64> loc(#loc4)
    %13 = arith.cmpi sle, %12, %cst : tensor<1024xi64> loc(#loc4)
    %cst_3 = arith.constant dense<-2147483648> : tensor<1024xi64> loc(#loc4)
    %14 = arith.cmpi sge, %12, %cst_3 : tensor<1024xi64> loc(#loc4)
    %15 = arith.andi %13, %14 : tensor<1024xi1> loc(#loc4)
    %16 = arith.addi %9, %8 : tensor<1024xi32> loc(#loc4)
    %17 = tt.splat %arg3 : i32 -> tensor<1024xi32> loc(#loc5)
    %18 = arith.cmpi slt, %16, %17 : tensor<1024xi32> loc(#loc5)
    %19 = tt.splat %arg0 : !tt.ptr<f32> -> tensor<1024x!tt.ptr<f32>> loc(#loc6)
    %20 = tt.addptr %19, %16 : tensor<1024x!tt.ptr<f32>>, tensor<1024xi32> loc(#loc6)
    %21 = tt.load %20, %18 : tensor<1024x!tt.ptr<f32>> loc(#loc7)
    %22 = tt.splat %arg1 : !tt.ptr<f32> -> tensor<1024x!tt.ptr<f32>> loc(#loc8)
    %23 = tt.addptr %22, %16 : tensor<1024x!tt.ptr<f32>>, tensor<1024xi32> loc(#loc8)
    %24 = tt.load %23, %18 : tensor<1024x!tt.ptr<f32>> loc(#loc9)
    %25 = arith.addf %21, %24 : tensor<1024xf32> loc(#loc10)
    %26 = tt.splat %arg2 : !tt.ptr<f32> -> tensor<1024x!tt.ptr<f32>> loc(#loc11)
    %27 = tt.addptr %26, %16 : tensor<1024x!tt.ptr<f32>>, tensor<1024xi32> loc(#loc11)
    tt.store %27, %25, %18 : tensor<1024x!tt.ptr<f32>> loc(#loc12)
    tt.return loc(#loc13)
  } loc(#loc)
} loc(#loc)
#loc1 = loc("/home/arshadm/Workspace/projects/spinorml/venv/./src/vector_addition.py":19:24)
#loc2 = loc("/home/arshadm/Workspace/projects/spinorml/venv/./src/vector_addition.py":24:24)
#loc3 = loc("/home/arshadm/Workspace/projects/spinorml/venv/./src/vector_addition.py":25:41)
#loc4 = loc("/home/arshadm/Workspace/projects/spinorml/venv/./src/vector_addition.py":25:28)
#loc5 = loc("/home/arshadm/Workspace/projects/spinorml/venv/./src/vector_addition.py":27:21)
#loc6 = loc("/home/arshadm/Workspace/projects/spinorml/venv/./src/vector_addition.py":30:24)
#loc7 = loc("/home/arshadm/Workspace/projects/spinorml/venv/./src/vector_addition.py":30:16)
#loc8 = loc("/home/arshadm/Workspace/projects/spinorml/venv/./src/vector_addition.py":31:24)
#loc9 = loc("/home/arshadm/Workspace/projects/spinorml/venv/./src/vector_addition.py":31:16)
#loc10 = loc("/home/arshadm/Workspace/projects/spinorml/venv/./src/vector_addition.py":32:17)
#loc11 = loc("/home/arshadm/Workspace/projects/spinorml/venv/./src/vector_addition.py":34:26)
#loc12 = loc("/home/arshadm/Workspace/projects/spinorml/venv/./src/vector_addition.py":34:35)
#loc13 = loc("/home/arshadm/Workspace/projects/spinorml/venv/./src/vector_addition.py":34:4)


// -----// IR Dump Before TritonRewriteTensorPointer (triton-rewrite-tensor-pointer) ('builtin.module' operation) //----- //
#loc = loc("/home/arshadm/Workspace/projects/spinorml/venv/./src/vector_addition.py":10:0)
module {
  tt.func public @add_kernel(%arg0: !tt.ptr<f32> {tt.divisibility = 16 : i32} loc("/home/arshadm/Workspace/projects/spinorml/venv/./src/vector_addition.py":10:0), %arg1: !tt.ptr<f32> {tt.divisibility = 16 : i32} loc("/home/arshadm/Workspace/projects/spinorml/venv/./src/vector_addition.py":10:0), %arg2: !tt.ptr<f32> {tt.divisibility = 16 : i32} loc("/home/arshadm/Workspace/projects/spinorml/venv/./src/vector_addition.py":10:0), %arg3: i32 {tt.divisibility = 16 : i32} loc("/home/arshadm/Workspace/projects/spinorml/venv/./src/vector_addition.py":10:0)) attributes {noinline = false} {
    %c1024_i32 = arith.constant 1024 : i32 loc(#loc1)
    %0 = tt.get_program_id x : i32 loc(#loc2)
    %1 = arith.muli %0, %c1024_i32 : i32 loc(#loc3)
    %2 = tt.make_range {end = 1024 : i32, start = 0 : i32} : tensor<1024xi32> loc(#loc4)
    %3 = tt.splat %1 : i32 -> tensor<1024xi32> loc(#loc5)
    %4 = arith.addi %3, %2 : tensor<1024xi32> loc(#loc5)
    %5 = tt.splat %arg3 : i32 -> tensor<1024xi32> loc(#loc6)
    %6 = arith.cmpi slt, %4, %5 : tensor<1024xi32> loc(#loc6)
    %7 = tt.splat %arg0 : !tt.ptr<f32> -> tensor<1024x!tt.ptr<f32>> loc(#loc7)
    %8 = tt.addptr %7, %4 : tensor<1024x!tt.ptr<f32>>, tensor<1024xi32> loc(#loc7)
    %9 = tt.load %8, %6 : tensor<1024x!tt.ptr<f32>> loc(#loc8)
    %10 = tt.splat %arg1 : !tt.ptr<f32> -> tensor<1024x!tt.ptr<f32>> loc(#loc9)
    %11 = tt.addptr %10, %4 : tensor<1024x!tt.ptr<f32>>, tensor<1024xi32> loc(#loc9)
    %12 = tt.load %11, %6 : tensor<1024x!tt.ptr<f32>> loc(#loc10)
    %13 = arith.addf %9, %12 : tensor<1024xf32> loc(#loc11)
    %14 = tt.splat %arg2 : !tt.ptr<f32> -> tensor<1024x!tt.ptr<f32>> loc(#loc12)
    %15 = tt.addptr %14, %4 : tensor<1024x!tt.ptr<f32>>, tensor<1024xi32> loc(#loc12)
    tt.store %15, %13, %6 : tensor<1024x!tt.ptr<f32>> loc(#loc13)
    tt.return loc(#loc14)
  } loc(#loc)
} loc(#loc)
#loc1 = loc(unknown)
#loc2 = loc("/home/arshadm/Workspace/projects/spinorml/venv/./src/vector_addition.py":19:24)
#loc3 = loc("/home/arshadm/Workspace/projects/spinorml/venv/./src/vector_addition.py":24:24)
#loc4 = loc("/home/arshadm/Workspace/projects/spinorml/venv/./src/vector_addition.py":25:41)
#loc5 = loc("/home/arshadm/Workspace/projects/spinorml/venv/./src/vector_addition.py":25:28)
#loc6 = loc("/home/arshadm/Workspace/projects/spinorml/venv/./src/vector_addition.py":27:21)
#loc7 = loc("/home/arshadm/Workspace/projects/spinorml/venv/./src/vector_addition.py":30:24)
#loc8 = loc("/home/arshadm/Workspace/projects/spinorml/venv/./src/vector_addition.py":30:16)
#loc9 = loc("/home/arshadm/Workspace/projects/spinorml/venv/./src/vector_addition.py":31:24)
#loc10 = loc("/home/arshadm/Workspace/projects/spinorml/venv/./src/vector_addition.py":31:16)
#loc11 = loc("/home/arshadm/Workspace/projects/spinorml/venv/./src/vector_addition.py":32:17)
#loc12 = loc("/home/arshadm/Workspace/projects/spinorml/venv/./src/vector_addition.py":34:26)
#loc13 = loc("/home/arshadm/Workspace/projects/spinorml/venv/./src/vector_addition.py":34:35)
#loc14 = loc("/home/arshadm/Workspace/projects/spinorml/venv/./src/vector_addition.py":34:4)


// -----// IR Dump Before Canonicalizer (canonicalize) ('builtin.module' operation) //----- //
#loc = loc("/home/arshadm/Workspace/projects/spinorml/venv/./src/vector_addition.py":10:0)
module {
  tt.func public @add_kernel(%arg0: !tt.ptr<f32> {tt.divisibility = 16 : i32} loc("/home/arshadm/Workspace/projects/spinorml/venv/./src/vector_addition.py":10:0), %arg1: !tt.ptr<f32> {tt.divisibility = 16 : i32} loc("/home/arshadm/Workspace/projects/spinorml/venv/./src/vector_addition.py":10:0), %arg2: !tt.ptr<f32> {tt.divisibility = 16 : i32} loc("/home/arshadm/Workspace/projects/spinorml/venv/./src/vector_addition.py":10:0), %arg3: i32 {tt.divisibility = 16 : i32} loc("/home/arshadm/Workspace/projects/spinorml/venv/./src/vector_addition.py":10:0)) attributes {noinline = false} {
    %c1024_i32 = arith.constant 1024 : i32 loc(#loc1)
    %0 = tt.get_program_id x : i32 loc(#loc2)
    %1 = arith.muli %0, %c1024_i32 : i32 loc(#loc3)
    %2 = tt.make_range {end = 1024 : i32, start = 0 : i32} : tensor<1024xi32> loc(#loc4)
    %3 = tt.splat %1 : i32 -> tensor<1024xi32> loc(#loc5)
    %4 = arith.addi %3, %2 : tensor<1024xi32> loc(#loc5)
    %5 = tt.splat %arg3 : i32 -> tensor<1024xi32> loc(#loc6)
    %6 = arith.cmpi slt, %4, %5 : tensor<1024xi32> loc(#loc6)
    %7 = tt.splat %arg0 : !tt.ptr<f32> -> tensor<1024x!tt.ptr<f32>> loc(#loc7)
    %8 = tt.addptr %7, %4 : tensor<1024x!tt.ptr<f32>>, tensor<1024xi32> loc(#loc7)
    %9 = tt.load %8, %6 : tensor<1024x!tt.ptr<f32>> loc(#loc8)
    %10 = tt.splat %arg1 : !tt.ptr<f32> -> tensor<1024x!tt.ptr<f32>> loc(#loc9)
    %11 = tt.addptr %10, %4 : tensor<1024x!tt.ptr<f32>>, tensor<1024xi32> loc(#loc9)
    %12 = tt.load %11, %6 : tensor<1024x!tt.ptr<f32>> loc(#loc10)
    %13 = arith.addf %9, %12 : tensor<1024xf32> loc(#loc11)
    %14 = tt.splat %arg2 : !tt.ptr<f32> -> tensor<1024x!tt.ptr<f32>> loc(#loc12)
    %15 = tt.addptr %14, %4 : tensor<1024x!tt.ptr<f32>>, tensor<1024xi32> loc(#loc12)
    tt.store %15, %13, %6 : tensor<1024x!tt.ptr<f32>> loc(#loc13)
    tt.return loc(#loc14)
  } loc(#loc)
} loc(#loc)
#loc1 = loc(unknown)
#loc2 = loc("/home/arshadm/Workspace/projects/spinorml/venv/./src/vector_addition.py":19:24)
#loc3 = loc("/home/arshadm/Workspace/projects/spinorml/venv/./src/vector_addition.py":24:24)
#loc4 = loc("/home/arshadm/Workspace/projects/spinorml/venv/./src/vector_addition.py":25:41)
#loc5 = loc("/home/arshadm/Workspace/projects/spinorml/venv/./src/vector_addition.py":25:28)
#loc6 = loc("/home/arshadm/Workspace/projects/spinorml/venv/./src/vector_addition.py":27:21)
#loc7 = loc("/home/arshadm/Workspace/projects/spinorml/venv/./src/vector_addition.py":30:24)
#loc8 = loc("/home/arshadm/Workspace/projects/spinorml/venv/./src/vector_addition.py":30:16)
#loc9 = loc("/home/arshadm/Workspace/projects/spinorml/venv/./src/vector_addition.py":31:24)
#loc10 = loc("/home/arshadm/Workspace/projects/spinorml/venv/./src/vector_addition.py":31:16)
#loc11 = loc("/home/arshadm/Workspace/projects/spinorml/venv/./src/vector_addition.py":32:17)
#loc12 = loc("/home/arshadm/Workspace/projects/spinorml/venv/./src/vector_addition.py":34:26)
#loc13 = loc("/home/arshadm/Workspace/projects/spinorml/venv/./src/vector_addition.py":34:35)
#loc14 = loc("/home/arshadm/Workspace/projects/spinorml/venv/./src/vector_addition.py":34:4)


// -----// IR Dump Before TritonCombineOps (triton-combine) ('builtin.module' operation) //----- //
#loc = loc("/home/arshadm/Workspace/projects/spinorml/venv/./src/vector_addition.py":10:0)
module {
  tt.func public @add_kernel(%arg0: !tt.ptr<f32> {tt.divisibility = 16 : i32} loc("/home/arshadm/Workspace/projects/spinorml/venv/./src/vector_addition.py":10:0), %arg1: !tt.ptr<f32> {tt.divisibility = 16 : i32} loc("/home/arshadm/Workspace/projects/spinorml/venv/./src/vector_addition.py":10:0), %arg2: !tt.ptr<f32> {tt.divisibility = 16 : i32} loc("/home/arshadm/Workspace/projects/spinorml/venv/./src/vector_addition.py":10:0), %arg3: i32 {tt.divisibility = 16 : i32} loc("/home/arshadm/Workspace/projects/spinorml/venv/./src/vector_addition.py":10:0)) attributes {noinline = false} {
    %c1024_i32 = arith.constant 1024 : i32 loc(#loc1)
    %0 = tt.get_program_id x : i32 loc(#loc2)
    %1 = arith.muli %0, %c1024_i32 : i32 loc(#loc3)
    %2 = tt.make_range {end = 1024 : i32, start = 0 : i32} : tensor<1024xi32> loc(#loc4)
    %3 = tt.splat %1 : i32 -> tensor<1024xi32> loc(#loc5)
    %4 = arith.addi %3, %2 : tensor<1024xi32> loc(#loc5)
    %5 = tt.splat %arg3 : i32 -> tensor<1024xi32> loc(#loc6)
    %6 = arith.cmpi slt, %4, %5 : tensor<1024xi32> loc(#loc6)
    %7 = tt.splat %arg0 : !tt.ptr<f32> -> tensor<1024x!tt.ptr<f32>> loc(#loc7)
    %8 = tt.addptr %7, %4 : tensor<1024x!tt.ptr<f32>>, tensor<1024xi32> loc(#loc7)
    %9 = tt.load %8, %6 : tensor<1024x!tt.ptr<f32>> loc(#loc8)
    %10 = tt.splat %arg1 : !tt.ptr<f32> -> tensor<1024x!tt.ptr<f32>> loc(#loc9)
    %11 = tt.addptr %10, %4 : tensor<1024x!tt.ptr<f32>>, tensor<1024xi32> loc(#loc9)
    %12 = tt.load %11, %6 : tensor<1024x!tt.ptr<f32>> loc(#loc10)
    %13 = arith.addf %9, %12 : tensor<1024xf32> loc(#loc11)
    %14 = tt.splat %arg2 : !tt.ptr<f32> -> tensor<1024x!tt.ptr<f32>> loc(#loc12)
    %15 = tt.addptr %14, %4 : tensor<1024x!tt.ptr<f32>>, tensor<1024xi32> loc(#loc12)
    tt.store %15, %13, %6 : tensor<1024x!tt.ptr<f32>> loc(#loc13)
    tt.return loc(#loc14)
  } loc(#loc)
} loc(#loc)
#loc1 = loc(unknown)
#loc2 = loc("/home/arshadm/Workspace/projects/spinorml/venv/./src/vector_addition.py":19:24)
#loc3 = loc("/home/arshadm/Workspace/projects/spinorml/venv/./src/vector_addition.py":24:24)
#loc4 = loc("/home/arshadm/Workspace/projects/spinorml/venv/./src/vector_addition.py":25:41)
#loc5 = loc("/home/arshadm/Workspace/projects/spinorml/venv/./src/vector_addition.py":25:28)
#loc6 = loc("/home/arshadm/Workspace/projects/spinorml/venv/./src/vector_addition.py":27:21)
#loc7 = loc("/home/arshadm/Workspace/projects/spinorml/venv/./src/vector_addition.py":30:24)
#loc8 = loc("/home/arshadm/Workspace/projects/spinorml/venv/./src/vector_addition.py":30:16)
#loc9 = loc("/home/arshadm/Workspace/projects/spinorml/venv/./src/vector_addition.py":31:24)
#loc10 = loc("/home/arshadm/Workspace/projects/spinorml/venv/./src/vector_addition.py":31:16)
#loc11 = loc("/home/arshadm/Workspace/projects/spinorml/venv/./src/vector_addition.py":32:17)
#loc12 = loc("/home/arshadm/Workspace/projects/spinorml/venv/./src/vector_addition.py":34:26)
#loc13 = loc("/home/arshadm/Workspace/projects/spinorml/venv/./src/vector_addition.py":34:35)
#loc14 = loc("/home/arshadm/Workspace/projects/spinorml/venv/./src/vector_addition.py":34:4)


// -----// IR Dump Before TritonReorderBroadcast (triton-reorder-broadcast) ('builtin.module' operation) //----- //
#loc = loc("/home/arshadm/Workspace/projects/spinorml/venv/./src/vector_addition.py":10:0)
module {
  tt.func public @add_kernel(%arg0: !tt.ptr<f32> {tt.divisibility = 16 : i32} loc("/home/arshadm/Workspace/projects/spinorml/venv/./src/vector_addition.py":10:0), %arg1: !tt.ptr<f32> {tt.divisibility = 16 : i32} loc("/home/arshadm/Workspace/projects/spinorml/venv/./src/vector_addition.py":10:0), %arg2: !tt.ptr<f32> {tt.divisibility = 16 : i32} loc("/home/arshadm/Workspace/projects/spinorml/venv/./src/vector_addition.py":10:0), %arg3: i32 {tt.divisibility = 16 : i32} loc("/home/arshadm/Workspace/projects/spinorml/venv/./src/vector_addition.py":10:0)) attributes {noinline = false} {
    %c1024_i32 = arith.constant 1024 : i32 loc(#loc1)
    %0 = tt.get_program_id x : i32 loc(#loc2)
    %1 = arith.muli %0, %c1024_i32 : i32 loc(#loc3)
    %2 = tt.make_range {end = 1024 : i32, start = 0 : i32} : tensor<1024xi32> loc(#loc4)
    %3 = tt.splat %1 : i32 -> tensor<1024xi32> loc(#loc5)
    %4 = arith.addi %3, %2 : tensor<1024xi32> loc(#loc5)
    %5 = tt.splat %arg3 : i32 -> tensor<1024xi32> loc(#loc6)
    %6 = arith.cmpi slt, %4, %5 : tensor<1024xi32> loc(#loc6)
    %7 = tt.splat %arg0 : !tt.ptr<f32> -> tensor<1024x!tt.ptr<f32>> loc(#loc7)
    %8 = tt.addptr %7, %4 : tensor<1024x!tt.ptr<f32>>, tensor<1024xi32> loc(#loc7)
    %9 = tt.load %8, %6 : tensor<1024x!tt.ptr<f32>> loc(#loc8)
    %10 = tt.splat %arg1 : !tt.ptr<f32> -> tensor<1024x!tt.ptr<f32>> loc(#loc9)
    %11 = tt.addptr %10, %4 : tensor<1024x!tt.ptr<f32>>, tensor<1024xi32> loc(#loc9)
    %12 = tt.load %11, %6 : tensor<1024x!tt.ptr<f32>> loc(#loc10)
    %13 = arith.addf %9, %12 : tensor<1024xf32> loc(#loc11)
    %14 = tt.splat %arg2 : !tt.ptr<f32> -> tensor<1024x!tt.ptr<f32>> loc(#loc12)
    %15 = tt.addptr %14, %4 : tensor<1024x!tt.ptr<f32>>, tensor<1024xi32> loc(#loc12)
    tt.store %15, %13, %6 : tensor<1024x!tt.ptr<f32>> loc(#loc13)
    tt.return loc(#loc14)
  } loc(#loc)
} loc(#loc)
#loc1 = loc(unknown)
#loc2 = loc("/home/arshadm/Workspace/projects/spinorml/venv/./src/vector_addition.py":19:24)
#loc3 = loc("/home/arshadm/Workspace/projects/spinorml/venv/./src/vector_addition.py":24:24)
#loc4 = loc("/home/arshadm/Workspace/projects/spinorml/venv/./src/vector_addition.py":25:41)
#loc5 = loc("/home/arshadm/Workspace/projects/spinorml/venv/./src/vector_addition.py":25:28)
#loc6 = loc("/home/arshadm/Workspace/projects/spinorml/venv/./src/vector_addition.py":27:21)
#loc7 = loc("/home/arshadm/Workspace/projects/spinorml/venv/./src/vector_addition.py":30:24)
#loc8 = loc("/home/arshadm/Workspace/projects/spinorml/venv/./src/vector_addition.py":30:16)
#loc9 = loc("/home/arshadm/Workspace/projects/spinorml/venv/./src/vector_addition.py":31:24)
#loc10 = loc("/home/arshadm/Workspace/projects/spinorml/venv/./src/vector_addition.py":31:16)
#loc11 = loc("/home/arshadm/Workspace/projects/spinorml/venv/./src/vector_addition.py":32:17)
#loc12 = loc("/home/arshadm/Workspace/projects/spinorml/venv/./src/vector_addition.py":34:26)
#loc13 = loc("/home/arshadm/Workspace/projects/spinorml/venv/./src/vector_addition.py":34:35)
#loc14 = loc("/home/arshadm/Workspace/projects/spinorml/venv/./src/vector_addition.py":34:4)


// -----// IR Dump Before CSE (cse) ('builtin.module' operation) //----- //
#loc = loc("/home/arshadm/Workspace/projects/spinorml/venv/./src/vector_addition.py":10:0)
module {
  tt.func public @add_kernel(%arg0: !tt.ptr<f32> {tt.divisibility = 16 : i32} loc("/home/arshadm/Workspace/projects/spinorml/venv/./src/vector_addition.py":10:0), %arg1: !tt.ptr<f32> {tt.divisibility = 16 : i32} loc("/home/arshadm/Workspace/projects/spinorml/venv/./src/vector_addition.py":10:0), %arg2: !tt.ptr<f32> {tt.divisibility = 16 : i32} loc("/home/arshadm/Workspace/projects/spinorml/venv/./src/vector_addition.py":10:0), %arg3: i32 {tt.divisibility = 16 : i32} loc("/home/arshadm/Workspace/projects/spinorml/venv/./src/vector_addition.py":10:0)) attributes {noinline = false} {
    %c1024_i32 = arith.constant 1024 : i32 loc(#loc1)
    %0 = tt.get_program_id x : i32 loc(#loc2)
    %1 = arith.muli %0, %c1024_i32 : i32 loc(#loc3)
    %2 = tt.make_range {end = 1024 : i32, start = 0 : i32} : tensor<1024xi32> loc(#loc4)
    %3 = tt.splat %1 : i32 -> tensor<1024xi32> loc(#loc5)
    %4 = arith.addi %3, %2 : tensor<1024xi32> loc(#loc5)
    %5 = tt.splat %arg3 : i32 -> tensor<1024xi32> loc(#loc6)
    %6 = arith.cmpi slt, %4, %5 : tensor<1024xi32> loc(#loc6)
    %7 = tt.splat %arg0 : !tt.ptr<f32> -> tensor<1024x!tt.ptr<f32>> loc(#loc7)
    %8 = tt.addptr %7, %4 : tensor<1024x!tt.ptr<f32>>, tensor<1024xi32> loc(#loc7)
    %9 = tt.load %8, %6 : tensor<1024x!tt.ptr<f32>> loc(#loc8)
    %10 = tt.splat %arg1 : !tt.ptr<f32> -> tensor<1024x!tt.ptr<f32>> loc(#loc9)
    %11 = tt.addptr %10, %4 : tensor<1024x!tt.ptr<f32>>, tensor<1024xi32> loc(#loc9)
    %12 = tt.load %11, %6 : tensor<1024x!tt.ptr<f32>> loc(#loc10)
    %13 = arith.addf %9, %12 : tensor<1024xf32> loc(#loc11)
    %14 = tt.splat %arg2 : !tt.ptr<f32> -> tensor<1024x!tt.ptr<f32>> loc(#loc12)
    %15 = tt.addptr %14, %4 : tensor<1024x!tt.ptr<f32>>, tensor<1024xi32> loc(#loc12)
    tt.store %15, %13, %6 : tensor<1024x!tt.ptr<f32>> loc(#loc13)
    tt.return loc(#loc14)
  } loc(#loc)
} loc(#loc)
#loc1 = loc(unknown)
#loc2 = loc("/home/arshadm/Workspace/projects/spinorml/venv/./src/vector_addition.py":19:24)
#loc3 = loc("/home/arshadm/Workspace/projects/spinorml/venv/./src/vector_addition.py":24:24)
#loc4 = loc("/home/arshadm/Workspace/projects/spinorml/venv/./src/vector_addition.py":25:41)
#loc5 = loc("/home/arshadm/Workspace/projects/spinorml/venv/./src/vector_addition.py":25:28)
#loc6 = loc("/home/arshadm/Workspace/projects/spinorml/venv/./src/vector_addition.py":27:21)
#loc7 = loc("/home/arshadm/Workspace/projects/spinorml/venv/./src/vector_addition.py":30:24)
#loc8 = loc("/home/arshadm/Workspace/projects/spinorml/venv/./src/vector_addition.py":30:16)
#loc9 = loc("/home/arshadm/Workspace/projects/spinorml/venv/./src/vector_addition.py":31:24)
#loc10 = loc("/home/arshadm/Workspace/projects/spinorml/venv/./src/vector_addition.py":31:16)
#loc11 = loc("/home/arshadm/Workspace/projects/spinorml/venv/./src/vector_addition.py":32:17)
#loc12 = loc("/home/arshadm/Workspace/projects/spinorml/venv/./src/vector_addition.py":34:26)
#loc13 = loc("/home/arshadm/Workspace/projects/spinorml/venv/./src/vector_addition.py":34:35)
#loc14 = loc("/home/arshadm/Workspace/projects/spinorml/venv/./src/vector_addition.py":34:4)


// -----// IR Dump Before SymbolDCE (symbol-dce) ('builtin.module' operation) //----- //
#loc = loc("/home/arshadm/Workspace/projects/spinorml/venv/./src/vector_addition.py":10:0)
module {
  tt.func public @add_kernel(%arg0: !tt.ptr<f32> {tt.divisibility = 16 : i32} loc("/home/arshadm/Workspace/projects/spinorml/venv/./src/vector_addition.py":10:0), %arg1: !tt.ptr<f32> {tt.divisibility = 16 : i32} loc("/home/arshadm/Workspace/projects/spinorml/venv/./src/vector_addition.py":10:0), %arg2: !tt.ptr<f32> {tt.divisibility = 16 : i32} loc("/home/arshadm/Workspace/projects/spinorml/venv/./src/vector_addition.py":10:0), %arg3: i32 {tt.divisibility = 16 : i32} loc("/home/arshadm/Workspace/projects/spinorml/venv/./src/vector_addition.py":10:0)) attributes {noinline = false} {
    %c1024_i32 = arith.constant 1024 : i32 loc(#loc1)
    %0 = tt.get_program_id x : i32 loc(#loc2)
    %1 = arith.muli %0, %c1024_i32 : i32 loc(#loc3)
    %2 = tt.make_range {end = 1024 : i32, start = 0 : i32} : tensor<1024xi32> loc(#loc4)
    %3 = tt.splat %1 : i32 -> tensor<1024xi32> loc(#loc5)
    %4 = arith.addi %3, %2 : tensor<1024xi32> loc(#loc5)
    %5 = tt.splat %arg3 : i32 -> tensor<1024xi32> loc(#loc6)
    %6 = arith.cmpi slt, %4, %5 : tensor<1024xi32> loc(#loc6)
    %7 = tt.splat %arg0 : !tt.ptr<f32> -> tensor<1024x!tt.ptr<f32>> loc(#loc7)
    %8 = tt.addptr %7, %4 : tensor<1024x!tt.ptr<f32>>, tensor<1024xi32> loc(#loc7)
    %9 = tt.load %8, %6 : tensor<1024x!tt.ptr<f32>> loc(#loc8)
    %10 = tt.splat %arg1 : !tt.ptr<f32> -> tensor<1024x!tt.ptr<f32>> loc(#loc9)
    %11 = tt.addptr %10, %4 : tensor<1024x!tt.ptr<f32>>, tensor<1024xi32> loc(#loc9)
    %12 = tt.load %11, %6 : tensor<1024x!tt.ptr<f32>> loc(#loc10)
    %13 = arith.addf %9, %12 : tensor<1024xf32> loc(#loc11)
    %14 = tt.splat %arg2 : !tt.ptr<f32> -> tensor<1024x!tt.ptr<f32>> loc(#loc12)
    %15 = tt.addptr %14, %4 : tensor<1024x!tt.ptr<f32>>, tensor<1024xi32> loc(#loc12)
    tt.store %15, %13, %6 : tensor<1024x!tt.ptr<f32>> loc(#loc13)
    tt.return loc(#loc14)
  } loc(#loc)
} loc(#loc)
#loc1 = loc(unknown)
#loc2 = loc("/home/arshadm/Workspace/projects/spinorml/venv/./src/vector_addition.py":19:24)
#loc3 = loc("/home/arshadm/Workspace/projects/spinorml/venv/./src/vector_addition.py":24:24)
#loc4 = loc("/home/arshadm/Workspace/projects/spinorml/venv/./src/vector_addition.py":25:41)
#loc5 = loc("/home/arshadm/Workspace/projects/spinorml/venv/./src/vector_addition.py":25:28)
#loc6 = loc("/home/arshadm/Workspace/projects/spinorml/venv/./src/vector_addition.py":27:21)
#loc7 = loc("/home/arshadm/Workspace/projects/spinorml/venv/./src/vector_addition.py":30:24)
#loc8 = loc("/home/arshadm/Workspace/projects/spinorml/venv/./src/vector_addition.py":30:16)
#loc9 = loc("/home/arshadm/Workspace/projects/spinorml/venv/./src/vector_addition.py":31:24)
#loc10 = loc("/home/arshadm/Workspace/projects/spinorml/venv/./src/vector_addition.py":31:16)
#loc11 = loc("/home/arshadm/Workspace/projects/spinorml/venv/./src/vector_addition.py":32:17)
#loc12 = loc("/home/arshadm/Workspace/projects/spinorml/venv/./src/vector_addition.py":34:26)
#loc13 = loc("/home/arshadm/Workspace/projects/spinorml/venv/./src/vector_addition.py":34:35)
#loc14 = loc("/home/arshadm/Workspace/projects/spinorml/venv/./src/vector_addition.py":34:4)


// -----// IR Dump Before TritonLoopUnroll (triton-loop-unroll) ('builtin.module' operation) //----- //
#loc = loc("/home/arshadm/Workspace/projects/spinorml/venv/./src/vector_addition.py":10:0)
module {
  tt.func public @add_kernel(%arg0: !tt.ptr<f32> {tt.divisibility = 16 : i32} loc("/home/arshadm/Workspace/projects/spinorml/venv/./src/vector_addition.py":10:0), %arg1: !tt.ptr<f32> {tt.divisibility = 16 : i32} loc("/home/arshadm/Workspace/projects/spinorml/venv/./src/vector_addition.py":10:0), %arg2: !tt.ptr<f32> {tt.divisibility = 16 : i32} loc("/home/arshadm/Workspace/projects/spinorml/venv/./src/vector_addition.py":10:0), %arg3: i32 {tt.divisibility = 16 : i32} loc("/home/arshadm/Workspace/projects/spinorml/venv/./src/vector_addition.py":10:0)) attributes {noinline = false} {
    %c1024_i32 = arith.constant 1024 : i32 loc(#loc1)
    %0 = tt.get_program_id x : i32 loc(#loc2)
    %1 = arith.muli %0, %c1024_i32 : i32 loc(#loc3)
    %2 = tt.make_range {end = 1024 : i32, start = 0 : i32} : tensor<1024xi32> loc(#loc4)
    %3 = tt.splat %1 : i32 -> tensor<1024xi32> loc(#loc5)
    %4 = arith.addi %3, %2 : tensor<1024xi32> loc(#loc5)
    %5 = tt.splat %arg3 : i32 -> tensor<1024xi32> loc(#loc6)
    %6 = arith.cmpi slt, %4, %5 : tensor<1024xi32> loc(#loc6)
    %7 = tt.splat %arg0 : !tt.ptr<f32> -> tensor<1024x!tt.ptr<f32>> loc(#loc7)
    %8 = tt.addptr %7, %4 : tensor<1024x!tt.ptr<f32>>, tensor<1024xi32> loc(#loc7)
    %9 = tt.load %8, %6 : tensor<1024x!tt.ptr<f32>> loc(#loc8)
    %10 = tt.splat %arg1 : !tt.ptr<f32> -> tensor<1024x!tt.ptr<f32>> loc(#loc9)
    %11 = tt.addptr %10, %4 : tensor<1024x!tt.ptr<f32>>, tensor<1024xi32> loc(#loc9)
    %12 = tt.load %11, %6 : tensor<1024x!tt.ptr<f32>> loc(#loc10)
    %13 = arith.addf %9, %12 : tensor<1024xf32> loc(#loc11)
    %14 = tt.splat %arg2 : !tt.ptr<f32> -> tensor<1024x!tt.ptr<f32>> loc(#loc12)
    %15 = tt.addptr %14, %4 : tensor<1024x!tt.ptr<f32>>, tensor<1024xi32> loc(#loc12)
    tt.store %15, %13, %6 : tensor<1024x!tt.ptr<f32>> loc(#loc13)
    tt.return loc(#loc14)
  } loc(#loc)
} loc(#loc)
#loc1 = loc(unknown)
#loc2 = loc("/home/arshadm/Workspace/projects/spinorml/venv/./src/vector_addition.py":19:24)
#loc3 = loc("/home/arshadm/Workspace/projects/spinorml/venv/./src/vector_addition.py":24:24)
#loc4 = loc("/home/arshadm/Workspace/projects/spinorml/venv/./src/vector_addition.py":25:41)
#loc5 = loc("/home/arshadm/Workspace/projects/spinorml/venv/./src/vector_addition.py":25:28)
#loc6 = loc("/home/arshadm/Workspace/projects/spinorml/venv/./src/vector_addition.py":27:21)
#loc7 = loc("/home/arshadm/Workspace/projects/spinorml/venv/./src/vector_addition.py":30:24)
#loc8 = loc("/home/arshadm/Workspace/projects/spinorml/venv/./src/vector_addition.py":30:16)
#loc9 = loc("/home/arshadm/Workspace/projects/spinorml/venv/./src/vector_addition.py":31:24)
#loc10 = loc("/home/arshadm/Workspace/projects/spinorml/venv/./src/vector_addition.py":31:16)
#loc11 = loc("/home/arshadm/Workspace/projects/spinorml/venv/./src/vector_addition.py":32:17)
#loc12 = loc("/home/arshadm/Workspace/projects/spinorml/venv/./src/vector_addition.py":34:26)
#loc13 = loc("/home/arshadm/Workspace/projects/spinorml/venv/./src/vector_addition.py":34:35)
#loc14 = loc("/home/arshadm/Workspace/projects/spinorml/venv/./src/vector_addition.py":34:4)


// -----// IR Dump Before ConvertTritonToTritonGPU (convert-triton-to-tritongpu) ('builtin.module' operation) //----- //
#loc = loc("/home/arshadm/Workspace/projects/spinorml/venv/./src/vector_addition.py":10:0)
module {
  tt.func public @add_kernel(%arg0: !tt.ptr<f32> {tt.divisibility = 16 : i32} loc("/home/arshadm/Workspace/projects/spinorml/venv/./src/vector_addition.py":10:0), %arg1: !tt.ptr<f32> {tt.divisibility = 16 : i32} loc("/home/arshadm/Workspace/projects/spinorml/venv/./src/vector_addition.py":10:0), %arg2: !tt.ptr<f32> {tt.divisibility = 16 : i32} loc("/home/arshadm/Workspace/projects/spinorml/venv/./src/vector_addition.py":10:0), %arg3: i32 {tt.divisibility = 16 : i32} loc("/home/arshadm/Workspace/projects/spinorml/venv/./src/vector_addition.py":10:0)) attributes {noinline = false} {
    %c1024_i32 = arith.constant 1024 : i32 loc(#loc1)
    %0 = tt.get_program_id x : i32 loc(#loc2)
    %1 = arith.muli %0, %c1024_i32 : i32 loc(#loc3)
    %2 = tt.make_range {end = 1024 : i32, start = 0 : i32} : tensor<1024xi32> loc(#loc4)
    %3 = tt.splat %1 : i32 -> tensor<1024xi32> loc(#loc5)
    %4 = arith.addi %3, %2 : tensor<1024xi32> loc(#loc5)
    %5 = tt.splat %arg3 : i32 -> tensor<1024xi32> loc(#loc6)
    %6 = arith.cmpi slt, %4, %5 : tensor<1024xi32> loc(#loc6)
    %7 = tt.splat %arg0 : !tt.ptr<f32> -> tensor<1024x!tt.ptr<f32>> loc(#loc7)
    %8 = tt.addptr %7, %4 : tensor<1024x!tt.ptr<f32>>, tensor<1024xi32> loc(#loc7)
    %9 = tt.load %8, %6 : tensor<1024x!tt.ptr<f32>> loc(#loc8)
    %10 = tt.splat %arg1 : !tt.ptr<f32> -> tensor<1024x!tt.ptr<f32>> loc(#loc9)
    %11 = tt.addptr %10, %4 : tensor<1024x!tt.ptr<f32>>, tensor<1024xi32> loc(#loc9)
    %12 = tt.load %11, %6 : tensor<1024x!tt.ptr<f32>> loc(#loc10)
    %13 = arith.addf %9, %12 : tensor<1024xf32> loc(#loc11)
    %14 = tt.splat %arg2 : !tt.ptr<f32> -> tensor<1024x!tt.ptr<f32>> loc(#loc12)
    %15 = tt.addptr %14, %4 : tensor<1024x!tt.ptr<f32>>, tensor<1024xi32> loc(#loc12)
    tt.store %15, %13, %6 : tensor<1024x!tt.ptr<f32>> loc(#loc13)
    tt.return loc(#loc14)
  } loc(#loc)
} loc(#loc)
#loc1 = loc(unknown)
#loc2 = loc("/home/arshadm/Workspace/projects/spinorml/venv/./src/vector_addition.py":19:24)
#loc3 = loc("/home/arshadm/Workspace/projects/spinorml/venv/./src/vector_addition.py":24:24)
#loc4 = loc("/home/arshadm/Workspace/projects/spinorml/venv/./src/vector_addition.py":25:41)
#loc5 = loc("/home/arshadm/Workspace/projects/spinorml/venv/./src/vector_addition.py":25:28)
#loc6 = loc("/home/arshadm/Workspace/projects/spinorml/venv/./src/vector_addition.py":27:21)
#loc7 = loc("/home/arshadm/Workspace/projects/spinorml/venv/./src/vector_addition.py":30:24)
#loc8 = loc("/home/arshadm/Workspace/projects/spinorml/venv/./src/vector_addition.py":30:16)
#loc9 = loc("/home/arshadm/Workspace/projects/spinorml/venv/./src/vector_addition.py":31:24)
#loc10 = loc("/home/arshadm/Workspace/projects/spinorml/venv/./src/vector_addition.py":31:16)
#loc11 = loc("/home/arshadm/Workspace/projects/spinorml/venv/./src/vector_addition.py":32:17)
#loc12 = loc("/home/arshadm/Workspace/projects/spinorml/venv/./src/vector_addition.py":34:26)
#loc13 = loc("/home/arshadm/Workspace/projects/spinorml/venv/./src/vector_addition.py":34:35)
#loc14 = loc("/home/arshadm/Workspace/projects/spinorml/venv/./src/vector_addition.py":34:4)


// -----// IR Dump Before TritonGPUCoalesce (tritongpu-coalesce) ('builtin.module' operation) //----- //
#blocked = #ttg.blocked<{sizePerThread = [1], threadsPerWarp = [32], warpsPerCTA = [4], order = [0]}>
#loc = loc("/home/arshadm/Workspace/projects/spinorml/venv/./src/vector_addition.py":10:0)
module attributes {"ttg.num-ctas" = 1 : i32, "ttg.num-warps" = 4 : i32, ttg.target = "cuda:61", "ttg.threads-per-warp" = 32 : i32} {
  tt.func public @add_kernel(%arg0: !tt.ptr<f32> {tt.divisibility = 16 : i32} loc("/home/arshadm/Workspace/projects/spinorml/venv/./src/vector_addition.py":10:0), %arg1: !tt.ptr<f32> {tt.divisibility = 16 : i32} loc("/home/arshadm/Workspace/projects/spinorml/venv/./src/vector_addition.py":10:0), %arg2: !tt.ptr<f32> {tt.divisibility = 16 : i32} loc("/home/arshadm/Workspace/projects/spinorml/venv/./src/vector_addition.py":10:0), %arg3: i32 {tt.divisibility = 16 : i32} loc("/home/arshadm/Workspace/projects/spinorml/venv/./src/vector_addition.py":10:0)) attributes {noinline = false} {
    %c1024_i32 = arith.constant 1024 : i32 loc(#loc1)
    %0 = tt.get_program_id x : i32 loc(#loc2)
    %1 = arith.muli %0, %c1024_i32 : i32 loc(#loc3)
    %2 = tt.make_range {end = 1024 : i32, start = 0 : i32} : tensor<1024xi32, #blocked> loc(#loc4)
    %3 = tt.splat %1 : i32 -> tensor<1024xi32, #blocked> loc(#loc5)
    %4 = arith.addi %3, %2 : tensor<1024xi32, #blocked> loc(#loc5)
    %5 = tt.splat %arg3 : i32 -> tensor<1024xi32, #blocked> loc(#loc6)
    %6 = arith.cmpi slt, %4, %5 : tensor<1024xi32, #blocked> loc(#loc6)
    %7 = tt.splat %arg0 : !tt.ptr<f32> -> tensor<1024x!tt.ptr<f32>, #blocked> loc(#loc7)
    %8 = tt.addptr %7, %4 : tensor<1024x!tt.ptr<f32>, #blocked>, tensor<1024xi32, #blocked> loc(#loc7)
    %9 = tt.load %8, %6 : tensor<1024x!tt.ptr<f32>, #blocked> loc(#loc8)
    %10 = tt.splat %arg1 : !tt.ptr<f32> -> tensor<1024x!tt.ptr<f32>, #blocked> loc(#loc9)
    %11 = tt.addptr %10, %4 : tensor<1024x!tt.ptr<f32>, #blocked>, tensor<1024xi32, #blocked> loc(#loc9)
    %12 = tt.load %11, %6 : tensor<1024x!tt.ptr<f32>, #blocked> loc(#loc10)
    %13 = arith.addf %9, %12 : tensor<1024xf32, #blocked> loc(#loc11)
    %14 = tt.splat %arg2 : !tt.ptr<f32> -> tensor<1024x!tt.ptr<f32>, #blocked> loc(#loc12)
    %15 = tt.addptr %14, %4 : tensor<1024x!tt.ptr<f32>, #blocked>, tensor<1024xi32, #blocked> loc(#loc12)
    tt.store %15, %13, %6 : tensor<1024x!tt.ptr<f32>, #blocked> loc(#loc13)
    tt.return loc(#loc14)
  } loc(#loc)
} loc(#loc)
#loc1 = loc(unknown)
#loc2 = loc("/home/arshadm/Workspace/projects/spinorml/venv/./src/vector_addition.py":19:24)
#loc3 = loc("/home/arshadm/Workspace/projects/spinorml/venv/./src/vector_addition.py":24:24)
#loc4 = loc("/home/arshadm/Workspace/projects/spinorml/venv/./src/vector_addition.py":25:41)
#loc5 = loc("/home/arshadm/Workspace/projects/spinorml/venv/./src/vector_addition.py":25:28)
#loc6 = loc("/home/arshadm/Workspace/projects/spinorml/venv/./src/vector_addition.py":27:21)
#loc7 = loc("/home/arshadm/Workspace/projects/spinorml/venv/./src/vector_addition.py":30:24)
#loc8 = loc("/home/arshadm/Workspace/projects/spinorml/venv/./src/vector_addition.py":30:16)
#loc9 = loc("/home/arshadm/Workspace/projects/spinorml/venv/./src/vector_addition.py":31:24)
#loc10 = loc("/home/arshadm/Workspace/projects/spinorml/venv/./src/vector_addition.py":31:16)
#loc11 = loc("/home/arshadm/Workspace/projects/spinorml/venv/./src/vector_addition.py":32:17)
#loc12 = loc("/home/arshadm/Workspace/projects/spinorml/venv/./src/vector_addition.py":34:26)
#loc13 = loc("/home/arshadm/Workspace/projects/spinorml/venv/./src/vector_addition.py":34:35)
#loc14 = loc("/home/arshadm/Workspace/projects/spinorml/venv/./src/vector_addition.py":34:4)


// -----// IR Dump Before TritonGPUPlanCTAPass (triton-nvidia-gpu-plan-cta) ('builtin.module' operation) //----- //
#blocked = #ttg.blocked<{sizePerThread = [1], threadsPerWarp = [32], warpsPerCTA = [4], order = [0]}>
#blocked1 = #ttg.blocked<{sizePerThread = [4], threadsPerWarp = [32], warpsPerCTA = [4], order = [0]}>
#loc = loc("/home/arshadm/Workspace/projects/spinorml/venv/./src/vector_addition.py":10:0)
module attributes {"ttg.num-ctas" = 1 : i32, "ttg.num-warps" = 4 : i32, ttg.target = "cuda:61", "ttg.threads-per-warp" = 32 : i32} {
  tt.func public @add_kernel(%arg0: !tt.ptr<f32> {tt.divisibility = 16 : i32} loc("/home/arshadm/Workspace/projects/spinorml/venv/./src/vector_addition.py":10:0), %arg1: !tt.ptr<f32> {tt.divisibility = 16 : i32} loc("/home/arshadm/Workspace/projects/spinorml/venv/./src/vector_addition.py":10:0), %arg2: !tt.ptr<f32> {tt.divisibility = 16 : i32} loc("/home/arshadm/Workspace/projects/spinorml/venv/./src/vector_addition.py":10:0), %arg3: i32 {tt.divisibility = 16 : i32} loc("/home/arshadm/Workspace/projects/spinorml/venv/./src/vector_addition.py":10:0)) attributes {noinline = false} {
    %c1024_i32 = arith.constant 1024 : i32 loc(#loc1)
    %0 = tt.get_program_id x : i32 loc(#loc2)
    %1 = arith.muli %0, %c1024_i32 : i32 loc(#loc3)
    %2 = tt.make_range {end = 1024 : i32, start = 0 : i32} : tensor<1024xi32, #blocked> loc(#loc4)
    %3 = tt.splat %1 : i32 -> tensor<1024xi32, #blocked> loc(#loc5)
    %4 = arith.addi %3, %2 : tensor<1024xi32, #blocked> loc(#loc5)
    %5 = tt.splat %arg3 : i32 -> tensor<1024xi32, #blocked> loc(#loc6)
    %6 = arith.cmpi slt, %4, %5 : tensor<1024xi32, #blocked> loc(#loc6)
    %7 = tt.splat %arg0 : !tt.ptr<f32> -> tensor<1024x!tt.ptr<f32>, #blocked> loc(#loc7)
    %8 = tt.addptr %7, %4 : tensor<1024x!tt.ptr<f32>, #blocked>, tensor<1024xi32, #blocked> loc(#loc7)
    %9 = ttg.convert_layout %8 : tensor<1024x!tt.ptr<f32>, #blocked> -> tensor<1024x!tt.ptr<f32>, #blocked1> loc(#loc8)
    %10 = ttg.convert_layout %6 : tensor<1024xi1, #blocked> -> tensor<1024xi1, #blocked1> loc(#loc8)
    %11 = tt.load %9, %10 : tensor<1024x!tt.ptr<f32>, #blocked1> loc(#loc8)
    %12 = ttg.convert_layout %11 : tensor<1024xf32, #blocked1> -> tensor<1024xf32, #blocked> loc(#loc8)
    %13 = tt.splat %arg1 : !tt.ptr<f32> -> tensor<1024x!tt.ptr<f32>, #blocked> loc(#loc9)
    %14 = tt.addptr %13, %4 : tensor<1024x!tt.ptr<f32>, #blocked>, tensor<1024xi32, #blocked> loc(#loc9)
    %15 = ttg.convert_layout %14 : tensor<1024x!tt.ptr<f32>, #blocked> -> tensor<1024x!tt.ptr<f32>, #blocked1> loc(#loc10)
    %16 = ttg.convert_layout %6 : tensor<1024xi1, #blocked> -> tensor<1024xi1, #blocked1> loc(#loc10)
    %17 = tt.load %15, %16 : tensor<1024x!tt.ptr<f32>, #blocked1> loc(#loc10)
    %18 = ttg.convert_layout %17 : tensor<1024xf32, #blocked1> -> tensor<1024xf32, #blocked> loc(#loc10)
    %19 = arith.addf %12, %18 : tensor<1024xf32, #blocked> loc(#loc11)
    %20 = tt.splat %arg2 : !tt.ptr<f32> -> tensor<1024x!tt.ptr<f32>, #blocked> loc(#loc12)
    %21 = tt.addptr %20, %4 : tensor<1024x!tt.ptr<f32>, #blocked>, tensor<1024xi32, #blocked> loc(#loc12)
    %22 = ttg.convert_layout %21 : tensor<1024x!tt.ptr<f32>, #blocked> -> tensor<1024x!tt.ptr<f32>, #blocked1> loc(#loc13)
    %23 = ttg.convert_layout %19 : tensor<1024xf32, #blocked> -> tensor<1024xf32, #blocked1> loc(#loc13)
    %24 = ttg.convert_layout %6 : tensor<1024xi1, #blocked> -> tensor<1024xi1, #blocked1> loc(#loc13)
    tt.store %22, %23, %24 : tensor<1024x!tt.ptr<f32>, #blocked1> loc(#loc13)
    tt.return loc(#loc14)
  } loc(#loc)
} loc(#loc)
#loc1 = loc(unknown)
#loc2 = loc("/home/arshadm/Workspace/projects/spinorml/venv/./src/vector_addition.py":19:24)
#loc3 = loc("/home/arshadm/Workspace/projects/spinorml/venv/./src/vector_addition.py":24:24)
#loc4 = loc("/home/arshadm/Workspace/projects/spinorml/venv/./src/vector_addition.py":25:41)
#loc5 = loc("/home/arshadm/Workspace/projects/spinorml/venv/./src/vector_addition.py":25:28)
#loc6 = loc("/home/arshadm/Workspace/projects/spinorml/venv/./src/vector_addition.py":27:21)
#loc7 = loc("/home/arshadm/Workspace/projects/spinorml/venv/./src/vector_addition.py":30:24)
#loc8 = loc("/home/arshadm/Workspace/projects/spinorml/venv/./src/vector_addition.py":30:16)
#loc9 = loc("/home/arshadm/Workspace/projects/spinorml/venv/./src/vector_addition.py":31:24)
#loc10 = loc("/home/arshadm/Workspace/projects/spinorml/venv/./src/vector_addition.py":31:16)
#loc11 = loc("/home/arshadm/Workspace/projects/spinorml/venv/./src/vector_addition.py":32:17)
#loc12 = loc("/home/arshadm/Workspace/projects/spinorml/venv/./src/vector_addition.py":34:26)
#loc13 = loc("/home/arshadm/Workspace/projects/spinorml/venv/./src/vector_addition.py":34:35)
#loc14 = loc("/home/arshadm/Workspace/projects/spinorml/venv/./src/vector_addition.py":34:4)


// -----// IR Dump Before TritonGPURemoveLayoutConversions (tritongpu-remove-layout-conversions) ('builtin.module' operation) //----- //
#blocked = #ttg.blocked<{sizePerThread = [1], threadsPerWarp = [32], warpsPerCTA = [4], order = [0]}>
#blocked1 = #ttg.blocked<{sizePerThread = [4], threadsPerWarp = [32], warpsPerCTA = [4], order = [0]}>
#loc = loc("/home/arshadm/Workspace/projects/spinorml/venv/./src/vector_addition.py":10:0)
module attributes {"ttg.num-ctas" = 1 : i32, "ttg.num-warps" = 4 : i32, ttg.target = "cuda:61", "ttg.threads-per-warp" = 32 : i32} {
  tt.func public @add_kernel(%arg0: !tt.ptr<f32> {tt.divisibility = 16 : i32} loc("/home/arshadm/Workspace/projects/spinorml/venv/./src/vector_addition.py":10:0), %arg1: !tt.ptr<f32> {tt.divisibility = 16 : i32} loc("/home/arshadm/Workspace/projects/spinorml/venv/./src/vector_addition.py":10:0), %arg2: !tt.ptr<f32> {tt.divisibility = 16 : i32} loc("/home/arshadm/Workspace/projects/spinorml/venv/./src/vector_addition.py":10:0), %arg3: i32 {tt.divisibility = 16 : i32} loc("/home/arshadm/Workspace/projects/spinorml/venv/./src/vector_addition.py":10:0)) attributes {noinline = false} {
    %c1024_i32 = arith.constant 1024 : i32 loc(#loc1)
    %0 = tt.get_program_id x : i32 loc(#loc2)
    %1 = arith.muli %0, %c1024_i32 : i32 loc(#loc3)
    %2 = tt.make_range {end = 1024 : i32, start = 0 : i32} : tensor<1024xi32, #blocked> loc(#loc4)
    %3 = tt.splat %1 : i32 -> tensor<1024xi32, #blocked> loc(#loc5)
    %4 = arith.addi %3, %2 : tensor<1024xi32, #blocked> loc(#loc5)
    %5 = tt.splat %arg3 : i32 -> tensor<1024xi32, #blocked> loc(#loc6)
    %6 = arith.cmpi slt, %4, %5 : tensor<1024xi32, #blocked> loc(#loc6)
    %7 = tt.splat %arg0 : !tt.ptr<f32> -> tensor<1024x!tt.ptr<f32>, #blocked> loc(#loc7)
    %8 = tt.addptr %7, %4 : tensor<1024x!tt.ptr<f32>, #blocked>, tensor<1024xi32, #blocked> loc(#loc7)
    %9 = ttg.convert_layout %8 : tensor<1024x!tt.ptr<f32>, #blocked> -> tensor<1024x!tt.ptr<f32>, #blocked1> loc(#loc8)
    %10 = ttg.convert_layout %6 : tensor<1024xi1, #blocked> -> tensor<1024xi1, #blocked1> loc(#loc8)
    %11 = tt.load %9, %10 : tensor<1024x!tt.ptr<f32>, #blocked1> loc(#loc8)
    %12 = ttg.convert_layout %11 : tensor<1024xf32, #blocked1> -> tensor<1024xf32, #blocked> loc(#loc8)
    %13 = tt.splat %arg1 : !tt.ptr<f32> -> tensor<1024x!tt.ptr<f32>, #blocked> loc(#loc9)
    %14 = tt.addptr %13, %4 : tensor<1024x!tt.ptr<f32>, #blocked>, tensor<1024xi32, #blocked> loc(#loc9)
    %15 = ttg.convert_layout %14 : tensor<1024x!tt.ptr<f32>, #blocked> -> tensor<1024x!tt.ptr<f32>, #blocked1> loc(#loc10)
    %16 = ttg.convert_layout %6 : tensor<1024xi1, #blocked> -> tensor<1024xi1, #blocked1> loc(#loc10)
    %17 = tt.load %15, %16 : tensor<1024x!tt.ptr<f32>, #blocked1> loc(#loc10)
    %18 = ttg.convert_layout %17 : tensor<1024xf32, #blocked1> -> tensor<1024xf32, #blocked> loc(#loc10)
    %19 = arith.addf %12, %18 : tensor<1024xf32, #blocked> loc(#loc11)
    %20 = tt.splat %arg2 : !tt.ptr<f32> -> tensor<1024x!tt.ptr<f32>, #blocked> loc(#loc12)
    %21 = tt.addptr %20, %4 : tensor<1024x!tt.ptr<f32>, #blocked>, tensor<1024xi32, #blocked> loc(#loc12)
    %22 = ttg.convert_layout %21 : tensor<1024x!tt.ptr<f32>, #blocked> -> tensor<1024x!tt.ptr<f32>, #blocked1> loc(#loc13)
    %23 = ttg.convert_layout %19 : tensor<1024xf32, #blocked> -> tensor<1024xf32, #blocked1> loc(#loc13)
    %24 = ttg.convert_layout %6 : tensor<1024xi1, #blocked> -> tensor<1024xi1, #blocked1> loc(#loc13)
    tt.store %22, %23, %24 : tensor<1024x!tt.ptr<f32>, #blocked1> loc(#loc13)
    tt.return loc(#loc14)
  } loc(#loc)
} loc(#loc)
#loc1 = loc(unknown)
#loc2 = loc("/home/arshadm/Workspace/projects/spinorml/venv/./src/vector_addition.py":19:24)
#loc3 = loc("/home/arshadm/Workspace/projects/spinorml/venv/./src/vector_addition.py":24:24)
#loc4 = loc("/home/arshadm/Workspace/projects/spinorml/venv/./src/vector_addition.py":25:41)
#loc5 = loc("/home/arshadm/Workspace/projects/spinorml/venv/./src/vector_addition.py":25:28)
#loc6 = loc("/home/arshadm/Workspace/projects/spinorml/venv/./src/vector_addition.py":27:21)
#loc7 = loc("/home/arshadm/Workspace/projects/spinorml/venv/./src/vector_addition.py":30:24)
#loc8 = loc("/home/arshadm/Workspace/projects/spinorml/venv/./src/vector_addition.py":30:16)
#loc9 = loc("/home/arshadm/Workspace/projects/spinorml/venv/./src/vector_addition.py":31:24)
#loc10 = loc("/home/arshadm/Workspace/projects/spinorml/venv/./src/vector_addition.py":31:16)
#loc11 = loc("/home/arshadm/Workspace/projects/spinorml/venv/./src/vector_addition.py":32:17)
#loc12 = loc("/home/arshadm/Workspace/projects/spinorml/venv/./src/vector_addition.py":34:26)
#loc13 = loc("/home/arshadm/Workspace/projects/spinorml/venv/./src/vector_addition.py":34:35)
#loc14 = loc("/home/arshadm/Workspace/projects/spinorml/venv/./src/vector_addition.py":34:4)


// -----// IR Dump Before TritonGPUOptimizeThreadLocality (tritongpu-optimize-thread-locality) ('builtin.module' operation) //----- //
#blocked = #ttg.blocked<{sizePerThread = [4], threadsPerWarp = [32], warpsPerCTA = [4], order = [0]}>
#loc = loc("/home/arshadm/Workspace/projects/spinorml/venv/./src/vector_addition.py":10:0)
module attributes {"ttg.num-ctas" = 1 : i32, "ttg.num-warps" = 4 : i32, ttg.target = "cuda:61", "ttg.threads-per-warp" = 32 : i32} {
  tt.func public @add_kernel(%arg0: !tt.ptr<f32> {tt.divisibility = 16 : i32} loc("/home/arshadm/Workspace/projects/spinorml/venv/./src/vector_addition.py":10:0), %arg1: !tt.ptr<f32> {tt.divisibility = 16 : i32} loc("/home/arshadm/Workspace/projects/spinorml/venv/./src/vector_addition.py":10:0), %arg2: !tt.ptr<f32> {tt.divisibility = 16 : i32} loc("/home/arshadm/Workspace/projects/spinorml/venv/./src/vector_addition.py":10:0), %arg3: i32 {tt.divisibility = 16 : i32} loc("/home/arshadm/Workspace/projects/spinorml/venv/./src/vector_addition.py":10:0)) attributes {noinline = false} {
    %c1024_i32 = arith.constant 1024 : i32 loc(#loc1)
    %0 = tt.get_program_id x : i32 loc(#loc2)
    %1 = arith.muli %0, %c1024_i32 : i32 loc(#loc3)
    %2 = tt.make_range {end = 1024 : i32, start = 0 : i32} : tensor<1024xi32, #blocked> loc(#loc4)
    %3 = tt.splat %1 : i32 -> tensor<1024xi32, #blocked> loc(#loc5)
    %4 = arith.addi %3, %2 : tensor<1024xi32, #blocked> loc(#loc5)
    %5 = tt.splat %arg3 : i32 -> tensor<1024xi32, #blocked> loc(#loc6)
    %6 = arith.cmpi slt, %4, %5 : tensor<1024xi32, #blocked> loc(#loc6)
    %7 = tt.splat %arg0 : !tt.ptr<f32> -> tensor<1024x!tt.ptr<f32>, #blocked> loc(#loc7)
    %8 = tt.addptr %7, %4 : tensor<1024x!tt.ptr<f32>, #blocked>, tensor<1024xi32, #blocked> loc(#loc7)
    %9 = tt.load %8, %6 : tensor<1024x!tt.ptr<f32>, #blocked> loc(#loc8)
    %10 = tt.splat %arg1 : !tt.ptr<f32> -> tensor<1024x!tt.ptr<f32>, #blocked> loc(#loc9)
    %11 = tt.addptr %10, %4 : tensor<1024x!tt.ptr<f32>, #blocked>, tensor<1024xi32, #blocked> loc(#loc9)
    %12 = tt.load %11, %6 : tensor<1024x!tt.ptr<f32>, #blocked> loc(#loc10)
    %13 = arith.addf %9, %12 : tensor<1024xf32, #blocked> loc(#loc11)
    %14 = tt.splat %arg2 : !tt.ptr<f32> -> tensor<1024x!tt.ptr<f32>, #blocked> loc(#loc12)
    %15 = tt.addptr %14, %4 : tensor<1024x!tt.ptr<f32>, #blocked>, tensor<1024xi32, #blocked> loc(#loc12)
    tt.store %15, %13, %6 : tensor<1024x!tt.ptr<f32>, #blocked> loc(#loc13)
    tt.return loc(#loc14)
  } loc(#loc)
} loc(#loc)
#loc1 = loc(unknown)
#loc2 = loc("/home/arshadm/Workspace/projects/spinorml/venv/./src/vector_addition.py":19:24)
#loc3 = loc("/home/arshadm/Workspace/projects/spinorml/venv/./src/vector_addition.py":24:24)
#loc4 = loc("/home/arshadm/Workspace/projects/spinorml/venv/./src/vector_addition.py":25:41)
#loc5 = loc("/home/arshadm/Workspace/projects/spinorml/venv/./src/vector_addition.py":25:28)
#loc6 = loc("/home/arshadm/Workspace/projects/spinorml/venv/./src/vector_addition.py":27:21)
#loc7 = loc("/home/arshadm/Workspace/projects/spinorml/venv/./src/vector_addition.py":30:24)
#loc8 = loc("/home/arshadm/Workspace/projects/spinorml/venv/./src/vector_addition.py":30:16)
#loc9 = loc("/home/arshadm/Workspace/projects/spinorml/venv/./src/vector_addition.py":31:24)
#loc10 = loc("/home/arshadm/Workspace/projects/spinorml/venv/./src/vector_addition.py":31:16)
#loc11 = loc("/home/arshadm/Workspace/projects/spinorml/venv/./src/vector_addition.py":32:17)
#loc12 = loc("/home/arshadm/Workspace/projects/spinorml/venv/./src/vector_addition.py":34:26)
#loc13 = loc("/home/arshadm/Workspace/projects/spinorml/venv/./src/vector_addition.py":34:35)
#loc14 = loc("/home/arshadm/Workspace/projects/spinorml/venv/./src/vector_addition.py":34:4)


// -----// IR Dump Before TritonGPUAccelerateMatmul (tritongpu-accelerate-matmul) ('builtin.module' operation) //----- //
#blocked = #ttg.blocked<{sizePerThread = [4], threadsPerWarp = [32], warpsPerCTA = [4], order = [0]}>
#loc = loc("/home/arshadm/Workspace/projects/spinorml/venv/./src/vector_addition.py":10:0)
module attributes {"ttg.num-ctas" = 1 : i32, "ttg.num-warps" = 4 : i32, ttg.target = "cuda:61", "ttg.threads-per-warp" = 32 : i32} {
  tt.func public @add_kernel(%arg0: !tt.ptr<f32> {tt.divisibility = 16 : i32} loc("/home/arshadm/Workspace/projects/spinorml/venv/./src/vector_addition.py":10:0), %arg1: !tt.ptr<f32> {tt.divisibility = 16 : i32} loc("/home/arshadm/Workspace/projects/spinorml/venv/./src/vector_addition.py":10:0), %arg2: !tt.ptr<f32> {tt.divisibility = 16 : i32} loc("/home/arshadm/Workspace/projects/spinorml/venv/./src/vector_addition.py":10:0), %arg3: i32 {tt.divisibility = 16 : i32} loc("/home/arshadm/Workspace/projects/spinorml/venv/./src/vector_addition.py":10:0)) attributes {noinline = false} {
    %c1024_i32 = arith.constant 1024 : i32 loc(#loc1)
    %0 = tt.get_program_id x : i32 loc(#loc2)
    %1 = arith.muli %0, %c1024_i32 : i32 loc(#loc3)
    %2 = tt.make_range {end = 1024 : i32, start = 0 : i32} : tensor<1024xi32, #blocked> loc(#loc4)
    %3 = tt.splat %1 : i32 -> tensor<1024xi32, #blocked> loc(#loc5)
    %4 = arith.addi %3, %2 : tensor<1024xi32, #blocked> loc(#loc5)
    %5 = tt.splat %arg3 : i32 -> tensor<1024xi32, #blocked> loc(#loc6)
    %6 = arith.cmpi slt, %4, %5 : tensor<1024xi32, #blocked> loc(#loc6)
    %7 = tt.splat %arg0 : !tt.ptr<f32> -> tensor<1024x!tt.ptr<f32>, #blocked> loc(#loc7)
    %8 = tt.addptr %7, %4 : tensor<1024x!tt.ptr<f32>, #blocked>, tensor<1024xi32, #blocked> loc(#loc7)
    %9 = tt.load %8, %6 : tensor<1024x!tt.ptr<f32>, #blocked> loc(#loc8)
    %10 = tt.splat %arg1 : !tt.ptr<f32> -> tensor<1024x!tt.ptr<f32>, #blocked> loc(#loc9)
    %11 = tt.addptr %10, %4 : tensor<1024x!tt.ptr<f32>, #blocked>, tensor<1024xi32, #blocked> loc(#loc9)
    %12 = tt.load %11, %6 : tensor<1024x!tt.ptr<f32>, #blocked> loc(#loc10)
    %13 = arith.addf %9, %12 : tensor<1024xf32, #blocked> loc(#loc11)
    %14 = tt.splat %arg2 : !tt.ptr<f32> -> tensor<1024x!tt.ptr<f32>, #blocked> loc(#loc12)
    %15 = tt.addptr %14, %4 : tensor<1024x!tt.ptr<f32>, #blocked>, tensor<1024xi32, #blocked> loc(#loc12)
    tt.store %15, %13, %6 : tensor<1024x!tt.ptr<f32>, #blocked> loc(#loc13)
    tt.return loc(#loc14)
  } loc(#loc)
} loc(#loc)
#loc1 = loc(unknown)
#loc2 = loc("/home/arshadm/Workspace/projects/spinorml/venv/./src/vector_addition.py":19:24)
#loc3 = loc("/home/arshadm/Workspace/projects/spinorml/venv/./src/vector_addition.py":24:24)
#loc4 = loc("/home/arshadm/Workspace/projects/spinorml/venv/./src/vector_addition.py":25:41)
#loc5 = loc("/home/arshadm/Workspace/projects/spinorml/venv/./src/vector_addition.py":25:28)
#loc6 = loc("/home/arshadm/Workspace/projects/spinorml/venv/./src/vector_addition.py":27:21)
#loc7 = loc("/home/arshadm/Workspace/projects/spinorml/venv/./src/vector_addition.py":30:24)
#loc8 = loc("/home/arshadm/Workspace/projects/spinorml/venv/./src/vector_addition.py":30:16)
#loc9 = loc("/home/arshadm/Workspace/projects/spinorml/venv/./src/vector_addition.py":31:24)
#loc10 = loc("/home/arshadm/Workspace/projects/spinorml/venv/./src/vector_addition.py":31:16)
#loc11 = loc("/home/arshadm/Workspace/projects/spinorml/venv/./src/vector_addition.py":32:17)
#loc12 = loc("/home/arshadm/Workspace/projects/spinorml/venv/./src/vector_addition.py":34:26)
#loc13 = loc("/home/arshadm/Workspace/projects/spinorml/venv/./src/vector_addition.py":34:35)
#loc14 = loc("/home/arshadm/Workspace/projects/spinorml/venv/./src/vector_addition.py":34:4)


// -----// IR Dump Before TritonGPURemoveLayoutConversions (tritongpu-remove-layout-conversions) ('builtin.module' operation) //----- //
#blocked = #ttg.blocked<{sizePerThread = [4], threadsPerWarp = [32], warpsPerCTA = [4], order = [0]}>
#loc = loc("/home/arshadm/Workspace/projects/spinorml/venv/./src/vector_addition.py":10:0)
module attributes {"ttg.num-ctas" = 1 : i32, "ttg.num-warps" = 4 : i32, ttg.target = "cuda:61", "ttg.threads-per-warp" = 32 : i32} {
  tt.func public @add_kernel(%arg0: !tt.ptr<f32> {tt.divisibility = 16 : i32} loc("/home/arshadm/Workspace/projects/spinorml/venv/./src/vector_addition.py":10:0), %arg1: !tt.ptr<f32> {tt.divisibility = 16 : i32} loc("/home/arshadm/Workspace/projects/spinorml/venv/./src/vector_addition.py":10:0), %arg2: !tt.ptr<f32> {tt.divisibility = 16 : i32} loc("/home/arshadm/Workspace/projects/spinorml/venv/./src/vector_addition.py":10:0), %arg3: i32 {tt.divisibility = 16 : i32} loc("/home/arshadm/Workspace/projects/spinorml/venv/./src/vector_addition.py":10:0)) attributes {noinline = false} {
    %c1024_i32 = arith.constant 1024 : i32 loc(#loc1)
    %0 = tt.get_program_id x : i32 loc(#loc2)
    %1 = arith.muli %0, %c1024_i32 : i32 loc(#loc3)
    %2 = tt.make_range {end = 1024 : i32, start = 0 : i32} : tensor<1024xi32, #blocked> loc(#loc4)
    %3 = tt.splat %1 : i32 -> tensor<1024xi32, #blocked> loc(#loc5)
    %4 = arith.addi %3, %2 : tensor<1024xi32, #blocked> loc(#loc5)
    %5 = tt.splat %arg3 : i32 -> tensor<1024xi32, #blocked> loc(#loc6)
    %6 = arith.cmpi slt, %4, %5 : tensor<1024xi32, #blocked> loc(#loc6)
    %7 = tt.splat %arg0 : !tt.ptr<f32> -> tensor<1024x!tt.ptr<f32>, #blocked> loc(#loc7)
    %8 = tt.addptr %7, %4 : tensor<1024x!tt.ptr<f32>, #blocked>, tensor<1024xi32, #blocked> loc(#loc7)
    %9 = tt.load %8, %6 : tensor<1024x!tt.ptr<f32>, #blocked> loc(#loc8)
    %10 = tt.splat %arg1 : !tt.ptr<f32> -> tensor<1024x!tt.ptr<f32>, #blocked> loc(#loc9)
    %11 = tt.addptr %10, %4 : tensor<1024x!tt.ptr<f32>, #blocked>, tensor<1024xi32, #blocked> loc(#loc9)
    %12 = tt.load %11, %6 : tensor<1024x!tt.ptr<f32>, #blocked> loc(#loc10)
    %13 = arith.addf %9, %12 : tensor<1024xf32, #blocked> loc(#loc11)
    %14 = tt.splat %arg2 : !tt.ptr<f32> -> tensor<1024x!tt.ptr<f32>, #blocked> loc(#loc12)
    %15 = tt.addptr %14, %4 : tensor<1024x!tt.ptr<f32>, #blocked>, tensor<1024xi32, #blocked> loc(#loc12)
    tt.store %15, %13, %6 : tensor<1024x!tt.ptr<f32>, #blocked> loc(#loc13)
    tt.return loc(#loc14)
  } loc(#loc)
} loc(#loc)
#loc1 = loc(unknown)
#loc2 = loc("/home/arshadm/Workspace/projects/spinorml/venv/./src/vector_addition.py":19:24)
#loc3 = loc("/home/arshadm/Workspace/projects/spinorml/venv/./src/vector_addition.py":24:24)
#loc4 = loc("/home/arshadm/Workspace/projects/spinorml/venv/./src/vector_addition.py":25:41)
#loc5 = loc("/home/arshadm/Workspace/projects/spinorml/venv/./src/vector_addition.py":25:28)
#loc6 = loc("/home/arshadm/Workspace/projects/spinorml/venv/./src/vector_addition.py":27:21)
#loc7 = loc("/home/arshadm/Workspace/projects/spinorml/venv/./src/vector_addition.py":30:24)
#loc8 = loc("/home/arshadm/Workspace/projects/spinorml/venv/./src/vector_addition.py":30:16)
#loc9 = loc("/home/arshadm/Workspace/projects/spinorml/venv/./src/vector_addition.py":31:24)
#loc10 = loc("/home/arshadm/Workspace/projects/spinorml/venv/./src/vector_addition.py":31:16)
#loc11 = loc("/home/arshadm/Workspace/projects/spinorml/venv/./src/vector_addition.py":32:17)
#loc12 = loc("/home/arshadm/Workspace/projects/spinorml/venv/./src/vector_addition.py":34:26)
#loc13 = loc("/home/arshadm/Workspace/projects/spinorml/venv/./src/vector_addition.py":34:35)
#loc14 = loc("/home/arshadm/Workspace/projects/spinorml/venv/./src/vector_addition.py":34:4)


// -----// IR Dump Before TritonGPUOptimizeDotOperands (tritongpu-optimize-dot-operands) ('builtin.module' operation) //----- //
#blocked = #ttg.blocked<{sizePerThread = [4], threadsPerWarp = [32], warpsPerCTA = [4], order = [0]}>
#loc = loc("/home/arshadm/Workspace/projects/spinorml/venv/./src/vector_addition.py":10:0)
module attributes {"ttg.num-ctas" = 1 : i32, "ttg.num-warps" = 4 : i32, ttg.target = "cuda:61", "ttg.threads-per-warp" = 32 : i32} {
  tt.func public @add_kernel(%arg0: !tt.ptr<f32> {tt.divisibility = 16 : i32} loc("/home/arshadm/Workspace/projects/spinorml/venv/./src/vector_addition.py":10:0), %arg1: !tt.ptr<f32> {tt.divisibility = 16 : i32} loc("/home/arshadm/Workspace/projects/spinorml/venv/./src/vector_addition.py":10:0), %arg2: !tt.ptr<f32> {tt.divisibility = 16 : i32} loc("/home/arshadm/Workspace/projects/spinorml/venv/./src/vector_addition.py":10:0), %arg3: i32 {tt.divisibility = 16 : i32} loc("/home/arshadm/Workspace/projects/spinorml/venv/./src/vector_addition.py":10:0)) attributes {noinline = false} {
    %c1024_i32 = arith.constant 1024 : i32 loc(#loc1)
    %0 = tt.get_program_id x : i32 loc(#loc2)
    %1 = arith.muli %0, %c1024_i32 : i32 loc(#loc3)
    %2 = tt.make_range {end = 1024 : i32, start = 0 : i32} : tensor<1024xi32, #blocked> loc(#loc4)
    %3 = tt.splat %1 : i32 -> tensor<1024xi32, #blocked> loc(#loc5)
    %4 = arith.addi %3, %2 : tensor<1024xi32, #blocked> loc(#loc5)
    %5 = tt.splat %arg3 : i32 -> tensor<1024xi32, #blocked> loc(#loc6)
    %6 = arith.cmpi slt, %4, %5 : tensor<1024xi32, #blocked> loc(#loc6)
    %7 = tt.splat %arg0 : !tt.ptr<f32> -> tensor<1024x!tt.ptr<f32>, #blocked> loc(#loc7)
    %8 = tt.addptr %7, %4 : tensor<1024x!tt.ptr<f32>, #blocked>, tensor<1024xi32, #blocked> loc(#loc7)
    %9 = tt.load %8, %6 : tensor<1024x!tt.ptr<f32>, #blocked> loc(#loc8)
    %10 = tt.splat %arg1 : !tt.ptr<f32> -> tensor<1024x!tt.ptr<f32>, #blocked> loc(#loc9)
    %11 = tt.addptr %10, %4 : tensor<1024x!tt.ptr<f32>, #blocked>, tensor<1024xi32, #blocked> loc(#loc9)
    %12 = tt.load %11, %6 : tensor<1024x!tt.ptr<f32>, #blocked> loc(#loc10)
    %13 = arith.addf %9, %12 : tensor<1024xf32, #blocked> loc(#loc11)
    %14 = tt.splat %arg2 : !tt.ptr<f32> -> tensor<1024x!tt.ptr<f32>, #blocked> loc(#loc12)
    %15 = tt.addptr %14, %4 : tensor<1024x!tt.ptr<f32>, #blocked>, tensor<1024xi32, #blocked> loc(#loc12)
    tt.store %15, %13, %6 : tensor<1024x!tt.ptr<f32>, #blocked> loc(#loc13)
    tt.return loc(#loc14)
  } loc(#loc)
} loc(#loc)
#loc1 = loc(unknown)
#loc2 = loc("/home/arshadm/Workspace/projects/spinorml/venv/./src/vector_addition.py":19:24)
#loc3 = loc("/home/arshadm/Workspace/projects/spinorml/venv/./src/vector_addition.py":24:24)
#loc4 = loc("/home/arshadm/Workspace/projects/spinorml/venv/./src/vector_addition.py":25:41)
#loc5 = loc("/home/arshadm/Workspace/projects/spinorml/venv/./src/vector_addition.py":25:28)
#loc6 = loc("/home/arshadm/Workspace/projects/spinorml/venv/./src/vector_addition.py":27:21)
#loc7 = loc("/home/arshadm/Workspace/projects/spinorml/venv/./src/vector_addition.py":30:24)
#loc8 = loc("/home/arshadm/Workspace/projects/spinorml/venv/./src/vector_addition.py":30:16)
#loc9 = loc("/home/arshadm/Workspace/projects/spinorml/venv/./src/vector_addition.py":31:24)
#loc10 = loc("/home/arshadm/Workspace/projects/spinorml/venv/./src/vector_addition.py":31:16)
#loc11 = loc("/home/arshadm/Workspace/projects/spinorml/venv/./src/vector_addition.py":32:17)
#loc12 = loc("/home/arshadm/Workspace/projects/spinorml/venv/./src/vector_addition.py":34:26)
#loc13 = loc("/home/arshadm/Workspace/projects/spinorml/venv/./src/vector_addition.py":34:35)
#loc14 = loc("/home/arshadm/Workspace/projects/spinorml/venv/./src/vector_addition.py":34:4)


// -----// IR Dump Before Canonicalizer (canonicalize) ('builtin.module' operation) //----- //
#blocked = #ttg.blocked<{sizePerThread = [4], threadsPerWarp = [32], warpsPerCTA = [4], order = [0]}>
#loc = loc("/home/arshadm/Workspace/projects/spinorml/venv/./src/vector_addition.py":10:0)
module attributes {"ttg.num-ctas" = 1 : i32, "ttg.num-warps" = 4 : i32, ttg.target = "cuda:61", "ttg.threads-per-warp" = 32 : i32} {
  tt.func public @add_kernel(%arg0: !tt.ptr<f32> {tt.divisibility = 16 : i32} loc("/home/arshadm/Workspace/projects/spinorml/venv/./src/vector_addition.py":10:0), %arg1: !tt.ptr<f32> {tt.divisibility = 16 : i32} loc("/home/arshadm/Workspace/projects/spinorml/venv/./src/vector_addition.py":10:0), %arg2: !tt.ptr<f32> {tt.divisibility = 16 : i32} loc("/home/arshadm/Workspace/projects/spinorml/venv/./src/vector_addition.py":10:0), %arg3: i32 {tt.divisibility = 16 : i32} loc("/home/arshadm/Workspace/projects/spinorml/venv/./src/vector_addition.py":10:0)) attributes {noinline = false} {
    %c1024_i32 = arith.constant 1024 : i32 loc(#loc1)
    %0 = tt.get_program_id x : i32 loc(#loc2)
    %1 = arith.muli %0, %c1024_i32 : i32 loc(#loc3)
    %2 = tt.make_range {end = 1024 : i32, start = 0 : i32} : tensor<1024xi32, #blocked> loc(#loc4)
    %3 = tt.splat %1 : i32 -> tensor<1024xi32, #blocked> loc(#loc5)
    %4 = arith.addi %3, %2 : tensor<1024xi32, #blocked> loc(#loc5)
    %5 = tt.splat %arg3 : i32 -> tensor<1024xi32, #blocked> loc(#loc6)
    %6 = arith.cmpi slt, %4, %5 : tensor<1024xi32, #blocked> loc(#loc6)
    %7 = tt.splat %arg0 : !tt.ptr<f32> -> tensor<1024x!tt.ptr<f32>, #blocked> loc(#loc7)
    %8 = tt.addptr %7, %4 : tensor<1024x!tt.ptr<f32>, #blocked>, tensor<1024xi32, #blocked> loc(#loc7)
    %9 = tt.load %8, %6 : tensor<1024x!tt.ptr<f32>, #blocked> loc(#loc8)
    %10 = tt.splat %arg1 : !tt.ptr<f32> -> tensor<1024x!tt.ptr<f32>, #blocked> loc(#loc9)
    %11 = tt.addptr %10, %4 : tensor<1024x!tt.ptr<f32>, #blocked>, tensor<1024xi32, #blocked> loc(#loc9)
    %12 = tt.load %11, %6 : tensor<1024x!tt.ptr<f32>, #blocked> loc(#loc10)
    %13 = arith.addf %9, %12 : tensor<1024xf32, #blocked> loc(#loc11)
    %14 = tt.splat %arg2 : !tt.ptr<f32> -> tensor<1024x!tt.ptr<f32>, #blocked> loc(#loc12)
    %15 = tt.addptr %14, %4 : tensor<1024x!tt.ptr<f32>, #blocked>, tensor<1024xi32, #blocked> loc(#loc12)
    tt.store %15, %13, %6 : tensor<1024x!tt.ptr<f32>, #blocked> loc(#loc13)
    tt.return loc(#loc14)
  } loc(#loc)
} loc(#loc)
#loc1 = loc(unknown)
#loc2 = loc("/home/arshadm/Workspace/projects/spinorml/venv/./src/vector_addition.py":19:24)
#loc3 = loc("/home/arshadm/Workspace/projects/spinorml/venv/./src/vector_addition.py":24:24)
#loc4 = loc("/home/arshadm/Workspace/projects/spinorml/venv/./src/vector_addition.py":25:41)
#loc5 = loc("/home/arshadm/Workspace/projects/spinorml/venv/./src/vector_addition.py":25:28)
#loc6 = loc("/home/arshadm/Workspace/projects/spinorml/venv/./src/vector_addition.py":27:21)
#loc7 = loc("/home/arshadm/Workspace/projects/spinorml/venv/./src/vector_addition.py":30:24)
#loc8 = loc("/home/arshadm/Workspace/projects/spinorml/venv/./src/vector_addition.py":30:16)
#loc9 = loc("/home/arshadm/Workspace/projects/spinorml/venv/./src/vector_addition.py":31:24)
#loc10 = loc("/home/arshadm/Workspace/projects/spinorml/venv/./src/vector_addition.py":31:16)
#loc11 = loc("/home/arshadm/Workspace/projects/spinorml/venv/./src/vector_addition.py":32:17)
#loc12 = loc("/home/arshadm/Workspace/projects/spinorml/venv/./src/vector_addition.py":34:26)
#loc13 = loc("/home/arshadm/Workspace/projects/spinorml/venv/./src/vector_addition.py":34:35)
#loc14 = loc("/home/arshadm/Workspace/projects/spinorml/venv/./src/vector_addition.py":34:4)


// -----// IR Dump Before CSE (cse) ('builtin.module' operation) //----- //
#blocked = #ttg.blocked<{sizePerThread = [4], threadsPerWarp = [32], warpsPerCTA = [4], order = [0]}>
#loc = loc("/home/arshadm/Workspace/projects/spinorml/venv/./src/vector_addition.py":10:0)
module attributes {"ttg.num-ctas" = 1 : i32, "ttg.num-warps" = 4 : i32, ttg.target = "cuda:61", "ttg.threads-per-warp" = 32 : i32} {
  tt.func public @add_kernel(%arg0: !tt.ptr<f32> {tt.divisibility = 16 : i32} loc("/home/arshadm/Workspace/projects/spinorml/venv/./src/vector_addition.py":10:0), %arg1: !tt.ptr<f32> {tt.divisibility = 16 : i32} loc("/home/arshadm/Workspace/projects/spinorml/venv/./src/vector_addition.py":10:0), %arg2: !tt.ptr<f32> {tt.divisibility = 16 : i32} loc("/home/arshadm/Workspace/projects/spinorml/venv/./src/vector_addition.py":10:0), %arg3: i32 {tt.divisibility = 16 : i32} loc("/home/arshadm/Workspace/projects/spinorml/venv/./src/vector_addition.py":10:0)) attributes {noinline = false} {
    %c1024_i32 = arith.constant 1024 : i32 loc(#loc1)
    %0 = tt.get_program_id x : i32 loc(#loc2)
    %1 = arith.muli %0, %c1024_i32 : i32 loc(#loc3)
    %2 = tt.make_range {end = 1024 : i32, start = 0 : i32} : tensor<1024xi32, #blocked> loc(#loc4)
    %3 = tt.splat %1 : i32 -> tensor<1024xi32, #blocked> loc(#loc5)
    %4 = arith.addi %3, %2 : tensor<1024xi32, #blocked> loc(#loc5)
    %5 = tt.splat %arg3 : i32 -> tensor<1024xi32, #blocked> loc(#loc6)
    %6 = arith.cmpi slt, %4, %5 : tensor<1024xi32, #blocked> loc(#loc6)
    %7 = tt.splat %arg0 : !tt.ptr<f32> -> tensor<1024x!tt.ptr<f32>, #blocked> loc(#loc7)
    %8 = tt.addptr %7, %4 : tensor<1024x!tt.ptr<f32>, #blocked>, tensor<1024xi32, #blocked> loc(#loc7)
    %9 = tt.load %8, %6 : tensor<1024x!tt.ptr<f32>, #blocked> loc(#loc8)
    %10 = tt.splat %arg1 : !tt.ptr<f32> -> tensor<1024x!tt.ptr<f32>, #blocked> loc(#loc9)
    %11 = tt.addptr %10, %4 : tensor<1024x!tt.ptr<f32>, #blocked>, tensor<1024xi32, #blocked> loc(#loc9)
    %12 = tt.load %11, %6 : tensor<1024x!tt.ptr<f32>, #blocked> loc(#loc10)
    %13 = arith.addf %9, %12 : tensor<1024xf32, #blocked> loc(#loc11)
    %14 = tt.splat %arg2 : !tt.ptr<f32> -> tensor<1024x!tt.ptr<f32>, #blocked> loc(#loc12)
    %15 = tt.addptr %14, %4 : tensor<1024x!tt.ptr<f32>, #blocked>, tensor<1024xi32, #blocked> loc(#loc12)
    tt.store %15, %13, %6 : tensor<1024x!tt.ptr<f32>, #blocked> loc(#loc13)
    tt.return loc(#loc14)
  } loc(#loc)
} loc(#loc)
#loc1 = loc(unknown)
#loc2 = loc("/home/arshadm/Workspace/projects/spinorml/venv/./src/vector_addition.py":19:24)
#loc3 = loc("/home/arshadm/Workspace/projects/spinorml/venv/./src/vector_addition.py":24:24)
#loc4 = loc("/home/arshadm/Workspace/projects/spinorml/venv/./src/vector_addition.py":25:41)
#loc5 = loc("/home/arshadm/Workspace/projects/spinorml/venv/./src/vector_addition.py":25:28)
#loc6 = loc("/home/arshadm/Workspace/projects/spinorml/venv/./src/vector_addition.py":27:21)
#loc7 = loc("/home/arshadm/Workspace/projects/spinorml/venv/./src/vector_addition.py":30:24)
#loc8 = loc("/home/arshadm/Workspace/projects/spinorml/venv/./src/vector_addition.py":30:16)
#loc9 = loc("/home/arshadm/Workspace/projects/spinorml/venv/./src/vector_addition.py":31:24)
#loc10 = loc("/home/arshadm/Workspace/projects/spinorml/venv/./src/vector_addition.py":31:16)
#loc11 = loc("/home/arshadm/Workspace/projects/spinorml/venv/./src/vector_addition.py":32:17)
#loc12 = loc("/home/arshadm/Workspace/projects/spinorml/venv/./src/vector_addition.py":34:26)
#loc13 = loc("/home/arshadm/Workspace/projects/spinorml/venv/./src/vector_addition.py":34:35)
#loc14 = loc("/home/arshadm/Workspace/projects/spinorml/venv/./src/vector_addition.py":34:4)


// -----// IR Dump Before LoopInvariantCodeMotion (loop-invariant-code-motion) ('builtin.module' operation) //----- //
#blocked = #ttg.blocked<{sizePerThread = [4], threadsPerWarp = [32], warpsPerCTA = [4], order = [0]}>
#loc = loc("/home/arshadm/Workspace/projects/spinorml/venv/./src/vector_addition.py":10:0)
module attributes {"ttg.num-ctas" = 1 : i32, "ttg.num-warps" = 4 : i32, ttg.target = "cuda:61", "ttg.threads-per-warp" = 32 : i32} {
  tt.func public @add_kernel(%arg0: !tt.ptr<f32> {tt.divisibility = 16 : i32} loc("/home/arshadm/Workspace/projects/spinorml/venv/./src/vector_addition.py":10:0), %arg1: !tt.ptr<f32> {tt.divisibility = 16 : i32} loc("/home/arshadm/Workspace/projects/spinorml/venv/./src/vector_addition.py":10:0), %arg2: !tt.ptr<f32> {tt.divisibility = 16 : i32} loc("/home/arshadm/Workspace/projects/spinorml/venv/./src/vector_addition.py":10:0), %arg3: i32 {tt.divisibility = 16 : i32} loc("/home/arshadm/Workspace/projects/spinorml/venv/./src/vector_addition.py":10:0)) attributes {noinline = false} {
    %c1024_i32 = arith.constant 1024 : i32 loc(#loc1)
    %0 = tt.get_program_id x : i32 loc(#loc2)
    %1 = arith.muli %0, %c1024_i32 : i32 loc(#loc3)
    %2 = tt.make_range {end = 1024 : i32, start = 0 : i32} : tensor<1024xi32, #blocked> loc(#loc4)
    %3 = tt.splat %1 : i32 -> tensor<1024xi32, #blocked> loc(#loc5)
    %4 = arith.addi %3, %2 : tensor<1024xi32, #blocked> loc(#loc5)
    %5 = tt.splat %arg3 : i32 -> tensor<1024xi32, #blocked> loc(#loc6)
    %6 = arith.cmpi slt, %4, %5 : tensor<1024xi32, #blocked> loc(#loc6)
    %7 = tt.splat %arg0 : !tt.ptr<f32> -> tensor<1024x!tt.ptr<f32>, #blocked> loc(#loc7)
    %8 = tt.addptr %7, %4 : tensor<1024x!tt.ptr<f32>, #blocked>, tensor<1024xi32, #blocked> loc(#loc7)
    %9 = tt.load %8, %6 : tensor<1024x!tt.ptr<f32>, #blocked> loc(#loc8)
    %10 = tt.splat %arg1 : !tt.ptr<f32> -> tensor<1024x!tt.ptr<f32>, #blocked> loc(#loc9)
    %11 = tt.addptr %10, %4 : tensor<1024x!tt.ptr<f32>, #blocked>, tensor<1024xi32, #blocked> loc(#loc9)
    %12 = tt.load %11, %6 : tensor<1024x!tt.ptr<f32>, #blocked> loc(#loc10)
    %13 = arith.addf %9, %12 : tensor<1024xf32, #blocked> loc(#loc11)
    %14 = tt.splat %arg2 : !tt.ptr<f32> -> tensor<1024x!tt.ptr<f32>, #blocked> loc(#loc12)
    %15 = tt.addptr %14, %4 : tensor<1024x!tt.ptr<f32>, #blocked>, tensor<1024xi32, #blocked> loc(#loc12)
    tt.store %15, %13, %6 : tensor<1024x!tt.ptr<f32>, #blocked> loc(#loc13)
    tt.return loc(#loc14)
  } loc(#loc)
} loc(#loc)
#loc1 = loc(unknown)
#loc2 = loc("/home/arshadm/Workspace/projects/spinorml/venv/./src/vector_addition.py":19:24)
#loc3 = loc("/home/arshadm/Workspace/projects/spinorml/venv/./src/vector_addition.py":24:24)
#loc4 = loc("/home/arshadm/Workspace/projects/spinorml/venv/./src/vector_addition.py":25:41)
#loc5 = loc("/home/arshadm/Workspace/projects/spinorml/venv/./src/vector_addition.py":25:28)
#loc6 = loc("/home/arshadm/Workspace/projects/spinorml/venv/./src/vector_addition.py":27:21)
#loc7 = loc("/home/arshadm/Workspace/projects/spinorml/venv/./src/vector_addition.py":30:24)
#loc8 = loc("/home/arshadm/Workspace/projects/spinorml/venv/./src/vector_addition.py":30:16)
#loc9 = loc("/home/arshadm/Workspace/projects/spinorml/venv/./src/vector_addition.py":31:24)
#loc10 = loc("/home/arshadm/Workspace/projects/spinorml/venv/./src/vector_addition.py":31:16)
#loc11 = loc("/home/arshadm/Workspace/projects/spinorml/venv/./src/vector_addition.py":32:17)
#loc12 = loc("/home/arshadm/Workspace/projects/spinorml/venv/./src/vector_addition.py":34:26)
#loc13 = loc("/home/arshadm/Workspace/projects/spinorml/venv/./src/vector_addition.py":34:35)
#loc14 = loc("/home/arshadm/Workspace/projects/spinorml/venv/./src/vector_addition.py":34:4)


// -----// IR Dump Before TritonGPUPrefetch (tritongpu-prefetch) ('builtin.module' operation) //----- //
#blocked = #ttg.blocked<{sizePerThread = [4], threadsPerWarp = [32], warpsPerCTA = [4], order = [0]}>
#loc = loc("/home/arshadm/Workspace/projects/spinorml/venv/./src/vector_addition.py":10:0)
module attributes {"ttg.num-ctas" = 1 : i32, "ttg.num-warps" = 4 : i32, ttg.target = "cuda:61", "ttg.threads-per-warp" = 32 : i32} {
  tt.func public @add_kernel(%arg0: !tt.ptr<f32> {tt.divisibility = 16 : i32} loc("/home/arshadm/Workspace/projects/spinorml/venv/./src/vector_addition.py":10:0), %arg1: !tt.ptr<f32> {tt.divisibility = 16 : i32} loc("/home/arshadm/Workspace/projects/spinorml/venv/./src/vector_addition.py":10:0), %arg2: !tt.ptr<f32> {tt.divisibility = 16 : i32} loc("/home/arshadm/Workspace/projects/spinorml/venv/./src/vector_addition.py":10:0), %arg3: i32 {tt.divisibility = 16 : i32} loc("/home/arshadm/Workspace/projects/spinorml/venv/./src/vector_addition.py":10:0)) attributes {noinline = false} {
    %c1024_i32 = arith.constant 1024 : i32 loc(#loc1)
    %0 = tt.get_program_id x : i32 loc(#loc2)
    %1 = arith.muli %0, %c1024_i32 : i32 loc(#loc3)
    %2 = tt.make_range {end = 1024 : i32, start = 0 : i32} : tensor<1024xi32, #blocked> loc(#loc4)
    %3 = tt.splat %1 : i32 -> tensor<1024xi32, #blocked> loc(#loc5)
    %4 = arith.addi %3, %2 : tensor<1024xi32, #blocked> loc(#loc5)
    %5 = tt.splat %arg3 : i32 -> tensor<1024xi32, #blocked> loc(#loc6)
    %6 = arith.cmpi slt, %4, %5 : tensor<1024xi32, #blocked> loc(#loc6)
    %7 = tt.splat %arg0 : !tt.ptr<f32> -> tensor<1024x!tt.ptr<f32>, #blocked> loc(#loc7)
    %8 = tt.addptr %7, %4 : tensor<1024x!tt.ptr<f32>, #blocked>, tensor<1024xi32, #blocked> loc(#loc7)
    %9 = tt.load %8, %6 : tensor<1024x!tt.ptr<f32>, #blocked> loc(#loc8)
    %10 = tt.splat %arg1 : !tt.ptr<f32> -> tensor<1024x!tt.ptr<f32>, #blocked> loc(#loc9)
    %11 = tt.addptr %10, %4 : tensor<1024x!tt.ptr<f32>, #blocked>, tensor<1024xi32, #blocked> loc(#loc9)
    %12 = tt.load %11, %6 : tensor<1024x!tt.ptr<f32>, #blocked> loc(#loc10)
    %13 = arith.addf %9, %12 : tensor<1024xf32, #blocked> loc(#loc11)
    %14 = tt.splat %arg2 : !tt.ptr<f32> -> tensor<1024x!tt.ptr<f32>, #blocked> loc(#loc12)
    %15 = tt.addptr %14, %4 : tensor<1024x!tt.ptr<f32>, #blocked>, tensor<1024xi32, #blocked> loc(#loc12)
    tt.store %15, %13, %6 : tensor<1024x!tt.ptr<f32>, #blocked> loc(#loc13)
    tt.return loc(#loc14)
  } loc(#loc)
} loc(#loc)
#loc1 = loc(unknown)
#loc2 = loc("/home/arshadm/Workspace/projects/spinorml/venv/./src/vector_addition.py":19:24)
#loc3 = loc("/home/arshadm/Workspace/projects/spinorml/venv/./src/vector_addition.py":24:24)
#loc4 = loc("/home/arshadm/Workspace/projects/spinorml/venv/./src/vector_addition.py":25:41)
#loc5 = loc("/home/arshadm/Workspace/projects/spinorml/venv/./src/vector_addition.py":25:28)
#loc6 = loc("/home/arshadm/Workspace/projects/spinorml/venv/./src/vector_addition.py":27:21)
#loc7 = loc("/home/arshadm/Workspace/projects/spinorml/venv/./src/vector_addition.py":30:24)
#loc8 = loc("/home/arshadm/Workspace/projects/spinorml/venv/./src/vector_addition.py":30:16)
#loc9 = loc("/home/arshadm/Workspace/projects/spinorml/venv/./src/vector_addition.py":31:24)
#loc10 = loc("/home/arshadm/Workspace/projects/spinorml/venv/./src/vector_addition.py":31:16)
#loc11 = loc("/home/arshadm/Workspace/projects/spinorml/venv/./src/vector_addition.py":32:17)
#loc12 = loc("/home/arshadm/Workspace/projects/spinorml/venv/./src/vector_addition.py":34:26)
#loc13 = loc("/home/arshadm/Workspace/projects/spinorml/venv/./src/vector_addition.py":34:35)
#loc14 = loc("/home/arshadm/Workspace/projects/spinorml/venv/./src/vector_addition.py":34:4)


// -----// IR Dump Before TritonGPUOptimizeDotOperands (tritongpu-optimize-dot-operands) ('builtin.module' operation) //----- //
#blocked = #ttg.blocked<{sizePerThread = [4], threadsPerWarp = [32], warpsPerCTA = [4], order = [0]}>
#loc = loc("/home/arshadm/Workspace/projects/spinorml/venv/./src/vector_addition.py":10:0)
module attributes {"ttg.num-ctas" = 1 : i32, "ttg.num-warps" = 4 : i32, ttg.target = "cuda:61", "ttg.threads-per-warp" = 32 : i32} {
  tt.func public @add_kernel(%arg0: !tt.ptr<f32> {tt.divisibility = 16 : i32} loc("/home/arshadm/Workspace/projects/spinorml/venv/./src/vector_addition.py":10:0), %arg1: !tt.ptr<f32> {tt.divisibility = 16 : i32} loc("/home/arshadm/Workspace/projects/spinorml/venv/./src/vector_addition.py":10:0), %arg2: !tt.ptr<f32> {tt.divisibility = 16 : i32} loc("/home/arshadm/Workspace/projects/spinorml/venv/./src/vector_addition.py":10:0), %arg3: i32 {tt.divisibility = 16 : i32} loc("/home/arshadm/Workspace/projects/spinorml/venv/./src/vector_addition.py":10:0)) attributes {noinline = false} {
    %c1024_i32 = arith.constant 1024 : i32 loc(#loc1)
    %0 = tt.get_program_id x : i32 loc(#loc2)
    %1 = arith.muli %0, %c1024_i32 : i32 loc(#loc3)
    %2 = tt.make_range {end = 1024 : i32, start = 0 : i32} : tensor<1024xi32, #blocked> loc(#loc4)
    %3 = tt.splat %1 : i32 -> tensor<1024xi32, #blocked> loc(#loc5)
    %4 = arith.addi %3, %2 : tensor<1024xi32, #blocked> loc(#loc5)
    %5 = tt.splat %arg3 : i32 -> tensor<1024xi32, #blocked> loc(#loc6)
    %6 = arith.cmpi slt, %4, %5 : tensor<1024xi32, #blocked> loc(#loc6)
    %7 = tt.splat %arg0 : !tt.ptr<f32> -> tensor<1024x!tt.ptr<f32>, #blocked> loc(#loc7)
    %8 = tt.addptr %7, %4 : tensor<1024x!tt.ptr<f32>, #blocked>, tensor<1024xi32, #blocked> loc(#loc7)
    %9 = tt.load %8, %6 : tensor<1024x!tt.ptr<f32>, #blocked> loc(#loc8)
    %10 = tt.splat %arg1 : !tt.ptr<f32> -> tensor<1024x!tt.ptr<f32>, #blocked> loc(#loc9)
    %11 = tt.addptr %10, %4 : tensor<1024x!tt.ptr<f32>, #blocked>, tensor<1024xi32, #blocked> loc(#loc9)
    %12 = tt.load %11, %6 : tensor<1024x!tt.ptr<f32>, #blocked> loc(#loc10)
    %13 = arith.addf %9, %12 : tensor<1024xf32, #blocked> loc(#loc11)
    %14 = tt.splat %arg2 : !tt.ptr<f32> -> tensor<1024x!tt.ptr<f32>, #blocked> loc(#loc12)
    %15 = tt.addptr %14, %4 : tensor<1024x!tt.ptr<f32>, #blocked>, tensor<1024xi32, #blocked> loc(#loc12)
    tt.store %15, %13, %6 : tensor<1024x!tt.ptr<f32>, #blocked> loc(#loc13)
    tt.return loc(#loc14)
  } loc(#loc)
} loc(#loc)
#loc1 = loc(unknown)
#loc2 = loc("/home/arshadm/Workspace/projects/spinorml/venv/./src/vector_addition.py":19:24)
#loc3 = loc("/home/arshadm/Workspace/projects/spinorml/venv/./src/vector_addition.py":24:24)
#loc4 = loc("/home/arshadm/Workspace/projects/spinorml/venv/./src/vector_addition.py":25:41)
#loc5 = loc("/home/arshadm/Workspace/projects/spinorml/venv/./src/vector_addition.py":25:28)
#loc6 = loc("/home/arshadm/Workspace/projects/spinorml/venv/./src/vector_addition.py":27:21)
#loc7 = loc("/home/arshadm/Workspace/projects/spinorml/venv/./src/vector_addition.py":30:24)
#loc8 = loc("/home/arshadm/Workspace/projects/spinorml/venv/./src/vector_addition.py":30:16)
#loc9 = loc("/home/arshadm/Workspace/projects/spinorml/venv/./src/vector_addition.py":31:24)
#loc10 = loc("/home/arshadm/Workspace/projects/spinorml/venv/./src/vector_addition.py":31:16)
#loc11 = loc("/home/arshadm/Workspace/projects/spinorml/venv/./src/vector_addition.py":32:17)
#loc12 = loc("/home/arshadm/Workspace/projects/spinorml/venv/./src/vector_addition.py":34:26)
#loc13 = loc("/home/arshadm/Workspace/projects/spinorml/venv/./src/vector_addition.py":34:35)
#loc14 = loc("/home/arshadm/Workspace/projects/spinorml/venv/./src/vector_addition.py":34:4)


// -----// IR Dump Before Canonicalizer (canonicalize) ('builtin.module' operation) //----- //
#blocked = #ttg.blocked<{sizePerThread = [4], threadsPerWarp = [32], warpsPerCTA = [4], order = [0]}>
#loc = loc("/home/arshadm/Workspace/projects/spinorml/venv/./src/vector_addition.py":10:0)
module attributes {"ttg.num-ctas" = 1 : i32, "ttg.num-warps" = 4 : i32, ttg.target = "cuda:61", "ttg.threads-per-warp" = 32 : i32} {
  tt.func public @add_kernel(%arg0: !tt.ptr<f32> {tt.divisibility = 16 : i32} loc("/home/arshadm/Workspace/projects/spinorml/venv/./src/vector_addition.py":10:0), %arg1: !tt.ptr<f32> {tt.divisibility = 16 : i32} loc("/home/arshadm/Workspace/projects/spinorml/venv/./src/vector_addition.py":10:0), %arg2: !tt.ptr<f32> {tt.divisibility = 16 : i32} loc("/home/arshadm/Workspace/projects/spinorml/venv/./src/vector_addition.py":10:0), %arg3: i32 {tt.divisibility = 16 : i32} loc("/home/arshadm/Workspace/projects/spinorml/venv/./src/vector_addition.py":10:0)) attributes {noinline = false} {
    %c1024_i32 = arith.constant 1024 : i32 loc(#loc1)
    %0 = tt.get_program_id x : i32 loc(#loc2)
    %1 = arith.muli %0, %c1024_i32 : i32 loc(#loc3)
    %2 = tt.make_range {end = 1024 : i32, start = 0 : i32} : tensor<1024xi32, #blocked> loc(#loc4)
    %3 = tt.splat %1 : i32 -> tensor<1024xi32, #blocked> loc(#loc5)
    %4 = arith.addi %3, %2 : tensor<1024xi32, #blocked> loc(#loc5)
    %5 = tt.splat %arg3 : i32 -> tensor<1024xi32, #blocked> loc(#loc6)
    %6 = arith.cmpi slt, %4, %5 : tensor<1024xi32, #blocked> loc(#loc6)
    %7 = tt.splat %arg0 : !tt.ptr<f32> -> tensor<1024x!tt.ptr<f32>, #blocked> loc(#loc7)
    %8 = tt.addptr %7, %4 : tensor<1024x!tt.ptr<f32>, #blocked>, tensor<1024xi32, #blocked> loc(#loc7)
    %9 = tt.load %8, %6 : tensor<1024x!tt.ptr<f32>, #blocked> loc(#loc8)
    %10 = tt.splat %arg1 : !tt.ptr<f32> -> tensor<1024x!tt.ptr<f32>, #blocked> loc(#loc9)
    %11 = tt.addptr %10, %4 : tensor<1024x!tt.ptr<f32>, #blocked>, tensor<1024xi32, #blocked> loc(#loc9)
    %12 = tt.load %11, %6 : tensor<1024x!tt.ptr<f32>, #blocked> loc(#loc10)
    %13 = arith.addf %9, %12 : tensor<1024xf32, #blocked> loc(#loc11)
    %14 = tt.splat %arg2 : !tt.ptr<f32> -> tensor<1024x!tt.ptr<f32>, #blocked> loc(#loc12)
    %15 = tt.addptr %14, %4 : tensor<1024x!tt.ptr<f32>, #blocked>, tensor<1024xi32, #blocked> loc(#loc12)
    tt.store %15, %13, %6 : tensor<1024x!tt.ptr<f32>, #blocked> loc(#loc13)
    tt.return loc(#loc14)
  } loc(#loc)
} loc(#loc)
#loc1 = loc(unknown)
#loc2 = loc("/home/arshadm/Workspace/projects/spinorml/venv/./src/vector_addition.py":19:24)
#loc3 = loc("/home/arshadm/Workspace/projects/spinorml/venv/./src/vector_addition.py":24:24)
#loc4 = loc("/home/arshadm/Workspace/projects/spinorml/venv/./src/vector_addition.py":25:41)
#loc5 = loc("/home/arshadm/Workspace/projects/spinorml/venv/./src/vector_addition.py":25:28)
#loc6 = loc("/home/arshadm/Workspace/projects/spinorml/venv/./src/vector_addition.py":27:21)
#loc7 = loc("/home/arshadm/Workspace/projects/spinorml/venv/./src/vector_addition.py":30:24)
#loc8 = loc("/home/arshadm/Workspace/projects/spinorml/venv/./src/vector_addition.py":30:16)
#loc9 = loc("/home/arshadm/Workspace/projects/spinorml/venv/./src/vector_addition.py":31:24)
#loc10 = loc("/home/arshadm/Workspace/projects/spinorml/venv/./src/vector_addition.py":31:16)
#loc11 = loc("/home/arshadm/Workspace/projects/spinorml/venv/./src/vector_addition.py":32:17)
#loc12 = loc("/home/arshadm/Workspace/projects/spinorml/venv/./src/vector_addition.py":34:26)
#loc13 = loc("/home/arshadm/Workspace/projects/spinorml/venv/./src/vector_addition.py":34:35)
#loc14 = loc("/home/arshadm/Workspace/projects/spinorml/venv/./src/vector_addition.py":34:4)


// -----// IR Dump Before TritonGPUCoalesceAsyncCopy (tritongpu-coalesce-async-copy) ('builtin.module' operation) //----- //
#blocked = #ttg.blocked<{sizePerThread = [4], threadsPerWarp = [32], warpsPerCTA = [4], order = [0]}>
#loc = loc("/home/arshadm/Workspace/projects/spinorml/venv/./src/vector_addition.py":10:0)
module attributes {"ttg.num-ctas" = 1 : i32, "ttg.num-warps" = 4 : i32, ttg.target = "cuda:61", "ttg.threads-per-warp" = 32 : i32} {
  tt.func public @add_kernel(%arg0: !tt.ptr<f32> {tt.divisibility = 16 : i32} loc("/home/arshadm/Workspace/projects/spinorml/venv/./src/vector_addition.py":10:0), %arg1: !tt.ptr<f32> {tt.divisibility = 16 : i32} loc("/home/arshadm/Workspace/projects/spinorml/venv/./src/vector_addition.py":10:0), %arg2: !tt.ptr<f32> {tt.divisibility = 16 : i32} loc("/home/arshadm/Workspace/projects/spinorml/venv/./src/vector_addition.py":10:0), %arg3: i32 {tt.divisibility = 16 : i32} loc("/home/arshadm/Workspace/projects/spinorml/venv/./src/vector_addition.py":10:0)) attributes {noinline = false} {
    %c1024_i32 = arith.constant 1024 : i32 loc(#loc1)
    %0 = tt.get_program_id x : i32 loc(#loc2)
    %1 = arith.muli %0, %c1024_i32 : i32 loc(#loc3)
    %2 = tt.make_range {end = 1024 : i32, start = 0 : i32} : tensor<1024xi32, #blocked> loc(#loc4)
    %3 = tt.splat %1 : i32 -> tensor<1024xi32, #blocked> loc(#loc5)
    %4 = arith.addi %3, %2 : tensor<1024xi32, #blocked> loc(#loc5)
    %5 = tt.splat %arg3 : i32 -> tensor<1024xi32, #blocked> loc(#loc6)
    %6 = arith.cmpi slt, %4, %5 : tensor<1024xi32, #blocked> loc(#loc6)
    %7 = tt.splat %arg0 : !tt.ptr<f32> -> tensor<1024x!tt.ptr<f32>, #blocked> loc(#loc7)
    %8 = tt.addptr %7, %4 : tensor<1024x!tt.ptr<f32>, #blocked>, tensor<1024xi32, #blocked> loc(#loc7)
    %9 = tt.load %8, %6 : tensor<1024x!tt.ptr<f32>, #blocked> loc(#loc8)
    %10 = tt.splat %arg1 : !tt.ptr<f32> -> tensor<1024x!tt.ptr<f32>, #blocked> loc(#loc9)
    %11 = tt.addptr %10, %4 : tensor<1024x!tt.ptr<f32>, #blocked>, tensor<1024xi32, #blocked> loc(#loc9)
    %12 = tt.load %11, %6 : tensor<1024x!tt.ptr<f32>, #blocked> loc(#loc10)
    %13 = arith.addf %9, %12 : tensor<1024xf32, #blocked> loc(#loc11)
    %14 = tt.splat %arg2 : !tt.ptr<f32> -> tensor<1024x!tt.ptr<f32>, #blocked> loc(#loc12)
    %15 = tt.addptr %14, %4 : tensor<1024x!tt.ptr<f32>, #blocked>, tensor<1024xi32, #blocked> loc(#loc12)
    tt.store %15, %13, %6 : tensor<1024x!tt.ptr<f32>, #blocked> loc(#loc13)
    tt.return loc(#loc14)
  } loc(#loc)
} loc(#loc)
#loc1 = loc(unknown)
#loc2 = loc("/home/arshadm/Workspace/projects/spinorml/venv/./src/vector_addition.py":19:24)
#loc3 = loc("/home/arshadm/Workspace/projects/spinorml/venv/./src/vector_addition.py":24:24)
#loc4 = loc("/home/arshadm/Workspace/projects/spinorml/venv/./src/vector_addition.py":25:41)
#loc5 = loc("/home/arshadm/Workspace/projects/spinorml/venv/./src/vector_addition.py":25:28)
#loc6 = loc("/home/arshadm/Workspace/projects/spinorml/venv/./src/vector_addition.py":27:21)
#loc7 = loc("/home/arshadm/Workspace/projects/spinorml/venv/./src/vector_addition.py":30:24)
#loc8 = loc("/home/arshadm/Workspace/projects/spinorml/venv/./src/vector_addition.py":30:16)
#loc9 = loc("/home/arshadm/Workspace/projects/spinorml/venv/./src/vector_addition.py":31:24)
#loc10 = loc("/home/arshadm/Workspace/projects/spinorml/venv/./src/vector_addition.py":31:16)
#loc11 = loc("/home/arshadm/Workspace/projects/spinorml/venv/./src/vector_addition.py":32:17)
#loc12 = loc("/home/arshadm/Workspace/projects/spinorml/venv/./src/vector_addition.py":34:26)
#loc13 = loc("/home/arshadm/Workspace/projects/spinorml/venv/./src/vector_addition.py":34:35)
#loc14 = loc("/home/arshadm/Workspace/projects/spinorml/venv/./src/vector_addition.py":34:4)


// -----// IR Dump Before TritonGPURemoveLayoutConversions (tritongpu-remove-layout-conversions) ('builtin.module' operation) //----- //
#blocked = #ttg.blocked<{sizePerThread = [4], threadsPerWarp = [32], warpsPerCTA = [4], order = [0]}>
#loc = loc("/home/arshadm/Workspace/projects/spinorml/venv/./src/vector_addition.py":10:0)
module attributes {"ttg.num-ctas" = 1 : i32, "ttg.num-warps" = 4 : i32, ttg.target = "cuda:61", "ttg.threads-per-warp" = 32 : i32} {
  tt.func public @add_kernel(%arg0: !tt.ptr<f32> {tt.divisibility = 16 : i32} loc("/home/arshadm/Workspace/projects/spinorml/venv/./src/vector_addition.py":10:0), %arg1: !tt.ptr<f32> {tt.divisibility = 16 : i32} loc("/home/arshadm/Workspace/projects/spinorml/venv/./src/vector_addition.py":10:0), %arg2: !tt.ptr<f32> {tt.divisibility = 16 : i32} loc("/home/arshadm/Workspace/projects/spinorml/venv/./src/vector_addition.py":10:0), %arg3: i32 {tt.divisibility = 16 : i32} loc("/home/arshadm/Workspace/projects/spinorml/venv/./src/vector_addition.py":10:0)) attributes {noinline = false} {
    %c1024_i32 = arith.constant 1024 : i32 loc(#loc1)
    %0 = tt.get_program_id x : i32 loc(#loc2)
    %1 = arith.muli %0, %c1024_i32 : i32 loc(#loc3)
    %2 = tt.make_range {end = 1024 : i32, start = 0 : i32} : tensor<1024xi32, #blocked> loc(#loc4)
    %3 = tt.splat %1 : i32 -> tensor<1024xi32, #blocked> loc(#loc5)
    %4 = arith.addi %3, %2 : tensor<1024xi32, #blocked> loc(#loc5)
    %5 = tt.splat %arg3 : i32 -> tensor<1024xi32, #blocked> loc(#loc6)
    %6 = arith.cmpi slt, %4, %5 : tensor<1024xi32, #blocked> loc(#loc6)
    %7 = tt.splat %arg0 : !tt.ptr<f32> -> tensor<1024x!tt.ptr<f32>, #blocked> loc(#loc7)
    %8 = tt.addptr %7, %4 : tensor<1024x!tt.ptr<f32>, #blocked>, tensor<1024xi32, #blocked> loc(#loc7)
    %9 = tt.load %8, %6 : tensor<1024x!tt.ptr<f32>, #blocked> loc(#loc8)
    %10 = tt.splat %arg1 : !tt.ptr<f32> -> tensor<1024x!tt.ptr<f32>, #blocked> loc(#loc9)
    %11 = tt.addptr %10, %4 : tensor<1024x!tt.ptr<f32>, #blocked>, tensor<1024xi32, #blocked> loc(#loc9)
    %12 = tt.load %11, %6 : tensor<1024x!tt.ptr<f32>, #blocked> loc(#loc10)
    %13 = arith.addf %9, %12 : tensor<1024xf32, #blocked> loc(#loc11)
    %14 = tt.splat %arg2 : !tt.ptr<f32> -> tensor<1024x!tt.ptr<f32>, #blocked> loc(#loc12)
    %15 = tt.addptr %14, %4 : tensor<1024x!tt.ptr<f32>, #blocked>, tensor<1024xi32, #blocked> loc(#loc12)
    tt.store %15, %13, %6 : tensor<1024x!tt.ptr<f32>, #blocked> loc(#loc13)
    tt.return loc(#loc14)
  } loc(#loc)
} loc(#loc)
#loc1 = loc(unknown)
#loc2 = loc("/home/arshadm/Workspace/projects/spinorml/venv/./src/vector_addition.py":19:24)
#loc3 = loc("/home/arshadm/Workspace/projects/spinorml/venv/./src/vector_addition.py":24:24)
#loc4 = loc("/home/arshadm/Workspace/projects/spinorml/venv/./src/vector_addition.py":25:41)
#loc5 = loc("/home/arshadm/Workspace/projects/spinorml/venv/./src/vector_addition.py":25:28)
#loc6 = loc("/home/arshadm/Workspace/projects/spinorml/venv/./src/vector_addition.py":27:21)
#loc7 = loc("/home/arshadm/Workspace/projects/spinorml/venv/./src/vector_addition.py":30:24)
#loc8 = loc("/home/arshadm/Workspace/projects/spinorml/venv/./src/vector_addition.py":30:16)
#loc9 = loc("/home/arshadm/Workspace/projects/spinorml/venv/./src/vector_addition.py":31:24)
#loc10 = loc("/home/arshadm/Workspace/projects/spinorml/venv/./src/vector_addition.py":31:16)
#loc11 = loc("/home/arshadm/Workspace/projects/spinorml/venv/./src/vector_addition.py":32:17)
#loc12 = loc("/home/arshadm/Workspace/projects/spinorml/venv/./src/vector_addition.py":34:26)
#loc13 = loc("/home/arshadm/Workspace/projects/spinorml/venv/./src/vector_addition.py":34:35)
#loc14 = loc("/home/arshadm/Workspace/projects/spinorml/venv/./src/vector_addition.py":34:4)


// -----// IR Dump Before TritonGPUReduceDataDuplication (tritongpu-reduce-data-duplication) ('builtin.module' operation) //----- //
#blocked = #ttg.blocked<{sizePerThread = [4], threadsPerWarp = [32], warpsPerCTA = [4], order = [0]}>
#loc = loc("/home/arshadm/Workspace/projects/spinorml/venv/./src/vector_addition.py":10:0)
module attributes {"ttg.num-ctas" = 1 : i32, "ttg.num-warps" = 4 : i32, ttg.target = "cuda:61", "ttg.threads-per-warp" = 32 : i32} {
  tt.func public @add_kernel(%arg0: !tt.ptr<f32> {tt.divisibility = 16 : i32} loc("/home/arshadm/Workspace/projects/spinorml/venv/./src/vector_addition.py":10:0), %arg1: !tt.ptr<f32> {tt.divisibility = 16 : i32} loc("/home/arshadm/Workspace/projects/spinorml/venv/./src/vector_addition.py":10:0), %arg2: !tt.ptr<f32> {tt.divisibility = 16 : i32} loc("/home/arshadm/Workspace/projects/spinorml/venv/./src/vector_addition.py":10:0), %arg3: i32 {tt.divisibility = 16 : i32} loc("/home/arshadm/Workspace/projects/spinorml/venv/./src/vector_addition.py":10:0)) attributes {noinline = false} {
    %c1024_i32 = arith.constant 1024 : i32 loc(#loc1)
    %0 = tt.get_program_id x : i32 loc(#loc2)
    %1 = arith.muli %0, %c1024_i32 : i32 loc(#loc3)
    %2 = tt.make_range {end = 1024 : i32, start = 0 : i32} : tensor<1024xi32, #blocked> loc(#loc4)
    %3 = tt.splat %1 : i32 -> tensor<1024xi32, #blocked> loc(#loc5)
    %4 = arith.addi %3, %2 : tensor<1024xi32, #blocked> loc(#loc5)
    %5 = tt.splat %arg3 : i32 -> tensor<1024xi32, #blocked> loc(#loc6)
    %6 = arith.cmpi slt, %4, %5 : tensor<1024xi32, #blocked> loc(#loc6)
    %7 = tt.splat %arg0 : !tt.ptr<f32> -> tensor<1024x!tt.ptr<f32>, #blocked> loc(#loc7)
    %8 = tt.addptr %7, %4 : tensor<1024x!tt.ptr<f32>, #blocked>, tensor<1024xi32, #blocked> loc(#loc7)
    %9 = tt.load %8, %6 : tensor<1024x!tt.ptr<f32>, #blocked> loc(#loc8)
    %10 = tt.splat %arg1 : !tt.ptr<f32> -> tensor<1024x!tt.ptr<f32>, #blocked> loc(#loc9)
    %11 = tt.addptr %10, %4 : tensor<1024x!tt.ptr<f32>, #blocked>, tensor<1024xi32, #blocked> loc(#loc9)
    %12 = tt.load %11, %6 : tensor<1024x!tt.ptr<f32>, #blocked> loc(#loc10)
    %13 = arith.addf %9, %12 : tensor<1024xf32, #blocked> loc(#loc11)
    %14 = tt.splat %arg2 : !tt.ptr<f32> -> tensor<1024x!tt.ptr<f32>, #blocked> loc(#loc12)
    %15 = tt.addptr %14, %4 : tensor<1024x!tt.ptr<f32>, #blocked>, tensor<1024xi32, #blocked> loc(#loc12)
    tt.store %15, %13, %6 : tensor<1024x!tt.ptr<f32>, #blocked> loc(#loc13)
    tt.return loc(#loc14)
  } loc(#loc)
} loc(#loc)
#loc1 = loc(unknown)
#loc2 = loc("/home/arshadm/Workspace/projects/spinorml/venv/./src/vector_addition.py":19:24)
#loc3 = loc("/home/arshadm/Workspace/projects/spinorml/venv/./src/vector_addition.py":24:24)
#loc4 = loc("/home/arshadm/Workspace/projects/spinorml/venv/./src/vector_addition.py":25:41)
#loc5 = loc("/home/arshadm/Workspace/projects/spinorml/venv/./src/vector_addition.py":25:28)
#loc6 = loc("/home/arshadm/Workspace/projects/spinorml/venv/./src/vector_addition.py":27:21)
#loc7 = loc("/home/arshadm/Workspace/projects/spinorml/venv/./src/vector_addition.py":30:24)
#loc8 = loc("/home/arshadm/Workspace/projects/spinorml/venv/./src/vector_addition.py":30:16)
#loc9 = loc("/home/arshadm/Workspace/projects/spinorml/venv/./src/vector_addition.py":31:24)
#loc10 = loc("/home/arshadm/Workspace/projects/spinorml/venv/./src/vector_addition.py":31:16)
#loc11 = loc("/home/arshadm/Workspace/projects/spinorml/venv/./src/vector_addition.py":32:17)
#loc12 = loc("/home/arshadm/Workspace/projects/spinorml/venv/./src/vector_addition.py":34:26)
#loc13 = loc("/home/arshadm/Workspace/projects/spinorml/venv/./src/vector_addition.py":34:35)
#loc14 = loc("/home/arshadm/Workspace/projects/spinorml/venv/./src/vector_addition.py":34:4)


// -----// IR Dump Before TritonGPUReorderInstructions (tritongpu-reorder-instructions) ('builtin.module' operation) //----- //
#blocked = #ttg.blocked<{sizePerThread = [4], threadsPerWarp = [32], warpsPerCTA = [4], order = [0]}>
#loc = loc("/home/arshadm/Workspace/projects/spinorml/venv/./src/vector_addition.py":10:0)
module attributes {"ttg.num-ctas" = 1 : i32, "ttg.num-warps" = 4 : i32, ttg.target = "cuda:61", "ttg.threads-per-warp" = 32 : i32} {
  tt.func public @add_kernel(%arg0: !tt.ptr<f32> {tt.divisibility = 16 : i32} loc("/home/arshadm/Workspace/projects/spinorml/venv/./src/vector_addition.py":10:0), %arg1: !tt.ptr<f32> {tt.divisibility = 16 : i32} loc("/home/arshadm/Workspace/projects/spinorml/venv/./src/vector_addition.py":10:0), %arg2: !tt.ptr<f32> {tt.divisibility = 16 : i32} loc("/home/arshadm/Workspace/projects/spinorml/venv/./src/vector_addition.py":10:0), %arg3: i32 {tt.divisibility = 16 : i32} loc("/home/arshadm/Workspace/projects/spinorml/venv/./src/vector_addition.py":10:0)) attributes {noinline = false} {
    %c1024_i32 = arith.constant 1024 : i32 loc(#loc1)
    %0 = tt.get_program_id x : i32 loc(#loc2)
    %1 = arith.muli %0, %c1024_i32 : i32 loc(#loc3)
    %2 = tt.make_range {end = 1024 : i32, start = 0 : i32} : tensor<1024xi32, #blocked> loc(#loc4)
    %3 = tt.splat %1 : i32 -> tensor<1024xi32, #blocked> loc(#loc5)
    %4 = arith.addi %3, %2 : tensor<1024xi32, #blocked> loc(#loc5)
    %5 = tt.splat %arg3 : i32 -> tensor<1024xi32, #blocked> loc(#loc6)
    %6 = arith.cmpi slt, %4, %5 : tensor<1024xi32, #blocked> loc(#loc6)
    %7 = tt.splat %arg0 : !tt.ptr<f32> -> tensor<1024x!tt.ptr<f32>, #blocked> loc(#loc7)
    %8 = tt.addptr %7, %4 : tensor<1024x!tt.ptr<f32>, #blocked>, tensor<1024xi32, #blocked> loc(#loc7)
    %9 = tt.load %8, %6 : tensor<1024x!tt.ptr<f32>, #blocked> loc(#loc8)
    %10 = tt.splat %arg1 : !tt.ptr<f32> -> tensor<1024x!tt.ptr<f32>, #blocked> loc(#loc9)
    %11 = tt.addptr %10, %4 : tensor<1024x!tt.ptr<f32>, #blocked>, tensor<1024xi32, #blocked> loc(#loc9)
    %12 = tt.load %11, %6 : tensor<1024x!tt.ptr<f32>, #blocked> loc(#loc10)
    %13 = arith.addf %9, %12 : tensor<1024xf32, #blocked> loc(#loc11)
    %14 = tt.splat %arg2 : !tt.ptr<f32> -> tensor<1024x!tt.ptr<f32>, #blocked> loc(#loc12)
    %15 = tt.addptr %14, %4 : tensor<1024x!tt.ptr<f32>, #blocked>, tensor<1024xi32, #blocked> loc(#loc12)
    tt.store %15, %13, %6 : tensor<1024x!tt.ptr<f32>, #blocked> loc(#loc13)
    tt.return loc(#loc14)
  } loc(#loc)
} loc(#loc)
#loc1 = loc(unknown)
#loc2 = loc("/home/arshadm/Workspace/projects/spinorml/venv/./src/vector_addition.py":19:24)
#loc3 = loc("/home/arshadm/Workspace/projects/spinorml/venv/./src/vector_addition.py":24:24)
#loc4 = loc("/home/arshadm/Workspace/projects/spinorml/venv/./src/vector_addition.py":25:41)
#loc5 = loc("/home/arshadm/Workspace/projects/spinorml/venv/./src/vector_addition.py":25:28)
#loc6 = loc("/home/arshadm/Workspace/projects/spinorml/venv/./src/vector_addition.py":27:21)
#loc7 = loc("/home/arshadm/Workspace/projects/spinorml/venv/./src/vector_addition.py":30:24)
#loc8 = loc("/home/arshadm/Workspace/projects/spinorml/venv/./src/vector_addition.py":30:16)
#loc9 = loc("/home/arshadm/Workspace/projects/spinorml/venv/./src/vector_addition.py":31:24)
#loc10 = loc("/home/arshadm/Workspace/projects/spinorml/venv/./src/vector_addition.py":31:16)
#loc11 = loc("/home/arshadm/Workspace/projects/spinorml/venv/./src/vector_addition.py":32:17)
#loc12 = loc("/home/arshadm/Workspace/projects/spinorml/venv/./src/vector_addition.py":34:26)
#loc13 = loc("/home/arshadm/Workspace/projects/spinorml/venv/./src/vector_addition.py":34:35)
#loc14 = loc("/home/arshadm/Workspace/projects/spinorml/venv/./src/vector_addition.py":34:4)


// -----// IR Dump Before CSE (cse) ('builtin.module' operation) //----- //
#blocked = #ttg.blocked<{sizePerThread = [4], threadsPerWarp = [32], warpsPerCTA = [4], order = [0]}>
#loc = loc("/home/arshadm/Workspace/projects/spinorml/venv/./src/vector_addition.py":10:0)
module attributes {"ttg.num-ctas" = 1 : i32, "ttg.num-warps" = 4 : i32, ttg.target = "cuda:61", "ttg.threads-per-warp" = 32 : i32} {
  tt.func public @add_kernel(%arg0: !tt.ptr<f32> {tt.divisibility = 16 : i32} loc("/home/arshadm/Workspace/projects/spinorml/venv/./src/vector_addition.py":10:0), %arg1: !tt.ptr<f32> {tt.divisibility = 16 : i32} loc("/home/arshadm/Workspace/projects/spinorml/venv/./src/vector_addition.py":10:0), %arg2: !tt.ptr<f32> {tt.divisibility = 16 : i32} loc("/home/arshadm/Workspace/projects/spinorml/venv/./src/vector_addition.py":10:0), %arg3: i32 {tt.divisibility = 16 : i32} loc("/home/arshadm/Workspace/projects/spinorml/venv/./src/vector_addition.py":10:0)) attributes {noinline = false} {
    %c1024_i32 = arith.constant 1024 : i32 loc(#loc1)
    %0 = tt.get_program_id x : i32 loc(#loc2)
    %1 = arith.muli %0, %c1024_i32 : i32 loc(#loc3)
    %2 = tt.make_range {end = 1024 : i32, start = 0 : i32} : tensor<1024xi32, #blocked> loc(#loc4)
    %3 = tt.splat %1 : i32 -> tensor<1024xi32, #blocked> loc(#loc5)
    %4 = arith.addi %3, %2 : tensor<1024xi32, #blocked> loc(#loc5)
    %5 = tt.splat %arg3 : i32 -> tensor<1024xi32, #blocked> loc(#loc6)
    %6 = arith.cmpi slt, %4, %5 : tensor<1024xi32, #blocked> loc(#loc6)
    %7 = tt.splat %arg0 : !tt.ptr<f32> -> tensor<1024x!tt.ptr<f32>, #blocked> loc(#loc7)
    %8 = tt.addptr %7, %4 : tensor<1024x!tt.ptr<f32>, #blocked>, tensor<1024xi32, #blocked> loc(#loc7)
    %9 = tt.load %8, %6 : tensor<1024x!tt.ptr<f32>, #blocked> loc(#loc8)
    %10 = tt.splat %arg1 : !tt.ptr<f32> -> tensor<1024x!tt.ptr<f32>, #blocked> loc(#loc9)
    %11 = tt.addptr %10, %4 : tensor<1024x!tt.ptr<f32>, #blocked>, tensor<1024xi32, #blocked> loc(#loc9)
    %12 = tt.load %11, %6 : tensor<1024x!tt.ptr<f32>, #blocked> loc(#loc10)
    %13 = arith.addf %9, %12 : tensor<1024xf32, #blocked> loc(#loc11)
    %14 = tt.splat %arg2 : !tt.ptr<f32> -> tensor<1024x!tt.ptr<f32>, #blocked> loc(#loc12)
    %15 = tt.addptr %14, %4 : tensor<1024x!tt.ptr<f32>, #blocked>, tensor<1024xi32, #blocked> loc(#loc12)
    tt.store %15, %13, %6 : tensor<1024x!tt.ptr<f32>, #blocked> loc(#loc13)
    tt.return loc(#loc14)
  } loc(#loc)
} loc(#loc)
#loc1 = loc(unknown)
#loc2 = loc("/home/arshadm/Workspace/projects/spinorml/venv/./src/vector_addition.py":19:24)
#loc3 = loc("/home/arshadm/Workspace/projects/spinorml/venv/./src/vector_addition.py":24:24)
#loc4 = loc("/home/arshadm/Workspace/projects/spinorml/venv/./src/vector_addition.py":25:41)
#loc5 = loc("/home/arshadm/Workspace/projects/spinorml/venv/./src/vector_addition.py":25:28)
#loc6 = loc("/home/arshadm/Workspace/projects/spinorml/venv/./src/vector_addition.py":27:21)
#loc7 = loc("/home/arshadm/Workspace/projects/spinorml/venv/./src/vector_addition.py":30:24)
#loc8 = loc("/home/arshadm/Workspace/projects/spinorml/venv/./src/vector_addition.py":30:16)
#loc9 = loc("/home/arshadm/Workspace/projects/spinorml/venv/./src/vector_addition.py":31:24)
#loc10 = loc("/home/arshadm/Workspace/projects/spinorml/venv/./src/vector_addition.py":31:16)
#loc11 = loc("/home/arshadm/Workspace/projects/spinorml/venv/./src/vector_addition.py":32:17)
#loc12 = loc("/home/arshadm/Workspace/projects/spinorml/venv/./src/vector_addition.py":34:26)
#loc13 = loc("/home/arshadm/Workspace/projects/spinorml/venv/./src/vector_addition.py":34:35)
#loc14 = loc("/home/arshadm/Workspace/projects/spinorml/venv/./src/vector_addition.py":34:4)


// -----// IR Dump Before SymbolDCE (symbol-dce) ('builtin.module' operation) //----- //
#blocked = #ttg.blocked<{sizePerThread = [4], threadsPerWarp = [32], warpsPerCTA = [4], order = [0]}>
#loc = loc("/home/arshadm/Workspace/projects/spinorml/venv/./src/vector_addition.py":10:0)
module attributes {"ttg.num-ctas" = 1 : i32, "ttg.num-warps" = 4 : i32, ttg.target = "cuda:61", "ttg.threads-per-warp" = 32 : i32} {
  tt.func public @add_kernel(%arg0: !tt.ptr<f32> {tt.divisibility = 16 : i32} loc("/home/arshadm/Workspace/projects/spinorml/venv/./src/vector_addition.py":10:0), %arg1: !tt.ptr<f32> {tt.divisibility = 16 : i32} loc("/home/arshadm/Workspace/projects/spinorml/venv/./src/vector_addition.py":10:0), %arg2: !tt.ptr<f32> {tt.divisibility = 16 : i32} loc("/home/arshadm/Workspace/projects/spinorml/venv/./src/vector_addition.py":10:0), %arg3: i32 {tt.divisibility = 16 : i32} loc("/home/arshadm/Workspace/projects/spinorml/venv/./src/vector_addition.py":10:0)) attributes {noinline = false} {
    %c1024_i32 = arith.constant 1024 : i32 loc(#loc1)
    %0 = tt.get_program_id x : i32 loc(#loc2)
    %1 = arith.muli %0, %c1024_i32 : i32 loc(#loc3)
    %2 = tt.make_range {end = 1024 : i32, start = 0 : i32} : tensor<1024xi32, #blocked> loc(#loc4)
    %3 = tt.splat %1 : i32 -> tensor<1024xi32, #blocked> loc(#loc5)
    %4 = arith.addi %3, %2 : tensor<1024xi32, #blocked> loc(#loc5)
    %5 = tt.splat %arg3 : i32 -> tensor<1024xi32, #blocked> loc(#loc6)
    %6 = arith.cmpi slt, %4, %5 : tensor<1024xi32, #blocked> loc(#loc6)
    %7 = tt.splat %arg0 : !tt.ptr<f32> -> tensor<1024x!tt.ptr<f32>, #blocked> loc(#loc7)
    %8 = tt.addptr %7, %4 : tensor<1024x!tt.ptr<f32>, #blocked>, tensor<1024xi32, #blocked> loc(#loc7)
    %9 = tt.load %8, %6 : tensor<1024x!tt.ptr<f32>, #blocked> loc(#loc8)
    %10 = tt.splat %arg1 : !tt.ptr<f32> -> tensor<1024x!tt.ptr<f32>, #blocked> loc(#loc9)
    %11 = tt.addptr %10, %4 : tensor<1024x!tt.ptr<f32>, #blocked>, tensor<1024xi32, #blocked> loc(#loc9)
    %12 = tt.load %11, %6 : tensor<1024x!tt.ptr<f32>, #blocked> loc(#loc10)
    %13 = arith.addf %9, %12 : tensor<1024xf32, #blocked> loc(#loc11)
    %14 = tt.splat %arg2 : !tt.ptr<f32> -> tensor<1024x!tt.ptr<f32>, #blocked> loc(#loc12)
    %15 = tt.addptr %14, %4 : tensor<1024x!tt.ptr<f32>, #blocked>, tensor<1024xi32, #blocked> loc(#loc12)
    tt.store %15, %13, %6 : tensor<1024x!tt.ptr<f32>, #blocked> loc(#loc13)
    tt.return loc(#loc14)
  } loc(#loc)
} loc(#loc)
#loc1 = loc(unknown)
#loc2 = loc("/home/arshadm/Workspace/projects/spinorml/venv/./src/vector_addition.py":19:24)
#loc3 = loc("/home/arshadm/Workspace/projects/spinorml/venv/./src/vector_addition.py":24:24)
#loc4 = loc("/home/arshadm/Workspace/projects/spinorml/venv/./src/vector_addition.py":25:41)
#loc5 = loc("/home/arshadm/Workspace/projects/spinorml/venv/./src/vector_addition.py":25:28)
#loc6 = loc("/home/arshadm/Workspace/projects/spinorml/venv/./src/vector_addition.py":27:21)
#loc7 = loc("/home/arshadm/Workspace/projects/spinorml/venv/./src/vector_addition.py":30:24)
#loc8 = loc("/home/arshadm/Workspace/projects/spinorml/venv/./src/vector_addition.py":30:16)
#loc9 = loc("/home/arshadm/Workspace/projects/spinorml/venv/./src/vector_addition.py":31:24)
#loc10 = loc("/home/arshadm/Workspace/projects/spinorml/venv/./src/vector_addition.py":31:16)
#loc11 = loc("/home/arshadm/Workspace/projects/spinorml/venv/./src/vector_addition.py":32:17)
#loc12 = loc("/home/arshadm/Workspace/projects/spinorml/venv/./src/vector_addition.py":34:26)
#loc13 = loc("/home/arshadm/Workspace/projects/spinorml/venv/./src/vector_addition.py":34:35)
#loc14 = loc("/home/arshadm/Workspace/projects/spinorml/venv/./src/vector_addition.py":34:4)


// -----// IR Dump Before Canonicalizer (canonicalize) ('builtin.module' operation) //----- //
#blocked = #ttg.blocked<{sizePerThread = [4], threadsPerWarp = [32], warpsPerCTA = [4], order = [0]}>
#loc = loc("/home/arshadm/Workspace/projects/spinorml/venv/./src/vector_addition.py":10:0)
module attributes {"ttg.num-ctas" = 1 : i32, "ttg.num-warps" = 4 : i32, ttg.target = "cuda:61", "ttg.threads-per-warp" = 32 : i32} {
  tt.func public @add_kernel(%arg0: !tt.ptr<f32> {tt.divisibility = 16 : i32} loc("/home/arshadm/Workspace/projects/spinorml/venv/./src/vector_addition.py":10:0), %arg1: !tt.ptr<f32> {tt.divisibility = 16 : i32} loc("/home/arshadm/Workspace/projects/spinorml/venv/./src/vector_addition.py":10:0), %arg2: !tt.ptr<f32> {tt.divisibility = 16 : i32} loc("/home/arshadm/Workspace/projects/spinorml/venv/./src/vector_addition.py":10:0), %arg3: i32 {tt.divisibility = 16 : i32} loc("/home/arshadm/Workspace/projects/spinorml/venv/./src/vector_addition.py":10:0)) attributes {noinline = false} {
    %c1024_i32 = arith.constant 1024 : i32 loc(#loc1)
    %0 = tt.get_program_id x : i32 loc(#loc2)
    %1 = arith.muli %0, %c1024_i32 : i32 loc(#loc3)
    %2 = tt.make_range {end = 1024 : i32, start = 0 : i32} : tensor<1024xi32, #blocked> loc(#loc4)
    %3 = tt.splat %1 : i32 -> tensor<1024xi32, #blocked> loc(#loc5)
    %4 = arith.addi %3, %2 : tensor<1024xi32, #blocked> loc(#loc5)
    %5 = tt.splat %arg3 : i32 -> tensor<1024xi32, #blocked> loc(#loc6)
    %6 = arith.cmpi slt, %4, %5 : tensor<1024xi32, #blocked> loc(#loc6)
    %7 = tt.splat %arg0 : !tt.ptr<f32> -> tensor<1024x!tt.ptr<f32>, #blocked> loc(#loc7)
    %8 = tt.addptr %7, %4 : tensor<1024x!tt.ptr<f32>, #blocked>, tensor<1024xi32, #blocked> loc(#loc7)
    %9 = tt.load %8, %6 : tensor<1024x!tt.ptr<f32>, #blocked> loc(#loc8)
    %10 = tt.splat %arg1 : !tt.ptr<f32> -> tensor<1024x!tt.ptr<f32>, #blocked> loc(#loc9)
    %11 = tt.addptr %10, %4 : tensor<1024x!tt.ptr<f32>, #blocked>, tensor<1024xi32, #blocked> loc(#loc9)
    %12 = tt.load %11, %6 : tensor<1024x!tt.ptr<f32>, #blocked> loc(#loc10)
    %13 = arith.addf %9, %12 : tensor<1024xf32, #blocked> loc(#loc11)
    %14 = tt.splat %arg2 : !tt.ptr<f32> -> tensor<1024x!tt.ptr<f32>, #blocked> loc(#loc12)
    %15 = tt.addptr %14, %4 : tensor<1024x!tt.ptr<f32>, #blocked>, tensor<1024xi32, #blocked> loc(#loc12)
    tt.store %15, %13, %6 : tensor<1024x!tt.ptr<f32>, #blocked> loc(#loc13)
    tt.return loc(#loc14)
  } loc(#loc)
} loc(#loc)
#loc1 = loc(unknown)
#loc2 = loc("/home/arshadm/Workspace/projects/spinorml/venv/./src/vector_addition.py":19:24)
#loc3 = loc("/home/arshadm/Workspace/projects/spinorml/venv/./src/vector_addition.py":24:24)
#loc4 = loc("/home/arshadm/Workspace/projects/spinorml/venv/./src/vector_addition.py":25:41)
#loc5 = loc("/home/arshadm/Workspace/projects/spinorml/venv/./src/vector_addition.py":25:28)
#loc6 = loc("/home/arshadm/Workspace/projects/spinorml/venv/./src/vector_addition.py":27:21)
#loc7 = loc("/home/arshadm/Workspace/projects/spinorml/venv/./src/vector_addition.py":30:24)
#loc8 = loc("/home/arshadm/Workspace/projects/spinorml/venv/./src/vector_addition.py":30:16)
#loc9 = loc("/home/arshadm/Workspace/projects/spinorml/venv/./src/vector_addition.py":31:24)
#loc10 = loc("/home/arshadm/Workspace/projects/spinorml/venv/./src/vector_addition.py":31:16)
#loc11 = loc("/home/arshadm/Workspace/projects/spinorml/venv/./src/vector_addition.py":32:17)
#loc12 = loc("/home/arshadm/Workspace/projects/spinorml/venv/./src/vector_addition.py":34:26)
#loc13 = loc("/home/arshadm/Workspace/projects/spinorml/venv/./src/vector_addition.py":34:35)
#loc14 = loc("/home/arshadm/Workspace/projects/spinorml/venv/./src/vector_addition.py":34:4)


// -----// IR Dump Before TritonNvidiaGPUMMALoweringPass (triton-nvidia-mma-lowering) ('builtin.module' operation) //----- //
#blocked = #ttg.blocked<{sizePerThread = [4], threadsPerWarp = [32], warpsPerCTA = [4], order = [0]}>
#loc = loc("/home/arshadm/Workspace/projects/spinorml/venv/./src/vector_addition.py":10:0)
module attributes {"ttg.num-ctas" = 1 : i32, "ttg.num-warps" = 4 : i32, ttg.target = "cuda:61", "ttg.threads-per-warp" = 32 : i32} {
  tt.func public @add_kernel(%arg0: !tt.ptr<f32> {tt.divisibility = 16 : i32} loc("/home/arshadm/Workspace/projects/spinorml/venv/./src/vector_addition.py":10:0), %arg1: !tt.ptr<f32> {tt.divisibility = 16 : i32} loc("/home/arshadm/Workspace/projects/spinorml/venv/./src/vector_addition.py":10:0), %arg2: !tt.ptr<f32> {tt.divisibility = 16 : i32} loc("/home/arshadm/Workspace/projects/spinorml/venv/./src/vector_addition.py":10:0), %arg3: i32 {tt.divisibility = 16 : i32} loc("/home/arshadm/Workspace/projects/spinorml/venv/./src/vector_addition.py":10:0)) attributes {noinline = false} {
    %c1024_i32 = arith.constant 1024 : i32 loc(#loc1)
    %0 = tt.get_program_id x : i32 loc(#loc2)
    %1 = arith.muli %0, %c1024_i32 : i32 loc(#loc3)
    %2 = tt.make_range {end = 1024 : i32, start = 0 : i32} : tensor<1024xi32, #blocked> loc(#loc4)
    %3 = tt.splat %1 : i32 -> tensor<1024xi32, #blocked> loc(#loc5)
    %4 = arith.addi %3, %2 : tensor<1024xi32, #blocked> loc(#loc5)
    %5 = tt.splat %arg3 : i32 -> tensor<1024xi32, #blocked> loc(#loc6)
    %6 = arith.cmpi slt, %4, %5 : tensor<1024xi32, #blocked> loc(#loc6)
    %7 = tt.splat %arg0 : !tt.ptr<f32> -> tensor<1024x!tt.ptr<f32>, #blocked> loc(#loc7)
    %8 = tt.addptr %7, %4 : tensor<1024x!tt.ptr<f32>, #blocked>, tensor<1024xi32, #blocked> loc(#loc7)
    %9 = tt.load %8, %6 : tensor<1024x!tt.ptr<f32>, #blocked> loc(#loc8)
    %10 = tt.splat %arg1 : !tt.ptr<f32> -> tensor<1024x!tt.ptr<f32>, #blocked> loc(#loc9)
    %11 = tt.addptr %10, %4 : tensor<1024x!tt.ptr<f32>, #blocked>, tensor<1024xi32, #blocked> loc(#loc9)
    %12 = tt.load %11, %6 : tensor<1024x!tt.ptr<f32>, #blocked> loc(#loc10)
    %13 = arith.addf %9, %12 : tensor<1024xf32, #blocked> loc(#loc11)
    %14 = tt.splat %arg2 : !tt.ptr<f32> -> tensor<1024x!tt.ptr<f32>, #blocked> loc(#loc12)
    %15 = tt.addptr %14, %4 : tensor<1024x!tt.ptr<f32>, #blocked>, tensor<1024xi32, #blocked> loc(#loc12)
    tt.store %15, %13, %6 : tensor<1024x!tt.ptr<f32>, #blocked> loc(#loc13)
    tt.return loc(#loc14)
  } loc(#loc)
} loc(#loc)
#loc1 = loc(unknown)
#loc2 = loc("/home/arshadm/Workspace/projects/spinorml/venv/./src/vector_addition.py":19:24)
#loc3 = loc("/home/arshadm/Workspace/projects/spinorml/venv/./src/vector_addition.py":24:24)
#loc4 = loc("/home/arshadm/Workspace/projects/spinorml/venv/./src/vector_addition.py":25:41)
#loc5 = loc("/home/arshadm/Workspace/projects/spinorml/venv/./src/vector_addition.py":25:28)
#loc6 = loc("/home/arshadm/Workspace/projects/spinorml/venv/./src/vector_addition.py":27:21)
#loc7 = loc("/home/arshadm/Workspace/projects/spinorml/venv/./src/vector_addition.py":30:24)
#loc8 = loc("/home/arshadm/Workspace/projects/spinorml/venv/./src/vector_addition.py":30:16)
#loc9 = loc("/home/arshadm/Workspace/projects/spinorml/venv/./src/vector_addition.py":31:24)
#loc10 = loc("/home/arshadm/Workspace/projects/spinorml/venv/./src/vector_addition.py":31:16)
#loc11 = loc("/home/arshadm/Workspace/projects/spinorml/venv/./src/vector_addition.py":32:17)
#loc12 = loc("/home/arshadm/Workspace/projects/spinorml/venv/./src/vector_addition.py":34:26)
#loc13 = loc("/home/arshadm/Workspace/projects/spinorml/venv/./src/vector_addition.py":34:35)
#loc14 = loc("/home/arshadm/Workspace/projects/spinorml/venv/./src/vector_addition.py":34:4)


// -----// IR Dump Before TritonGPUCombineTensorSelectAndIf (tritongpu-combine-tensor-select-and-if) ('builtin.module' operation) //----- //
#blocked = #ttg.blocked<{sizePerThread = [4], threadsPerWarp = [32], warpsPerCTA = [4], order = [0]}>
#loc = loc("/home/arshadm/Workspace/projects/spinorml/venv/./src/vector_addition.py":10:0)
module attributes {"ttg.num-ctas" = 1 : i32, "ttg.num-warps" = 4 : i32, ttg.target = "cuda:61", "ttg.threads-per-warp" = 32 : i32} {
  tt.func public @add_kernel(%arg0: !tt.ptr<f32> {tt.divisibility = 16 : i32} loc("/home/arshadm/Workspace/projects/spinorml/venv/./src/vector_addition.py":10:0), %arg1: !tt.ptr<f32> {tt.divisibility = 16 : i32} loc("/home/arshadm/Workspace/projects/spinorml/venv/./src/vector_addition.py":10:0), %arg2: !tt.ptr<f32> {tt.divisibility = 16 : i32} loc("/home/arshadm/Workspace/projects/spinorml/venv/./src/vector_addition.py":10:0), %arg3: i32 {tt.divisibility = 16 : i32} loc("/home/arshadm/Workspace/projects/spinorml/venv/./src/vector_addition.py":10:0)) attributes {noinline = false} {
    %c1024_i32 = arith.constant 1024 : i32 loc(#loc1)
    %0 = tt.get_program_id x : i32 loc(#loc2)
    %1 = arith.muli %0, %c1024_i32 : i32 loc(#loc3)
    %2 = tt.make_range {end = 1024 : i32, start = 0 : i32} : tensor<1024xi32, #blocked> loc(#loc4)
    %3 = tt.splat %1 : i32 -> tensor<1024xi32, #blocked> loc(#loc5)
    %4 = arith.addi %3, %2 : tensor<1024xi32, #blocked> loc(#loc5)
    %5 = tt.splat %arg3 : i32 -> tensor<1024xi32, #blocked> loc(#loc6)
    %6 = arith.cmpi slt, %4, %5 : tensor<1024xi32, #blocked> loc(#loc6)
    %7 = tt.splat %arg0 : !tt.ptr<f32> -> tensor<1024x!tt.ptr<f32>, #blocked> loc(#loc7)
    %8 = tt.addptr %7, %4 : tensor<1024x!tt.ptr<f32>, #blocked>, tensor<1024xi32, #blocked> loc(#loc7)
    %9 = tt.load %8, %6 : tensor<1024x!tt.ptr<f32>, #blocked> loc(#loc8)
    %10 = tt.splat %arg1 : !tt.ptr<f32> -> tensor<1024x!tt.ptr<f32>, #blocked> loc(#loc9)
    %11 = tt.addptr %10, %4 : tensor<1024x!tt.ptr<f32>, #blocked>, tensor<1024xi32, #blocked> loc(#loc9)
    %12 = tt.load %11, %6 : tensor<1024x!tt.ptr<f32>, #blocked> loc(#loc10)
    %13 = arith.addf %9, %12 : tensor<1024xf32, #blocked> loc(#loc11)
    %14 = tt.splat %arg2 : !tt.ptr<f32> -> tensor<1024x!tt.ptr<f32>, #blocked> loc(#loc12)
    %15 = tt.addptr %14, %4 : tensor<1024x!tt.ptr<f32>, #blocked>, tensor<1024xi32, #blocked> loc(#loc12)
    tt.store %15, %13, %6 : tensor<1024x!tt.ptr<f32>, #blocked> loc(#loc13)
    tt.return loc(#loc14)
  } loc(#loc)
} loc(#loc)
#loc1 = loc(unknown)
#loc2 = loc("/home/arshadm/Workspace/projects/spinorml/venv/./src/vector_addition.py":19:24)
#loc3 = loc("/home/arshadm/Workspace/projects/spinorml/venv/./src/vector_addition.py":24:24)
#loc4 = loc("/home/arshadm/Workspace/projects/spinorml/venv/./src/vector_addition.py":25:41)
#loc5 = loc("/home/arshadm/Workspace/projects/spinorml/venv/./src/vector_addition.py":25:28)
#loc6 = loc("/home/arshadm/Workspace/projects/spinorml/venv/./src/vector_addition.py":27:21)
#loc7 = loc("/home/arshadm/Workspace/projects/spinorml/venv/./src/vector_addition.py":30:24)
#loc8 = loc("/home/arshadm/Workspace/projects/spinorml/venv/./src/vector_addition.py":30:16)
#loc9 = loc("/home/arshadm/Workspace/projects/spinorml/venv/./src/vector_addition.py":31:24)
#loc10 = loc("/home/arshadm/Workspace/projects/spinorml/venv/./src/vector_addition.py":31:16)
#loc11 = loc("/home/arshadm/Workspace/projects/spinorml/venv/./src/vector_addition.py":32:17)
#loc12 = loc("/home/arshadm/Workspace/projects/spinorml/venv/./src/vector_addition.py":34:26)
#loc13 = loc("/home/arshadm/Workspace/projects/spinorml/venv/./src/vector_addition.py":34:35)
#loc14 = loc("/home/arshadm/Workspace/projects/spinorml/venv/./src/vector_addition.py":34:4)


// -----// IR Dump Before TritonGPUAllocateWarpGroups (tritongpu-allocate-warp-groups) ('builtin.module' operation) //----- //
#blocked = #ttg.blocked<{sizePerThread = [4], threadsPerWarp = [32], warpsPerCTA = [4], order = [0]}>
#loc = loc("/home/arshadm/Workspace/projects/spinorml/venv/./src/vector_addition.py":10:0)
module attributes {"ttg.num-ctas" = 1 : i32, "ttg.num-warps" = 4 : i32, ttg.target = "cuda:61", "ttg.threads-per-warp" = 32 : i32} {
  tt.func public @add_kernel(%arg0: !tt.ptr<f32> {tt.divisibility = 16 : i32} loc("/home/arshadm/Workspace/projects/spinorml/venv/./src/vector_addition.py":10:0), %arg1: !tt.ptr<f32> {tt.divisibility = 16 : i32} loc("/home/arshadm/Workspace/projects/spinorml/venv/./src/vector_addition.py":10:0), %arg2: !tt.ptr<f32> {tt.divisibility = 16 : i32} loc("/home/arshadm/Workspace/projects/spinorml/venv/./src/vector_addition.py":10:0), %arg3: i32 {tt.divisibility = 16 : i32} loc("/home/arshadm/Workspace/projects/spinorml/venv/./src/vector_addition.py":10:0)) attributes {noinline = false} {
    %c1024_i32 = arith.constant 1024 : i32 loc(#loc1)
    %0 = tt.get_program_id x : i32 loc(#loc2)
    %1 = arith.muli %0, %c1024_i32 : i32 loc(#loc3)
    %2 = tt.make_range {end = 1024 : i32, start = 0 : i32} : tensor<1024xi32, #blocked> loc(#loc4)
    %3 = tt.splat %1 : i32 -> tensor<1024xi32, #blocked> loc(#loc5)
    %4 = arith.addi %3, %2 : tensor<1024xi32, #blocked> loc(#loc5)
    %5 = tt.splat %arg3 : i32 -> tensor<1024xi32, #blocked> loc(#loc6)
    %6 = arith.cmpi slt, %4, %5 : tensor<1024xi32, #blocked> loc(#loc6)
    %7 = tt.splat %arg0 : !tt.ptr<f32> -> tensor<1024x!tt.ptr<f32>, #blocked> loc(#loc7)
    %8 = tt.addptr %7, %4 : tensor<1024x!tt.ptr<f32>, #blocked>, tensor<1024xi32, #blocked> loc(#loc7)
    %9 = tt.load %8, %6 : tensor<1024x!tt.ptr<f32>, #blocked> loc(#loc8)
    %10 = tt.splat %arg1 : !tt.ptr<f32> -> tensor<1024x!tt.ptr<f32>, #blocked> loc(#loc9)
    %11 = tt.addptr %10, %4 : tensor<1024x!tt.ptr<f32>, #blocked>, tensor<1024xi32, #blocked> loc(#loc9)
    %12 = tt.load %11, %6 : tensor<1024x!tt.ptr<f32>, #blocked> loc(#loc10)
    %13 = arith.addf %9, %12 : tensor<1024xf32, #blocked> loc(#loc11)
    %14 = tt.splat %arg2 : !tt.ptr<f32> -> tensor<1024x!tt.ptr<f32>, #blocked> loc(#loc12)
    %15 = tt.addptr %14, %4 : tensor<1024x!tt.ptr<f32>, #blocked>, tensor<1024xi32, #blocked> loc(#loc12)
    tt.store %15, %13, %6 : tensor<1024x!tt.ptr<f32>, #blocked> loc(#loc13)
    tt.return loc(#loc14)
  } loc(#loc)
} loc(#loc)
#loc1 = loc(unknown)
#loc2 = loc("/home/arshadm/Workspace/projects/spinorml/venv/./src/vector_addition.py":19:24)
#loc3 = loc("/home/arshadm/Workspace/projects/spinorml/venv/./src/vector_addition.py":24:24)
#loc4 = loc("/home/arshadm/Workspace/projects/spinorml/venv/./src/vector_addition.py":25:41)
#loc5 = loc("/home/arshadm/Workspace/projects/spinorml/venv/./src/vector_addition.py":25:28)
#loc6 = loc("/home/arshadm/Workspace/projects/spinorml/venv/./src/vector_addition.py":27:21)
#loc7 = loc("/home/arshadm/Workspace/projects/spinorml/venv/./src/vector_addition.py":30:24)
#loc8 = loc("/home/arshadm/Workspace/projects/spinorml/venv/./src/vector_addition.py":30:16)
#loc9 = loc("/home/arshadm/Workspace/projects/spinorml/venv/./src/vector_addition.py":31:24)
#loc10 = loc("/home/arshadm/Workspace/projects/spinorml/venv/./src/vector_addition.py":31:16)
#loc11 = loc("/home/arshadm/Workspace/projects/spinorml/venv/./src/vector_addition.py":32:17)
#loc12 = loc("/home/arshadm/Workspace/projects/spinorml/venv/./src/vector_addition.py":34:26)
#loc13 = loc("/home/arshadm/Workspace/projects/spinorml/venv/./src/vector_addition.py":34:35)
#loc14 = loc("/home/arshadm/Workspace/projects/spinorml/venv/./src/vector_addition.py":34:4)


// -----// IR Dump Before SCFToControlFlowPass (convert-scf-to-cf) ('builtin.module' operation) //----- //
#blocked = #ttg.blocked<{sizePerThread = [4], threadsPerWarp = [32], warpsPerCTA = [4], order = [0]}>
#loc = loc("/home/arshadm/Workspace/projects/spinorml/venv/./src/vector_addition.py":10:0)
module attributes {"ttg.num-ctas" = 1 : i32, "ttg.num-warps" = 4 : i32, ttg.target = "cuda:61", "ttg.threads-per-warp" = 32 : i32, "ttg.total-num-warps" = 4 : i32} {
  tt.func public @add_kernel(%arg0: !tt.ptr<f32> {tt.divisibility = 16 : i32} loc("/home/arshadm/Workspace/projects/spinorml/venv/./src/vector_addition.py":10:0), %arg1: !tt.ptr<f32> {tt.divisibility = 16 : i32} loc("/home/arshadm/Workspace/projects/spinorml/venv/./src/vector_addition.py":10:0), %arg2: !tt.ptr<f32> {tt.divisibility = 16 : i32} loc("/home/arshadm/Workspace/projects/spinorml/venv/./src/vector_addition.py":10:0), %arg3: i32 {tt.divisibility = 16 : i32} loc("/home/arshadm/Workspace/projects/spinorml/venv/./src/vector_addition.py":10:0)) attributes {noinline = false} {
    %c1024_i32 = arith.constant 1024 : i32 loc(#loc1)
    %0 = tt.get_program_id x : i32 loc(#loc2)
    %1 = arith.muli %0, %c1024_i32 : i32 loc(#loc3)
    %2 = tt.make_range {end = 1024 : i32, start = 0 : i32} : tensor<1024xi32, #blocked> loc(#loc4)
    %3 = tt.splat %1 : i32 -> tensor<1024xi32, #blocked> loc(#loc5)
    %4 = arith.addi %3, %2 : tensor<1024xi32, #blocked> loc(#loc5)
    %5 = tt.splat %arg3 : i32 -> tensor<1024xi32, #blocked> loc(#loc6)
    %6 = arith.cmpi slt, %4, %5 : tensor<1024xi32, #blocked> loc(#loc6)
    %7 = tt.splat %arg0 : !tt.ptr<f32> -> tensor<1024x!tt.ptr<f32>, #blocked> loc(#loc7)
    %8 = tt.addptr %7, %4 : tensor<1024x!tt.ptr<f32>, #blocked>, tensor<1024xi32, #blocked> loc(#loc7)
    %9 = tt.load %8, %6 : tensor<1024x!tt.ptr<f32>, #blocked> loc(#loc8)
    %10 = tt.splat %arg1 : !tt.ptr<f32> -> tensor<1024x!tt.ptr<f32>, #blocked> loc(#loc9)
    %11 = tt.addptr %10, %4 : tensor<1024x!tt.ptr<f32>, #blocked>, tensor<1024xi32, #blocked> loc(#loc9)
    %12 = tt.load %11, %6 : tensor<1024x!tt.ptr<f32>, #blocked> loc(#loc10)
    %13 = arith.addf %9, %12 : tensor<1024xf32, #blocked> loc(#loc11)
    %14 = tt.splat %arg2 : !tt.ptr<f32> -> tensor<1024x!tt.ptr<f32>, #blocked> loc(#loc12)
    %15 = tt.addptr %14, %4 : tensor<1024x!tt.ptr<f32>, #blocked>, tensor<1024xi32, #blocked> loc(#loc12)
    tt.store %15, %13, %6 : tensor<1024x!tt.ptr<f32>, #blocked> loc(#loc13)
    tt.return loc(#loc14)
  } loc(#loc)
} loc(#loc)
#loc1 = loc(unknown)
#loc2 = loc("/home/arshadm/Workspace/projects/spinorml/venv/./src/vector_addition.py":19:24)
#loc3 = loc("/home/arshadm/Workspace/projects/spinorml/venv/./src/vector_addition.py":24:24)
#loc4 = loc("/home/arshadm/Workspace/projects/spinorml/venv/./src/vector_addition.py":25:41)
#loc5 = loc("/home/arshadm/Workspace/projects/spinorml/venv/./src/vector_addition.py":25:28)
#loc6 = loc("/home/arshadm/Workspace/projects/spinorml/venv/./src/vector_addition.py":27:21)
#loc7 = loc("/home/arshadm/Workspace/projects/spinorml/venv/./src/vector_addition.py":30:24)
#loc8 = loc("/home/arshadm/Workspace/projects/spinorml/venv/./src/vector_addition.py":30:16)
#loc9 = loc("/home/arshadm/Workspace/projects/spinorml/venv/./src/vector_addition.py":31:24)
#loc10 = loc("/home/arshadm/Workspace/projects/spinorml/venv/./src/vector_addition.py":31:16)
#loc11 = loc("/home/arshadm/Workspace/projects/spinorml/venv/./src/vector_addition.py":32:17)
#loc12 = loc("/home/arshadm/Workspace/projects/spinorml/venv/./src/vector_addition.py":34:26)
#loc13 = loc("/home/arshadm/Workspace/projects/spinorml/venv/./src/vector_addition.py":34:35)
#loc14 = loc("/home/arshadm/Workspace/projects/spinorml/venv/./src/vector_addition.py":34:4)


// -----// IR Dump Before AllocateSharedMemory (allocate-shared-memory) ('builtin.module' operation) //----- //
#blocked = #ttg.blocked<{sizePerThread = [4], threadsPerWarp = [32], warpsPerCTA = [4], order = [0]}>
#loc = loc("/home/arshadm/Workspace/projects/spinorml/venv/./src/vector_addition.py":10:0)
module attributes {"ttg.num-ctas" = 1 : i32, "ttg.num-warps" = 4 : i32, ttg.target = "cuda:61", "ttg.threads-per-warp" = 32 : i32, "ttg.total-num-warps" = 4 : i32} {
  tt.func public @add_kernel(%arg0: !tt.ptr<f32> {tt.divisibility = 16 : i32} loc("/home/arshadm/Workspace/projects/spinorml/venv/./src/vector_addition.py":10:0), %arg1: !tt.ptr<f32> {tt.divisibility = 16 : i32} loc("/home/arshadm/Workspace/projects/spinorml/venv/./src/vector_addition.py":10:0), %arg2: !tt.ptr<f32> {tt.divisibility = 16 : i32} loc("/home/arshadm/Workspace/projects/spinorml/venv/./src/vector_addition.py":10:0), %arg3: i32 {tt.divisibility = 16 : i32} loc("/home/arshadm/Workspace/projects/spinorml/venv/./src/vector_addition.py":10:0)) attributes {noinline = false} {
    %c1024_i32 = arith.constant 1024 : i32 loc(#loc1)
    %0 = tt.get_program_id x : i32 loc(#loc2)
    %1 = arith.muli %0, %c1024_i32 : i32 loc(#loc3)
    %2 = tt.make_range {end = 1024 : i32, start = 0 : i32} : tensor<1024xi32, #blocked> loc(#loc4)
    %3 = tt.splat %1 : i32 -> tensor<1024xi32, #blocked> loc(#loc5)
    %4 = arith.addi %3, %2 : tensor<1024xi32, #blocked> loc(#loc5)
    %5 = tt.splat %arg3 : i32 -> tensor<1024xi32, #blocked> loc(#loc6)
    %6 = arith.cmpi slt, %4, %5 : tensor<1024xi32, #blocked> loc(#loc6)
    %7 = tt.splat %arg0 : !tt.ptr<f32> -> tensor<1024x!tt.ptr<f32>, #blocked> loc(#loc7)
    %8 = tt.addptr %7, %4 : tensor<1024x!tt.ptr<f32>, #blocked>, tensor<1024xi32, #blocked> loc(#loc7)
    %9 = tt.load %8, %6 : tensor<1024x!tt.ptr<f32>, #blocked> loc(#loc8)
    %10 = tt.splat %arg1 : !tt.ptr<f32> -> tensor<1024x!tt.ptr<f32>, #blocked> loc(#loc9)
    %11 = tt.addptr %10, %4 : tensor<1024x!tt.ptr<f32>, #blocked>, tensor<1024xi32, #blocked> loc(#loc9)
    %12 = tt.load %11, %6 : tensor<1024x!tt.ptr<f32>, #blocked> loc(#loc10)
    %13 = arith.addf %9, %12 : tensor<1024xf32, #blocked> loc(#loc11)
    %14 = tt.splat %arg2 : !tt.ptr<f32> -> tensor<1024x!tt.ptr<f32>, #blocked> loc(#loc12)
    %15 = tt.addptr %14, %4 : tensor<1024x!tt.ptr<f32>, #blocked>, tensor<1024xi32, #blocked> loc(#loc12)
    tt.store %15, %13, %6 : tensor<1024x!tt.ptr<f32>, #blocked> loc(#loc13)
    tt.return loc(#loc14)
  } loc(#loc)
} loc(#loc)
#loc1 = loc(unknown)
#loc2 = loc("/home/arshadm/Workspace/projects/spinorml/venv/./src/vector_addition.py":19:24)
#loc3 = loc("/home/arshadm/Workspace/projects/spinorml/venv/./src/vector_addition.py":24:24)
#loc4 = loc("/home/arshadm/Workspace/projects/spinorml/venv/./src/vector_addition.py":25:41)
#loc5 = loc("/home/arshadm/Workspace/projects/spinorml/venv/./src/vector_addition.py":25:28)
#loc6 = loc("/home/arshadm/Workspace/projects/spinorml/venv/./src/vector_addition.py":27:21)
#loc7 = loc("/home/arshadm/Workspace/projects/spinorml/venv/./src/vector_addition.py":30:24)
#loc8 = loc("/home/arshadm/Workspace/projects/spinorml/venv/./src/vector_addition.py":30:16)
#loc9 = loc("/home/arshadm/Workspace/projects/spinorml/venv/./src/vector_addition.py":31:24)
#loc10 = loc("/home/arshadm/Workspace/projects/spinorml/venv/./src/vector_addition.py":31:16)
#loc11 = loc("/home/arshadm/Workspace/projects/spinorml/venv/./src/vector_addition.py":32:17)
#loc12 = loc("/home/arshadm/Workspace/projects/spinorml/venv/./src/vector_addition.py":34:26)
#loc13 = loc("/home/arshadm/Workspace/projects/spinorml/venv/./src/vector_addition.py":34:35)
#loc14 = loc("/home/arshadm/Workspace/projects/spinorml/venv/./src/vector_addition.py":34:4)


// -----// IR Dump Before TritionTensorMemoryAllocationPass (triton-tensor-memory-allocation) ('builtin.module' operation) //----- //
#blocked = #ttg.blocked<{sizePerThread = [4], threadsPerWarp = [32], warpsPerCTA = [4], order = [0]}>
#loc = loc("/home/arshadm/Workspace/projects/spinorml/venv/./src/vector_addition.py":10:0)
module attributes {"ttg.num-ctas" = 1 : i32, "ttg.num-warps" = 4 : i32, ttg.shared = 0 : i32, ttg.target = "cuda:61", "ttg.threads-per-warp" = 32 : i32, "ttg.total-num-warps" = 4 : i32} {
  tt.func public @add_kernel(%arg0: !tt.ptr<f32> {tt.divisibility = 16 : i32} loc("/home/arshadm/Workspace/projects/spinorml/venv/./src/vector_addition.py":10:0), %arg1: !tt.ptr<f32> {tt.divisibility = 16 : i32} loc("/home/arshadm/Workspace/projects/spinorml/venv/./src/vector_addition.py":10:0), %arg2: !tt.ptr<f32> {tt.divisibility = 16 : i32} loc("/home/arshadm/Workspace/projects/spinorml/venv/./src/vector_addition.py":10:0), %arg3: i32 {tt.divisibility = 16 : i32} loc("/home/arshadm/Workspace/projects/spinorml/venv/./src/vector_addition.py":10:0)) attributes {noinline = false} {
    %c1024_i32 = arith.constant 1024 : i32 loc(#loc1)
    %0 = tt.get_program_id x : i32 loc(#loc2)
    %1 = arith.muli %0, %c1024_i32 : i32 loc(#loc3)
    %2 = tt.make_range {end = 1024 : i32, start = 0 : i32} : tensor<1024xi32, #blocked> loc(#loc4)
    %3 = tt.splat %1 : i32 -> tensor<1024xi32, #blocked> loc(#loc5)
    %4 = arith.addi %3, %2 : tensor<1024xi32, #blocked> loc(#loc5)
    %5 = tt.splat %arg3 : i32 -> tensor<1024xi32, #blocked> loc(#loc6)
    %6 = arith.cmpi slt, %4, %5 : tensor<1024xi32, #blocked> loc(#loc6)
    %7 = tt.splat %arg0 : !tt.ptr<f32> -> tensor<1024x!tt.ptr<f32>, #blocked> loc(#loc7)
    %8 = tt.addptr %7, %4 : tensor<1024x!tt.ptr<f32>, #blocked>, tensor<1024xi32, #blocked> loc(#loc7)
    %9 = tt.load %8, %6 : tensor<1024x!tt.ptr<f32>, #blocked> loc(#loc8)
    %10 = tt.splat %arg1 : !tt.ptr<f32> -> tensor<1024x!tt.ptr<f32>, #blocked> loc(#loc9)
    %11 = tt.addptr %10, %4 : tensor<1024x!tt.ptr<f32>, #blocked>, tensor<1024xi32, #blocked> loc(#loc9)
    %12 = tt.load %11, %6 : tensor<1024x!tt.ptr<f32>, #blocked> loc(#loc10)
    %13 = arith.addf %9, %12 : tensor<1024xf32, #blocked> loc(#loc11)
    %14 = tt.splat %arg2 : !tt.ptr<f32> -> tensor<1024x!tt.ptr<f32>, #blocked> loc(#loc12)
    %15 = tt.addptr %14, %4 : tensor<1024x!tt.ptr<f32>, #blocked>, tensor<1024xi32, #blocked> loc(#loc12)
    tt.store %15, %13, %6 : tensor<1024x!tt.ptr<f32>, #blocked> loc(#loc13)
    tt.return loc(#loc14)
  } loc(#loc)
} loc(#loc)
#loc1 = loc(unknown)
#loc2 = loc("/home/arshadm/Workspace/projects/spinorml/venv/./src/vector_addition.py":19:24)
#loc3 = loc("/home/arshadm/Workspace/projects/spinorml/venv/./src/vector_addition.py":24:24)
#loc4 = loc("/home/arshadm/Workspace/projects/spinorml/venv/./src/vector_addition.py":25:41)
#loc5 = loc("/home/arshadm/Workspace/projects/spinorml/venv/./src/vector_addition.py":25:28)
#loc6 = loc("/home/arshadm/Workspace/projects/spinorml/venv/./src/vector_addition.py":27:21)
#loc7 = loc("/home/arshadm/Workspace/projects/spinorml/venv/./src/vector_addition.py":30:24)
#loc8 = loc("/home/arshadm/Workspace/projects/spinorml/venv/./src/vector_addition.py":30:16)
#loc9 = loc("/home/arshadm/Workspace/projects/spinorml/venv/./src/vector_addition.py":31:24)
#loc10 = loc("/home/arshadm/Workspace/projects/spinorml/venv/./src/vector_addition.py":31:16)
#loc11 = loc("/home/arshadm/Workspace/projects/spinorml/venv/./src/vector_addition.py":32:17)
#loc12 = loc("/home/arshadm/Workspace/projects/spinorml/venv/./src/vector_addition.py":34:26)
#loc13 = loc("/home/arshadm/Workspace/projects/spinorml/venv/./src/vector_addition.py":34:35)
#loc14 = loc("/home/arshadm/Workspace/projects/spinorml/venv/./src/vector_addition.py":34:4)


// -----// IR Dump Before TritonGPUGlobalScratchAllocationPass (tritongpu-global-scratch-memory-allocation) ('builtin.module' operation) //----- //
#blocked = #ttg.blocked<{sizePerThread = [4], threadsPerWarp = [32], warpsPerCTA = [4], order = [0]}>
#loc = loc("/home/arshadm/Workspace/projects/spinorml/venv/./src/vector_addition.py":10:0)
module attributes {"ttg.num-ctas" = 1 : i32, "ttg.num-warps" = 4 : i32, ttg.shared = 0 : i32, ttg.target = "cuda:61", ttg.tensor_memory_size = 0 : i32, "ttg.threads-per-warp" = 32 : i32, "ttg.total-num-warps" = 4 : i32} {
  tt.func public @add_kernel(%arg0: !tt.ptr<f32> {tt.divisibility = 16 : i32} loc("/home/arshadm/Workspace/projects/spinorml/venv/./src/vector_addition.py":10:0), %arg1: !tt.ptr<f32> {tt.divisibility = 16 : i32} loc("/home/arshadm/Workspace/projects/spinorml/venv/./src/vector_addition.py":10:0), %arg2: !tt.ptr<f32> {tt.divisibility = 16 : i32} loc("/home/arshadm/Workspace/projects/spinorml/venv/./src/vector_addition.py":10:0), %arg3: i32 {tt.divisibility = 16 : i32} loc("/home/arshadm/Workspace/projects/spinorml/venv/./src/vector_addition.py":10:0)) attributes {noinline = false} {
    %c1024_i32 = arith.constant 1024 : i32 loc(#loc1)
    %0 = tt.get_program_id x : i32 loc(#loc2)
    %1 = arith.muli %0, %c1024_i32 : i32 loc(#loc3)
    %2 = tt.make_range {end = 1024 : i32, start = 0 : i32} : tensor<1024xi32, #blocked> loc(#loc4)
    %3 = tt.splat %1 : i32 -> tensor<1024xi32, #blocked> loc(#loc5)
    %4 = arith.addi %3, %2 : tensor<1024xi32, #blocked> loc(#loc5)
    %5 = tt.splat %arg3 : i32 -> tensor<1024xi32, #blocked> loc(#loc6)
    %6 = arith.cmpi slt, %4, %5 : tensor<1024xi32, #blocked> loc(#loc6)
    %7 = tt.splat %arg0 : !tt.ptr<f32> -> tensor<1024x!tt.ptr<f32>, #blocked> loc(#loc7)
    %8 = tt.addptr %7, %4 : tensor<1024x!tt.ptr<f32>, #blocked>, tensor<1024xi32, #blocked> loc(#loc7)
    %9 = tt.load %8, %6 : tensor<1024x!tt.ptr<f32>, #blocked> loc(#loc8)
    %10 = tt.splat %arg1 : !tt.ptr<f32> -> tensor<1024x!tt.ptr<f32>, #blocked> loc(#loc9)
    %11 = tt.addptr %10, %4 : tensor<1024x!tt.ptr<f32>, #blocked>, tensor<1024xi32, #blocked> loc(#loc9)
    %12 = tt.load %11, %6 : tensor<1024x!tt.ptr<f32>, #blocked> loc(#loc10)
    %13 = arith.addf %9, %12 : tensor<1024xf32, #blocked> loc(#loc11)
    %14 = tt.splat %arg2 : !tt.ptr<f32> -> tensor<1024x!tt.ptr<f32>, #blocked> loc(#loc12)
    %15 = tt.addptr %14, %4 : tensor<1024x!tt.ptr<f32>, #blocked>, tensor<1024xi32, #blocked> loc(#loc12)
    tt.store %15, %13, %6 : tensor<1024x!tt.ptr<f32>, #blocked> loc(#loc13)
    tt.return loc(#loc14)
  } loc(#loc)
} loc(#loc)
#loc1 = loc(unknown)
#loc2 = loc("/home/arshadm/Workspace/projects/spinorml/venv/./src/vector_addition.py":19:24)
#loc3 = loc("/home/arshadm/Workspace/projects/spinorml/venv/./src/vector_addition.py":24:24)
#loc4 = loc("/home/arshadm/Workspace/projects/spinorml/venv/./src/vector_addition.py":25:41)
#loc5 = loc("/home/arshadm/Workspace/projects/spinorml/venv/./src/vector_addition.py":25:28)
#loc6 = loc("/home/arshadm/Workspace/projects/spinorml/venv/./src/vector_addition.py":27:21)
#loc7 = loc("/home/arshadm/Workspace/projects/spinorml/venv/./src/vector_addition.py":30:24)
#loc8 = loc("/home/arshadm/Workspace/projects/spinorml/venv/./src/vector_addition.py":30:16)
#loc9 = loc("/home/arshadm/Workspace/projects/spinorml/venv/./src/vector_addition.py":31:24)
#loc10 = loc("/home/arshadm/Workspace/projects/spinorml/venv/./src/vector_addition.py":31:16)
#loc11 = loc("/home/arshadm/Workspace/projects/spinorml/venv/./src/vector_addition.py":32:17)
#loc12 = loc("/home/arshadm/Workspace/projects/spinorml/venv/./src/vector_addition.py":34:26)
#loc13 = loc("/home/arshadm/Workspace/projects/spinorml/venv/./src/vector_addition.py":34:35)
#loc14 = loc("/home/arshadm/Workspace/projects/spinorml/venv/./src/vector_addition.py":34:4)


// -----// IR Dump Before ConvertTritonGPUToLLVM (convert-triton-gpu-to-llvm) ('builtin.module' operation) //----- //
#blocked = #ttg.blocked<{sizePerThread = [4], threadsPerWarp = [32], warpsPerCTA = [4], order = [0]}>
#loc = loc("/home/arshadm/Workspace/projects/spinorml/venv/./src/vector_addition.py":10:0)
module attributes {ttg.global_scratch_memory_alignment = 1 : i32, ttg.global_scratch_memory_size = 0 : i32, "ttg.num-ctas" = 1 : i32, "ttg.num-warps" = 4 : i32, ttg.shared = 0 : i32, ttg.target = "cuda:61", ttg.tensor_memory_size = 0 : i32, "ttg.threads-per-warp" = 32 : i32, "ttg.total-num-warps" = 4 : i32} {
  tt.func public @add_kernel(%arg0: !tt.ptr<f32> {tt.divisibility = 16 : i32} loc("/home/arshadm/Workspace/projects/spinorml/venv/./src/vector_addition.py":10:0), %arg1: !tt.ptr<f32> {tt.divisibility = 16 : i32} loc("/home/arshadm/Workspace/projects/spinorml/venv/./src/vector_addition.py":10:0), %arg2: !tt.ptr<f32> {tt.divisibility = 16 : i32} loc("/home/arshadm/Workspace/projects/spinorml/venv/./src/vector_addition.py":10:0), %arg3: i32 {tt.divisibility = 16 : i32} loc("/home/arshadm/Workspace/projects/spinorml/venv/./src/vector_addition.py":10:0)) attributes {noinline = false, ttg.global_scratch_memory_alignment = 1 : i32, ttg.global_scratch_memory_size = 0 : i32} {
    %c1024_i32 = arith.constant 1024 : i32 loc(#loc1)
    %0 = tt.get_program_id x : i32 loc(#loc2)
    %1 = arith.muli %0, %c1024_i32 : i32 loc(#loc3)
    %2 = tt.make_range {end = 1024 : i32, start = 0 : i32} : tensor<1024xi32, #blocked> loc(#loc4)
    %3 = tt.splat %1 : i32 -> tensor<1024xi32, #blocked> loc(#loc5)
    %4 = arith.addi %3, %2 : tensor<1024xi32, #blocked> loc(#loc5)
    %5 = tt.splat %arg3 : i32 -> tensor<1024xi32, #blocked> loc(#loc6)
    %6 = arith.cmpi slt, %4, %5 : tensor<1024xi32, #blocked> loc(#loc6)
    %7 = tt.splat %arg0 : !tt.ptr<f32> -> tensor<1024x!tt.ptr<f32>, #blocked> loc(#loc7)
    %8 = tt.addptr %7, %4 : tensor<1024x!tt.ptr<f32>, #blocked>, tensor<1024xi32, #blocked> loc(#loc7)
    %9 = tt.load %8, %6 : tensor<1024x!tt.ptr<f32>, #blocked> loc(#loc8)
    %10 = tt.splat %arg1 : !tt.ptr<f32> -> tensor<1024x!tt.ptr<f32>, #blocked> loc(#loc9)
    %11 = tt.addptr %10, %4 : tensor<1024x!tt.ptr<f32>, #blocked>, tensor<1024xi32, #blocked> loc(#loc9)
    %12 = tt.load %11, %6 : tensor<1024x!tt.ptr<f32>, #blocked> loc(#loc10)
    %13 = arith.addf %9, %12 : tensor<1024xf32, #blocked> loc(#loc11)
    %14 = tt.splat %arg2 : !tt.ptr<f32> -> tensor<1024x!tt.ptr<f32>, #blocked> loc(#loc12)
    %15 = tt.addptr %14, %4 : tensor<1024x!tt.ptr<f32>, #blocked>, tensor<1024xi32, #blocked> loc(#loc12)
    tt.store %15, %13, %6 : tensor<1024x!tt.ptr<f32>, #blocked> loc(#loc13)
    tt.return loc(#loc14)
  } loc(#loc)
} loc(#loc)
#loc1 = loc(unknown)
#loc2 = loc("/home/arshadm/Workspace/projects/spinorml/venv/./src/vector_addition.py":19:24)
#loc3 = loc("/home/arshadm/Workspace/projects/spinorml/venv/./src/vector_addition.py":24:24)
#loc4 = loc("/home/arshadm/Workspace/projects/spinorml/venv/./src/vector_addition.py":25:41)
#loc5 = loc("/home/arshadm/Workspace/projects/spinorml/venv/./src/vector_addition.py":25:28)
#loc6 = loc("/home/arshadm/Workspace/projects/spinorml/venv/./src/vector_addition.py":27:21)
#loc7 = loc("/home/arshadm/Workspace/projects/spinorml/venv/./src/vector_addition.py":30:24)
#loc8 = loc("/home/arshadm/Workspace/projects/spinorml/venv/./src/vector_addition.py":30:16)
#loc9 = loc("/home/arshadm/Workspace/projects/spinorml/venv/./src/vector_addition.py":31:24)
#loc10 = loc("/home/arshadm/Workspace/projects/spinorml/venv/./src/vector_addition.py":31:16)
#loc11 = loc("/home/arshadm/Workspace/projects/spinorml/venv/./src/vector_addition.py":32:17)
#loc12 = loc("/home/arshadm/Workspace/projects/spinorml/venv/./src/vector_addition.py":34:26)
#loc13 = loc("/home/arshadm/Workspace/projects/spinorml/venv/./src/vector_addition.py":34:35)
#loc14 = loc("/home/arshadm/Workspace/projects/spinorml/venv/./src/vector_addition.py":34:4)


// -----// IR Dump Before Canonicalizer (canonicalize) ('builtin.module' operation) //----- //
#loc = loc("/home/arshadm/Workspace/projects/spinorml/venv/./src/vector_addition.py":10:0)
module attributes {ttg.global_scratch_memory_alignment = 1 : i32, ttg.global_scratch_memory_size = 0 : i32, "ttg.num-ctas" = 1 : i32, "ttg.num-warps" = 4 : i32, ttg.shared = 0 : i32, ttg.target = "cuda:61", ttg.tensor_memory_size = 0 : i32, "ttg.threads-per-warp" = 32 : i32, "ttg.total-num-warps" = 4 : i32} {
  llvm.mlir.global external @global_smem() {addr_space = 3 : i32, alignment = 16 : i64} : !llvm.array<0 x i8> loc(#loc)
  llvm.func @add_kernel(%arg0: !llvm.ptr<1> {tt.divisibility = 16 : i32} loc("/home/arshadm/Workspace/projects/spinorml/venv/./src/vector_addition.py":10:0), %arg1: !llvm.ptr<1> {tt.divisibility = 16 : i32} loc("/home/arshadm/Workspace/projects/spinorml/venv/./src/vector_addition.py":10:0), %arg2: !llvm.ptr<1> {tt.divisibility = 16 : i32} loc("/home/arshadm/Workspace/projects/spinorml/venv/./src/vector_addition.py":10:0), %arg3: i32 {tt.divisibility = 16 : i32} loc("/home/arshadm/Workspace/projects/spinorml/venv/./src/vector_addition.py":10:0), %arg4: !llvm.ptr<1> loc("/home/arshadm/Workspace/projects/spinorml/venv/./src/vector_addition.py":10:0)) attributes {noinline = false, nvvm.kernel = 1 : ui1, nvvm.reqntid = array<i32: 128>, ttg.global_scratch_memory_alignment = 1 : i32, ttg.global_scratch_memory_size = 0 : i32} {
    %0 = llvm.mlir.constant(1024 : i32) : i32 loc(#loc1)
    %1 = llvm.call_intrinsic "llvm.nvvm.read.ptx.sreg.ctaid.x"() : () -> i32 loc(#loc2)
    %2 = llvm.mul %1, %0 : i32 loc(#loc3)
    %3 = llvm.mlir.constant(0 : index) : i32 loc(#loc4)
    %4 = nvvm.read.ptx.sreg.tid.x : i32 loc(#loc4)
    %5 = llvm.mlir.constant(32 : i32) : i32 loc(#loc4)
    %6 = llvm.urem %4, %5 : i32 loc(#loc4)
    %7 = llvm.udiv %4, %5 : i32 loc(#loc4)
    %8 = llvm.mlir.constant(0 : i32) : i32 loc(#loc4)
    %9 = nvgpu.cluster_id loc(#loc4)
    %10 = llvm.mlir.constant(0 : i32) : i32 loc(#loc4)
    %11 = llvm.mlir.constant(0 : i32) : i32 loc(#loc4)
    %12 = llvm.mlir.constant(1 : i32) : i32 loc(#loc4)
    %13 = llvm.and %6, %12 : i32 loc(#loc4)
    %14 = llvm.icmp "eq" %13, %11 : i32 loc(#loc4)
    %15 = llvm.mlir.constant(4 : i32) : i32 loc(#loc4)
    %16 = llvm.select %14, %11, %15 : i1, i32 loc(#loc4)
    %17 = llvm.xor %11, %16 : i32 loc(#loc4)
    %18 = llvm.mlir.constant(2 : i32) : i32 loc(#loc4)
    %19 = llvm.and %6, %18 : i32 loc(#loc4)
    %20 = llvm.icmp "eq" %19, %11 : i32 loc(#loc4)
    %21 = llvm.mlir.constant(8 : i32) : i32 loc(#loc4)
    %22 = llvm.select %20, %11, %21 : i1, i32 loc(#loc4)
    %23 = llvm.xor %17, %22 : i32 loc(#loc4)
    %24 = llvm.mlir.constant(4 : i32) : i32 loc(#loc4)
    %25 = llvm.and %6, %24 : i32 loc(#loc4)
    %26 = llvm.icmp "eq" %25, %11 : i32 loc(#loc4)
    %27 = llvm.mlir.constant(16 : i32) : i32 loc(#loc4)
    %28 = llvm.select %26, %11, %27 : i1, i32 loc(#loc4)
    %29 = llvm.xor %23, %28 : i32 loc(#loc4)
    %30 = llvm.mlir.constant(8 : i32) : i32 loc(#loc4)
    %31 = llvm.and %6, %30 : i32 loc(#loc4)
    %32 = llvm.icmp "eq" %31, %11 : i32 loc(#loc4)
    %33 = llvm.mlir.constant(32 : i32) : i32 loc(#loc4)
    %34 = llvm.select %32, %11, %33 : i1, i32 loc(#loc4)
    %35 = llvm.xor %29, %34 : i32 loc(#loc4)
    %36 = llvm.mlir.constant(16 : i32) : i32 loc(#loc4)
    %37 = llvm.and %6, %36 : i32 loc(#loc4)
    %38 = llvm.icmp "eq" %37, %11 : i32 loc(#loc4)
    %39 = llvm.mlir.constant(64 : i32) : i32 loc(#loc4)
    %40 = llvm.select %38, %11, %39 : i1, i32 loc(#loc4)
    %41 = llvm.xor %35, %40 : i32 loc(#loc4)
    %42 = llvm.mlir.constant(1 : i32) : i32 loc(#loc4)
    %43 = llvm.and %7, %42 : i32 loc(#loc4)
    %44 = llvm.icmp "eq" %43, %11 : i32 loc(#loc4)
    %45 = llvm.mlir.constant(128 : i32) : i32 loc(#loc4)
    %46 = llvm.select %44, %11, %45 : i1, i32 loc(#loc4)
    %47 = llvm.xor %41, %46 : i32 loc(#loc4)
    %48 = llvm.mlir.constant(2 : i32) : i32 loc(#loc4)
    %49 = llvm.and %7, %48 : i32 loc(#loc4)
    %50 = llvm.icmp "eq" %49, %11 : i32 loc(#loc4)
    %51 = llvm.mlir.constant(256 : i32) : i32 loc(#loc4)
    %52 = llvm.select %50, %11, %51 : i1, i32 loc(#loc4)
    %53 = llvm.xor %47, %52 : i32 loc(#loc4)
    %54 = llvm.mlir.constant(0 : i32) : i32 loc(#loc4)
    %55 = llvm.xor %53, %54 : i32 loc(#loc4)
    %56 = llvm.mlir.constant(1 : i32) : i32 loc(#loc4)
    %57 = llvm.xor %53, %56 : i32 loc(#loc4)
    %58 = llvm.mlir.constant(2 : i32) : i32 loc(#loc4)
    %59 = llvm.xor %53, %58 : i32 loc(#loc4)
    %60 = llvm.mlir.constant(3 : i32) : i32 loc(#loc4)
    %61 = llvm.xor %53, %60 : i32 loc(#loc4)
    %62 = llvm.mlir.constant(512 : i32) : i32 loc(#loc4)
    %63 = llvm.xor %53, %62 : i32 loc(#loc4)
    %64 = llvm.mlir.constant(513 : i32) : i32 loc(#loc4)
    %65 = llvm.xor %53, %64 : i32 loc(#loc4)
    %66 = llvm.mlir.constant(514 : i32) : i32 loc(#loc4)
    %67 = llvm.xor %53, %66 : i32 loc(#loc4)
    %68 = llvm.mlir.constant(515 : i32) : i32 loc(#loc4)
    %69 = llvm.xor %53, %68 : i32 loc(#loc4)
    %70 = llvm.add %55, %3 : i32 loc(#loc4)
    %71 = llvm.add %57, %3 : i32 loc(#loc4)
    %72 = llvm.add %59, %3 : i32 loc(#loc4)
    %73 = llvm.add %61, %3 : i32 loc(#loc4)
    %74 = llvm.add %63, %3 : i32 loc(#loc4)
    %75 = llvm.add %65, %3 : i32 loc(#loc4)
    %76 = llvm.add %67, %3 : i32 loc(#loc4)
    %77 = llvm.add %69, %3 : i32 loc(#loc4)
    %78 = llvm.mlir.undef : !llvm.struct<(i32, i32, i32, i32, i32, i32, i32, i32)> loc(#loc4)
    %79 = llvm.insertvalue %70, %78[0] : !llvm.struct<(i32, i32, i32, i32, i32, i32, i32, i32)>  loc(#loc4)
    %80 = llvm.insertvalue %71, %79[1] : !llvm.struct<(i32, i32, i32, i32, i32, i32, i32, i32)>  loc(#loc4)
    %81 = llvm.insertvalue %72, %80[2] : !llvm.struct<(i32, i32, i32, i32, i32, i32, i32, i32)>  loc(#loc4)
    %82 = llvm.insertvalue %73, %81[3] : !llvm.struct<(i32, i32, i32, i32, i32, i32, i32, i32)>  loc(#loc4)
    %83 = llvm.insertvalue %74, %82[4] : !llvm.struct<(i32, i32, i32, i32, i32, i32, i32, i32)>  loc(#loc4)
    %84 = llvm.insertvalue %75, %83[5] : !llvm.struct<(i32, i32, i32, i32, i32, i32, i32, i32)>  loc(#loc4)
    %85 = llvm.insertvalue %76, %84[6] : !llvm.struct<(i32, i32, i32, i32, i32, i32, i32, i32)>  loc(#loc4)
    %86 = llvm.insertvalue %77, %85[7] : !llvm.struct<(i32, i32, i32, i32, i32, i32, i32, i32)>  loc(#loc4)
    %87 = llvm.bitcast %2 : i32 to i32 loc(#loc5)
    %88 = llvm.mlir.undef : !llvm.struct<(i32, i32, i32, i32, i32, i32, i32, i32)> loc(#loc5)
    %89 = llvm.insertvalue %87, %88[0] : !llvm.struct<(i32, i32, i32, i32, i32, i32, i32, i32)>  loc(#loc5)
    %90 = llvm.insertvalue %87, %89[1] : !llvm.struct<(i32, i32, i32, i32, i32, i32, i32, i32)>  loc(#loc5)
    %91 = llvm.insertvalue %87, %90[2] : !llvm.struct<(i32, i32, i32, i32, i32, i32, i32, i32)>  loc(#loc5)
    %92 = llvm.insertvalue %87, %91[3] : !llvm.struct<(i32, i32, i32, i32, i32, i32, i32, i32)>  loc(#loc5)
    %93 = llvm.insertvalue %87, %92[4] : !llvm.struct<(i32, i32, i32, i32, i32, i32, i32, i32)>  loc(#loc5)
    %94 = llvm.insertvalue %87, %93[5] : !llvm.struct<(i32, i32, i32, i32, i32, i32, i32, i32)>  loc(#loc5)
    %95 = llvm.insertvalue %87, %94[6] : !llvm.struct<(i32, i32, i32, i32, i32, i32, i32, i32)>  loc(#loc5)
    %96 = llvm.insertvalue %87, %95[7] : !llvm.struct<(i32, i32, i32, i32, i32, i32, i32, i32)>  loc(#loc5)
    %97 = llvm.extractvalue %96[0] : !llvm.struct<(i32, i32, i32, i32, i32, i32, i32, i32)>  loc(#loc5)
…
    %8 = llvm.mlir.constant(4 : i32) : i32 loc(#loc1)
    %9 = llvm.mlir.constant(1 : i32) : i32 loc(#loc1)
    %10 = llvm.mlir.constant(0 : i32) : i32 loc(#loc1)
    %11 = llvm.mlir.constant(32 : i32) : i32 loc(#loc1)
    %12 = llvm.mlir.constant(0 : index) : i32 loc(#loc1)
    %13 = llvm.mlir.constant(1024 : i32) : i32 loc(#loc1)
    %14 = llvm.call_intrinsic "llvm.nvvm.read.ptx.sreg.ctaid.x"() : () -> i32 loc(#loc2)
    %15 = llvm.mul %14, %13 : i32 loc(#loc3)
    %16 = nvvm.read.ptx.sreg.tid.x : i32 loc(#loc4)
    %17 = llvm.urem %16, %11 : i32 loc(#loc4)
    %18 = llvm.udiv %16, %11 : i32 loc(#loc4)
    %19 = llvm.and %17, %9 : i32 loc(#loc4)
    %20 = llvm.icmp "eq" %19, %10 : i32 loc(#loc4)
    %21 = llvm.select %20, %10, %8 : i1, i32 loc(#loc4)
    %22 = llvm.xor %10, %21 : i32 loc(#loc4)
    %23 = llvm.and %17, %7 : i32 loc(#loc4)
    %24 = llvm.icmp "eq" %23, %10 : i32 loc(#loc4)
    %25 = llvm.select %24, %10, %6 : i1, i32 loc(#loc4)
    %26 = llvm.xor %22, %25 : i32 loc(#loc4)
    %27 = llvm.and %17, %8 : i32 loc(#loc4)
    %28 = llvm.icmp "eq" %27, %10 : i32 loc(#loc4)
    %29 = llvm.select %28, %10, %5 : i1, i32 loc(#loc4)
    %30 = llvm.xor %26, %29 : i32 loc(#loc4)
    %31 = llvm.and %17, %6 : i32 loc(#loc4)
    %32 = llvm.icmp "eq" %31, %10 : i32 loc(#loc4)
    %33 = llvm.select %32, %10, %11 : i1, i32 loc(#loc4)
    %34 = llvm.xor %30, %33 : i32 loc(#loc4)
    %35 = llvm.and %17, %5 : i32 loc(#loc4)
    %36 = llvm.icmp "eq" %35, %10 : i32 loc(#loc4)
    %37 = llvm.select %36, %10, %4 : i1, i32 loc(#loc4)
    %38 = llvm.xor %34, %37 : i32 loc(#loc4)
    %39 = llvm.and %18, %9 : i32 loc(#loc4)
    %40 = llvm.icmp "eq" %39, %10 : i32 loc(#loc4)
    %41 = llvm.select %40, %10, %3 : i1, i32 loc(#loc4)
    %42 = llvm.xor %38, %41 : i32 loc(#loc4)
    %43 = llvm.and %18, %7 : i32 loc(#loc4)
    %44 = llvm.icmp "eq" %43, %10 : i32 loc(#loc4)
    %45 = llvm.select %44, %10, %2 : i1, i32 loc(#loc4)
    %46 = llvm.xor %42, %45 : i32 loc(#loc4)
    %47 = llvm.xor %46, %10 : i32 loc(#loc4)
    %48 = llvm.xor %46, %1 : i32 loc(#loc4)
    %49 = llvm.add %47, %12 : i32 loc(#loc4)
    %50 = llvm.add %48, %12 : i32 loc(#loc4)
    %51 = llvm.add %15, %49 : i32 loc(#loc5)
    %52 = llvm.add %15, %50 : i32 loc(#loc5)
    %53 = llvm.icmp "slt" %51, %arg3 : i32 loc(#loc6)
    %54 = llvm.icmp "slt" %52, %arg3 : i32 loc(#loc6)
    %55 = llvm.getelementptr %arg0[%51] : (!llvm.ptr<1>, i32) -> !llvm.ptr<1>, f32 loc(#loc7)
    %56 = llvm.getelementptr %arg0[%52] : (!llvm.ptr<1>, i32) -> !llvm.ptr<1>, f32 loc(#loc7)
    %57 = llvm.inline_asm has_side_effects asm_dialect = att operand_attrs = [] "mov.u32 $0, 0x0;\0A\09mov.u32 $1, 0x0;\0A\09mov.u32 $2, 0x0;\0A\09mov.u32 $3, 0x0;\0A\09@$5 ld.global.v4.b32 { $0, $1, $2, $3 }, [ $4 + 0 ];", "=r,=r,=r,=r,l,b" %55, %53 : (!llvm.ptr<1>, i1) -> !llvm.struct<(i32, i32, i32, i32)> loc(#loc8)
    %58 = llvm.extractvalue %57[0] : !llvm.struct<(i32, i32, i32, i32)>  loc(#loc8)
    %59 = llvm.bitcast %58 : i32 to vector<1xf32> loc(#loc8)
    %60 = llvm.extractvalue %57[1] : !llvm.struct<(i32, i32, i32, i32)>  loc(#loc8)
    %61 = llvm.bitcast %60 : i32 to vector<1xf32> loc(#loc8)
    %62 = llvm.extractvalue %57[2] : !llvm.struct<(i32, i32, i32, i32)>  loc(#loc8)
    %63 = llvm.bitcast %62 : i32 to vector<1xf32> loc(#loc8)
    %64 = llvm.extractvalue %57[3] : !llvm.struct<(i32, i32, i32, i32)>  loc(#loc8)
    %65 = llvm.bitcast %64 : i32 to vector<1xf32> loc(#loc8)
    %66 = llvm.extractelement %59[%12 : i32] : vector<1xf32> loc(#loc8)
    %67 = llvm.extractelement %61[%12 : i32] : vector<1xf32> loc(#loc8)
    %68 = llvm.extractelement %63[%12 : i32] : vector<1xf32> loc(#loc8)
    %69 = llvm.extractelement %65[%12 : i32] : vector<1xf32> loc(#loc8)
    %70 = llvm.inline_asm has_side_effects asm_dialect = att operand_attrs = [] "mov.u32 $0, 0x0;\0A\09mov.u32 $1, 0x0;\0A\09mov.u32 $2, 0x0;\0A\09mov.u32 $3, 0x0;\0A\09@$5 ld.global.v4.b32 { $0, $1, $2, $3 }, [ $4 + 0 ];", "=r,=r,=r,=r,l,b" %56, %54 : (!llvm.ptr<1>, i1) -> !llvm.struct<(i32, i32, i32, i32)> loc(#loc8)
    %71 = llvm.extractvalue %70[0] : !llvm.struct<(i32, i32, i32, i32)>  loc(#loc8)
    %72 = llvm.bitcast %71 : i32 to vector<1xf32> loc(#loc8)
    %73 = llvm.extractvalue %70[1] : !llvm.struct<(i32, i32, i32, i32)>  loc(#loc8)
    %74 = llvm.bitcast %73 : i32 to vector<1xf32> loc(#loc8)
    %75 = llvm.extractvalue %70[2] : !llvm.struct<(i32, i32, i32, i32)>  loc(#loc8)
    %76 = llvm.bitcast %75 : i32 to vector<1xf32> loc(#loc8)
    %77 = llvm.extractvalue %70[3] : !llvm.struct<(i32, i32, i32, i32)>  loc(#loc8)
    %78 = llvm.bitcast %77 : i32 to vector<1xf32> loc(#loc8)
    %79 = llvm.extractelement %72[%12 : i32] : vector<1xf32> loc(#loc8)
    %80 = llvm.extractelement %74[%12 : i32] : vector<1xf32> loc(#loc8)
    %81 = llvm.extractelement %76[%12 : i32] : vector<1xf32> loc(#loc8)
    %82 = llvm.extractelement %78[%12 : i32] : vector<1xf32> loc(#loc8)
    %83 = llvm.getelementptr %arg1[%51] : (!llvm.ptr<1>, i32) -> !llvm.ptr<1>, f32 loc(#loc9)
    %84 = llvm.getelementptr %arg1[%52] : (!llvm.ptr<1>, i32) -> !llvm.ptr<1>, f32 loc(#loc9)
    %85 = llvm.inline_asm has_side_effects asm_dialect = att operand_attrs = [] "mov.u32 $0, 0x0;\0A\09mov.u32 $1, 0x0;\0A\09mov.u32 $2, 0x0;\0A\09mov.u32 $3, 0x0;\0A\09@$5 ld.global.v4.b32 { $0, $1, $2, $3 }, [ $4 + 0 ];", "=r,=r,=r,=r,l,b" %83, %53 : (!llvm.ptr<1>, i1) -> !llvm.struct<(i32, i32, i32, i32)> loc(#loc10)
    %86 = llvm.extractvalue %85[0] : !llvm.struct<(i32, i32, i32, i32)>  loc(#loc10)
    %87 = llvm.bitcast %86 : i32 to vector<1xf32> loc(#loc10)
    %88 = llvm.extractvalue %85[1] : !llvm.struct<(i32, i32, i32, i32)>  loc(#loc10)
    %89 = llvm.bitcast %88 : i32 to vector<1xf32> loc(#loc10)
    %90 = llvm.extractvalue %85[2] : !llvm.struct<(i32, i32, i32, i32)>  loc(#loc10)
    %91 = llvm.bitcast %90 : i32 to vector<1xf32> loc(#loc10)
    %92 = llvm.extractvalue %85[3] : !llvm.struct<(i32, i32, i32, i32)>  loc(#loc10)
    %93 = llvm.bitcast %92 : i32 to vector<1xf32> loc(#loc10)
    %94 = llvm.extractelement %87[%12 : i32] : vector<1xf32> loc(#loc10)
    %95 = llvm.extractelement %89[%12 : i32] : vector<1xf32> loc(#loc10)
    %96 = llvm.extractelement %91[%12 : i32] : vector<1xf32> loc(#loc10)
    %97 = llvm.extractelement %93[%12 : i32] : vector<1xf32> loc(#loc10)
    %98 = llvm.inline_asm has_side_effects asm_dialect = att operand_attrs = [] "mov.u32 $0, 0x0;\0A\09mov.u32 $1, 0x0;\0A\09mov.u32 $2, 0x0;\0A\09mov.u32 $3, 0x0;\0A\09@$5 ld.global.v4.b32 { $0, $1, $2, $3 }, [ $4 + 0 ];", "=r,=r,=r,=r,l,b" %84, %54 : (!llvm.ptr<1>, i1) -> !llvm.struct<(i32, i32, i32, i32)> loc(#loc10)
    %99 = llvm.extractvalue %98[0] : !llvm.struct<(i32, i32, i32, i32)>  loc(#loc10)
    %100 = llvm.bitcast %99 : i32 to vector<1xf32> loc(#loc10)
    %101 = llvm.extractvalue %98[1] : !llvm.struct<(i32, i32, i32, i32)>  loc(#loc10)
    %102 = llvm.bitcast %101 : i32 to vector<1xf32> loc(#loc10)
    %103 = llvm.extractvalue %98[2] : !llvm.struct<(i32, i32, i32, i32)>  loc(#loc10)
    %104 = llvm.bitcast %103 : i32 to vector<1xf32> loc(#loc10)
    %105 = llvm.extractvalue %98[3] : !llvm.struct<(i32, i32, i32, i32)>  loc(#loc10)
    %106 = llvm.bitcast %105 : i32 to vector<1xf32> loc(#loc10)
    %107 = llvm.extractelement %100[%12 : i32] : vector<1xf32> loc(#loc10)
    %108 = llvm.extractelement %102[%12 : i32] : vector<1xf32> loc(#loc10)
    %109 = llvm.extractelement %104[%12 : i32] : vector<1xf32> loc(#loc10)
    %110 = llvm.extractelement %106[%12 : i32] : vector<1xf32> loc(#loc10)
    %111 = llvm.fadd %66, %94 : f32 loc(#loc11)
    %112 = llvm.fadd %67, %95 : f32 loc(#loc11)
    %113 = llvm.fadd %68, %96 : f32 loc(#loc11)
    %114 = llvm.fadd %69, %97 : f32 loc(#loc11)
    %115 = llvm.fadd %79, %107 : f32 loc(#loc11)
    %116 = llvm.fadd %80, %108 : f32 loc(#loc11)
    %117 = llvm.fadd %81, %109 : f32 loc(#loc11)
    %118 = llvm.fadd %82, %110 : f32 loc(#loc11)
    %119 = llvm.getelementptr %arg2[%51] : (!llvm.ptr<1>, i32) -> !llvm.ptr<1>, f32 loc(#loc12)
    %120 = llvm.getelementptr %arg2[%52] : (!llvm.ptr<1>, i32) -> !llvm.ptr<1>, f32 loc(#loc12)
    %121 = llvm.insertelement %111, %0[%10 : i32] : vector<1xf32> loc(#loc13)
    %122 = llvm.bitcast %121 : vector<1xf32> to i32 loc(#loc13)
    %123 = llvm.insertelement %112, %0[%10 : i32] : vector<1xf32> loc(#loc13)
    %124 = llvm.bitcast %123 : vector<1xf32> to i32 loc(#loc13)
    %125 = llvm.insertelement %113, %0[%10 : i32] : vector<1xf32> loc(#loc13)
    %126 = llvm.bitcast %125 : vector<1xf32> to i32 loc(#loc13)
    %127 = llvm.insertelement %114, %0[%10 : i32] : vector<1xf32> loc(#loc13)
    %128 = llvm.bitcast %127 : vector<1xf32> to i32 loc(#loc13)
    %129 = llvm.inline_asm has_side_effects asm_dialect = att operand_attrs = [] "@$5 st.global.v4.b32 [ $4 + 0 ], { $0, $1, $2, $3 };", "r,r,r,r,l,b" %122, %124, %126, %128, %119, %53 : (i32, i32, i32, i32, !llvm.ptr<1>, i1) -> !llvm.void loc(#loc13)
    %130 = llvm.insertelement %115, %0[%10 : i32] : vector<1xf32> loc(#loc13)
    %131 = llvm.bitcast %130 : vector<1xf32> to i32 loc(#loc13)
    %132 = llvm.insertelement %116, %0[%10 : i32] : vector<1xf32> loc(#loc13)
    %133 = llvm.bitcast %132 : vector<1xf32> to i32 loc(#loc13)
    %134 = llvm.insertelement %117, %0[%10 : i32] : vector<1xf32> loc(#loc13)
    %135 = llvm.bitcast %134 : vector<1xf32> to i32 loc(#loc13)
    %136 = llvm.insertelement %118, %0[%10 : i32] : vector<1xf32> loc(#loc13)
    %137 = llvm.bitcast %136 : vector<1xf32> to i32 loc(#loc13)
    %138 = llvm.inline_asm has_side_effects asm_dialect = att operand_attrs = [] "@$5 st.global.v4.b32 [ $4 + 0 ], { $0, $1, $2, $3 };", "r,r,r,r,l,b" %131, %133, %135, %137, %120, %54 : (i32, i32, i32, i32, !llvm.ptr<1>, i1) -> !llvm.void loc(#loc13)
    llvm.return loc(#loc14)
  } loc(#loc)
} loc(#loc)
#loc1 = loc(unknown)
#loc2 = loc("/home/arshadm/Workspace/projects/spinorml/venv/./src/vector_addition.py":19:24)
#loc3 = loc("/home/arshadm/Workspace/projects/spinorml/venv/./src/vector_addition.py":24:24)
#loc4 = loc("/home/arshadm/Workspace/projects/spinorml/venv/./src/vector_addition.py":25:41)
#loc5 = loc("/home/arshadm/Workspace/projects/spinorml/venv/./src/vector_addition.py":25:28)
#loc6 = loc("/home/arshadm/Workspace/projects/spinorml/venv/./src/vector_addition.py":27:21)
#loc7 = loc("/home/arshadm/Workspace/projects/spinorml/venv/./src/vector_addition.py":30:24)
#loc8 = loc("/home/arshadm/Workspace/projects/spinorml/venv/./src/vector_addition.py":30:16)
#loc9 = loc("/home/arshadm/Workspace/projects/spinorml/venv/./src/vector_addition.py":31:24)
#loc10 = loc("/home/arshadm/Workspace/projects/spinorml/venv/./src/vector_addition.py":31:16)
#loc11 = loc("/home/arshadm/Workspace/projects/spinorml/venv/./src/vector_addition.py":32:17)
#loc12 = loc("/home/arshadm/Workspace/projects/spinorml/venv/./src/vector_addition.py":34:26)
#loc13 = loc("/home/arshadm/Workspace/projects/spinorml/venv/./src/vector_addition.py":34:35)
#loc14 = loc("/home/arshadm/Workspace/projects/spinorml/venv/./src/vector_addition.py":34:4)


// -----// IR Dump Before CSE (cse) ('builtin.module' operation) //----- //
#loc = loc("/home/arshadm/Workspace/projects/spinorml/venv/./src/vector_addition.py":10:0)
module attributes {ttg.global_scratch_memory_alignment = 1 : i32, ttg.global_scratch_memory_size = 0 : i32, "ttg.num-ctas" = 1 : i32, "ttg.num-warps" = 4 : i32, ttg.shared = 0 : i32, ttg.target = "cuda:61", ttg.tensor_memory_size = 0 : i32, "ttg.threads-per-warp" = 32 : i32, "ttg.total-num-warps" = 4 : i32} {
  llvm.mlir.global external @global_smem() {addr_space = 3 : i32, alignment = 16 : i64} : !llvm.array<0 x i8> loc(#loc)
  llvm.func @add_kernel(%arg0: !llvm.ptr<1> {tt.divisibility = 16 : i32} loc("/home/arshadm/Workspace/projects/spinorml/venv/./src/vector_addition.py":10:0), %arg1: !llvm.ptr<1> {tt.divisibility = 16 : i32} loc("/home/arshadm/Workspace/projects/spinorml/venv/./src/vector_addition.py":10:0), %arg2: !llvm.ptr<1> {tt.divisibility = 16 : i32} loc("/home/arshadm/Workspace/projects/spinorml/venv/./src/vector_addition.py":10:0), %arg3: i32 {tt.divisibility = 16 : i32} loc("/home/arshadm/Workspace/projects/spinorml/venv/./src/vector_addition.py":10:0), %arg4: !llvm.ptr<1> loc("/home/arshadm/Workspace/projects/spinorml/venv/./src/vector_addition.py":10:0)) attributes {noinline = false, nvvm.kernel = 1 : ui1, nvvm.reqntid = array<i32: 128>, ttg.global_scratch_memory_alignment = 1 : i32, ttg.global_scratch_memory_size = 0 : i32} {
    %0 = llvm.mlir.undef : vector<1xf32> loc(#loc1)
    %1 = llvm.mlir.constant(512 : i32) : i32 loc(#loc1)
    %2 = llvm.mlir.constant(256 : i32) : i32 loc(#loc1)
    %3 = llvm.mlir.constant(128 : i32) : i32 loc(#loc1)
    %4 = llvm.mlir.constant(64 : i32) : i32 loc(#loc1)
    %5 = llvm.mlir.constant(16 : i32) : i32 loc(#loc1)
    %6 = llvm.mlir.constant(8 : i32) : i32 loc(#loc1)
    %7 = llvm.mlir.constant(2 : i32) : i32 loc(#loc1)
    %8 = llvm.mlir.constant(4 : i32) : i32 loc(#loc1)
    %9 = llvm.mlir.constant(1 : i32) : i32 loc(#loc1)
    %10 = llvm.mlir.constant(0 : i32) : i32 loc(#loc1)
    %11 = llvm.mlir.constant(32 : i32) : i32 loc(#loc1)
    %12 = llvm.mlir.constant(0 : index) : i32 loc(#loc1)
    %13 = llvm.mlir.constant(1024 : i32) : i32 loc(#loc1)
    %14 = llvm.call_intrinsic "llvm.nvvm.read.ptx.sreg.ctaid.x"() : () -> i32 loc(#loc2)
    %15 = llvm.mul %14, %13 : i32 loc(#loc3)
    %16 = nvvm.read.ptx.sreg.tid.x : i32 loc(#loc4)
    %17 = llvm.urem %16, %11 : i32 loc(#loc4)
    %18 = llvm.udiv %16, %11 : i32 loc(#loc4)
    %19 = llvm.and %17, %9 : i32 loc(#loc4)
    %20 = llvm.icmp "eq" %19, %10 : i32 loc(#loc4)
    %21 = llvm.select %20, %10, %8 : i1, i32 loc(#loc4)
    %22 = llvm.xor %10, %21 : i32 loc(#loc4)
    %23 = llvm.and %17, %7 : i32 loc(#loc4)
    %24 = llvm.icmp "eq" %23, %10 : i32 loc(#loc4)
    %25 = llvm.select %24, %10, %6 : i1, i32 loc(#loc4)
    %26 = llvm.xor %22, %25 : i32 loc(#loc4)
    %27 = llvm.and %17, %8 : i32 loc(#loc4)
    %28 = llvm.icmp "eq" %27, %10 : i32 loc(#loc4)
    %29 = llvm.select %28, %10, %5 : i1, i32 loc(#loc4)
    %30 = llvm.xor %26, %29 : i32 loc(#loc4)
    %31 = llvm.and %17, %6 : i32 loc(#loc4)
    %32 = llvm.icmp "eq" %31, %10 : i32 loc(#loc4)
    %33 = llvm.select %32, %10, %11 : i1, i32 loc(#loc4)
    %34 = llvm.xor %30, %33 : i32 loc(#loc4)
    %35 = llvm.and %17, %5 : i32 loc(#loc4)
    %36 = llvm.icmp "eq" %35, %10 : i32 loc(#loc4)
    %37 = llvm.select %36, %10, %4 : i1, i32 loc(#loc4)
    %38 = llvm.xor %34, %37 : i32 loc(#loc4)
    %39 = llvm.and %18, %9 : i32 loc(#loc4)
    %40 = llvm.icmp "eq" %39, %10 : i32 loc(#loc4)
    %41 = llvm.select %40, %10, %3 : i1, i32 loc(#loc4)
    %42 = llvm.xor %38, %41 : i32 loc(#loc4)
    %43 = llvm.and %18, %7 : i32 loc(#loc4)
    %44 = llvm.icmp "eq" %43, %10 : i32 loc(#loc4)
    %45 = llvm.select %44, %10, %2 : i1, i32 loc(#loc4)
    %46 = llvm.xor %42, %45 : i32 loc(#loc4)
    %47 = llvm.xor %46, %10 : i32 loc(#loc4)
    %48 = llvm.xor %46, %1 : i32 loc(#loc4)
    %49 = llvm.add %47, %12 : i32 loc(#loc4)
    %50 = llvm.add %48, %12 : i32 loc(#loc4)
    %51 = llvm.add %15, %49 : i32 loc(#loc5)
    %52 = llvm.add %15, %50 : i32 loc(#loc5)
    %53 = llvm.icmp "slt" %51, %arg3 : i32 loc(#loc6)
    %54 = llvm.icmp "slt" %52, %arg3 : i32 loc(#loc6)
    %55 = llvm.getelementptr %arg0[%51] : (!llvm.ptr<1>, i32) -> !llvm.ptr<1>, f32 loc(#loc7)
    %56 = llvm.getelementptr %arg0[%52] : (!llvm.ptr<1>, i32) -> !llvm.ptr<1>, f32 loc(#loc7)
    %57 = llvm.inline_asm has_side_effects asm_dialect = att operand_attrs = [] "mov.u32 $0, 0x0;\0A\09mov.u32 $1, 0x0;\0A\09mov.u32 $2, 0x0;\0A\09mov.u32 $3, 0x0;\0A\09@$5 ld.global.v4.b32 { $0, $1, $2, $3 }, [ $4 + 0 ];", "=r,=r,=r,=r,l,b" %55, %53 : (!llvm.ptr<1>, i1) -> !llvm.struct<(i32, i32, i32, i32)> loc(#loc8)
    %58 = llvm.extractvalue %57[0] : !llvm.struct<(i32, i32, i32, i32)>  loc(#loc8)
    %59 = llvm.bitcast %58 : i32 to vector<1xf32> loc(#loc8)
    %60 = llvm.extractvalue %57[1] : !llvm.struct<(i32, i32, i32, i32)>  loc(#loc8)
    %61 = llvm.bitcast %60 : i32 to vector<1xf32> loc(#loc8)
    %62 = llvm.extractvalue %57[2] : !llvm.struct<(i32, i32, i32, i32)>  loc(#loc8)
    %63 = llvm.bitcast %62 : i32 to vector<1xf32> loc(#loc8)
    %64 = llvm.extractvalue %57[3] : !llvm.struct<(i32, i32, i32, i32)>  loc(#loc8)
    %65 = llvm.bitcast %64 : i32 to vector<1xf32> loc(#loc8)
    %66 = llvm.extractelement %59[%12 : i32] : vector<1xf32> loc(#loc8)
    %67 = llvm.extractelement %61[%12 : i32] : vector<1xf32> loc(#loc8)
    %68 = llvm.extractelement %63[%12 : i32] : vector<1xf32> loc(#loc8)
    %69 = llvm.extractelement %65[%12 : i32] : vector<1xf32> loc(#loc8)
    %70 = llvm.inline_asm has_side_effects asm_dialect = att operand_attrs = [] "mov.u32 $0, 0x0;\0A\09mov.u32 $1, 0x0;\0A\09mov.u32 $2, 0x0;\0A\09mov.u32 $3, 0x0;\0A\09@$5 ld.global.v4.b32 { $0, $1, $2, $3 }, [ $4 + 0 ];", "=r,=r,=r,=r,l,b" %56, %54 : (!llvm.ptr<1>, i1) -> !llvm.struct<(i32, i32, i32, i32)> loc(#loc8)
    %71 = llvm.extractvalue %70[0] : !llvm.struct<(i32, i32, i32, i32)>  loc(#loc8)
    %72 = llvm.bitcast %71 : i32 to vector<1xf32> loc(#loc8)
    %73 = llvm.extractvalue %70[1] : !llvm.struct<(i32, i32, i32, i32)>  loc(#loc8)
    %74 = llvm.bitcast %73 : i32 to vector<1xf32> loc(#loc8)
    %75 = llvm.extractvalue %70[2] : !llvm.struct<(i32, i32, i32, i32)>  loc(#loc8)
    %76 = llvm.bitcast %75 : i32 to vector<1xf32> loc(#loc8)
    %77 = llvm.extractvalue %70[3] : !llvm.struct<(i32, i32, i32, i32)>  loc(#loc8)
    %78 = llvm.bitcast %77 : i32 to vector<1xf32> loc(#loc8)
    %79 = llvm.extractelement %72[%12 : i32] : vector<1xf32> loc(#loc8)
    %80 = llvm.extractelement %74[%12 : i32] : vector<1xf32> loc(#loc8)
    %81 = llvm.extractelement %76[%12 : i32] : vector<1xf32> loc(#loc8)
    %82 = llvm.extractelement %78[%12 : i32] : vector<1xf32> loc(#loc8)
    %83 = llvm.getelementptr %arg1[%51] : (!llvm.ptr<1>, i32) -> !llvm.ptr<1>, f32 loc(#loc9)
    %84 = llvm.getelementptr %arg1[%52] : (!llvm.ptr<1>, i32) -> !llvm.ptr<1>, f32 loc(#loc9)
    %85 = llvm.inline_asm has_side_effects asm_dialect = att operand_attrs = [] "mov.u32 $0, 0x0;\0A\09mov.u32 $1, 0x0;\0A\09mov.u32 $2, 0x0;\0A\09mov.u32 $3, 0x0;\0A\09@$5 ld.global.v4.b32 { $0, $1, $2, $3 }, [ $4 + 0 ];", "=r,=r,=r,=r,l,b" %83, %53 : (!llvm.ptr<1>, i1) -> !llvm.struct<(i32, i32, i32, i32)> loc(#loc10)
    %86 = llvm.extractvalue %85[0] : !llvm.struct<(i32, i32, i32, i32)>  loc(#loc10)
    %87 = llvm.bitcast %86 : i32 to vector<1xf32> loc(#loc10)
    %88 = llvm.extractvalue %85[1] : !llvm.struct<(i32, i32, i32, i32)>  loc(#loc10)
    %89 = llvm.bitcast %88 : i32 to vector<1xf32> loc(#loc10)
    %90 = llvm.extractvalue %85[2] : !llvm.struct<(i32, i32, i32, i32)>  loc(#loc10)
    %91 = llvm.bitcast %90 : i32 to vector<1xf32> loc(#loc10)
    %92 = llvm.extractvalue %85[3] : !llvm.struct<(i32, i32, i32, i32)>  loc(#loc10)
    %93 = llvm.bitcast %92 : i32 to vector<1xf32> loc(#loc10)
    %94 = llvm.extractelement %87[%12 : i32] : vector<1xf32> loc(#loc10)
    %95 = llvm.extractelement %89[%12 : i32] : vector<1xf32> loc(#loc10)
    %96 = llvm.extractelement %91[%12 : i32] : vector<1xf32> loc(#loc10)
    %97 = llvm.extractelement %93[%12 : i32] : vector<1xf32> loc(#loc10)
    %98 = llvm.inline_asm has_side_effects asm_dialect = att operand_attrs = [] "mov.u32 $0, 0x0;\0A\09mov.u32 $1, 0x0;\0A\09mov.u32 $2, 0x0;\0A\09mov.u32 $3, 0x0;\0A\09@$5 ld.global.v4.b32 { $0, $1, $2, $3 }, [ $4 + 0 ];", "=r,=r,=r,=r,l,b" %84, %54 : (!llvm.ptr<1>, i1) -> !llvm.struct<(i32, i32, i32, i32)> loc(#loc10)
    %99 = llvm.extractvalue %98[0] : !llvm.struct<(i32, i32, i32, i32)>  loc(#loc10)
    %100 = llvm.bitcast %99 : i32 to vector<1xf32> loc(#loc10)
    %101 = llvm.extractvalue %98[1] : !llvm.struct<(i32, i32, i32, i32)>  loc(#loc10)
    %102 = llvm.bitcast %101 : i32 to vector<1xf32> loc(#loc10)
    %103 = llvm.extractvalue %98[2] : !llvm.struct<(i32, i32, i32, i32)>  loc(#loc10)
    %104 = llvm.bitcast %103 : i32 to vector<1xf32> loc(#loc10)
    %105 = llvm.extractvalue %98[3] : !llvm.struct<(i32, i32, i32, i32)>  loc(#loc10)
    %106 = llvm.bitcast %105 : i32 to vector<1xf32> loc(#loc10)
    %107 = llvm.extractelement %100[%12 : i32] : vector<1xf32> loc(#loc10)
    %108 = llvm.extractelement %102[%12 : i32] : vector<1xf32> loc(#loc10)
    %109 = llvm.extractelement %104[%12 : i32] : vector<1xf32> loc(#loc10)
    %110 = llvm.extractelement %106[%12 : i32] : vector<1xf32> loc(#loc10)
    %111 = llvm.fadd %66, %94 : f32 loc(#loc11)
    %112 = llvm.fadd %67, %95 : f32 loc(#loc11)
    %113 = llvm.fadd %68, %96 : f32 loc(#loc11)
    %114 = llvm.fadd %69, %97 : f32 loc(#loc11)
    %115 = llvm.fadd %79, %107 : f32 loc(#loc11)
    %116 = llvm.fadd %80, %108 : f32 loc(#loc11)
    %117 = llvm.fadd %81, %109 : f32 loc(#loc11)
    %118 = llvm.fadd %82, %110 : f32 loc(#loc11)
    %119 = llvm.getelementptr %arg2[%51] : (!llvm.ptr<1>, i32) -> !llvm.ptr<1>, f32 loc(#loc12)
    %120 = llvm.getelementptr %arg2[%52] : (!llvm.ptr<1>, i32) -> !llvm.ptr<1>, f32 loc(#loc12)
    %121 = llvm.insertelement %111, %0[%10 : i32] : vector<1xf32> loc(#loc13)
    %122 = llvm.bitcast %121 : vector<1xf32> to i32 loc(#loc13)
    %123 = llvm.insertelement %112, %0[%10 : i32] : vector<1xf32> loc(#loc13)
    %124 = llvm.bitcast %123 : vector<1xf32> to i32 loc(#loc13)
    %125 = llvm.insertelement %113, %0[%10 : i32] : vector<1xf32> loc(#loc13)
    %126 = llvm.bitcast %125 : vector<1xf32> to i32 loc(#loc13)
    %127 = llvm.insertelement %114, %0[%10 : i32] : vector<1xf32> loc(#loc13)
    %128 = llvm.bitcast %127 : vector<1xf32> to i32 loc(#loc13)
    %129 = llvm.inline_asm has_side_effects asm_dialect = att operand_attrs = [] "@$5 st.global.v4.b32 [ $4 + 0 ], { $0, $1, $2, $3 };", "r,r,r,r,l,b" %122, %124, %126, %128, %119, %53 : (i32, i32, i32, i32, !llvm.ptr<1>, i1) -> !llvm.void loc(#loc13)
    %130 = llvm.insertelement %115, %0[%10 : i32] : vector<1xf32> loc(#loc13)
    %131 = llvm.bitcast %130 : vector<1xf32> to i32 loc(#loc13)
    %132 = llvm.insertelement %116, %0[%10 : i32] : vector<1xf32> loc(#loc13)
    %133 = llvm.bitcast %132 : vector<1xf32> to i32 loc(#loc13)
    %134 = llvm.insertelement %117, %0[%10 : i32] : vector<1xf32> loc(#loc13)
    %135 = llvm.bitcast %134 : vector<1xf32> to i32 loc(#loc13)
    %136 = llvm.insertelement %118, %0[%10 : i32] : vector<1xf32> loc(#loc13)
    %137 = llvm.bitcast %136 : vector<1xf32> to i32 loc(#loc13)
    %138 = llvm.inline_asm has_side_effects asm_dialect = att operand_attrs = [] "@$5 st.global.v4.b32 [ $4 + 0 ], { $0, $1, $2, $3 };", "r,r,r,r,l,b" %131, %133, %135, %137, %120, %54 : (i32, i32, i32, i32, !llvm.ptr<1>, i1) -> !llvm.void loc(#loc13)
    llvm.return loc(#loc14)
  } loc(#loc)
} loc(#loc)
#loc1 = loc(unknown)
#loc2 = loc("/home/arshadm/Workspace/projects/spinorml/venv/./src/vector_addition.py":19:24)
#loc3 = loc("/home/arshadm/Workspace/projects/spinorml/venv/./src/vector_addition.py":24:24)
#loc4 = loc("/home/arshadm/Workspace/projects/spinorml/venv/./src/vector_addition.py":25:41)
#loc5 = loc("/home/arshadm/Workspace/projects/spinorml/venv/./src/vector_addition.py":25:28)
#loc6 = loc("/home/arshadm/Workspace/projects/spinorml/venv/./src/vector_addition.py":27:21)
#loc7 = loc("/home/arshadm/Workspace/projects/spinorml/venv/./src/vector_addition.py":30:24)
#loc8 = loc("/home/arshadm/Workspace/projects/spinorml/venv/./src/vector_addition.py":30:16)
#loc9 = loc("/home/arshadm/Workspace/projects/spinorml/venv/./src/vector_addition.py":31:24)
#loc10 = loc("/home/arshadm/Workspace/projects/spinorml/venv/./src/vector_addition.py":31:16)
#loc11 = loc("/home/arshadm/Workspace/projects/spinorml/venv/./src/vector_addition.py":32:17)
#loc12 = loc("/home/arshadm/Workspace/projects/spinorml/venv/./src/vector_addition.py":34:26)
#loc13 = loc("/home/arshadm/Workspace/projects/spinorml/venv/./src/vector_addition.py":34:35)
#loc14 = loc("/home/arshadm/Workspace/projects/spinorml/venv/./src/vector_addition.py":34:4)


// -----// IR Dump Before SymbolDCE (symbol-dce) ('builtin.module' operation) //----- //
#loc = loc("/home/arshadm/Workspace/projects/spinorml/venv/./src/vector_addition.py":10:0)
module attributes {ttg.global_scratch_memory_alignment = 1 : i32, ttg.global_scratch_memory_size = 0 : i32, "ttg.num-ctas" = 1 : i32, "ttg.num-warps" = 4 : i32, ttg.shared = 0 : i32, ttg.target = "cuda:61", ttg.tensor_memory_size = 0 : i32, "ttg.threads-per-warp" = 32 : i32, "ttg.total-num-warps" = 4 : i32} {
  llvm.mlir.global external @global_smem() {addr_space = 3 : i32, alignment = 16 : i64} : !llvm.array<0 x i8> loc(#loc)
  llvm.func @add_kernel(%arg0: !llvm.ptr<1> {tt.divisibility = 16 : i32} loc("/home/arshadm/Workspace/projects/spinorml/venv/./src/vector_addition.py":10:0), %arg1: !llvm.ptr<1> {tt.divisibility = 16 : i32} loc("/home/arshadm/Workspace/projects/spinorml/venv/./src/vector_addition.py":10:0), %arg2: !llvm.ptr<1> {tt.divisibility = 16 : i32} loc("/home/arshadm/Workspace/projects/spinorml/venv/./src/vector_addition.py":10:0), %arg3: i32 {tt.divisibility = 16 : i32} loc("/home/arshadm/Workspace/projects/spinorml/venv/./src/vector_addition.py":10:0), %arg4: !llvm.ptr<1> loc("/home/arshadm/Workspace/projects/spinorml/venv/./src/vector_addition.py":10:0)) attributes {noinline = false, nvvm.kernel = 1 : ui1, nvvm.reqntid = array<i32: 128>, ttg.global_scratch_memory_alignment = 1 : i32, ttg.global_scratch_memory_size = 0 : i32} {
    %0 = llvm.mlir.undef : vector<1xf32> loc(#loc1)
    %1 = llvm.mlir.constant(512 : i32) : i32 loc(#loc1)
    %2 = llvm.mlir.constant(256 : i32) : i32 loc(#loc1)
    %3 = llvm.mlir.constant(128 : i32) : i32 loc(#loc1)
    %4 = llvm.mlir.constant(64 : i32) : i32 loc(#loc1)
    %5 = llvm.mlir.constant(16 : i32) : i32 loc(#loc1)
    %6 = llvm.mlir.constant(8 : i32) : i32 loc(#loc1)
    %7 = llvm.mlir.constant(2 : i32) : i32 loc(#loc1)
    %8 = llvm.mlir.constant(4 : i32) : i32 loc(#loc1)
    %9 = llvm.mlir.constant(1 : i32) : i32 loc(#loc1)
    %10 = llvm.mlir.constant(0 : i32) : i32 loc(#loc1)
    %11 = llvm.mlir.constant(32 : i32) : i32 loc(#loc1)
    %12 = llvm.mlir.constant(0 : index) : i32 loc(#loc1)
    %13 = llvm.mlir.constant(1024 : i32) : i32 loc(#loc1)
    %14 = llvm.call_intrinsic "llvm.nvvm.read.ptx.sreg.ctaid.x"() : () -> i32 loc(#loc2)
    %15 = llvm.mul %14, %13 : i32 loc(#loc3)
    %16 = nvvm.read.ptx.sreg.tid.x : i32 loc(#loc4)
    %17 = llvm.urem %16, %11 : i32 loc(#loc4)
    %18 = llvm.udiv %16, %11 : i32 loc(#loc4)
    %19 = llvm.and %17, %9 : i32 loc(#loc4)
    %20 = llvm.icmp "eq" %19, %10 : i32 loc(#loc4)
    %21 = llvm.select %20, %10, %8 : i1, i32 loc(#loc4)
    %22 = llvm.xor %10, %21 : i32 loc(#loc4)
    %23 = llvm.and %17, %7 : i32 loc(#loc4)
    %24 = llvm.icmp "eq" %23, %10 : i32 loc(#loc4)
    %25 = llvm.select %24, %10, %6 : i1, i32 loc(#loc4)
    %26 = llvm.xor %22, %25 : i32 loc(#loc4)
    %27 = llvm.and %17, %8 : i32 loc(#loc4)
    %28 = llvm.icmp "eq" %27, %10 : i32 loc(#loc4)
    %29 = llvm.select %28, %10, %5 : i1, i32 loc(#loc4)
    %30 = llvm.xor %26, %29 : i32 loc(#loc4)
    %31 = llvm.and %17, %6 : i32 loc(#loc4)
    %32 = llvm.icmp "eq" %31, %10 : i32 loc(#loc4)
    %33 = llvm.select %32, %10, %11 : i1, i32 loc(#loc4)
    %34 = llvm.xor %30, %33 : i32 loc(#loc4)
    %35 = llvm.and %17, %5 : i32 loc(#loc4)
    %36 = llvm.icmp "eq" %35, %10 : i32 loc(#loc4)
    %37 = llvm.select %36, %10, %4 : i1, i32 loc(#loc4)
    %38 = llvm.xor %34, %37 : i32 loc(#loc4)
    %39 = llvm.and %18, %9 : i32 loc(#loc4)
    %40 = llvm.icmp "eq" %39, %10 : i32 loc(#loc4)
    %41 = llvm.select %40, %10, %3 : i1, i32 loc(#loc4)
    %42 = llvm.xor %38, %41 : i32 loc(#loc4)
    %43 = llvm.and %18, %7 : i32 loc(#loc4)
    %44 = llvm.icmp "eq" %43, %10 : i32 loc(#loc4)
    %45 = llvm.select %44, %10, %2 : i1, i32 loc(#loc4)
    %46 = llvm.xor %42, %45 : i32 loc(#loc4)
    %47 = llvm.xor %46, %10 : i32 loc(#loc4)
    %48 = llvm.xor %46, %1 : i32 loc(#loc4)
    %49 = llvm.add %47, %12 : i32 loc(#loc4)
    %50 = llvm.add %48, %12 : i32 loc(#loc4)
    %51 = llvm.add %15, %49 : i32 loc(#loc5)
    %52 = llvm.add %15, %50 : i32 loc(#loc5)
    %53 = llvm.icmp "slt" %51, %arg3 : i32 loc(#loc6)
    %54 = llvm.icmp "slt" %52, %arg3 : i32 loc(#loc6)
    %55 = llvm.getelementptr %arg0[%51] : (!llvm.ptr<1>, i32) -> !llvm.ptr<1>, f32 loc(#loc7)
    %56 = llvm.getelementptr %arg0[%52] : (!llvm.ptr<1>, i32) -> !llvm.ptr<1>, f32 loc(#loc7)
    %57 = llvm.inline_asm has_side_effects asm_dialect = att operand_attrs = [] "mov.u32 $0, 0x0;\0A\09mov.u32 $1, 0x0;\0A\09mov.u32 $2, 0x0;\0A\09mov.u32 $3, 0x0;\0A\09@$5 ld.global.v4.b32 { $0, $1, $2, $3 }, [ $4 + 0 ];", "=r,=r,=r,=r,l,b" %55, %53 : (!llvm.ptr<1>, i1) -> !llvm.struct<(i32, i32, i32, i32)> loc(#loc8)
    %58 = llvm.extractvalue %57[0] : !llvm.struct<(i32, i32, i32, i32)>  loc(#loc8)
    %59 = llvm.bitcast %58 : i32 to vector<1xf32> loc(#loc8)
    %60 = llvm.extractvalue %57[1] : !llvm.struct<(i32, i32, i32, i32)>  loc(#loc8)
    %61 = llvm.bitcast %60 : i32 to vector<1xf32> loc(#loc8)
    %62 = llvm.extractvalue %57[2] : !llvm.struct<(i32, i32, i32, i32)>  loc(#loc8)
    %63 = llvm.bitcast %62 : i32 to vector<1xf32> loc(#loc8)
    %64 = llvm.extractvalue %57[3] : !llvm.struct<(i32, i32, i32, i32)>  loc(#loc8)
    %65 = llvm.bitcast %64 : i32 to vector<1xf32> loc(#loc8)
    %66 = llvm.extractelement %59[%12 : i32] : vector<1xf32> loc(#loc8)
    %67 = llvm.extractelement %61[%12 : i32] : vector<1xf32> loc(#loc8)
    %68 = llvm.extractelement %63[%12 : i32] : vector<1xf32> loc(#loc8)
    %69 = llvm.extractelement %65[%12 : i32] : vector<1xf32> loc(#loc8)
    %70 = llvm.inline_asm has_side_effects asm_dialect = att operand_attrs = [] "mov.u32 $0, 0x0;\0A\09mov.u32 $1, 0x0;\0A\09mov.u32 $2, 0x0;\0A\09mov.u32 $3, 0x0;\0A\09@$5 ld.global.v4.b32 { $0, $1, $2, $3 }, [ $4 + 0 ];", "=r,=r,=r,=r,l,b" %56, %54 : (!llvm.ptr<1>, i1) -> !llvm.struct<(i32, i32, i32, i32)> loc(#loc8)
    %71 = llvm.extractvalue %70[0] : !llvm.struct<(i32, i32, i32, i32)>  loc(#loc8)
    %72 = llvm.bitcast %71 : i32 to vector<1xf32> loc(#loc8)
    %73 = llvm.extractvalue %70[1] : !llvm.struct<(i32, i32, i32, i32)>  loc(#loc8)
    %74 = llvm.bitcast %73 : i32 to vector<1xf32> loc(#loc8)
    %75 = llvm.extractvalue %70[2] : !llvm.struct<(i32, i32, i32, i32)>  loc(#loc8)
    %76 = llvm.bitcast %75 : i32 to vector<1xf32> loc(#loc8)
    %77 = llvm.extractvalue %70[3] : !llvm.struct<(i32, i32, i32, i32)>  loc(#loc8)
    %78 = llvm.bitcast %77 : i32 to vector<1xf32> loc(#loc8)
    %79 = llvm.extractelement %72[%12 : i32] : vector<1xf32> loc(#loc8)
    %80 = llvm.extractelement %74[%12 : i32] : vector<1xf32> loc(#loc8)
    %81 = llvm.extractelement %76[%12 : i32] : vector<1xf32> loc(#loc8)
    %82 = llvm.extractelement %78[%12 : i32] : vector<1xf32> loc(#loc8)
    %83 = llvm.getelementptr %arg1[%51] : (!llvm.ptr<1>, i32) -> !llvm.ptr<1>, f32 loc(#loc9)
    %84 = llvm.getelementptr %arg1[%52] : (!llvm.ptr<1>, i32) -> !llvm.ptr<1>, f32 loc(#loc9)
    %85 = llvm.inline_asm has_side_effects asm_dialect = att operand_attrs = [] "mov.u32 $0, 0x0;\0A\09mov.u32 $1, 0x0;\0A\09mov.u32 $2, 0x0;\0A\09mov.u32 $3, 0x0;\0A\09@$5 ld.global.v4.b32 { $0, $1, $2, $3 }, [ $4 + 0 ];", "=r,=r,=r,=r,l,b" %83, %53 : (!llvm.ptr<1>, i1) -> !llvm.struct<(i32, i32, i32, i32)> loc(#loc10)
    %86 = llvm.extractvalue %85[0] : !llvm.struct<(i32, i32, i32, i32)>  loc(#loc10)
    %87 = llvm.bitcast %86 : i32 to vector<1xf32> loc(#loc10)
    %88 = llvm.extractvalue %85[1] : !llvm.struct<(i32, i32, i32, i32)>  loc(#loc10)
    %89 = llvm.bitcast %88 : i32 to vector<1xf32> loc(#loc10)
    %90 = llvm.extractvalue %85[2] : !llvm.struct<(i32, i32, i32, i32)>  loc(#loc10)
    %91 = llvm.bitcast %90 : i32 to vector<1xf32> loc(#loc10)
    %92 = llvm.extractvalue %85[3] : !llvm.struct<(i32, i32, i32, i32)>  loc(#loc10)
    %93 = llvm.bitcast %92 : i32 to vector<1xf32> loc(#loc10)
    %94 = llvm.extractelement %87[%12 : i32] : vector<1xf32> loc(#loc10)
    %95 = llvm.extractelement %89[%12 : i32] : vector<1xf32> loc(#loc10)
    %96 = llvm.extractelement %91[%12 : i32] : vector<1xf32> loc(#loc10)
    %97 = llvm.extractelement %93[%12 : i32] : vector<1xf32> loc(#loc10)
    %98 = llvm.inline_asm has_side_effects asm_dialect = att operand_attrs = [] "mov.u32 $0, 0x0;\0A\09mov.u32 $1, 0x0;\0A\09mov.u32 $2, 0x0;\0A\09mov.u32 $3, 0x0;\0A\09@$5 ld.global.v4.b32 { $0, $1, $2, $3 }, [ $4 + 0 ];", "=r,=r,=r,=r,l,b" %84, %54 : (!llvm.ptr<1>, i1) -> !llvm.struct<(i32, i32, i32, i32)> loc(#loc10)
    %99 = llvm.extractvalue %98[0] : !llvm.struct<(i32, i32, i32, i32)>  loc(#loc10)
    %100 = llvm.bitcast %99 : i32 to vector<1xf32> loc(#loc10)
    %101 = llvm.extractvalue %98[1] : !llvm.struct<(i32, i32, i32, i32)>  loc(#loc10)
    %102 = llvm.bitcast %101 : i32 to vector<1xf32> loc(#loc10)
    %103 = llvm.extractvalue %98[2] : !llvm.struct<(i32, i32, i32, i32)>  loc(#loc10)
    %104 = llvm.bitcast %103 : i32 to vector<1xf32> loc(#loc10)
    %105 = llvm.extractvalue %98[3] : !llvm.struct<(i32, i32, i32, i32)>  loc(#loc10)
    %106 = llvm.bitcast %105 : i32 to vector<1xf32> loc(#loc10)
    %107 = llvm.extractelement %100[%12 : i32] : vector<1xf32> loc(#loc10)
    %108 = llvm.extractelement %102[%12 : i32] : vector<1xf32> loc(#loc10)
    %109 = llvm.extractelement %104[%12 : i32] : vector<1xf32> loc(#loc10)
    %110 = llvm.extractelement %106[%12 : i32] : vector<1xf32> loc(#loc10)
    %111 = llvm.fadd %66, %94 : f32 loc(#loc11)
    %112 = llvm.fadd %67, %95 : f32 loc(#loc11)
    %113 = llvm.fadd %68, %96 : f32 loc(#loc11)
    %114 = llvm.fadd %69, %97 : f32 loc(#loc11)
    %115 = llvm.fadd %79, %107 : f32 loc(#loc11)
    %116 = llvm.fadd %80, %108 : f32 loc(#loc11)
    %117 = llvm.fadd %81, %109 : f32 loc(#loc11)
    %118 = llvm.fadd %82, %110 : f32 loc(#loc11)
    %119 = llvm.getelementptr %arg2[%51] : (!llvm.ptr<1>, i32) -> !llvm.ptr<1>, f32 loc(#loc12)
    %120 = llvm.getelementptr %arg2[%52] : (!llvm.ptr<1>, i32) -> !llvm.ptr<1>, f32 loc(#loc12)
    %121 = llvm.insertelement %111, %0[%10 : i32] : vector<1xf32> loc(#loc13)
    %122 = llvm.bitcast %121 : vector<1xf32> to i32 loc(#loc13)
    %123 = llvm.insertelement %112, %0[%10 : i32] : vector<1xf32> loc(#loc13)
    %124 = llvm.bitcast %123 : vector<1xf32> to i32 loc(#loc13)
    %125 = llvm.insertelement %113, %0[%10 : i32] : vector<1xf32> loc(#loc13)
    %126 = llvm.bitcast %125 : vector<1xf32> to i32 loc(#loc13)
    %127 = llvm.insertelement %114, %0[%10 : i32] : vector<1xf32> loc(#loc13)
    %128 = llvm.bitcast %127 : vector<1xf32> to i32 loc(#loc13)
    %129 = llvm.inline_asm has_side_effects asm_dialect = att operand_attrs = [] "@$5 st.global.v4.b32 [ $4 + 0 ], { $0, $1, $2, $3 };", "r,r,r,r,l,b" %122, %124, %126, %128, %119, %53 : (i32, i32, i32, i32, !llvm.ptr<1>, i1) -> !llvm.void loc(#loc13)
    %130 = llvm.insertelement %115, %0[%10 : i32] : vector<1xf32> loc(#loc13)
    %131 = llvm.bitcast %130 : vector<1xf32> to i32 loc(#loc13)
    %132 = llvm.insertelement %116, %0[%10 : i32] : vector<1xf32> loc(#loc13)
    %133 = llvm.bitcast %132 : vector<1xf32> to i32 loc(#loc13)
    %134 = llvm.insertelement %117, %0[%10 : i32] : vector<1xf32> loc(#loc13)
    %135 = llvm.bitcast %134 : vector<1xf32> to i32 loc(#loc13)
    %136 = llvm.insertelement %118, %0[%10 : i32] : vector<1xf32> loc(#loc13)
    %137 = llvm.bitcast %136 : vector<1xf32> to i32 loc(#loc13)
    %138 = llvm.inline_asm has_side_effects asm_dialect = att operand_attrs = [] "@$5 st.global.v4.b32 [ $4 + 0 ], { $0, $1, $2, $3 };", "r,r,r,r,l,b" %131, %133, %135, %137, %120, %54 : (i32, i32, i32, i32, !llvm.ptr<1>, i1) -> !llvm.void loc(#loc13)
    llvm.return loc(#loc14)
  } loc(#loc)
} loc(#loc)
#loc1 = loc(unknown)
#loc2 = loc("/home/arshadm/Workspace/projects/spinorml/venv/./src/vector_addition.py":19:24)
#loc3 = loc("/home/arshadm/Workspace/projects/spinorml/venv/./src/vector_addition.py":24:24)
#loc4 = loc("/home/arshadm/Workspace/projects/spinorml/venv/./src/vector_addition.py":25:41)
#loc5 = loc("/home/arshadm/Workspace/projects/spinorml/venv/./src/vector_addition.py":25:28)
#loc6 = loc("/home/arshadm/Workspace/projects/spinorml/venv/./src/vector_addition.py":27:21)
#loc7 = loc("/home/arshadm/Workspace/projects/spinorml/venv/./src/vector_addition.py":30:24)
#loc8 = loc("/home/arshadm/Workspace/projects/spinorml/venv/./src/vector_addition.py":30:16)
#loc9 = loc("/home/arshadm/Workspace/projects/spinorml/venv/./src/vector_addition.py":31:24)
#loc10 = loc("/home/arshadm/Workspace/projects/spinorml/venv/./src/vector_addition.py":31:16)
#loc11 = loc("/home/arshadm/Workspace/projects/spinorml/venv/./src/vector_addition.py":32:17)
#loc12 = loc("/home/arshadm/Workspace/projects/spinorml/venv/./src/vector_addition.py":34:26)
#loc13 = loc("/home/arshadm/Workspace/projects/spinorml/venv/./src/vector_addition.py":34:35)
#loc14 = loc("/home/arshadm/Workspace/projects/spinorml/venv/./src/vector_addition.py":34:4)


// -----// IR Dump Before LLVMDIScope (enable-line-info) ('builtin.module' operation) //----- //
#loc = loc("/home/arshadm/Workspace/projects/spinorml/venv/./src/vector_addition.py":10:0)
module attributes {ttg.global_scratch_memory_alignment = 1 : i32, ttg.global_scratch_memory_size = 0 : i32, "ttg.num-ctas" = 1 : i32, "ttg.num-warps" = 4 : i32, ttg.shared = 0 : i32, ttg.target = "cuda:61", ttg.tensor_memory_size = 0 : i32, "ttg.threads-per-warp" = 32 : i32, "ttg.total-num-warps" = 4 : i32} {
  llvm.mlir.global external @global_smem() {addr_space = 3 : i32, alignment = 16 : i64} : !llvm.array<0 x i8> loc(#loc)
  llvm.func @add_kernel(%arg0: !llvm.ptr<1> {tt.divisibility = 16 : i32} loc("/home/arshadm/Workspace/projects/spinorml/venv/./src/vector_addition.py":10:0), %arg1: !llvm.ptr<1> {tt.divisibility = 16 : i32} loc("/home/arshadm/Workspace/projects/spinorml/venv/./src/vector_addition.py":10:0), %arg2: !llvm.ptr<1> {tt.divisibility = 16 : i32} loc("/home/arshadm/Workspace/projects/spinorml/venv/./src/vector_addition.py":10:0), %arg3: i32 {tt.divisibility = 16 : i32} loc("/home/arshadm/Workspace/projects/spinorml/venv/./src/vector_addition.py":10:0), %arg4: !llvm.ptr<1> loc("/home/arshadm/Workspace/projects/spinorml/venv/./src/vector_addition.py":10:0)) attributes {noinline = false, nvvm.kernel = 1 : ui1, nvvm.reqntid = array<i32: 128>, ttg.global_scratch_memory_alignment = 1 : i32, ttg.global_scratch_memory_size = 0 : i32} {
    %0 = llvm.mlir.undef : vector<1xf32> loc(#loc1)
    %1 = llvm.mlir.constant(512 : i32) : i32 loc(#loc1)
    %2 = llvm.mlir.constant(256 : i32) : i32 loc(#loc1)
    %3 = llvm.mlir.constant(128 : i32) : i32 loc(#loc1)
    %4 = llvm.mlir.constant(64 : i32) : i32 loc(#loc1)
    %5 = llvm.mlir.constant(16 : i32) : i32 loc(#loc1)
    %6 = llvm.mlir.constant(8 : i32) : i32 loc(#loc1)
    %7 = llvm.mlir.constant(2 : i32) : i32 loc(#loc1)
    %8 = llvm.mlir.constant(4 : i32) : i32 loc(#loc1)
    %9 = llvm.mlir.constant(1 : i32) : i32 loc(#loc1)
    %10 = llvm.mlir.constant(0 : i32) : i32 loc(#loc1)
    %11 = llvm.mlir.constant(32 : i32) : i32 loc(#loc1)
    %12 = llvm.mlir.constant(0 : index) : i32 loc(#loc1)
    %13 = llvm.mlir.constant(1024 : i32) : i32 loc(#loc1)
    %14 = llvm.call_intrinsic "llvm.nvvm.read.ptx.sreg.ctaid.x"() : () -> i32 loc(#loc2)
    %15 = llvm.mul %14, %13 : i32 loc(#loc3)
    %16 = nvvm.read.ptx.sreg.tid.x : i32 loc(#loc4)
    %17 = llvm.urem %16, %11 : i32 loc(#loc4)
    %18 = llvm.udiv %16, %11 : i32 loc(#loc4)
    %19 = llvm.and %17, %9 : i32 loc(#loc4)
    %20 = llvm.icmp "eq" %19, %10 : i32 loc(#loc4)
    %21 = llvm.select %20, %10, %8 : i1, i32 loc(#loc4)
    %22 = llvm.xor %10, %21 : i32 loc(#loc4)
    %23 = llvm.and %17, %7 : i32 loc(#loc4)
    %24 = llvm.icmp "eq" %23, %10 : i32 loc(#loc4)
    %25 = llvm.select %24, %10, %6 : i1, i32 loc(#loc4)
    %26 = llvm.xor %22, %25 : i32 loc(#loc4)
    %27 = llvm.and %17, %8 : i32 loc(#loc4)
    %28 = llvm.icmp "eq" %27, %10 : i32 loc(#loc4)
    %29 = llvm.select %28, %10, %5 : i1, i32 loc(#loc4)
    %30 = llvm.xor %26, %29 : i32 loc(#loc4)
    %31 = llvm.and %17, %6 : i32 loc(#loc4)
    %32 = llvm.icmp "eq" %31, %10 : i32 loc(#loc4)
    %33 = llvm.select %32, %10, %11 : i1, i32 loc(#loc4)
    %34 = llvm.xor %30, %33 : i32 loc(#loc4)
    %35 = llvm.and %17, %5 : i32 loc(#loc4)
    %36 = llvm.icmp "eq" %35, %10 : i32 loc(#loc4)
    %37 = llvm.select %36, %10, %4 : i1, i32 loc(#loc4)
    %38 = llvm.xor %34, %37 : i32 loc(#loc4)
    %39 = llvm.and %18, %9 : i32 loc(#loc4)
    %40 = llvm.icmp "eq" %39, %10 : i32 loc(#loc4)
    %41 = llvm.select %40, %10, %3 : i1, i32 loc(#loc4)
    %42 = llvm.xor %38, %41 : i32 loc(#loc4)
    %43 = llvm.and %18, %7 : i32 loc(#loc4)
    %44 = llvm.icmp "eq" %43, %10 : i32 loc(#loc4)
    %45 = llvm.select %44, %10, %2 : i1, i32 loc(#loc4)
    %46 = llvm.xor %42, %45 : i32 loc(#loc4)
    %47 = llvm.xor %46, %10 : i32 loc(#loc4)
    %48 = llvm.xor %46, %1 : i32 loc(#loc4)
    %49 = llvm.add %47, %12 : i32 loc(#loc4)
    %50 = llvm.add %48, %12 : i32 loc(#loc4)
    %51 = llvm.add %15, %49 : i32 loc(#loc5)
    %52 = llvm.add %15, %50 : i32 loc(#loc5)
    %53 = llvm.icmp "slt" %51, %arg3 : i32 loc(#loc6)
    %54 = llvm.icmp "slt" %52, %arg3 : i32 loc(#loc6)
    %55 = llvm.getelementptr %arg0[%51] : (!llvm.ptr<1>, i32) -> !llvm.ptr<1>, f32 loc(#loc7)
    %56 = llvm.getelementptr %arg0[%52] : (!llvm.ptr<1>, i32) -> !llvm.ptr<1>, f32 loc(#loc7)
    %57 = llvm.inline_asm has_side_effects asm_dialect = att operand_attrs = [] "mov.u32 $0, 0x0;\0A\09mov.u32 $1, 0x0;\0A\09mov.u32 $2, 0x0;\0A\09mov.u32 $3, 0x0;\0A\09@$5 ld.global.v4.b32 { $0, $1, $2, $3 }, [ $4 + 0 ];", "=r,=r,=r,=r,l,b" %55, %53 : (!llvm.ptr<1>, i1) -> !llvm.struct<(i32, i32, i32, i32)> loc(#loc8)
    %58 = llvm.extractvalue %57[0] : !llvm.struct<(i32, i32, i32, i32)>  loc(#loc8)
    %59 = llvm.bitcast %58 : i32 to vector<1xf32> loc(#loc8)
    %60 = llvm.extractvalue %57[1] : !llvm.struct<(i32, i32, i32, i32)>  loc(#loc8)
    %61 = llvm.bitcast %60 : i32 to vector<1xf32> loc(#loc8)
    %62 = llvm.extractvalue %57[2] : !llvm.struct<(i32, i32, i32, i32)>  loc(#loc8)
    %63 = llvm.bitcast %62 : i32 to vector<1xf32> loc(#loc8)
    %64 = llvm.extractvalue %57[3] : !llvm.struct<(i32, i32, i32, i32)>  loc(#loc8)
    %65 = llvm.bitcast %64 : i32 to vector<1xf32> loc(#loc8)
    %66 = llvm.extractelement %59[%12 : i32] : vector<1xf32> loc(#loc8)
    %67 = llvm.extractelement %61[%12 : i32] : vector<1xf32> loc(#loc8)
    %68 = llvm.extractelement %63[%12 : i32] : vector<1xf32> loc(#loc8)
    %69 = llvm.extractelement %65[%12 : i32] : vector<1xf32> loc(#loc8)
    %70 = llvm.inline_asm has_side_effects asm_dialect = att operand_attrs = [] "mov.u32 $0, 0x0;\0A\09mov.u32 $1, 0x0;\0A\09mov.u32 $2, 0x0;\0A\09mov.u32 $3, 0x0;\0A\09@$5 ld.global.v4.b32 { $0, $1, $2, $3 }, [ $4 + 0 ];", "=r,=r,=r,=r,l,b" %56, %54 : (!llvm.ptr<1>, i1) -> !llvm.struct<(i32, i32, i32, i32)> loc(#loc8)
    %71 = llvm.extractvalue %70[0] : !llvm.struct<(i32, i32, i32, i32)>  loc(#loc8)
    %72 = llvm.bitcast %71 : i32 to vector<1xf32> loc(#loc8)
    %73 = llvm.extractvalue %70[1] : !llvm.struct<(i32, i32, i32, i32)>  loc(#loc8)
    %74 = llvm.bitcast %73 : i32 to vector<1xf32> loc(#loc8)
    %75 = llvm.extractvalue %70[2] : !llvm.struct<(i32, i32, i32, i32)>  loc(#loc8)
    %76 = llvm.bitcast %75 : i32 to vector<1xf32> loc(#loc8)
    %77 = llvm.extractvalue %70[3] : !llvm.struct<(i32, i32, i32, i32)>  loc(#loc8)
    %78 = llvm.bitcast %77 : i32 to vector<1xf32> loc(#loc8)
    %79 = llvm.extractelement %72[%12 : i32] : vector<1xf32> loc(#loc8)
    %80 = llvm.extractelement %74[%12 : i32] : vector<1xf32> loc(#loc8)
    %81 = llvm.extractelement %76[%12 : i32] : vector<1xf32> loc(#loc8)
    %82 = llvm.extractelement %78[%12 : i32] : vector<1xf32> loc(#loc8)
    %83 = llvm.getelementptr %arg1[%51] : (!llvm.ptr<1>, i32) -> !llvm.ptr<1>, f32 loc(#loc9)
    %84 = llvm.getelementptr %arg1[%52] : (!llvm.ptr<1>, i32) -> !llvm.ptr<1>, f32 loc(#loc9)
    %85 = llvm.inline_asm has_side_effects asm_dialect = att operand_attrs = [] "mov.u32 $0, 0x0;\0A\09mov.u32 $1, 0x0;\0A\09mov.u32 $2, 0x0;\0A\09mov.u32 $3, 0x0;\0A\09@$5 ld.global.v4.b32 { $0, $1, $2, $3 }, [ $4 + 0 ];", "=r,=r,=r,=r,l,b" %83, %53 : (!llvm.ptr<1>, i1) -> !llvm.struct<(i32, i32, i32, i32)> loc(#loc10)
    %86 = llvm.extractvalue %85[0] : !llvm.struct<(i32, i32, i32, i32)>  loc(#loc10)
    %87 = llvm.bitcast %86 : i32 to vector<1xf32> loc(#loc10)
    %88 = llvm.extractvalue %85[1] : !llvm.struct<(i32, i32, i32, i32)>  loc(#loc10)
    %89 = llvm.bitcast %88 : i32 to vector<1xf32> loc(#loc10)
    %90 = llvm.extractvalue %85[2] : !llvm.struct<(i32, i32, i32, i32)>  loc(#loc10)
    %91 = llvm.bitcast %90 : i32 to vector<1xf32> loc(#loc10)
    %92 = llvm.extractvalue %85[3] : !llvm.struct<(i32, i32, i32, i32)>  loc(#loc10)
    %93 = llvm.bitcast %92 : i32 to vector<1xf32> loc(#loc10)
    %94 = llvm.extractelement %87[%12 : i32] : vector<1xf32> loc(#loc10)
    %95 = llvm.extractelement %89[%12 : i32] : vector<1xf32> loc(#loc10)
    %96 = llvm.extractelement %91[%12 : i32] : vector<1xf32> loc(#loc10)
    %97 = llvm.extractelement %93[%12 : i32] : vector<1xf32> loc(#loc10)
    %98 = llvm.inline_asm has_side_effects asm_dialect = att operand_attrs = [] "mov.u32 $0, 0x0;\0A\09mov.u32 $1, 0x0;\0A\09mov.u32 $2, 0x0;\0A\09mov.u32 $3, 0x0;\0A\09@$5 ld.global.v4.b32 { $0, $1, $2, $3 }, [ $4 + 0 ];", "=r,=r,=r,=r,l,b" %84, %54 : (!llvm.ptr<1>, i1) -> !llvm.struct<(i32, i32, i32, i32)> loc(#loc10)
    %99 = llvm.extractvalue %98[0] : !llvm.struct<(i32, i32, i32, i32)>  loc(#loc10)
    %100 = llvm.bitcast %99 : i32 to vector<1xf32> loc(#loc10)
    %101 = llvm.extractvalue %98[1] : !llvm.struct<(i32, i32, i32, i32)>  loc(#loc10)
    %102 = llvm.bitcast %101 : i32 to vector<1xf32> loc(#loc10)
    %103 = llvm.extractvalue %98[2] : !llvm.struct<(i32, i32, i32, i32)>  loc(#loc10)
    %104 = llvm.bitcast %103 : i32 to vector<1xf32> loc(#loc10)
    %105 = llvm.extractvalue %98[3] : !llvm.struct<(i32, i32, i32, i32)>  loc(#loc10)
    %106 = llvm.bitcast %105 : i32 to vector<1xf32> loc(#loc10)
    %107 = llvm.extractelement %100[%12 : i32] : vector<1xf32> loc(#loc10)
    %108 = llvm.extractelement %102[%12 : i32] : vector<1xf32> loc(#loc10)
    %109 = llvm.extractelement %104[%12 : i32] : vector<1xf32> loc(#loc10)
    %110 = llvm.extractelement %106[%12 : i32] : vector<1xf32> loc(#loc10)
    %111 = llvm.fadd %66, %94 : f32 loc(#loc11)
    %112 = llvm.fadd %67, %95 : f32 loc(#loc11)
    %113 = llvm.fadd %68, %96 : f32 loc(#loc11)
    %114 = llvm.fadd %69, %97 : f32 loc(#loc11)
    %115 = llvm.fadd %79, %107 : f32 loc(#loc11)
    %116 = llvm.fadd %80, %108 : f32 loc(#loc11)
    %117 = llvm.fadd %81, %109 : f32 loc(#loc11)
    %118 = llvm.fadd %82, %110 : f32 loc(#loc11)
    %119 = llvm.getelementptr %arg2[%51] : (!llvm.ptr<1>, i32) -> !llvm.ptr<1>, f32 loc(#loc12)
    %120 = llvm.getelementptr %arg2[%52] : (!llvm.ptr<1>, i32) -> !llvm.ptr<1>, f32 loc(#loc12)
    %121 = llvm.insertelement %111, %0[%10 : i32] : vector<1xf32> loc(#loc13)
    %122 = llvm.bitcast %121 : vector<1xf32> to i32 loc(#loc13)
    %123 = llvm.insertelement %112, %0[%10 : i32] : vector<1xf32> loc(#loc13)
    %124 = llvm.bitcast %123 : vector<1xf32> to i32 loc(#loc13)
    %125 = llvm.insertelement %113, %0[%10 : i32] : vector<1xf32> loc(#loc13)
    %126 = llvm.bitcast %125 : vector<1xf32> to i32 loc(#loc13)
    %127 = llvm.insertelement %114, %0[%10 : i32] : vector<1xf32> loc(#loc13)
    %128 = llvm.bitcast %127 : vector<1xf32> to i32 loc(#loc13)
    %129 = llvm.inline_asm has_side_effects asm_dialect = att operand_attrs = [] "@$5 st.global.v4.b32 [ $4 + 0 ], { $0, $1, $2, $3 };", "r,r,r,r,l,b" %122, %124, %126, %128, %119, %53 : (i32, i32, i32, i32, !llvm.ptr<1>, i1) -> !llvm.void loc(#loc13)
    %130 = llvm.insertelement %115, %0[%10 : i32] : vector<1xf32> loc(#loc13)
    %131 = llvm.bitcast %130 : vector<1xf32> to i32 loc(#loc13)
    %132 = llvm.insertelement %116, %0[%10 : i32] : vector<1xf32> loc(#loc13)
    %133 = llvm.bitcast %132 : vector<1xf32> to i32 loc(#loc13)
    %134 = llvm.insertelement %117, %0[%10 : i32] : vector<1xf32> loc(#loc13)
    %135 = llvm.bitcast %134 : vector<1xf32> to i32 loc(#loc13)
    %136 = llvm.insertelement %118, %0[%10 : i32] : vector<1xf32> loc(#loc13)
    %137 = llvm.bitcast %136 : vector<1xf32> to i32 loc(#loc13)
    %138 = llvm.inline_asm has_side_effects asm_dialect = att operand_attrs = [] "@$5 st.global.v4.b32 [ $4 + 0 ], { $0, $1, $2, $3 };", "r,r,r,r,l,b" %131, %133, %135, %137, %120, %54 : (i32, i32, i32, i32, !llvm.ptr<1>, i1) -> !llvm.void loc(#loc13)
    llvm.return loc(#loc14)
  } loc(#loc)
} loc(#loc)
#loc1 = loc(unknown)
#loc2 = loc("/home/arshadm/Workspace/projects/spinorml/venv/./src/vector_addition.py":19:24)
#loc3 = loc("/home/arshadm/Workspace/projects/spinorml/venv/./src/vector_addition.py":24:24)
#loc4 = loc("/home/arshadm/Workspace/projects/spinorml/venv/./src/vector_addition.py":25:41)
#loc5 = loc("/home/arshadm/Workspace/projects/spinorml/venv/./src/vector_addition.py":25:28)
#loc6 = loc("/home/arshadm/Workspace/projects/spinorml/venv/./src/vector_addition.py":27:21)
#loc7 = loc("/home/arshadm/Workspace/projects/spinorml/venv/./src/vector_addition.py":30:24)
#loc8 = loc("/home/arshadm/Workspace/projects/spinorml/venv/./src/vector_addition.py":30:16)
#loc9 = loc("/home/arshadm/Workspace/projects/spinorml/venv/./src/vector_addition.py":31:24)
#loc10 = loc("/home/arshadm/Workspace/projects/spinorml/venv/./src/vector_addition.py":31:16)
#loc11 = loc("/home/arshadm/Workspace/projects/spinorml/venv/./src/vector_addition.py":32:17)
#loc12 = loc("/home/arshadm/Workspace/projects/spinorml/venv/./src/vector_addition.py":34:26)
#loc13 = loc("/home/arshadm/Workspace/projects/spinorml/venv/./src/vector_addition.py":34:35)
#loc14 = loc("/home/arshadm/Workspace/projects/spinorml/venv/./src/vector_addition.py":34:4)


tensor([1.3713, 1.3076, 0.4940,  ..., 0.6466, 0.5249, 0.7940], device='cuda:0')
tensor([1.3713, 1.3076, 0.4940,  ..., 0.6466, 0.5249, 0.7940], device='cuda:0')
The maximum difference between torch and triton is 0.0
