---
source: kernels/teeny-kernels/tests/test_reflection_pad3d.rs
expression: mlir.trim()
---
"module {\n  tt.func private @_RINvCs2sJNxB1LxRn_90reflection_pad3d_backward_3357f5d33c4a4215e011c0bf020f76b4401fe21f004395770251a2c1d12b746225reflection_pad3d_backwardNtNtNtNtB2_6triton4llvm6triton10LlvmTritonfKl1_KB2T_KB2T_Kl2_KB37_KB37_Kl10_EB2_(%arg0: !tt.ptr<f32> {tt.divisibility = 16 : i32}, %arg1: !tt.ptr<f32> {tt.divisibility = 16 : i32}, %arg2: i32 {tt.divisibility = 16 : i32}, %arg3: i32 {tt.divisibility = 16 : i32}, %arg4: i32 {tt.divisibility = 16 : i32}, %arg5: i32 {tt.divisibility = 16 : i32}, %arg6: i32 {tt.divisibility = 16 : i32}, %arg7: i32 {tt.divisibility = 16 : i32}, %arg8: i32 {tt.divisibility = 16 : i32}, %arg9: i32 {tt.divisibility = 16 : i32}) {\n    %cst = arith.constant dense<0> : tensor<16xi32>\n    %cst_0 = arith.constant dense<2> : tensor<16xi32>\n    %cst_1 = arith.constant dense<0.000000e+00> : tensor<16xf32>\n    %c15_i32 = arith.constant 15 : i32\n    %c2_i32 = arith.constant 2 : i32\n    %false = arith.constant false\n    %c0_i32 = arith.constant 0 : i32\n    %c1_i32 = arith.constant 1 : i32\n    %c16_i32 = arith.constant 16 : i32\n    %0 = tt.get_program_id x : i32\n    %1 = arith.addi %arg9, %c15_i32 : i32\n    %2 = arith.divsi %1, %c16_i32 : i32\n    %3 = arith.remsi %0, %2 : i32\n    %4 = arith.divsi %0, %2 : i32\n    %5 = arith.remsi %4, %arg8 : i32\n    %6 = arith.divsi %4, %arg8 : i32\n    %7 = arith.remsi %6, %arg7 : i32\n    %8 = arith.divsi %6, %arg7 : i32\n    %9 = arith.remsi %8, %arg3 : i32\n    %10 = arith.divsi %8, %arg3 : i32\n    %11 = arith.muli %3, %c16_i32 : i32\n    %12 = tt.make_range {end = 16 : i32, start = 0 : i32} : tensor<16xi32>\n    %13 = tt.splat %11 : i32 -> tensor<16xi32>\n    %14 = arith.addi %12, %13 : tensor<16xi32>\n    %15 = tt.splat %arg9 : i32 -> tensor<16xi32>\n    %16 = arith.cmpi slt, %14, %15 : tensor<16xi32>\n    %17 = arith.subi %7, %c1_i32 : i32\n    %18 = arith.cmpi slt, %17, %c0_i32 : i32\n    %19 = arith.cmpi eq, %18, %false : i1\n    cf.cond_br %19, ^bb7, ^bb1\n  ^bb1:  // pred: ^bb0\n    %20 = arith.subi %c1_i32, %7 : i32\n    cf.br ^bb2(%20 : i32)\n  ^bb2(%21: i32):  // 3 preds: ^bb1, ^bb7, ^bb8\n    %22 = arith.subi %5, %c1_i32 : i32\n    %23 = arith.cmpi slt, %22, %c0_i32 : i32\n    %24 = arith.cmpi eq, %23, %false : i1\n    cf.cond_br %24, ^bb5, ^bb3\n  ^bb3:  // pred: ^bb2\n    %25 = arith.subi %c1_i32, %5 : i32\n    cf.br ^bb4(%25 : i32)\n  ^bb4(%26: i32):  // 3 preds: ^bb3, ^bb5, ^bb6\n    %27 = arith.muli %10, %arg3 : i32\n    %28 = arith.addi %27, %9 : i32\n    %29 = arith.muli %28, %arg7 : i32\n    %30 = arith.addi %29, %7 : i32\n    %31 = arith.muli %30, %arg8 : i32\n    %32 = arith.addi %31, %5 : i32\n    %33 = arith.muli %32, %arg9 : i32\n    %34 = arith.muli %28, %arg4 : i32\n    %35 = arith.addi %34, %21 : i32\n    %36 = arith.muli %35, %arg5 : i32\n    %37 = arith.muli %36, %arg6 : i32\n    %38 = arith.muli %26, %arg6 : i32\n    %39 = arith.addi %37, %38 : i32\n    %40 = tt.splat %33 : i32 -> tensor<16xi32>\n    %41 = arith.addi %14, %40 : tensor<16xi32>\n    %42 = tt.splat %arg0 : !tt.ptr<f32> -> tensor<16x!tt.ptr<f32>>\n    %43 = tt.addptr %42, %41 : tensor<16x!tt.ptr<f32>>, tensor<16xi32>\n    %44 = tt.load %43, %16, %cst_1 : tensor<16x!tt.ptr<f32>>\n    %45 = arith.subi %14, %cst_0 : tensor<16xi32>\n    %46 = arith.cmpi slt, %45, %cst : tensor<16xi32>\n    %47 = tt.splat %arg6 : i32 -> tensor<16xi32>\n    %48 = arith.cmpi sge, %45, %47 : tensor<16xi32>\n    %49 = arith.cmpi sge, %45, %cst : tensor<16xi32>\n    %50 = tt.splat %arg6 : i32 -> tensor<16xi32>\n    %51 = arith.cmpi slt, %45, %50 : tensor<16xi32>\n    %52 = arith.andi %49, %51 : tensor<16xi1>\n    %53 = arith.subi %arg6, %c1_i32 : i32\n    %54 = arith.muli %53, %c2_i32 : i32\n    %55 = tt.splat %54 : i32 -> tensor<16xi32>\n    %56 = arith.subi %55, %45 : tensor<16xi32>\n    %57 = tt.splat %39 : i32 -> tensor<16xi32>\n    %58 = arith.addi %45, %57 : tensor<16xi32>\n    %59 = tt.splat %arg1 : !tt.ptr<f32> -> tensor<16x!tt.ptr<f32>>\n    %60 = tt.addptr %59, %58 : tensor<16x!tt.ptr<f32>>, tensor<16xi32>\n    %61 = arith.andi %16, %52 : tensor<16xi1>\n    %62 = tt.atomic_rmw fadd, relaxed, gpu, %60, %44, %61 {operandSegmentSizes = array<i32: 1, 1, 1>} : (tensor<16x!tt.ptr<f32>>, tensor<16xf32>, tensor<16xi1>) -> tensor<16xf32>\n    %63 = tt.splat %39 : i32 -> tensor<16xi32>\n    %64 = arith.subi %63, %45 : tensor<16xi32>\n    %65 = tt.splat %arg1 : !tt.ptr<f32> -> tensor<16x!tt.ptr<f32>>\n    %66 = tt.addptr %65, %64 : tensor<16x!tt.ptr<f32>>, tensor<16xi32>\n    %67 = arith.andi %16, %46 : tensor<16xi1>\n    %68 = tt.atomic_rmw fadd, relaxed, gpu, %66, %44, %67 {operandSegmentSizes = array<i32: 1, 1, 1>} : (tensor<16x!tt.ptr<f32>>, tensor<16xf32>, tensor<16xi1>) -> tensor<16xf32>\n    %69 = tt.splat %39 : i32 -> tensor<16xi32>\n    %70 = arith.addi %56, %69 : tensor<16xi32>\n    %71 = tt.splat %arg1 : !tt.ptr<f32> -> tensor<16x!tt.ptr<f32>>\n    %72 = tt.addptr %71, %70 : tensor<16x!tt.ptr<f32>>, tensor<16xi32>\n    %73 = arith.andi %16, %48 : tensor<16xi1>\n    %74 = tt.atomic_rmw fadd, relaxed, gpu, %72, %44, %73 {operandSegmentSizes = array<i32: 1, 1, 1>} : (tensor<16x!tt.ptr<f32>>, tensor<16xf32>, tensor<16xi1>) -> tensor<16xf32>\n    tt.return\n  ^bb5:  // pred: ^bb2\n    %75 = arith.cmpi sge, %22, %arg5 : i32\n    %76 = arith.cmpi eq, %75, %false : i1\n    cf.cond_br %76, ^bb4(%22 : i32), ^bb6\n  ^bb6:  // pred: ^bb5\n    %77 = arith.subi %arg5, %c1_i32 : i32\n    %78 = arith.muli %77, %c2_i32 : i32\n    %79 = arith.subi %78, %22 : i32\n    cf.br ^bb4(%79 : i32)\n  ^bb7:  // pred: ^bb0\n    %80 = arith.cmpi sge, %17, %arg4 : i32\n    %81 = arith.cmpi eq, %80, %false : i1\n    cf.cond_br %81, ^bb2(%17 : i32), ^bb8\n  ^bb8:  // pred: ^bb7\n    %82 = arith.subi %arg4, %c1_i32 : i32\n    %83 = arith.muli %82, %c2_i32 : i32\n    %84 = arith.subi %83, %17 : i32\n    cf.br ^bb2(%84 : i32)\n  }\n  tt.func public @entry_point(%arg0: !tt.ptr<f32> {tt.divisibility = 16 : i32}, %arg1: !tt.ptr<f32> {tt.divisibility = 16 : i32}, %arg2: i32 {tt.divisibility = 16 : i32}, %arg3: i32 {tt.divisibility = 16 : i32}, %arg4: i32 {tt.divisibility = 16 : i32}, %arg5: i32 {tt.divisibility = 16 : i32}, %arg6: i32 {tt.divisibility = 16 : i32}, %arg7: i32 {tt.divisibility = 16 : i32}, %arg8: i32 {tt.divisibility = 16 : i32}, %arg9: i32 {tt.divisibility = 16 : i32}) {\n    tt.call @_RINvCs2sJNxB1LxRn_90reflection_pad3d_backward_3357f5d33c4a4215e011c0bf020f76b4401fe21f004395770251a2c1d12b746225reflection_pad3d_backwardNtNtNtNtB2_6triton4llvm6triton10LlvmTritonfKl1_KB2T_KB2T_Kl2_KB37_KB37_Kl10_EB2_(%arg0, %arg1, %arg2, %arg3, %arg4, %arg5, %arg6, %arg7, %arg8, %arg9) {arg_attrs = [{}, {}, {}, {}, {}, {}, {}, {}, {}, {}], res_attrs = []} : (!tt.ptr<f32>, !tt.ptr<f32>, i32, i32, i32, i32, i32, i32, i32, i32) -> ()\n    tt.return\n  }\n}"
