---
source: kernels/teeny-kernels/tests/test_reflection_pad2d.rs
expression: mlir.trim()
---
"module {\n  tt.func private @_RINvCsgoBtNsbM9fS_90reflection_pad2d_backward_87e09859f44341ec569e24f3ec76c467106fcc708ff782ff6bb664595edd048e25reflection_pad2d_backwardNtNtNtNtB2_6triton4llvm6triton10LlvmTritonfKl1_Kl2_KB2X_Kl3_Kl10_EB2_(%arg0: !tt.ptr<f32> {tt.divisibility = 16 : i32}, %arg1: !tt.ptr<f32> {tt.divisibility = 16 : i32}, %arg2: i32 {tt.divisibility = 16 : i32}, %arg3: i32 {tt.divisibility = 16 : i32}, %arg4: i32 {tt.divisibility = 16 : i32}, %arg5: i32 {tt.divisibility = 16 : i32}, %arg6: i32 {tt.divisibility = 16 : i32}, %arg7: i32 {tt.divisibility = 16 : i32}) {\n    %cst = arith.constant dense<0> : tensor<16xi32>\n    %cst_0 = arith.constant dense<2> : tensor<16xi32>\n    %cst_1 = arith.constant dense<0.000000e+00> : tensor<16xf32>\n    %c15_i32 = arith.constant 15 : i32\n    %c2_i32 = arith.constant 2 : i32\n    %false = arith.constant false\n    %c0_i32 = arith.constant 0 : i32\n    %c1_i32 = arith.constant 1 : i32\n    %c16_i32 = arith.constant 16 : i32\n    %0 = tt.get_program_id x : i32\n    %1 = arith.addi %arg7, %c15_i32 : i32\n    %2 = arith.divsi %1, %c16_i32 : i32\n    %3 = arith.remsi %0, %2 : i32\n    %4 = arith.divsi %0, %2 : i32\n    %5 = arith.remsi %4, %arg6 : i32\n    %6 = arith.divsi %4, %arg6 : i32\n    %7 = arith.remsi %6, %arg3 : i32\n    %8 = arith.divsi %6, %arg3 : i32\n    %9 = arith.muli %3, %c16_i32 : i32\n    %10 = tt.make_range {end = 16 : i32, start = 0 : i32} : tensor<16xi32>\n    %11 = tt.splat %9 : i32 -> tensor<16xi32>\n    %12 = arith.addi %10, %11 : tensor<16xi32>\n    %13 = tt.splat %arg7 : i32 -> tensor<16xi32>\n    %14 = arith.cmpi slt, %12, %13 : tensor<16xi32>\n    %15 = arith.subi %5, %c1_i32 : i32\n    %16 = arith.cmpi slt, %15, %c0_i32 : i32\n    %17 = arith.cmpi eq, %16, %false : i1\n    cf.cond_br %17, ^bb3, ^bb1\n  ^bb1:  // pred: ^bb0\n    %18 = arith.subi %c1_i32, %5 : i32\n    cf.br ^bb2(%18 : i32)\n  ^bb2(%19: i32):  // 3 preds: ^bb1, ^bb3, ^bb4\n    %20 = arith.muli %8, %arg3 : i32\n    %21 = arith.addi %20, %7 : i32\n    %22 = arith.muli %21, %arg6 : i32\n    %23 = arith.addi %22, %5 : i32\n    %24 = arith.muli %23, %arg7 : i32\n    %25 = arith.muli %21, %arg4 : i32\n    %26 = arith.muli %25, %arg5 : i32\n    %27 = arith.muli %19, %arg5 : i32\n    %28 = arith.addi %26, %27 : i32\n    %29 = tt.splat %24 : i32 -> tensor<16xi32>\n    %30 = arith.addi %12, %29 : tensor<16xi32>\n    %31 = tt.splat %arg0 : !tt.ptr<f32> -> tensor<16x!tt.ptr<f32>>\n    %32 = tt.addptr %31, %30 : tensor<16x!tt.ptr<f32>>, tensor<16xi32>\n    %33 = tt.load %32, %14, %cst_1 : tensor<16x!tt.ptr<f32>>\n    %34 = arith.subi %12, %cst_0 : tensor<16xi32>\n    %35 = arith.cmpi slt, %34, %cst : tensor<16xi32>\n    %36 = tt.splat %arg5 : i32 -> tensor<16xi32>\n    %37 = arith.cmpi sge, %34, %36 : tensor<16xi32>\n    %38 = arith.cmpi sge, %34, %cst : tensor<16xi32>\n    %39 = tt.splat %arg5 : i32 -> tensor<16xi32>\n    %40 = arith.cmpi slt, %34, %39 : tensor<16xi32>\n    %41 = arith.andi %38, %40 : tensor<16xi1>\n    %42 = arith.subi %arg5, %c1_i32 : i32\n    %43 = arith.muli %42, %c2_i32 : i32\n    %44 = tt.splat %43 : i32 -> tensor<16xi32>\n    %45 = arith.subi %44, %34 : tensor<16xi32>\n    %46 = tt.splat %28 : i32 -> tensor<16xi32>\n    %47 = arith.addi %34, %46 : tensor<16xi32>\n    %48 = tt.splat %arg1 : !tt.ptr<f32> -> tensor<16x!tt.ptr<f32>>\n    %49 = tt.addptr %48, %47 : tensor<16x!tt.ptr<f32>>, tensor<16xi32>\n    %50 = arith.andi %14, %41 : tensor<16xi1>\n    %51 = tt.atomic_rmw fadd, relaxed, gpu, %49, %33, %50 {operandSegmentSizes = array<i32: 1, 1, 1>} : (tensor<16x!tt.ptr<f32>>, tensor<16xf32>, tensor<16xi1>) -> tensor<16xf32>\n    %52 = tt.splat %28 : i32 -> tensor<16xi32>\n    %53 = arith.subi %52, %34 : tensor<16xi32>\n    %54 = tt.splat %arg1 : !tt.ptr<f32> -> tensor<16x!tt.ptr<f32>>\n    %55 = tt.addptr %54, %53 : tensor<16x!tt.ptr<f32>>, tensor<16xi32>\n    %56 = arith.andi %14, %35 : tensor<16xi1>\n    %57 = tt.atomic_rmw fadd, relaxed, gpu, %55, %33, %56 {operandSegmentSizes = array<i32: 1, 1, 1>} : (tensor<16x!tt.ptr<f32>>, tensor<16xf32>, tensor<16xi1>) -> tensor<16xf32>\n    %58 = tt.splat %28 : i32 -> tensor<16xi32>\n    %59 = arith.addi %45, %58 : tensor<16xi32>\n    %60 = tt.splat %arg1 : !tt.ptr<f32> -> tensor<16x!tt.ptr<f32>>\n    %61 = tt.addptr %60, %59 : tensor<16x!tt.ptr<f32>>, tensor<16xi32>\n    %62 = arith.andi %14, %37 : tensor<16xi1>\n    %63 = tt.atomic_rmw fadd, relaxed, gpu, %61, %33, %62 {operandSegmentSizes = array<i32: 1, 1, 1>} : (tensor<16x!tt.ptr<f32>>, tensor<16xf32>, tensor<16xi1>) -> tensor<16xf32>\n    tt.return\n  ^bb3:  // pred: ^bb0\n    %64 = arith.cmpi sge, %15, %arg4 : i32\n    %65 = arith.cmpi eq, %64, %false : i1\n    cf.cond_br %65, ^bb2(%15 : i32), ^bb4\n  ^bb4:  // pred: ^bb3\n    %66 = arith.subi %arg4, %c1_i32 : i32\n    %67 = arith.muli %66, %c2_i32 : i32\n    %68 = arith.subi %67, %15 : i32\n    cf.br ^bb2(%68 : i32)\n  }\n  tt.func public @entry_point(%arg0: !tt.ptr<f32> {tt.divisibility = 16 : i32}, %arg1: !tt.ptr<f32> {tt.divisibility = 16 : i32}, %arg2: i32 {tt.divisibility = 16 : i32}, %arg3: i32 {tt.divisibility = 16 : i32}, %arg4: i32 {tt.divisibility = 16 : i32}, %arg5: i32 {tt.divisibility = 16 : i32}, %arg6: i32 {tt.divisibility = 16 : i32}, %arg7: i32 {tt.divisibility = 16 : i32}) {\n    tt.call @_RINvCsgoBtNsbM9fS_90reflection_pad2d_backward_87e09859f44341ec569e24f3ec76c467106fcc708ff782ff6bb664595edd048e25reflection_pad2d_backwardNtNtNtNtB2_6triton4llvm6triton10LlvmTritonfKl1_Kl2_KB2X_Kl3_Kl10_EB2_(%arg0, %arg1, %arg2, %arg3, %arg4, %arg5, %arg6, %arg7) {arg_attrs = [{}, {}, {}, {}, {}, {}, {}, {}], res_attrs = []} : (!tt.ptr<f32>, !tt.ptr<f32>, i32, i32, i32, i32, i32, i32) -> ()\n    tt.return\n  }\n}"
