---
source: kernels/teeny-kernels/tests/test_replication_pad3d.rs
expression: mlir.trim()
---
"module {\n  tt.func private @_RINvCs6SAJ1S2mbqz_90replication_pad3d_forward_50f260965383b554bfe4bb236f26b0e4928cfcf24df8ac9df3177070a3c67c5025replication_pad3d_forwardNtNtNtNtB2_6triton4llvm6triton10LlvmTritonfKl1_KB2T_KB2T_Kl2_KB37_KB37_Kl10_EB2_(%arg0: !tt.ptr<f32> {tt.divisibility = 16 : i32}, %arg1: !tt.ptr<f32> {tt.divisibility = 16 : i32}, %arg2: i32 {tt.divisibility = 16 : i32}, %arg3: i32 {tt.divisibility = 16 : i32}, %arg4: i32 {tt.divisibility = 16 : i32}, %arg5: i32 {tt.divisibility = 16 : i32}, %arg6: i32 {tt.divisibility = 16 : i32}, %arg7: i32 {tt.divisibility = 16 : i32}, %arg8: i32 {tt.divisibility = 16 : i32}, %arg9: i32 {tt.divisibility = 16 : i32}) {\n    %cst = arith.constant dense<0.000000e+00> : tensor<16xf32>\n    %cst_0 = arith.constant dense<0> : tensor<16xi32>\n    %cst_1 = arith.constant dense<2> : tensor<16xi32>\n    %c15_i32 = arith.constant 15 : i32\n    %false = arith.constant false\n    %c0_i32 = arith.constant 0 : i32\n    %c1_i32 = arith.constant 1 : i32\n    %c16_i32 = arith.constant 16 : i32\n    %0 = tt.get_program_id x : i32\n    %1 = arith.addi %arg9, %c15_i32 : i32\n    %2 = arith.divsi %1, %c16_i32 : i32\n    %3 = arith.remsi %0, %2 : i32\n    %4 = arith.divsi %0, %2 : i32\n    %5 = arith.remsi %4, %arg8 : i32\n    %6 = arith.divsi %4, %arg8 : i32\n    %7 = arith.remsi %6, %arg7 : i32\n    %8 = arith.divsi %6, %arg7 : i32\n    %9 = arith.remsi %8, %arg3 : i32\n    %10 = arith.divsi %8, %arg3 : i32\n    %11 = arith.muli %3, %c16_i32 : i32\n    %12 = tt.make_range {end = 16 : i32, start = 0 : i32} : tensor<16xi32>\n    %13 = tt.splat %11 : i32 -> tensor<16xi32>\n    %14 = arith.addi %12, %13 : tensor<16xi32>\n    %15 = tt.splat %arg9 : i32 -> tensor<16xi32>\n    %16 = arith.cmpi slt, %14, %15 : tensor<16xi32>\n    %17 = arith.subi %7, %c1_i32 : i32\n    %18 = arith.cmpi slt, %17, %c0_i32 : i32\n    %19 = arith.cmpi eq, %18, %false : i1\n    cf.cond_br %19, ^bb1, ^bb3(%c0_i32 : i32)\n  ^bb1:  // pred: ^bb0\n    %20 = arith.cmpi sge, %17, %arg4 : i32\n    %21 = arith.cmpi eq, %20, %false : i1\n    cf.cond_br %21, ^bb3(%17 : i32), ^bb2\n  ^bb2:  // pred: ^bb1\n    %22 = arith.subi %arg4, %c1_i32 : i32\n    cf.br ^bb3(%22 : i32)\n  ^bb3(%23: i32):  // 3 preds: ^bb0, ^bb1, ^bb2\n    %24 = arith.subi %5, %c1_i32 : i32\n    %25 = arith.cmpi slt, %24, %c0_i32 : i32\n    %26 = arith.cmpi eq, %25, %false : i1\n    cf.cond_br %26, ^bb4, ^bb6(%c0_i32 : i32)\n  ^bb4:  // pred: ^bb3\n    %27 = arith.cmpi sge, %24, %arg5 : i32\n    %28 = arith.cmpi eq, %27, %false : i1\n    cf.cond_br %28, ^bb6(%24 : i32), ^bb5\n  ^bb5:  // pred: ^bb4\n    %29 = arith.subi %arg5, %c1_i32 : i32\n    cf.br ^bb6(%29 : i32)\n  ^bb6(%30: i32):  // 3 preds: ^bb3, ^bb4, ^bb5\n    %31 = arith.muli %10, %arg3 : i32\n    %32 = arith.addi %31, %9 : i32\n    %33 = arith.muli %32, %arg4 : i32\n    %34 = arith.addi %33, %23 : i32\n    %35 = arith.muli %34, %arg5 : i32\n    %36 = arith.muli %35, %arg6 : i32\n    %37 = arith.muli %30, %arg6 : i32\n    %38 = arith.addi %36, %37 : i32\n    %39 = arith.muli %32, %arg7 : i32\n    %40 = arith.addi %39, %7 : i32\n    %41 = arith.muli %40, %arg8 : i32\n    %42 = arith.addi %41, %5 : i32\n    %43 = arith.muli %42, %arg9 : i32\n    %44 = arith.subi %14, %cst_1 : tensor<16xi32>\n    %45 = arith.cmpi slt, %44, %cst_0 : tensor<16xi32>\n    %46 = tt.splat %arg6 : i32 -> tensor<16xi32>\n    %47 = arith.cmpi sge, %44, %46 : tensor<16xi32>\n    %48 = arith.cmpi sge, %44, %cst_0 : tensor<16xi32>\n    %49 = tt.splat %arg6 : i32 -> tensor<16xi32>\n    %50 = arith.cmpi slt, %44, %49 : tensor<16xi32>\n    %51 = arith.andi %48, %50 : tensor<16xi1>\n    %52 = arith.subi %arg6, %c1_i32 : i32\n    %53 = tt.splat %52 : i32 -> tensor<16xi32>\n    %54 = tt.splat %38 : i32 -> tensor<16xi32>\n    %55 = arith.addi %44, %54 : tensor<16xi32>\n    %56 = tt.splat %arg0 : !tt.ptr<f32> -> tensor<16x!tt.ptr<f32>>\n    %57 = tt.addptr %56, %55 : tensor<16x!tt.ptr<f32>>, tensor<16xi32>\n    %58 = arith.andi %16, %51 : tensor<16xi1>\n    %59 = tt.load %57, %58, %cst : tensor<16x!tt.ptr<f32>>\n    %60 = tt.splat %38 : i32 -> tensor<16xi32>\n    %61 = tt.splat %arg0 : !tt.ptr<f32> -> tensor<16x!tt.ptr<f32>>\n    %62 = tt.addptr %61, %60 : tensor<16x!tt.ptr<f32>>, tensor<16xi32>\n    %63 = arith.andi %16, %45 : tensor<16xi1>\n    %64 = tt.load %62, %63, %cst : tensor<16x!tt.ptr<f32>>\n    %65 = tt.splat %38 : i32 -> tensor<16xi32>\n    %66 = arith.addi %53, %65 : tensor<16xi32>\n    %67 = tt.splat %arg0 : !tt.ptr<f32> -> tensor<16x!tt.ptr<f32>>\n    %68 = tt.addptr %67, %66 : tensor<16x!tt.ptr<f32>>, tensor<16xi32>\n    %69 = arith.andi %16, %47 : tensor<16xi1>\n    %70 = tt.load %68, %69, %cst : tensor<16x!tt.ptr<f32>>\n    %71 = arith.select %47, %70, %59 : tensor<16xi1>, tensor<16xf32>\n    %72 = arith.select %45, %64, %71 : tensor<16xi1>, tensor<16xf32>\n    %73 = tt.splat %43 : i32 -> tensor<16xi32>\n    %74 = arith.addi %14, %73 : tensor<16xi32>\n    %75 = tt.splat %arg1 : !tt.ptr<f32> -> tensor<16x!tt.ptr<f32>>\n    %76 = tt.addptr %75, %74 : tensor<16x!tt.ptr<f32>>, tensor<16xi32>\n    tt.store %76, %72, %16 {operandSegmentSizes = array<i32: 1, 1, 1>} : tensor<16x!tt.ptr<f32>>\n    tt.return\n  }\n  tt.func public @entry_point(%arg0: !tt.ptr<f32> {tt.divisibility = 16 : i32}, %arg1: !tt.ptr<f32> {tt.divisibility = 16 : i32}, %arg2: i32 {tt.divisibility = 16 : i32}, %arg3: i32 {tt.divisibility = 16 : i32}, %arg4: i32 {tt.divisibility = 16 : i32}, %arg5: i32 {tt.divisibility = 16 : i32}, %arg6: i32 {tt.divisibility = 16 : i32}, %arg7: i32 {tt.divisibility = 16 : i32}, %arg8: i32 {tt.divisibility = 16 : i32}, %arg9: i32 {tt.divisibility = 16 : i32}) {\n    tt.call @_RINvCs6SAJ1S2mbqz_90replication_pad3d_forward_50f260965383b554bfe4bb236f26b0e4928cfcf24df8ac9df3177070a3c67c5025replication_pad3d_forwardNtNtNtNtB2_6triton4llvm6triton10LlvmTritonfKl1_KB2T_KB2T_Kl2_KB37_KB37_Kl10_EB2_(%arg0, %arg1, %arg2, %arg3, %arg4, %arg5, %arg6, %arg7, %arg8, %arg9) {arg_attrs = [{}, {}, {}, {}, {}, {}, {}, {}, {}, {}], res_attrs = []} : (!tt.ptr<f32>, !tt.ptr<f32>, i32, i32, i32, i32, i32, i32, i32, i32) -> ()\n    tt.return\n  }\n}"
