---
source: kernels/teeny-kernels/tests/test_avgpool2d.rs
expression: mlir.trim()
---
"module {\n  tt.func private @_RINvCs96n1tZtoMu7_82avgpool2d_forward_79bea367110436b5ffc72f61006660635eb8d84b68c311476d42550e1310713317avgpool2d_forwardNtNtNtNtB2_6triton4llvm6triton10LlvmTritonfKl2_KB2D_KB2D_KB2D_Kl4_EB2_(%arg0: !tt.ptr<f32> {tt.divisibility = 16 : i32}, %arg1: !tt.ptr<f32> {tt.divisibility = 16 : i32}, %arg2: i32 {tt.divisibility = 16 : i32}, %arg3: i32 {tt.divisibility = 16 : i32}, %arg4: i32 {tt.divisibility = 16 : i32}, %arg5: i32 {tt.divisibility = 16 : i32}, %arg6: i32 {tt.divisibility = 16 : i32}, %arg7: i32 {tt.divisibility = 16 : i32}) {\n    %cst = arith.constant dense<4.000000e+00> : tensor<4xf32>\n    %cst_0 = arith.constant dense<2> : tensor<4xi32>\n    %cst_1 = arith.constant dense<0.000000e+00> : tensor<4xf32>\n    %c3_i32 = arith.constant 3 : i32\n    %c2_i32 = arith.constant 2 : i32\n    %c0_i32 = arith.constant 0 : i32\n    %c1_i32 = arith.constant 1 : i32\n    %c4_i32 = arith.constant 4 : i32\n    %0 = tt.get_program_id x : i32\n    %1 = arith.addi %arg7, %c3_i32 : i32\n    %2 = arith.divsi %1, %c4_i32 : i32\n    %3 = arith.remsi %0, %2 : i32\n    %4 = arith.divsi %0, %2 : i32\n    %5 = arith.remsi %4, %arg6 : i32\n    %6 = arith.divsi %4, %arg6 : i32\n    %7 = arith.remsi %6, %arg3 : i32\n    %8 = arith.divsi %6, %arg3 : i32\n    %9 = arith.muli %3, %c4_i32 : i32\n    %10 = tt.make_range {end = 4 : i32, start = 0 : i32} : tensor<4xi32>\n    %11 = tt.splat %9 : i32 -> tensor<4xi32>\n    %12 = arith.addi %10, %11 : tensor<4xi32>\n    %13 = tt.splat %arg7 : i32 -> tensor<4xi32>\n    %14 = arith.cmpi slt, %12, %13 : tensor<4xi32>\n    %15 = arith.muli %8, %arg3 : i32\n    %16 = arith.addi %15, %7 : i32\n    %17 = arith.muli %16, %arg4 : i32\n    %18 = arith.muli %17, %arg5 : i32\n    %19 = arith.muli %16, %arg6 : i32\n    %20 = arith.muli %19, %arg7 : i32\n    %21:2 = scf.for %arg8 = %c0_i32 to %c4_i32 step %c1_i32 iter_args(%arg9 = %c0_i32, %arg10 = %cst_1) -> (i32, tensor<4xf32>)  : i32 {\n      %29 = arith.addi %arg9, %c1_i32 : i32\n      %30 = arith.remsi %arg9, %c2_i32 : i32\n      %31 = arith.divsi %arg9, %c2_i32 : i32\n      %32 = arith.muli %5, %c2_i32 : i32\n      %33 = arith.addi %32, %31 : i32\n      %34 = arith.muli %12, %cst_0 : tensor<4xi32>\n      %35 = tt.splat %30 : i32 -> tensor<4xi32>\n      %36 = arith.addi %34, %35 : tensor<4xi32>\n      %37 = arith.muli %33, %arg5 : i32\n      %38 = arith.addi %18, %37 : i32\n      %39 = tt.splat %38 : i32 -> tensor<4xi32>\n      %40 = arith.addi %36, %39 : tensor<4xi32>\n      %41 = tt.splat %arg0 : !tt.ptr<f32> -> tensor<4x!tt.ptr<f32>>\n      %42 = tt.addptr %41, %40 : tensor<4x!tt.ptr<f32>>, tensor<4xi32>\n      %43 = tt.load %42, %14, %cst_1 : tensor<4x!tt.ptr<f32>>\n      %44 = arith.addf %arg10, %43 : tensor<4xf32>\n      scf.yield %29, %44 : i32, tensor<4xf32>\n    }\n    %22 = arith.divf %21#1, %cst : tensor<4xf32>\n    %23 = arith.muli %5, %arg7 : i32\n    %24 = arith.addi %20, %23 : i32\n    %25 = tt.splat %24 : i32 -> tensor<4xi32>\n    %26 = arith.addi %12, %25 : tensor<4xi32>\n    %27 = tt.splat %arg1 : !tt.ptr<f32> -> tensor<4x!tt.ptr<f32>>\n    %28 = tt.addptr %27, %26 : tensor<4x!tt.ptr<f32>>, tensor<4xi32>\n    tt.store %28, %22, %14 {operandSegmentSizes = array<i32: 1, 1, 1>} : tensor<4x!tt.ptr<f32>>\n    tt.return\n  }\n  tt.func public @entry_point(%arg0: !tt.ptr<f32> {tt.divisibility = 16 : i32}, %arg1: !tt.ptr<f32> {tt.divisibility = 16 : i32}, %arg2: i32 {tt.divisibility = 16 : i32}, %arg3: i32 {tt.divisibility = 16 : i32}, %arg4: i32 {tt.divisibility = 16 : i32}, %arg5: i32 {tt.divisibility = 16 : i32}, %arg6: i32 {tt.divisibility = 16 : i32}, %arg7: i32 {tt.divisibility = 16 : i32}) {\n    tt.call @_RINvCs96n1tZtoMu7_82avgpool2d_forward_79bea367110436b5ffc72f61006660635eb8d84b68c311476d42550e1310713317avgpool2d_forwardNtNtNtNtB2_6triton4llvm6triton10LlvmTritonfKl2_KB2D_KB2D_KB2D_Kl4_EB2_(%arg0, %arg1, %arg2, %arg3, %arg4, %arg5, %arg6, %arg7) {arg_attrs = [{}, {}, {}, {}, {}, {}, {}, {}], res_attrs = []} : (!tt.ptr<f32>, !tt.ptr<f32>, i32, i32, i32, i32, i32, i32) -> ()\n    tt.return\n  }\n}"
