---
source: kernels/teeny-kernels/tests/test_constant_pad1d.rs
expression: mlir.trim()
---
"module {\n  tt.func private @_RINvCsiyxbJ8Q8MNr_87constant_pad1d_forward_a18862bf66b940477860f5e5929a0913591c06575024ea2b972612b0b3f5569322constant_pad1d_forwardNtNtNtNtB2_6triton4llvm6triton10LlvmTritonfKl2_Kl3_Kl10_EB2_(%arg0: !tt.ptr<f32> {tt.divisibility = 16 : i32}, %arg1: !tt.ptr<f32> {tt.divisibility = 16 : i32}, %arg2: i32 {tt.divisibility = 16 : i32}, %arg3: i32 {tt.divisibility = 16 : i32}, %arg4: i32 {tt.divisibility = 16 : i32}, %arg5: i32 {tt.divisibility = 16 : i32}, %arg6: f32 {tt.divisibility = 16 : i32}) {\n    %cst = arith.constant dense<0> : tensor<16xi32>\n    %cst_0 = arith.constant dense<2> : tensor<16xi32>\n    %c15_i32 = arith.constant 15 : i32\n    %c16_i32 = arith.constant 16 : i32\n    %0 = tt.get_program_id x : i32\n    %1 = arith.addi %arg5, %c15_i32 : i32\n    %2 = arith.divsi %1, %c16_i32 : i32\n    %3 = arith.remsi %0, %2 : i32\n    %4 = arith.divsi %0, %2 : i32\n    %5 = arith.remsi %4, %arg3 : i32\n    %6 = arith.divsi %4, %arg3 : i32\n    %7 = arith.muli %3, %c16_i32 : i32\n    %8 = tt.make_range {end = 16 : i32, start = 0 : i32} : tensor<16xi32>\n    %9 = tt.splat %7 : i32 -> tensor<16xi32>\n    %10 = arith.addi %8, %9 : tensor<16xi32>\n    %11 = tt.splat %arg5 : i32 -> tensor<16xi32>\n    %12 = arith.cmpi slt, %10, %11 : tensor<16xi32>\n    %13 = arith.muli %6, %arg3 : i32\n    %14 = arith.addi %13, %5 : i32\n    %15 = arith.muli %14, %arg4 : i32\n    %16 = arith.muli %14, %arg5 : i32\n    %17 = arith.subi %10, %cst_0 : tensor<16xi32>\n    %18 = arith.cmpi sge, %17, %cst : tensor<16xi32>\n    %19 = tt.splat %arg4 : i32 -> tensor<16xi32>\n    %20 = arith.cmpi slt, %17, %19 : tensor<16xi32>\n    %21 = arith.andi %18, %20 : tensor<16xi1>\n    %22 = arith.andi %12, %21 : tensor<16xi1>\n    %23 = tt.splat %arg6 : f32 -> tensor<16xf32>\n    %24 = tt.splat %15 : i32 -> tensor<16xi32>\n    %25 = arith.addi %17, %24 : tensor<16xi32>\n    %26 = tt.splat %arg0 : !tt.ptr<f32> -> tensor<16x!tt.ptr<f32>>\n    %27 = tt.addptr %26, %25 : tensor<16x!tt.ptr<f32>>, tensor<16xi32>\n    %28 = tt.load %27, %22, %23 : tensor<16x!tt.ptr<f32>>\n    %29 = arith.andi %12, %21 : tensor<16xi1>\n    %30 = arith.select %29, %28, %23 : tensor<16xi1>, tensor<16xf32>\n    %31 = tt.splat %16 : i32 -> tensor<16xi32>\n    %32 = arith.addi %10, %31 : tensor<16xi32>\n    %33 = tt.splat %arg1 : !tt.ptr<f32> -> tensor<16x!tt.ptr<f32>>\n    %34 = tt.addptr %33, %32 : tensor<16x!tt.ptr<f32>>, tensor<16xi32>\n    tt.store %34, %30, %12 {operandSegmentSizes = array<i32: 1, 1, 1>} : tensor<16x!tt.ptr<f32>>\n    tt.return\n  }\n  tt.func public @entry_point(%arg0: !tt.ptr<f32> {tt.divisibility = 16 : i32}, %arg1: !tt.ptr<f32> {tt.divisibility = 16 : i32}, %arg2: i32 {tt.divisibility = 16 : i32}, %arg3: i32 {tt.divisibility = 16 : i32}, %arg4: i32 {tt.divisibility = 16 : i32}, %arg5: i32 {tt.divisibility = 16 : i32}, %arg6: f32 {tt.divisibility = 16 : i32}) {\n    tt.call @_RINvCsiyxbJ8Q8MNr_87constant_pad1d_forward_a18862bf66b940477860f5e5929a0913591c06575024ea2b972612b0b3f5569322constant_pad1d_forwardNtNtNtNtB2_6triton4llvm6triton10LlvmTritonfKl2_Kl3_Kl10_EB2_(%arg0, %arg1, %arg2, %arg3, %arg4, %arg5, %arg6) {arg_attrs = [{}, {}, {}, {}, {}, {}, {}], res_attrs = []} : (!tt.ptr<f32>, !tt.ptr<f32>, i32, i32, i32, i32, f32) -> ()\n    tt.return\n  }\n}"
