---
source: kernels/teeny-kernels/tests/test_maxpool3d.rs
expression: mlir.trim()
---
"module {\n  tt.func private @_RINvCsfMKjTOyFvDC_82maxpool3d_forward_9495fc80d5c63f7343b64eb2f73340c2146e5167bd14dd80c6047b3af101724717maxpool3d_forwardNtNtNtNtB2_6triton4llvm6triton10LlvmTritonfKl2_KB2D_KB2D_KB2D_KB2D_KB2D_Kl4_EB2_(%arg0: !tt.ptr<f32> {tt.divisibility = 16 : i32}, %arg1: !tt.ptr<f32> {tt.divisibility = 16 : i32}, %arg2: i32 {tt.divisibility = 16 : i32}, %arg3: i32 {tt.divisibility = 16 : i32}, %arg4: i32 {tt.divisibility = 16 : i32}, %arg5: i32 {tt.divisibility = 16 : i32}, %arg6: i32 {tt.divisibility = 16 : i32}, %arg7: i32 {tt.divisibility = 16 : i32}, %arg8: i32 {tt.divisibility = 16 : i32}, %arg9: i32 {tt.divisibility = 16 : i32}) {\n    %cst = arith.constant dense<2> : tensor<4xi32>\n    %c8_i32 = arith.constant 8 : i32\n    %cst_0 = arith.constant dense<-3.40282347E+38> : tensor<4xf32>\n    %c3_i32 = arith.constant 3 : i32\n    %c2_i32 = arith.constant 2 : i32\n    %c0_i32 = arith.constant 0 : i32\n    %c1_i32 = arith.constant 1 : i32\n    %c4_i32 = arith.constant 4 : i32\n    %0 = tt.get_program_id x : i32\n    %1 = arith.addi %arg9, %c3_i32 : i32\n    %2 = arith.divsi %1, %c4_i32 : i32\n    %3 = arith.remsi %0, %2 : i32\n    %4 = arith.divsi %0, %2 : i32\n    %5 = arith.remsi %4, %arg8 : i32\n    %6 = arith.divsi %4, %arg8 : i32\n    %7 = arith.remsi %6, %arg7 : i32\n    %8 = arith.divsi %6, %arg7 : i32\n    %9 = arith.remsi %8, %arg3 : i32\n    %10 = arith.divsi %8, %arg3 : i32\n    %11 = arith.muli %3, %c4_i32 : i32\n    %12 = tt.make_range {end = 4 : i32, start = 0 : i32} : tensor<4xi32>\n    %13 = tt.splat %11 : i32 -> tensor<4xi32>\n    %14 = arith.addi %12, %13 : tensor<4xi32>\n    %15 = tt.splat %arg9 : i32 -> tensor<4xi32>\n    %16 = arith.cmpi slt, %14, %15 : tensor<4xi32>\n    %17 = arith.muli %10, %arg3 : i32\n    %18 = arith.addi %17, %9 : i32\n    %19 = arith.muli %18, %arg4 : i32\n    %20 = arith.muli %19, %arg5 : i32\n    %21 = arith.muli %20, %arg6 : i32\n    %22 = arith.muli %18, %arg7 : i32\n    %23 = arith.muli %22, %arg8 : i32\n    %24 = arith.muli %23, %arg9 : i32\n    %25 = arith.muli %7, %arg8 : i32\n    %26 = arith.muli %25, %arg9 : i32\n    %27 = arith.addi %24, %26 : i32\n    %28 = arith.muli %5, %arg9 : i32\n    %29 = arith.addi %27, %28 : i32\n    %30:2 = scf.for %arg10 = %c0_i32 to %c8_i32 step %c1_i32 iter_args(%arg11 = %c0_i32, %arg12 = %cst_0) -> (i32, tensor<4xf32>)  : i32 {\n      %35 = arith.addi %arg11, %c1_i32 : i32\n      %36 = arith.remsi %arg11, %c2_i32 : i32\n      %37 = arith.divsi %arg11, %c2_i32 : i32\n      %38 = arith.remsi %37, %c2_i32 : i32\n      %39 = arith.divsi %37, %c2_i32 : i32\n      %40 = arith.muli %7, %c2_i32 : i32\n      %41 = arith.addi %40, %39 : i32\n      %42 = arith.muli %5, %c2_i32 : i32\n      %43 = arith.addi %42, %38 : i32\n      %44 = arith.muli %14, %cst : tensor<4xi32>\n      %45 = tt.splat %36 : i32 -> tensor<4xi32>\n      %46 = arith.addi %44, %45 : tensor<4xi32>\n      %47 = arith.muli %41, %arg5 : i32\n      %48 = arith.muli %47, %arg6 : i32\n      %49 = arith.addi %21, %48 : i32\n      %50 = arith.muli %43, %arg6 : i32\n      %51 = arith.addi %49, %50 : i32\n      %52 = tt.splat %51 : i32 -> tensor<4xi32>\n      %53 = arith.addi %46, %52 : tensor<4xi32>\n      %54 = tt.splat %arg0 : !tt.ptr<f32> -> tensor<4x!tt.ptr<f32>>\n      %55 = tt.addptr %54, %53 : tensor<4x!tt.ptr<f32>>, tensor<4xi32>\n      %56 = tt.load %55, %16, %cst_0 : tensor<4x!tt.ptr<f32>>\n      %57 = arith.maximumf %arg12, %56 : tensor<4xf32>\n      scf.yield %35, %57 : i32, tensor<4xf32>\n    }\n    %31 = tt.splat %29 : i32 -> tensor<4xi32>\n    %32 = arith.addi %14, %31 : tensor<4xi32>\n    %33 = tt.splat %arg1 : !tt.ptr<f32> -> tensor<4x!tt.ptr<f32>>\n    %34 = tt.addptr %33, %32 : tensor<4x!tt.ptr<f32>>, tensor<4xi32>\n    tt.store %34, %30#1, %16 {operandSegmentSizes = array<i32: 1, 1, 1>} : tensor<4x!tt.ptr<f32>>\n    tt.return\n  }\n  tt.func public @entry_point(%arg0: !tt.ptr<f32> {tt.divisibility = 16 : i32}, %arg1: !tt.ptr<f32> {tt.divisibility = 16 : i32}, %arg2: i32 {tt.divisibility = 16 : i32}, %arg3: i32 {tt.divisibility = 16 : i32}, %arg4: i32 {tt.divisibility = 16 : i32}, %arg5: i32 {tt.divisibility = 16 : i32}, %arg6: i32 {tt.divisibility = 16 : i32}, %arg7: i32 {tt.divisibility = 16 : i32}, %arg8: i32 {tt.divisibility = 16 : i32}, %arg9: i32 {tt.divisibility = 16 : i32}) {\n    tt.call @_RINvCsfMKjTOyFvDC_82maxpool3d_forward_9495fc80d5c63f7343b64eb2f73340c2146e5167bd14dd80c6047b3af101724717maxpool3d_forwardNtNtNtNtB2_6triton4llvm6triton10LlvmTritonfKl2_KB2D_KB2D_KB2D_KB2D_KB2D_Kl4_EB2_(%arg0, %arg1, %arg2, %arg3, %arg4, %arg5, %arg6, %arg7, %arg8, %arg9) {arg_attrs = [{}, {}, {}, {}, {}, {}, {}, {}, {}, {}], res_attrs = []} : (!tt.ptr<f32>, !tt.ptr<f32>, i32, i32, i32, i32, i32, i32, i32, i32) -> ()\n    tt.return\n  }\n}"
