---
source: kernels/teeny-kernels/tests/test_conv2d.rs
expression: mlir.trim()
---
"module {\n  tt.func private @_RINvCs2wuXrPSQy1b_83conv2d_backward_dw_811fee8684635fa69ddb7a42f72ceac815ee65b0ebf96566c66b5612f12c227018conv2d_backward_dwNtNtNtNtB2_6triton4llvm6triton10LlvmTritonfKl3_KB2F_Kl1_KB2O_Kl0_KB2X_Kl8_EB2_(%arg0: !tt.ptr<f32> {tt.divisibility = 16 : i32}, %arg1: !tt.ptr<f32> {tt.divisibility = 16 : i32}, %arg2: !tt.ptr<f32> {tt.divisibility = 16 : i32}, %arg3: i32 {tt.divisibility = 16 : i32}, %arg4: i32 {tt.divisibility = 16 : i32}, %arg5: i32 {tt.divisibility = 16 : i32}, %arg6: i32 {tt.divisibility = 16 : i32}, %arg7: i32 {tt.divisibility = 16 : i32}, %arg8: i32 {tt.divisibility = 16 : i32}, %arg9: i32 {tt.divisibility = 16 : i32}) {\n    %cst = arith.constant dense<0> : tensor<8xi32>\n    %c9_i32 = arith.constant 9 : i32\n    %cst_0 = arith.constant dense<0.000000e+00> : tensor<8xf32>\n    %c7_i32 = arith.constant 7 : i32\n    %c3_i32 = arith.constant 3 : i32\n    %c0_i32 = arith.constant 0 : i32\n    %c1_i32 = arith.constant 1 : i32\n    %c8_i32 = arith.constant 8 : i32\n    %0 = tt.get_program_id x : i32\n    %1 = arith.addi %arg9, %c7_i32 : i32\n    %2 = arith.divsi %1, %c8_i32 : i32\n    %3 = arith.remsi %0, %2 : i32\n    %4 = arith.divsi %0, %2 : i32\n    %5 = arith.remsi %4, %arg8 : i32\n    %6 = arith.divsi %4, %arg8 : i32\n    %7 = arith.remsi %6, %arg5 : i32\n    %8 = arith.divsi %6, %arg5 : i32\n    %9 = arith.muli %3, %c8_i32 : i32\n    %10 = tt.make_range {end = 8 : i32, start = 0 : i32} : tensor<8xi32>\n    %11 = tt.splat %9 : i32 -> tensor<8xi32>\n    %12 = arith.addi %10, %11 : tensor<8xi32>\n    %13 = tt.splat %arg9 : i32 -> tensor<8xi32>\n    %14 = arith.cmpi slt, %12, %13 : tensor<8xi32>\n    %15 = arith.muli %8, %arg5 : i32\n    %16 = arith.addi %15, %7 : i32\n    %17 = arith.muli %16, %arg8 : i32\n    %18 = arith.muli %17, %arg9 : i32\n    %19 = arith.muli %5, %arg9 : i32\n    %20 = arith.addi %18, %19 : i32\n    %21 = tt.splat %20 : i32 -> tensor<8xi32>\n    %22 = arith.addi %12, %21 : tensor<8xi32>\n    %23 = tt.splat %arg0 : !tt.ptr<f32> -> tensor<8x!tt.ptr<f32>>\n    %24 = tt.addptr %23, %22 : tensor<8x!tt.ptr<f32>>, tensor<8xi32>\n    %25 = tt.load %24, %14, %cst_0 : tensor<8x!tt.ptr<f32>>\n    %26 = arith.muli %arg4, %c9_i32 : i32\n    %27 = scf.for %arg10 = %c0_i32 to %26 step %c1_i32 iter_args(%arg11 = %c0_i32) -> (i32)  : i32 {\n      %28 = arith.addi %arg11, %c1_i32 : i32\n      %29 = arith.remsi %arg11, %c3_i32 : i32\n      %30 = arith.divsi %arg11, %c3_i32 : i32\n      %31 = arith.remsi %30, %c3_i32 : i32\n      %32 = arith.divsi %30, %c3_i32 : i32\n      %33 = arith.addi %5, %31 : i32\n      %34 = tt.splat %29 : i32 -> tensor<8xi32>\n      %35 = arith.addi %12, %34 : tensor<8xi32>\n      %36 = tt.splat %33 : i32 -> tensor<8xi32>\n      %37 = arith.cmpi sge, %36, %cst : tensor<8xi32>\n      %38 = tt.splat %arg6 : i32 -> tensor<8xi32>\n      %39 = arith.cmpi slt, %36, %38 : tensor<8xi32>\n      %40 = arith.andi %37, %39 : tensor<8xi1>\n      %41 = arith.cmpi sge, %35, %cst : tensor<8xi32>\n      %42 = tt.splat %arg7 : i32 -> tensor<8xi32>\n      %43 = arith.cmpi slt, %35, %42 : tensor<8xi32>\n      %44 = arith.andi %41, %43 : tensor<8xi1>\n      %45 = arith.andi %14, %40 : tensor<8xi1>\n      %46 = arith.andi %45, %44 : tensor<8xi1>\n      %47 = arith.muli %8, %arg4 : i32\n      %48 = arith.addi %47, %32 : i32\n      %49 = arith.muli %48, %arg6 : i32\n      %50 = arith.muli %49, %arg7 : i32\n      %51 = arith.muli %33, %arg7 : i32\n      %52 = arith.addi %50, %51 : i32\n      %53 = tt.splat %52 : i32 -> tensor<8xi32>\n      %54 = arith.addi %35, %53 : tensor<8xi32>\n      %55 = tt.splat %arg1 : !tt.ptr<f32> -> tensor<8x!tt.ptr<f32>>\n      %56 = tt.addptr %55, %54 : tensor<8x!tt.ptr<f32>>, tensor<8xi32>\n      %57 = tt.load %56, %46, %cst_0 : tensor<8x!tt.ptr<f32>>\n      %58 = arith.mulf %25, %57 : tensor<8xf32>\n      %59 = \"tt.reduce\"(%58) <{axis = 0 : i32}> ({\n      ^bb0(%arg12: f32, %arg13: f32):\n        %71 = arith.addf %arg12, %arg13 : f32\n        tt.reduce.return %71 : f32\n      }) : (tensor<8xf32>) -> f32\n      %60 = tt.splat %59 : f32 -> tensor<1xf32>\n      %61 = arith.muli %7, %arg4 : i32\n      %62 = arith.addi %61, %32 : i32\n      %63 = arith.muli %62, %c3_i32 : i32\n      %64 = arith.addi %63, %31 : i32\n      %65 = arith.muli %64, %c3_i32 : i32\n      %66 = arith.addi %65, %29 : i32\n      %67 = tt.splat %66 : i32 -> tensor<1xi32>\n      %68 = tt.splat %arg2 : !tt.ptr<f32> -> tensor<1x!tt.ptr<f32>>\n      %69 = tt.addptr %68, %67 : tensor<1x!tt.ptr<f32>>, tensor<1xi32>\n      %70 = tt.atomic_rmw fadd, relaxed, gpu, %69, %60 {operandSegmentSizes = array<i32: 1, 1, 0>} : (tensor<1x!tt.ptr<f32>>, tensor<1xf32>) -> tensor<1xf32>\n      scf.yield %28 : i32\n    }\n    tt.return\n  }\n  tt.func public @entry_point(%arg0: !tt.ptr<f32> {tt.divisibility = 16 : i32}, %arg1: !tt.ptr<f32> {tt.divisibility = 16 : i32}, %arg2: !tt.ptr<f32> {tt.divisibility = 16 : i32}, %arg3: i32 {tt.divisibility = 16 : i32}, %arg4: i32 {tt.divisibility = 16 : i32}, %arg5: i32 {tt.divisibility = 16 : i32}, %arg6: i32 {tt.divisibility = 16 : i32}, %arg7: i32 {tt.divisibility = 16 : i32}, %arg8: i32 {tt.divisibility = 16 : i32}, %arg9: i32 {tt.divisibility = 16 : i32}) {\n    tt.call @_RINvCs2wuXrPSQy1b_83conv2d_backward_dw_811fee8684635fa69ddb7a42f72ceac815ee65b0ebf96566c66b5612f12c227018conv2d_backward_dwNtNtNtNtB2_6triton4llvm6triton10LlvmTritonfKl3_KB2F_Kl1_KB2O_Kl0_KB2X_Kl8_EB2_(%arg0, %arg1, %arg2, %arg3, %arg4, %arg5, %arg6, %arg7, %arg8, %arg9) {arg_attrs = [{}, {}, {}, {}, {}, {}, {}, {}, {}, {}], res_attrs = []} : (!tt.ptr<f32>, !tt.ptr<f32>, !tt.ptr<f32>, i32, i32, i32, i32, i32, i32, i32) -> ()\n    tt.return\n  }\n}"
