---
source: kernels/teeny-kernels/tests/test_loss_embedding.rs
expression: mlir.trim()
---
"module {\n  tt.func private @_RINvCs1JUpeUXbS1W_92triplet_margin_loss_forward_2300f5ffb5e5f7cf425218ca2cc96be532e812c758ea4903d0246a7bcc94aeb827triplet_margin_loss_forwardNtNtNtNtB2_6triton4llvm6triton10LlvmTritonKl40_EB2_(%arg0: !tt.ptr<f32> {tt.divisibility = 16 : i32}, %arg1: !tt.ptr<f32> {tt.divisibility = 16 : i32}, %arg2: !tt.ptr<f32> {tt.divisibility = 16 : i32}, %arg3: !tt.ptr<f32> {tt.divisibility = 16 : i32}, %arg4: i32 {tt.divisibility = 16 : i32}, %arg5: i32 {tt.divisibility = 16 : i32}, %arg6: f32 {tt.divisibility = 16 : i32}, %arg7: f32 {tt.divisibility = 16 : i32}) {\n    %cst = arith.constant dense<0.000000e+00> : tensor<1xf32>\n    %cst_0 = arith.constant dense<5.000000e-01> : tensor<1xf32>\n    %cst_1 = arith.constant dense<0.000000e+00> : tensor<64xf32>\n    %0 = tt.get_program_id x : i32\n    %1 = arith.muli %0, %arg5 : i32\n    %2 = tt.make_range {end = 64 : i32, start = 0 : i32} : tensor<64xi32>\n    %3 = tt.splat %1 : i32 -> tensor<64xi32>\n    %4 = arith.addi %2, %3 : tensor<64xi32>\n    %5 = tt.splat %arg5 : i32 -> tensor<64xi32>\n    %6 = arith.cmpi slt, %2, %5 : tensor<64xi32>\n    %7 = tt.splat %arg0 : !tt.ptr<f32> -> tensor<64x!tt.ptr<f32>>\n    %8 = tt.addptr %7, %4 : tensor<64x!tt.ptr<f32>>, tensor<64xi32>\n    %9 = tt.load %8, %6, %cst_1 : tensor<64x!tt.ptr<f32>>\n    %10 = tt.splat %arg1 : !tt.ptr<f32> -> tensor<64x!tt.ptr<f32>>\n    %11 = tt.addptr %10, %4 : tensor<64x!tt.ptr<f32>>, tensor<64xi32>\n    %12 = tt.load %11, %6, %cst_1 : tensor<64x!tt.ptr<f32>>\n    %13 = tt.splat %arg2 : !tt.ptr<f32> -> tensor<64x!tt.ptr<f32>>\n    %14 = tt.addptr %13, %4 : tensor<64x!tt.ptr<f32>>, tensor<64xi32>\n    %15 = tt.load %14, %6, %cst_1 : tensor<64x!tt.ptr<f32>>\n    %16 = arith.subf %9, %12 : tensor<64xf32>\n    %17 = arith.subf %9, %15 : tensor<64xf32>\n    %18 = tt.splat %arg7 : f32 -> tensor<1xf32>\n    %19 = arith.mulf %16, %16 : tensor<64xf32>\n    %20 = \"tt.reduce\"(%19) <{axis = 0 : i32}> ({\n    ^bb0(%arg8: f32, %arg9: f32):\n      %40 = arith.addf %arg8, %arg9 : f32\n      tt.reduce.return %40 : f32\n    }) : (tensor<64xf32>) -> f32\n    %21 = tt.splat %20 : f32 -> tensor<1xf32>\n    %22 = arith.addf %21, %18 : tensor<1xf32>\n    %23 = arith.mulf %17, %17 : tensor<64xf32>\n    %24 = \"tt.reduce\"(%23) <{axis = 0 : i32}> ({\n    ^bb0(%arg8: f32, %arg9: f32):\n      %40 = arith.addf %arg8, %arg9 : f32\n      tt.reduce.return %40 : f32\n    }) : (tensor<64xf32>) -> f32\n    %25 = tt.splat %24 : f32 -> tensor<1xf32>\n    %26 = arith.addf %25, %18 : tensor<1xf32>\n    %27 = math.log %22 : tensor<1xf32>\n    %28 = arith.mulf %27, %cst_0 : tensor<1xf32>\n    %29 = math.exp %28 : tensor<1xf32>\n    %30 = math.log %26 : tensor<1xf32>\n    %31 = arith.mulf %30, %cst_0 : tensor<1xf32>\n    %32 = math.exp %31 : tensor<1xf32>\n    %33 = tt.splat %arg6 : f32 -> tensor<1xf32>\n    %34 = arith.subf %29, %32 : tensor<1xf32>\n    %35 = arith.addf %34, %33 : tensor<1xf32>\n    %36 = arith.maximumf %35, %cst : tensor<1xf32>\n    %37 = tt.splat %0 : i32 -> tensor<1xi32>\n    %38 = tt.splat %arg3 : !tt.ptr<f32> -> tensor<1x!tt.ptr<f32>>\n    %39 = tt.addptr %38, %37 : tensor<1x!tt.ptr<f32>>, tensor<1xi32>\n    tt.store %39, %36 {operandSegmentSizes = array<i32: 1, 1, 0>} : tensor<1x!tt.ptr<f32>>\n    tt.return\n  }\n  tt.func public @entry_point(%arg0: !tt.ptr<f32> {tt.divisibility = 16 : i32}, %arg1: !tt.ptr<f32> {tt.divisibility = 16 : i32}, %arg2: !tt.ptr<f32> {tt.divisibility = 16 : i32}, %arg3: !tt.ptr<f32> {tt.divisibility = 16 : i32}, %arg4: i32 {tt.divisibility = 16 : i32}, %arg5: i32 {tt.divisibility = 16 : i32}, %arg6: f32 {tt.divisibility = 16 : i32}, %arg7: f32 {tt.divisibility = 16 : i32}) {\n    tt.call @_RINvCs1JUpeUXbS1W_92triplet_margin_loss_forward_2300f5ffb5e5f7cf425218ca2cc96be532e812c758ea4903d0246a7bcc94aeb827triplet_margin_loss_forwardNtNtNtNtB2_6triton4llvm6triton10LlvmTritonKl40_EB2_(%arg0, %arg1, %arg2, %arg3, %arg4, %arg5, %arg6, %arg7) {arg_attrs = [{}, {}, {}, {}, {}, {}, {}, {}], res_attrs = []} : (!tt.ptr<f32>, !tt.ptr<f32>, !tt.ptr<f32>, !tt.ptr<f32>, i32, i32, f32, f32) -> ()\n    tt.return\n  }\n}"
