---
source: kernels/teeny-kernels/tests/test_rmsnorm.rs
expression: mlir.trim()
---
"module {\n  tt.func private @_RINvCsarH70weD5C_81rms_norm_forward_e73fe54df7fe5d3b6653b90951a286f4c1c661a0c66b9060fa2620c57eeb09f816rms_norm_forwardNtNtNtNtB2_6triton4llvm6triton10LlvmTritonfKl100_EB2_(%arg0: !tt.ptr<f32> {tt.divisibility = 16 : i32}, %arg1: !tt.ptr<f32> {tt.divisibility = 16 : i32}, %arg2: !tt.ptr<f32> {tt.divisibility = 16 : i32}, %arg3: !tt.ptr<f32> {tt.divisibility = 16 : i32}, %arg4: i32 {tt.divisibility = 16 : i32}, %arg5: i32 {tt.divisibility = 16 : i32}, %arg6: f32 {tt.divisibility = 16 : i32}) {\n    %cst = arith.constant dense<1.000000e+00> : tensor<1xf32>\n    %cst_0 = arith.constant dense<0.000000e+00> : tensor<1xf32>\n    %cst_1 = arith.constant dense<0.000000e+00> : tensor<256xf32>\n    %c256_i32 = arith.constant 256 : i32\n    %c0_i32 = arith.constant 0 : i32\n    %cst_2 = arith.constant 1.000000e+00 : f32\n    %0 = tt.get_program_id x : i32\n    %1 = arith.muli %0, %arg5 : i32\n    %2 = tt.splat %0 : i32 -> tensor<1xi32>\n    %3 = arith.sitofp %arg5 : i32 to f32\n    %4 = arith.divf %cst_2, %3 : f32\n    %5 = tt.splat %4 : f32 -> tensor<1xf32>\n    %6:2 = scf.while (%arg7 = %cst_0, %arg8 = %c0_i32) : (tensor<1xf32>, i32) -> (tensor<1xf32>, i32) {\n      %16 = arith.cmpi slt, %arg8, %arg5 : i32\n      scf.condition(%16) %arg7, %arg8 : tensor<1xf32>, i32\n    } do {\n    ^bb0(%arg7: tensor<1xf32>, %arg8: i32):\n      %16 = tt.make_range {end = 256 : i32, start = 0 : i32} : tensor<256xi32>\n      %17 = tt.splat %arg8 : i32 -> tensor<256xi32>\n      %18 = arith.addi %16, %17 : tensor<256xi32>\n      %19 = tt.splat %arg5 : i32 -> tensor<256xi32>\n      %20 = arith.cmpi slt, %18, %19 : tensor<256xi32>\n      %21 = tt.splat %1 : i32 -> tensor<256xi32>\n      %22 = arith.addi %18, %21 : tensor<256xi32>\n      %23 = tt.splat %arg0 : !tt.ptr<f32> -> tensor<256x!tt.ptr<f32>>\n      %24 = tt.addptr %23, %22 : tensor<256x!tt.ptr<f32>>, tensor<256xi32>\n      %25 = tt.load %24, %20, %cst_1 : tensor<256x!tt.ptr<f32>>\n      %26 = arith.mulf %25, %25 : tensor<256xf32>\n      %27 = \"tt.reduce\"(%26) <{axis = 0 : i32}> ({\n      ^bb0(%arg9: f32, %arg10: f32):\n        %31 = arith.addf %arg9, %arg10 : f32\n        tt.reduce.return %31 : f32\n      }) : (tensor<256xf32>) -> f32\n      %28 = tt.splat %27 : f32 -> tensor<1xf32>\n      %29 = arith.addf %arg7, %28 : tensor<1xf32>\n      %30 = arith.addi %arg8, %c256_i32 : i32\n      scf.yield %29, %30 : tensor<1xf32>, i32\n    }\n    %7 = tt.splat %arg6 : f32 -> tensor<1xf32>\n    %8 = arith.mulf %6#0, %5 : tensor<1xf32>\n    %9 = arith.addf %8, %7 : tensor<1xf32>\n    %10 = tt.precise_sqrt %9 : tensor<1xf32>\n    %11 = tt.precise_divf %cst, %10 : tensor<1xf32>\n    %12 = tt.broadcast %11 : tensor<1xf32> -> tensor<256xf32>\n    %13 = tt.splat %arg3 : !tt.ptr<f32> -> tensor<1x!tt.ptr<f32>>\n    %14 = tt.addptr %13, %2 : tensor<1x!tt.ptr<f32>>, tensor<1xi32>\n    tt.store %14, %11 {operandSegmentSizes = array<i32: 1, 1, 0>} : tensor<1x!tt.ptr<f32>>\n    %15 = scf.while (%arg7 = %c0_i32) : (i32) -> i32 {\n      %16 = arith.cmpi slt, %arg7, %arg5 : i32\n      scf.condition(%16) %arg7 : i32\n    } do {\n    ^bb0(%arg7: i32):\n      %16 = tt.make_range {end = 256 : i32, start = 0 : i32} : tensor<256xi32>\n      %17 = tt.splat %arg7 : i32 -> tensor<256xi32>\n      %18 = arith.addi %16, %17 : tensor<256xi32>\n      %19 = tt.splat %arg5 : i32 -> tensor<256xi32>\n      %20 = arith.cmpi slt, %18, %19 : tensor<256xi32>\n      %21 = tt.splat %1 : i32 -> tensor<256xi32>\n      %22 = arith.addi %18, %21 : tensor<256xi32>\n      %23 = tt.splat %arg0 : !tt.ptr<f32> -> tensor<256x!tt.ptr<f32>>\n      %24 = tt.addptr %23, %22 : tensor<256x!tt.ptr<f32>>, tensor<256xi32>\n      %25 = tt.load %24, %20, %cst_1 : tensor<256x!tt.ptr<f32>>\n      %26 = tt.splat %arg2 : !tt.ptr<f32> -> tensor<256x!tt.ptr<f32>>\n      %27 = tt.addptr %26, %18 : tensor<256x!tt.ptr<f32>>, tensor<256xi32>\n      %28 = tt.load %27, %20, %cst_1 : tensor<256x!tt.ptr<f32>>\n      %29 = arith.mulf %25, %12 : tensor<256xf32>\n      %30 = arith.mulf %29, %28 : tensor<256xf32>\n      %31 = tt.splat %1 : i32 -> tensor<256xi32>\n      %32 = arith.addi %18, %31 : tensor<256xi32>\n      %33 = tt.splat %arg1 : !tt.ptr<f32> -> tensor<256x!tt.ptr<f32>>\n      %34 = tt.addptr %33, %32 : tensor<256x!tt.ptr<f32>>, tensor<256xi32>\n      tt.store %34, %30, %20 {operandSegmentSizes = array<i32: 1, 1, 1>} : tensor<256x!tt.ptr<f32>>\n      %35 = arith.addi %arg7, %c256_i32 : i32\n      scf.yield %35 : i32\n    }\n    tt.return\n  }\n  tt.func public @entry_point(%arg0: !tt.ptr<f32> {tt.divisibility = 16 : i32}, %arg1: !tt.ptr<f32> {tt.divisibility = 16 : i32}, %arg2: !tt.ptr<f32> {tt.divisibility = 16 : i32}, %arg3: !tt.ptr<f32> {tt.divisibility = 16 : i32}, %arg4: i32 {tt.divisibility = 16 : i32}, %arg5: i32 {tt.divisibility = 16 : i32}, %arg6: f32 {tt.divisibility = 16 : i32}) {\n    tt.call @_RINvCsarH70weD5C_81rms_norm_forward_e73fe54df7fe5d3b6653b90951a286f4c1c661a0c66b9060fa2620c57eeb09f816rms_norm_forwardNtNtNtNtB2_6triton4llvm6triton10LlvmTritonfKl100_EB2_(%arg0, %arg1, %arg2, %arg3, %arg4, %arg5, %arg6) {arg_attrs = [{}, {}, {}, {}, {}, {}, {}], res_attrs = []} : (!tt.ptr<f32>, !tt.ptr<f32>, !tt.ptr<f32>, !tt.ptr<f32>, i32, i32, f32) -> ()\n    tt.return\n  }\n}"
