---
source: kernels/teeny-kernels/tests/test_conv2d.rs
expression: mlir.trim()
---
"module {\n  tt.func private @_RINvCs4sQU8gfMlvY_79conv2d_forward_c0462fb88873092a6652787cb5d7c2be0916b10964b99897bc9842f03678e35514conv2d_forwardNtNtNtNtB2_6triton4llvm6triton10LlvmTritonfKl3_KB2x_Kl1_KB2G_Kl8_EB2_(%arg0: !tt.ptr<f32> {tt.divisibility = 16 : i32}, %arg1: !tt.ptr<f32> {tt.divisibility = 16 : i32}, %arg2: !tt.ptr<f32> {tt.divisibility = 16 : i32}, %arg3: i32 {tt.divisibility = 16 : i32}, %arg4: i32 {tt.divisibility = 16 : i32}, %arg5: i32 {tt.divisibility = 16 : i32}, %arg6: i32 {tt.divisibility = 16 : i32}, %arg7: i32 {tt.divisibility = 16 : i32}, %arg8: i32 {tt.divisibility = 16 : i32}, %arg9: i32 {tt.divisibility = 16 : i32}) {\n    %c9_i32 = arith.constant 9 : i32\n    %cst = arith.constant dense<0.000000e+00> : tensor<8xf32>\n    %c7_i32 = arith.constant 7 : i32\n    %c3_i32 = arith.constant 3 : i32\n    %c0_i32 = arith.constant 0 : i32\n    %c1_i32 = arith.constant 1 : i32\n    %c8_i32 = arith.constant 8 : i32\n    %0 = tt.get_program_id x : i32\n    %1 = arith.addi %arg9, %c7_i32 : i32\n    %2 = arith.divsi %1, %c8_i32 : i32\n    %3 = arith.remsi %0, %2 : i32\n    %4 = arith.divsi %0, %2 : i32\n    %5 = arith.remsi %4, %arg8 : i32\n    %6 = arith.divsi %4, %arg8 : i32\n    %7 = arith.remsi %6, %arg5 : i32\n    %8 = arith.divsi %6, %arg5 : i32\n    %9 = arith.muli %3, %c8_i32 : i32\n    %10 = tt.make_range {end = 8 : i32, start = 0 : i32} : tensor<8xi32>\n    %11 = tt.splat %9 : i32 -> tensor<8xi32>\n    %12 = arith.addi %10, %11 : tensor<8xi32>\n    %13 = tt.splat %arg9 : i32 -> tensor<8xi32>\n    %14 = arith.cmpi slt, %12, %13 : tensor<8xi32>\n    %15 = arith.muli %8, %arg5 : i32\n    %16 = arith.addi %15, %7 : i32\n    %17 = arith.muli %16, %arg8 : i32\n    %18 = arith.muli %17, %arg9 : i32\n    %19 = arith.muli %arg4, %c9_i32 : i32\n    %20:2 = scf.for %arg10 = %c0_i32 to %19 step %c1_i32 iter_args(%arg11 = %c0_i32, %arg12 = %cst) -> (i32, tensor<8xf32>)  : i32 {\n      %27 = arith.addi %arg11, %c1_i32 : i32\n      %28 = arith.remsi %arg11, %c3_i32 : i32\n      %29 = arith.divsi %arg11, %c3_i32 : i32\n      %30 = arith.remsi %29, %c3_i32 : i32\n      %31 = arith.divsi %29, %c3_i32 : i32\n      %32 = arith.addi %5, %30 : i32\n      %33 = tt.splat %28 : i32 -> tensor<8xi32>\n      %34 = arith.addi %12, %33 : tensor<8xi32>\n      %35 = arith.muli %8, %arg4 : i32\n      %36 = arith.addi %35, %31 : i32\n      %37 = arith.muli %36, %arg6 : i32\n      %38 = arith.muli %37, %arg7 : i32\n      %39 = arith.muli %32, %arg7 : i32\n      %40 = arith.addi %38, %39 : i32\n      %41 = tt.splat %40 : i32 -> tensor<8xi32>\n      %42 = arith.addi %34, %41 : tensor<8xi32>\n      %43 = tt.splat %arg0 : !tt.ptr<f32> -> tensor<8x!tt.ptr<f32>>\n      %44 = tt.addptr %43, %42 : tensor<8x!tt.ptr<f32>>, tensor<8xi32>\n      %45 = tt.load %44, %14, %cst : tensor<8x!tt.ptr<f32>>\n      %46 = arith.muli %7, %arg4 : i32\n      %47 = arith.addi %46, %31 : i32\n      %48 = arith.muli %47, %c3_i32 : i32\n      %49 = arith.addi %48, %30 : i32\n      %50 = arith.muli %49, %c3_i32 : i32\n      %51 = arith.addi %50, %28 : i32\n      %52 = tt.splat %51 : i32 -> tensor<1xi32>\n      %53 = tt.splat %arg1 : !tt.ptr<f32> -> tensor<1x!tt.ptr<f32>>\n      %54 = tt.addptr %53, %52 : tensor<1x!tt.ptr<f32>>, tensor<1xi32>\n      %55 = tt.load %54 : tensor<1x!tt.ptr<f32>>\n      %56 = tt.broadcast %55 : tensor<1xf32> -> tensor<8xf32>\n      %57 = arith.mulf %45, %56 : tensor<8xf32>\n      %58 = arith.addf %arg12, %57 : tensor<8xf32>\n      scf.yield %27, %58 : i32, tensor<8xf32>\n    }\n    %21 = arith.muli %5, %arg9 : i32\n    %22 = arith.addi %18, %21 : i32\n    %23 = tt.splat %22 : i32 -> tensor<8xi32>\n    %24 = arith.addi %12, %23 : tensor<8xi32>\n    %25 = tt.splat %arg2 : !tt.ptr<f32> -> tensor<8x!tt.ptr<f32>>\n    %26 = tt.addptr %25, %24 : tensor<8x!tt.ptr<f32>>, tensor<8xi32>\n    tt.store %26, %20#1, %14 {operandSegmentSizes = array<i32: 1, 1, 1>} : tensor<8x!tt.ptr<f32>>\n    tt.return\n  }\n  tt.func public @entry_point(%arg0: !tt.ptr<f32> {tt.divisibility = 16 : i32}, %arg1: !tt.ptr<f32> {tt.divisibility = 16 : i32}, %arg2: !tt.ptr<f32> {tt.divisibility = 16 : i32}, %arg3: i32 {tt.divisibility = 16 : i32}, %arg4: i32 {tt.divisibility = 16 : i32}, %arg5: i32 {tt.divisibility = 16 : i32}, %arg6: i32 {tt.divisibility = 16 : i32}, %arg7: i32 {tt.divisibility = 16 : i32}, %arg8: i32 {tt.divisibility = 16 : i32}, %arg9: i32 {tt.divisibility = 16 : i32}) {\n    tt.call @_RINvCs4sQU8gfMlvY_79conv2d_forward_c0462fb88873092a6652787cb5d7c2be0916b10964b99897bc9842f03678e35514conv2d_forwardNtNtNtNtB2_6triton4llvm6triton10LlvmTritonfKl3_KB2x_Kl1_KB2G_Kl8_EB2_(%arg0, %arg1, %arg2, %arg3, %arg4, %arg5, %arg6, %arg7, %arg8, %arg9) {arg_attrs = [{}, {}, {}, {}, {}, {}, {}, {}, {}, {}], res_attrs = []} : (!tt.ptr<f32>, !tt.ptr<f32>, !tt.ptr<f32>, i32, i32, i32, i32, i32, i32, i32) -> ()\n    tt.return\n  }\n}"
