---
source: kernels/teeny-kernels/tests/test_conv3d.rs
expression: mlir.trim()
---
"module {\n  tt.func private @_RINvCscogH5hQJGDB_83conv3d_backward_dx_44a50a7a593f60af1cf302b52df49fb380eeb357d9fea5a0bb30dfeea2b9758118conv3d_backward_dxNtNtNtNtB2_6triton4llvm6triton10LlvmTritonfKl2_KB2F_Kl3_Kl1_KB2S_KB2S_Kl0_KB36_KB36_Kl8_EB2_(%arg0: !tt.ptr<f32> {tt.divisibility = 16 : i32}, %arg1: !tt.ptr<f32> {tt.divisibility = 16 : i32}, %arg2: !tt.ptr<f32> {tt.divisibility = 16 : i32}, %arg3: i32 {tt.divisibility = 16 : i32}, %arg4: i32 {tt.divisibility = 16 : i32}, %arg5: i32 {tt.divisibility = 16 : i32}, %arg6: i32 {tt.divisibility = 16 : i32}, %arg7: i32 {tt.divisibility = 16 : i32}, %arg8: i32 {tt.divisibility = 16 : i32}, %arg9: i32 {tt.divisibility = 16 : i32}, %arg10: i32 {tt.divisibility = 16 : i32}, %arg11: i32 {tt.divisibility = 16 : i32}) {\n    %cst = arith.constant dense<0> : tensor<8xi32>\n    %c12_i32 = arith.constant 12 : i32\n    %cst_0 = arith.constant dense<0.000000e+00> : tensor<8xf32>\n    %c7_i32 = arith.constant 7 : i32\n    %c3_i32 = arith.constant 3 : i32\n    %c2_i32 = arith.constant 2 : i32\n    %c0_i32 = arith.constant 0 : i32\n    %c1_i32 = arith.constant 1 : i32\n    %c8_i32 = arith.constant 8 : i32\n    %0 = tt.get_program_id x : i32\n    %1 = arith.addi %arg11, %c7_i32 : i32\n    %2 = arith.divsi %1, %c8_i32 : i32\n    %3 = arith.remsi %0, %2 : i32\n    %4 = arith.divsi %0, %2 : i32\n    %5 = arith.remsi %4, %arg10 : i32\n    %6 = arith.divsi %4, %arg10 : i32\n    %7 = arith.remsi %6, %arg9 : i32\n    %8 = arith.divsi %6, %arg9 : i32\n    %9 = arith.remsi %8, %arg5 : i32\n    %10 = arith.divsi %8, %arg5 : i32\n    %11 = arith.muli %3, %c8_i32 : i32\n    %12 = tt.make_range {end = 8 : i32, start = 0 : i32} : tensor<8xi32>\n    %13 = tt.splat %11 : i32 -> tensor<8xi32>\n    %14 = arith.addi %12, %13 : tensor<8xi32>\n    %15 = tt.splat %arg11 : i32 -> tensor<8xi32>\n    %16 = arith.cmpi slt, %14, %15 : tensor<8xi32>\n    %17 = arith.muli %10, %arg5 : i32\n    %18 = arith.addi %17, %9 : i32\n    %19 = arith.muli %18, %arg9 : i32\n    %20 = arith.muli %19, %arg10 : i32\n    %21 = arith.muli %20, %arg11 : i32\n    %22 = arith.muli %7, %arg10 : i32\n    %23 = arith.muli %22, %arg11 : i32\n    %24 = arith.addi %21, %23 : i32\n    %25 = arith.muli %5, %arg11 : i32\n    %26 = arith.addi %24, %25 : i32\n    %27 = tt.splat %26 : i32 -> tensor<8xi32>\n    %28 = arith.addi %14, %27 : tensor<8xi32>\n    %29 = tt.splat %arg0 : !tt.ptr<f32> -> tensor<8x!tt.ptr<f32>>\n    %30 = tt.addptr %29, %28 : tensor<8x!tt.ptr<f32>>, tensor<8xi32>\n    %31 = tt.load %30, %16, %cst_0 : tensor<8x!tt.ptr<f32>>\n    %32 = arith.muli %arg4, %c12_i32 : i32\n    %33 = scf.for %arg12 = %c0_i32 to %32 step %c1_i32 iter_args(%arg13 = %c0_i32) -> (i32)  : i32 {\n      %34 = arith.addi %arg13, %c1_i32 : i32\n      %35 = arith.remsi %arg13, %c3_i32 : i32\n      %36 = arith.divsi %arg13, %c3_i32 : i32\n      %37 = arith.remsi %36, %c2_i32 : i32\n      %38 = arith.divsi %36, %c2_i32 : i32\n      %39 = arith.remsi %38, %c2_i32 : i32\n      %40 = arith.divsi %38, %c2_i32 : i32\n      %41 = arith.muli %9, %arg4 : i32\n      %42 = arith.addi %41, %40 : i32\n      %43 = arith.muli %42, %c2_i32 : i32\n      %44 = arith.addi %43, %39 : i32\n      %45 = arith.muli %44, %c2_i32 : i32\n      %46 = arith.addi %45, %37 : i32\n      %47 = arith.muli %46, %c3_i32 : i32\n      %48 = arith.addi %47, %35 : i32\n      %49 = tt.splat %48 : i32 -> tensor<1xi32>\n      %50 = tt.splat %arg1 : !tt.ptr<f32> -> tensor<1x!tt.ptr<f32>>\n      %51 = tt.addptr %50, %49 : tensor<1x!tt.ptr<f32>>, tensor<1xi32>\n      %52 = tt.load %51 : tensor<1x!tt.ptr<f32>>\n      %53 = tt.broadcast %52 : tensor<1xf32> -> tensor<8xf32>\n      %54 = arith.mulf %31, %53 : tensor<8xf32>\n      %55 = arith.addi %7, %39 : i32\n      %56 = arith.addi %5, %37 : i32\n      %57 = tt.splat %35 : i32 -> tensor<8xi32>\n      %58 = arith.addi %14, %57 : tensor<8xi32>\n      %59 = tt.splat %55 : i32 -> tensor<8xi32>\n      %60 = tt.splat %56 : i32 -> tensor<8xi32>\n      %61 = arith.cmpi sge, %59, %cst : tensor<8xi32>\n      %62 = tt.splat %arg6 : i32 -> tensor<8xi32>\n      %63 = arith.cmpi slt, %59, %62 : tensor<8xi32>\n      %64 = arith.andi %61, %63 : tensor<8xi1>\n      %65 = arith.cmpi sge, %60, %cst : tensor<8xi32>\n      %66 = tt.splat %arg7 : i32 -> tensor<8xi32>\n      %67 = arith.cmpi slt, %60, %66 : tensor<8xi32>\n      %68 = arith.andi %65, %67 : tensor<8xi1>\n      %69 = arith.cmpi sge, %58, %cst : tensor<8xi32>\n      %70 = tt.splat %arg8 : i32 -> tensor<8xi32>\n      %71 = arith.cmpi slt, %58, %70 : tensor<8xi32>\n      %72 = arith.andi %69, %71 : tensor<8xi1>\n      %73 = arith.muli %10, %arg4 : i32\n      %74 = arith.addi %73, %40 : i32\n      %75 = arith.muli %74, %arg6 : i32\n      %76 = arith.muli %75, %arg7 : i32\n      %77 = arith.muli %76, %arg8 : i32\n      %78 = arith.muli %55, %arg7 : i32\n      %79 = arith.muli %78, %arg8 : i32\n      %80 = arith.addi %77, %79 : i32\n      %81 = arith.muli %56, %arg8 : i32\n      %82 = arith.addi %80, %81 : i32\n      %83 = tt.splat %82 : i32 -> tensor<8xi32>\n      %84 = arith.addi %58, %83 : tensor<8xi32>\n      %85 = tt.splat %arg2 : !tt.ptr<f32> -> tensor<8x!tt.ptr<f32>>\n      %86 = tt.addptr %85, %84 : tensor<8x!tt.ptr<f32>>, tensor<8xi32>\n      %87 = arith.andi %16, %64 : tensor<8xi1>\n      %88 = arith.andi %87, %68 : tensor<8xi1>\n      %89 = arith.andi %88, %72 : tensor<8xi1>\n      %90 = tt.atomic_rmw fadd, relaxed, gpu, %86, %54, %89 {operandSegmentSizes = array<i32: 1, 1, 1>} : (tensor<8x!tt.ptr<f32>>, tensor<8xf32>, tensor<8xi1>) -> tensor<8xf32>\n      scf.yield %34 : i32\n    }\n    tt.return\n  }\n  tt.func public @entry_point(%arg0: !tt.ptr<f32> {tt.divisibility = 16 : i32}, %arg1: !tt.ptr<f32> {tt.divisibility = 16 : i32}, %arg2: !tt.ptr<f32> {tt.divisibility = 16 : i32}, %arg3: i32 {tt.divisibility = 16 : i32}, %arg4: i32 {tt.divisibility = 16 : i32}, %arg5: i32 {tt.divisibility = 16 : i32}, %arg6: i32 {tt.divisibility = 16 : i32}, %arg7: i32 {tt.divisibility = 16 : i32}, %arg8: i32 {tt.divisibility = 16 : i32}, %arg9: i32 {tt.divisibility = 16 : i32}, %arg10: i32 {tt.divisibility = 16 : i32}, %arg11: i32 {tt.divisibility = 16 : i32}) {\n    tt.call @_RINvCscogH5hQJGDB_83conv3d_backward_dx_44a50a7a593f60af1cf302b52df49fb380eeb357d9fea5a0bb30dfeea2b9758118conv3d_backward_dxNtNtNtNtB2_6triton4llvm6triton10LlvmTritonfKl2_KB2F_Kl3_Kl1_KB2S_KB2S_Kl0_KB36_KB36_Kl8_EB2_(%arg0, %arg1, %arg2, %arg3, %arg4, %arg5, %arg6, %arg7, %arg8, %arg9, %arg10, %arg11) {arg_attrs = [{}, {}, {}, {}, {}, {}, {}, {}, {}, {}, {}, {}], res_attrs = []} : (!tt.ptr<f32>, !tt.ptr<f32>, !tt.ptr<f32>, i32, i32, i32, i32, i32, i32, i32, i32, i32) -> ()\n    tt.return\n  }\n}"
