---
source: kernels/teeny-kernels/tests/test_optim_rprop.rs
expression: mlir.trim()
---
"module {\n  tt.func private @_RINvCs8dHnD5H8C5g_75rprop_step_6afe5855063494c709a5ba156eda2638a1c69cc3ee878ba3fbde16aceeee732b10rprop_stepNtNtNtNtB2_6triton4llvm6triton10LlvmTritonKl80_EB2_(%arg0: !tt.ptr<f32> {tt.divisibility = 16 : i32}, %arg1: !tt.ptr<f32> {tt.divisibility = 16 : i32}, %arg2: !tt.ptr<f32> {tt.divisibility = 16 : i32}, %arg3: !tt.ptr<f32> {tt.divisibility = 16 : i32}, %arg4: i32 {tt.divisibility = 16 : i32}, %arg5: f32 {tt.divisibility = 16 : i32}, %arg6: f32 {tt.divisibility = 16 : i32}, %arg7: f32 {tt.divisibility = 16 : i32}, %arg8: f32 {tt.divisibility = 16 : i32}) {\n    %cst = arith.constant dense<-1.000000e+00> : tensor<128xf32>\n    %cst_0 = arith.constant dense<1.000000e+00> : tensor<128xf32>\n    %cst_1 = arith.constant dense<0.000000e+00> : tensor<128xf32>\n    %c128_i32 = arith.constant 128 : i32\n    %0 = tt.get_program_id x : i32\n    %1 = arith.muli %0, %c128_i32 : i32\n    %2 = tt.make_range {end = 128 : i32, start = 0 : i32} : tensor<128xi32>\n    %3 = tt.splat %1 : i32 -> tensor<128xi32>\n    %4 = arith.addi %2, %3 : tensor<128xi32>\n    %5 = tt.splat %arg4 : i32 -> tensor<128xi32>\n    %6 = arith.cmpi slt, %4, %5 : tensor<128xi32>\n    %7 = tt.splat %arg0 : !tt.ptr<f32> -> tensor<128x!tt.ptr<f32>>\n    %8 = tt.addptr %7, %4 : tensor<128x!tt.ptr<f32>>, tensor<128xi32>\n    %9 = tt.load %8, %6 : tensor<128x!tt.ptr<f32>>\n    %10 = tt.splat %arg1 : !tt.ptr<f32> -> tensor<128x!tt.ptr<f32>>\n    %11 = tt.addptr %10, %4 : tensor<128x!tt.ptr<f32>>, tensor<128xi32>\n    %12 = tt.load %11, %6 : tensor<128x!tt.ptr<f32>>\n    %13 = tt.splat %arg2 : !tt.ptr<f32> -> tensor<128x!tt.ptr<f32>>\n    %14 = tt.addptr %13, %4 : tensor<128x!tt.ptr<f32>>, tensor<128xi32>\n    %15 = tt.load %14, %6 : tensor<128x!tt.ptr<f32>>\n    %16 = tt.splat %arg3 : !tt.ptr<f32> -> tensor<128x!tt.ptr<f32>>\n    %17 = tt.addptr %16, %4 : tensor<128x!tt.ptr<f32>>, tensor<128xi32>\n    %18 = tt.load %17, %6 : tensor<128x!tt.ptr<f32>>\n    %19 = tt.splat %arg5 : f32 -> tensor<128xf32>\n    %20 = tt.splat %arg6 : f32 -> tensor<128xf32>\n    %21 = tt.splat %arg7 : f32 -> tensor<128xf32>\n    %22 = tt.splat %arg8 : f32 -> tensor<128xf32>\n    %23 = arith.mulf %12, %15 : tensor<128xf32>\n    %24 = arith.cmpf ogt, %23, %cst_1 : tensor<128xf32>\n    %25 = arith.cmpf olt, %23, %cst_1 : tensor<128xf32>\n    %26 = arith.mulf %18, %19 : tensor<128xf32>\n    %27 = arith.select %24, %26, %18 : tensor<128xi1>, tensor<128xf32>\n    %28 = arith.mulf %27, %20 : tensor<128xf32>\n    %29 = arith.select %25, %28, %27 : tensor<128xi1>, tensor<128xf32>\n    %30 = tt.clampf %29, %21, %22, propagateNan = none : tensor<128xf32>\n    %31 = arith.select %25, %cst_1, %12 : tensor<128xi1>, tensor<128xf32>\n    %32 = arith.cmpf ogt, %31, %cst_1 : tensor<128xf32>\n    %33 = arith.cmpf olt, %31, %cst_1 : tensor<128xf32>\n    %34 = arith.select %33, %cst, %cst_1 : tensor<128xi1>, tensor<128xf32>\n    %35 = arith.select %32, %cst_0, %34 : tensor<128xi1>, tensor<128xf32>\n    %36 = arith.mulf %35, %30 : tensor<128xf32>\n    %37 = arith.subf %9, %36 : tensor<128xf32>\n    %38 = tt.splat %arg0 : !tt.ptr<f32> -> tensor<128x!tt.ptr<f32>>\n    %39 = tt.addptr %38, %4 : tensor<128x!tt.ptr<f32>>, tensor<128xi32>\n    tt.store %39, %37, %6 {operandSegmentSizes = array<i32: 1, 1, 1>} : tensor<128x!tt.ptr<f32>>\n    %40 = tt.splat %arg3 : !tt.ptr<f32> -> tensor<128x!tt.ptr<f32>>\n    %41 = tt.addptr %40, %4 : tensor<128x!tt.ptr<f32>>, tensor<128xi32>\n    tt.store %41, %30, %6 {operandSegmentSizes = array<i32: 1, 1, 1>} : tensor<128x!tt.ptr<f32>>\n    %42 = tt.splat %arg2 : !tt.ptr<f32> -> tensor<128x!tt.ptr<f32>>\n    %43 = tt.addptr %42, %4 : tensor<128x!tt.ptr<f32>>, tensor<128xi32>\n    tt.store %43, %31, %6 {operandSegmentSizes = array<i32: 1, 1, 1>} : tensor<128x!tt.ptr<f32>>\n    tt.return\n  }\n  tt.func public @entry_point(%arg0: !tt.ptr<f32> {tt.divisibility = 16 : i32}, %arg1: !tt.ptr<f32> {tt.divisibility = 16 : i32}, %arg2: !tt.ptr<f32> {tt.divisibility = 16 : i32}, %arg3: !tt.ptr<f32> {tt.divisibility = 16 : i32}, %arg4: i32 {tt.divisibility = 16 : i32}, %arg5: f32 {tt.divisibility = 16 : i32}, %arg6: f32 {tt.divisibility = 16 : i32}, %arg7: f32 {tt.divisibility = 16 : i32}, %arg8: f32 {tt.divisibility = 16 : i32}) {\n    tt.call @_RINvCs8dHnD5H8C5g_75rprop_step_6afe5855063494c709a5ba156eda2638a1c69cc3ee878ba3fbde16aceeee732b10rprop_stepNtNtNtNtB2_6triton4llvm6triton10LlvmTritonKl80_EB2_(%arg0, %arg1, %arg2, %arg3, %arg4, %arg5, %arg6, %arg7, %arg8) {arg_attrs = [{}, {}, {}, {}, {}, {}, {}, {}, {}], res_attrs = []} : (!tt.ptr<f32>, !tt.ptr<f32>, !tt.ptr<f32>, !tt.ptr<f32>, i32, f32, f32, f32, f32) -> ()\n    tt.return\n  }\n}"
