---
source: kernels/teeny-kernels/tests/test_circular_pad2d.rs
expression: mlir.trim()
---
"module {\n  tt.func private @_RINvCslEG4MPuhrRd_88circular_pad2d_backward_bdd8bd990a36a612f520b5f327c72e6d99d6aaa9fcfcfe1b2d3fa56d22e01f7a23circular_pad2d_backwardNtNtNtNtB2_6triton4llvm6triton10LlvmTritonfKl1_Kl2_KB2T_Kl3_Kl10_EB2_(%arg0: !tt.ptr<f32> {tt.divisibility = 16 : i32}, %arg1: !tt.ptr<f32> {tt.divisibility = 16 : i32}, %arg2: i32 {tt.divisibility = 16 : i32}, %arg3: i32 {tt.divisibility = 16 : i32}, %arg4: i32 {tt.divisibility = 16 : i32}, %arg5: i32 {tt.divisibility = 16 : i32}, %arg6: i32 {tt.divisibility = 16 : i32}, %arg7: i32 {tt.divisibility = 16 : i32}) {\n    %cst = arith.constant dense<0> : tensor<16xi32>\n    %cst_0 = arith.constant dense<2> : tensor<16xi32>\n    %cst_1 = arith.constant dense<0.000000e+00> : tensor<16xf32>\n    %c15_i32 = arith.constant 15 : i32\n    %c1_i32 = arith.constant 1 : i32\n    %c16_i32 = arith.constant 16 : i32\n    %0 = tt.get_program_id x : i32\n    %1 = arith.addi %arg7, %c15_i32 : i32\n    %2 = arith.divsi %1, %c16_i32 : i32\n    %3 = arith.remsi %0, %2 : i32\n    %4 = arith.divsi %0, %2 : i32\n    %5 = arith.remsi %4, %arg6 : i32\n    %6 = arith.divsi %4, %arg6 : i32\n    %7 = arith.remsi %6, %arg3 : i32\n    %8 = arith.divsi %6, %arg3 : i32\n    %9 = arith.muli %3, %c16_i32 : i32\n    %10 = tt.make_range {end = 16 : i32, start = 0 : i32} : tensor<16xi32>\n    %11 = tt.splat %9 : i32 -> tensor<16xi32>\n    %12 = arith.addi %10, %11 : tensor<16xi32>\n    %13 = tt.splat %arg7 : i32 -> tensor<16xi32>\n    %14 = arith.cmpi slt, %12, %13 : tensor<16xi32>\n    %15 = arith.subi %5, %c1_i32 : i32\n    %16 = arith.addi %15, %arg4 : i32\n    %17 = arith.remsi %16, %arg4 : i32\n    %18 = arith.muli %8, %arg3 : i32\n    %19 = arith.addi %18, %7 : i32\n    %20 = arith.muli %19, %arg6 : i32\n    %21 = arith.addi %20, %5 : i32\n    %22 = arith.muli %21, %arg7 : i32\n    %23 = arith.muli %19, %arg4 : i32\n    %24 = arith.muli %23, %arg5 : i32\n    %25 = arith.muli %17, %arg5 : i32\n    %26 = arith.addi %24, %25 : i32\n    %27 = tt.splat %22 : i32 -> tensor<16xi32>\n    %28 = arith.addi %12, %27 : tensor<16xi32>\n    %29 = tt.splat %arg0 : !tt.ptr<f32> -> tensor<16x!tt.ptr<f32>>\n    %30 = tt.addptr %29, %28 : tensor<16x!tt.ptr<f32>>, tensor<16xi32>\n    %31 = tt.load %30, %14, %cst_1 : tensor<16x!tt.ptr<f32>>\n    %32 = arith.subi %12, %cst_0 : tensor<16xi32>\n    %33 = arith.cmpi slt, %32, %cst : tensor<16xi32>\n    %34 = tt.splat %arg5 : i32 -> tensor<16xi32>\n    %35 = arith.cmpi sge, %32, %34 : tensor<16xi32>\n    %36 = arith.cmpi sge, %32, %cst : tensor<16xi32>\n    %37 = tt.splat %arg5 : i32 -> tensor<16xi32>\n    %38 = arith.cmpi slt, %32, %37 : tensor<16xi32>\n    %39 = arith.andi %36, %38 : tensor<16xi1>\n    %40 = tt.splat %arg5 : i32 -> tensor<16xi32>\n    %41 = arith.addi %32, %40 : tensor<16xi32>\n    %42 = tt.splat %arg5 : i32 -> tensor<16xi32>\n    %43 = arith.subi %32, %42 : tensor<16xi32>\n    %44 = tt.splat %26 : i32 -> tensor<16xi32>\n    %45 = arith.addi %32, %44 : tensor<16xi32>\n    %46 = tt.splat %arg1 : !tt.ptr<f32> -> tensor<16x!tt.ptr<f32>>\n    %47 = tt.addptr %46, %45 : tensor<16x!tt.ptr<f32>>, tensor<16xi32>\n    %48 = arith.andi %14, %39 : tensor<16xi1>\n    %49 = tt.atomic_rmw fadd, relaxed, gpu, %47, %31, %48 {operandSegmentSizes = array<i32: 1, 1, 1>} : (tensor<16x!tt.ptr<f32>>, tensor<16xf32>, tensor<16xi1>) -> tensor<16xf32>\n    %50 = tt.splat %26 : i32 -> tensor<16xi32>\n    %51 = arith.addi %41, %50 : tensor<16xi32>\n    %52 = tt.splat %arg1 : !tt.ptr<f32> -> tensor<16x!tt.ptr<f32>>\n    %53 = tt.addptr %52, %51 : tensor<16x!tt.ptr<f32>>, tensor<16xi32>\n    %54 = arith.andi %14, %33 : tensor<16xi1>\n    %55 = tt.atomic_rmw fadd, relaxed, gpu, %53, %31, %54 {operandSegmentSizes = array<i32: 1, 1, 1>} : (tensor<16x!tt.ptr<f32>>, tensor<16xf32>, tensor<16xi1>) -> tensor<16xf32>\n    %56 = tt.splat %26 : i32 -> tensor<16xi32>\n    %57 = arith.addi %43, %56 : tensor<16xi32>\n    %58 = tt.splat %arg1 : !tt.ptr<f32> -> tensor<16x!tt.ptr<f32>>\n    %59 = tt.addptr %58, %57 : tensor<16x!tt.ptr<f32>>, tensor<16xi32>\n    %60 = arith.andi %14, %35 : tensor<16xi1>\n    %61 = tt.atomic_rmw fadd, relaxed, gpu, %59, %31, %60 {operandSegmentSizes = array<i32: 1, 1, 1>} : (tensor<16x!tt.ptr<f32>>, tensor<16xf32>, tensor<16xi1>) -> tensor<16xf32>\n    tt.return\n  }\n  tt.func public @entry_point(%arg0: !tt.ptr<f32> {tt.divisibility = 16 : i32}, %arg1: !tt.ptr<f32> {tt.divisibility = 16 : i32}, %arg2: i32 {tt.divisibility = 16 : i32}, %arg3: i32 {tt.divisibility = 16 : i32}, %arg4: i32 {tt.divisibility = 16 : i32}, %arg5: i32 {tt.divisibility = 16 : i32}, %arg6: i32 {tt.divisibility = 16 : i32}, %arg7: i32 {tt.divisibility = 16 : i32}) {\n    tt.call @_RINvCslEG4MPuhrRd_88circular_pad2d_backward_bdd8bd990a36a612f520b5f327c72e6d99d6aaa9fcfcfe1b2d3fa56d22e01f7a23circular_pad2d_backwardNtNtNtNtB2_6triton4llvm6triton10LlvmTritonfKl1_Kl2_KB2T_Kl3_Kl10_EB2_(%arg0, %arg1, %arg2, %arg3, %arg4, %arg5, %arg6, %arg7) {arg_attrs = [{}, {}, {}, {}, {}, {}, {}, {}], res_attrs = []} : (!tt.ptr<f32>, !tt.ptr<f32>, i32, i32, i32, i32, i32, i32) -> ()\n    tt.return\n  }\n}"
