---
source: kernels/teeny-kernels/tests/test_linear.rs
expression: mlir.trim()
---
"module {\n  tt.func private @_RINvCses6O7itJGJw_80linear_backward_4655e105070b7b57e56a1d3bc6ea33d6f4a42c5af6f4872eb0c0036a14b2c92d15linear_backwardNtNtNtNtB2_6triton4llvm6triton10LlvmTritonfKb0_Kl20_KB2D_KB2D_Kl8_EB2_(%arg0: !tt.ptr<f32> {tt.divisibility = 16 : i32}, %arg1: !tt.ptr<f32> {tt.divisibility = 16 : i32}, %arg2: !tt.ptr<f32> {tt.divisibility = 16 : i32}, %arg3: !tt.ptr<f32> {tt.divisibility = 16 : i32}, %arg4: !tt.ptr<f32> {tt.divisibility = 16 : i32}, %arg5: !tt.ptr<f32> {tt.divisibility = 16 : i32}, %arg6: i32 {tt.divisibility = 16 : i32}, %arg7: i32 {tt.divisibility = 16 : i32}, %arg8: i32 {tt.divisibility = 16 : i32}, %arg9: i32 {tt.divisibility = 16 : i32}, %arg10: i32 {tt.divisibility = 16 : i32}, %arg11: i32 {tt.divisibility = 16 : i32}, %arg12: i32 {tt.divisibility = 16 : i32}, %arg13: i32 {tt.divisibility = 16 : i32}, %arg14: i32 {tt.divisibility = 16 : i32}, %arg15: i32 {tt.divisibility = 16 : i32}, %arg16: i32 {tt.divisibility = 16 : i32}, %arg17: i32 {tt.divisibility = 16 : i32}, %arg18: i32 {tt.divisibility = 16 : i32}, %arg19: i32 {tt.divisibility = 16 : i32}) {\n    %cst = arith.constant dense<0.000000e+00> : tensor<32x32xf32>\n    %c31_i32 = arith.constant 31 : i32\n    %c0_i32 = arith.constant 0 : i32\n    %c1_i32 = arith.constant 1 : i32\n    %c32_i32 = arith.constant 32 : i32\n    %0 = tt.get_program_id x : i32\n    %1 = arith.addi %arg8, %c31_i32 : i32\n    %2 = arith.divsi %1, %c32_i32 : i32\n    %3 = arith.addi %arg7, %c31_i32 : i32\n    %4 = arith.divsi %3, %c32_i32 : i32\n    %5 = arith.remsi %0, %2 : i32\n    %6 = arith.divsi %0, %2 : i32\n    %7 = arith.remsi %6, %4 : i32\n    %8 = arith.divsi %6, %4 : i32\n    %9 = arith.extsi %arg9 : i32 to i64\n    %10 = arith.extsi %arg10 : i32 to i64\n    %11 = tt.make_tensor_descriptor %arg0, [%arg6, %arg8], [%9, %10] : <f32>, <tensor<32x32xf32>>\n    %12 = arith.extsi %arg12 : i32 to i64\n    %13 = arith.extsi %arg11 : i32 to i64\n    %14 = tt.make_tensor_descriptor %arg1, [%arg7, %arg8], [%12, %13] : <f32>, <tensor<32x32xf32>>\n    %15 = arith.extsi %arg13 : i32 to i64\n    %16 = arith.extsi %arg14 : i32 to i64\n    %17 = tt.make_tensor_descriptor %arg2, [%arg6, %arg7], [%15, %16] : <f32>, <tensor<32x32xf32>>\n    %18 = arith.extsi %arg15 : i32 to i64\n    %19 = arith.extsi %arg16 : i32 to i64\n    %20 = tt.make_tensor_descriptor %arg3, [%arg6, %arg8], [%18, %19] : <f32>, <tensor<32x32xf32>>\n    %21 = arith.cmpi eq, %7, %c0_i32 : i32\n    cf.cond_br %21, ^bb4, ^bb1\n  ^bb1:  // 2 preds: ^bb0, ^bb4\n    %22 = arith.extsi %arg18 : i32 to i64\n    %23 = arith.extsi %arg17 : i32 to i64\n    %24 = tt.make_tensor_descriptor %arg4, [%arg7, %arg8], [%22, %23] : <f32>, <tensor<32x32xf32>>\n    %25 = arith.cmpi eq, %8, %c0_i32 : i32\n    cf.cond_br %25, ^bb3, ^bb2\n  ^bb2:  // 2 preds: ^bb1, ^bb3\n    tt.return\n  ^bb3:  // pred: ^bb1\n    %26 = arith.addi %arg6, %c31_i32 : i32\n    %27 = arith.divsi %26, %c32_i32 : i32\n    %28:2 = scf.for %arg20 = %c0_i32 to %27 step %c1_i32 iter_args(%arg21 = %c0_i32, %arg22 = %cst) -> (i32, tensor<32x32xf32>)  : i32 {\n      %36 = arith.addi %arg21, %c1_i32 : i32\n      %37 = arith.muli %arg21, %c32_i32 : i32\n      %38 = arith.muli %7, %c32_i32 : i32\n      %39 = tt.descriptor_load %17[%37, %38] : !tt.tensordesc<tensor<32x32xf32>> -> tensor<32x32xf32>\n      %40 = arith.muli %5, %c32_i32 : i32\n      %41 = tt.descriptor_load %11[%37, %40] : !tt.tensordesc<tensor<32x32xf32>> -> tensor<32x32xf32>\n      %42 = tt.trans %39 {order = array<i32: 1, 0>} : tensor<32x32xf32> -> tensor<32x32xf32>\n      %43 = tt.dot %42, %41, %arg22 : tensor<32x32xf32> * tensor<32x32xf32> -> tensor<32x32xf32>\n      scf.yield %36, %43 : i32, tensor<32x32xf32>\n    }\n    %29 = arith.muli %7, %c32_i32 : i32\n    %30 = arith.muli %5, %c32_i32 : i32\n    tt.descriptor_store %24[%29, %30], %28#1 : !tt.tensordesc<tensor<32x32xf32>>, tensor<32x32xf32>\n    cf.br ^bb2\n  ^bb4:  // pred: ^bb0\n    %31 = arith.addi %arg7, %c31_i32 : i32\n    %32 = arith.divsi %31, %c32_i32 : i32\n    %33:2 = scf.for %arg20 = %c0_i32 to %32 step %c1_i32 iter_args(%arg21 = %c0_i32, %arg22 = %cst) -> (i32, tensor<32x32xf32>)  : i32 {\n      %36 = arith.addi %arg21, %c1_i32 : i32\n      %37 = arith.muli %8, %c32_i32 : i32\n      %38 = arith.muli %arg21, %c32_i32 : i32\n      %39 = tt.descriptor_load %17[%37, %38] : !tt.tensordesc<tensor<32x32xf32>> -> tensor<32x32xf32>\n      %40 = arith.muli %5, %c32_i32 : i32\n      %41 = tt.descriptor_load %14[%38, %40] : !tt.tensordesc<tensor<32x32xf32>> -> tensor<32x32xf32>\n      %42 = tt.dot %39, %41, %arg22 : tensor<32x32xf32> * tensor<32x32xf32> -> tensor<32x32xf32>\n      scf.yield %36, %42 : i32, tensor<32x32xf32>\n    }\n    %34 = arith.muli %8, %c32_i32 : i32\n    %35 = arith.muli %5, %c32_i32 : i32\n    tt.descriptor_store %20[%34, %35], %33#1 : !tt.tensordesc<tensor<32x32xf32>>, tensor<32x32xf32>\n    cf.br ^bb1\n  }\n  tt.func public @entry_point(%arg0: !tt.ptr<f32> {tt.divisibility = 16 : i32}, %arg1: !tt.ptr<f32> {tt.divisibility = 16 : i32}, %arg2: !tt.ptr<f32> {tt.divisibility = 16 : i32}, %arg3: !tt.ptr<f32> {tt.divisibility = 16 : i32}, %arg4: !tt.ptr<f32> {tt.divisibility = 16 : i32}, %arg5: !tt.ptr<f32> {tt.divisibility = 16 : i32}, %arg6: i32 {tt.divisibility = 16 : i32}, %arg7: i32 {tt.divisibility = 16 : i32}, %arg8: i32 {tt.divisibility = 16 : i32}, %arg9: i32 {tt.divisibility = 16 : i32}, %arg10: i32 {tt.divisibility = 16 : i32}, %arg11: i32 {tt.divisibility = 16 : i32}, %arg12: i32 {tt.divisibility = 16 : i32}, %arg13: i32 {tt.divisibility = 16 : i32}, %arg14: i32 {tt.divisibility = 16 : i32}, %arg15: i32 {tt.divisibility = 16 : i32}, %arg16: i32 {tt.divisibility = 16 : i32}, %arg17: i32 {tt.divisibility = 16 : i32}, %arg18: i32 {tt.divisibility = 16 : i32}, %arg19: i32 {tt.divisibility = 16 : i32}) {\n    tt.call @_RINvCses6O7itJGJw_80linear_backward_4655e105070b7b57e56a1d3bc6ea33d6f4a42c5af6f4872eb0c0036a14b2c92d15linear_backwardNtNtNtNtB2_6triton4llvm6triton10LlvmTritonfKb0_Kl20_KB2D_KB2D_Kl8_EB2_(%arg0, %arg1, %arg2, %arg3, %arg4, %arg5, %arg6, %arg7, %arg8, %arg9, %arg10, %arg11, %arg12, %arg13, %arg14, %arg15, %arg16, %arg17, %arg18, %arg19) {arg_attrs = [{}, {}, {}, {}, {}, {}, {}, {}, {}, {}, {}, {}, {}, {}, {}, {}, {}, {}, {}, {}], res_attrs = []} : (!tt.ptr<f32>, !tt.ptr<f32>, !tt.ptr<f32>, !tt.ptr<f32>, !tt.ptr<f32>, !tt.ptr<f32>, i32, i32, i32, i32, i32, i32, i32, i32, i32, i32, i32, i32, i32, i32) -> ()\n    tt.return\n  }\n}"
