---
source: kernels/teeny-kernels/tests/test_lppool2d.rs
expression: mlir.trim()
---
"module {\n  tt.func private @_RINvCs4YzE1pGPztM_81lppool2d_forward_ddea1d10af5b2c38ab879ff7778d6f24bc2746a359e8ac18906a28ce7304b60e16lppool2d_forwardNtNtNtNtB2_6triton4llvm6triton10LlvmTritonfKl2_KB2B_KB2B_KB2B_Kl4_EB2_(%arg0: !tt.ptr<f32> {tt.divisibility = 16 : i32}, %arg1: !tt.ptr<f32> {tt.divisibility = 16 : i32}, %arg2: i32 {tt.divisibility = 16 : i32}, %arg3: i32 {tt.divisibility = 16 : i32}, %arg4: i32 {tt.divisibility = 16 : i32}, %arg5: i32 {tt.divisibility = 16 : i32}, %arg6: i32 {tt.divisibility = 16 : i32}, %arg7: i32 {tt.divisibility = 16 : i32}, %arg8: f32 {tt.divisibility = 16 : i32}) {\n    %cst = arith.constant dense<2> : tensor<4xi32>\n    %cst_0 = arith.constant dense<0.000000e+00> : tensor<4xf32>\n    %cst_1 = arith.constant dense<9.99999996E-13> : tensor<4xf32>\n    %c3_i32 = arith.constant 3 : i32\n    %c2_i32 = arith.constant 2 : i32\n    %cst_2 = arith.constant 1.000000e+00 : f32\n    %c0_i32 = arith.constant 0 : i32\n    %c1_i32 = arith.constant 1 : i32\n    %c4_i32 = arith.constant 4 : i32\n    %0 = tt.get_program_id x : i32\n    %1 = arith.addi %arg7, %c3_i32 : i32\n    %2 = arith.divsi %1, %c4_i32 : i32\n    %3 = arith.remsi %0, %2 : i32\n    %4 = arith.divsi %0, %2 : i32\n    %5 = arith.remsi %4, %arg6 : i32\n    %6 = arith.divsi %4, %arg6 : i32\n    %7 = arith.remsi %6, %arg3 : i32\n    %8 = arith.divsi %6, %arg3 : i32\n    %9 = arith.muli %3, %c4_i32 : i32\n    %10 = tt.make_range {end = 4 : i32, start = 0 : i32} : tensor<4xi32>\n    %11 = tt.splat %9 : i32 -> tensor<4xi32>\n    %12 = arith.addi %10, %11 : tensor<4xi32>\n    %13 = tt.splat %arg7 : i32 -> tensor<4xi32>\n    %14 = arith.cmpi slt, %12, %13 : tensor<4xi32>\n    %15 = arith.muli %8, %arg3 : i32\n    %16 = arith.addi %15, %7 : i32\n    %17 = arith.muli %16, %arg4 : i32\n    %18 = arith.muli %17, %arg5 : i32\n    %19 = arith.muli %16, %arg6 : i32\n    %20 = arith.muli %19, %arg7 : i32\n    %21 = tt.splat %arg8 : f32 -> tensor<4xf32>\n    %22 = arith.divf %cst_2, %arg8 : f32\n    %23 = tt.splat %22 : f32 -> tensor<4xf32>\n    %24:2 = scf.for %arg9 = %c0_i32 to %c4_i32 step %c1_i32 iter_args(%arg10 = %c0_i32, %arg11 = %cst_0) -> (i32, tensor<4xf32>)  : i32 {\n      %35 = arith.addi %arg10, %c1_i32 : i32\n      %36 = arith.remsi %arg10, %c2_i32 : i32\n      %37 = arith.divsi %arg10, %c2_i32 : i32\n      %38 = arith.muli %5, %c2_i32 : i32\n      %39 = arith.addi %38, %37 : i32\n      %40 = arith.muli %12, %cst : tensor<4xi32>\n      %41 = tt.splat %36 : i32 -> tensor<4xi32>\n      %42 = arith.addi %40, %41 : tensor<4xi32>\n      %43 = arith.muli %39, %arg5 : i32\n      %44 = arith.addi %18, %43 : i32\n      %45 = tt.splat %44 : i32 -> tensor<4xi32>\n      %46 = arith.addi %42, %45 : tensor<4xi32>\n      %47 = tt.splat %arg0 : !tt.ptr<f32> -> tensor<4x!tt.ptr<f32>>\n      %48 = tt.addptr %47, %46 : tensor<4x!tt.ptr<f32>>, tensor<4xi32>\n      %49 = tt.load %48, %14, %cst_0 : tensor<4x!tt.ptr<f32>>\n      %50 = math.absf %49 : tensor<4xf32>\n      %51 = arith.maximumf %50, %cst_1 : tensor<4xf32>\n      %52 = math.log %51 : tensor<4xf32>\n      %53 = arith.mulf %21, %52 : tensor<4xf32>\n      %54 = math.exp %53 : tensor<4xf32>\n      %55 = arith.addf %arg11, %54 : tensor<4xf32>\n      scf.yield %35, %55 : i32, tensor<4xf32>\n    }\n    %25 = arith.maximumf %24#1, %cst_1 : tensor<4xf32>\n    %26 = math.log %25 : tensor<4xf32>\n    %27 = arith.mulf %26, %23 : tensor<4xf32>\n    %28 = math.exp %27 : tensor<4xf32>\n    %29 = arith.muli %5, %arg7 : i32\n    %30 = arith.addi %20, %29 : i32\n    %31 = tt.splat %30 : i32 -> tensor<4xi32>\n    %32 = arith.addi %12, %31 : tensor<4xi32>\n    %33 = tt.splat %arg1 : !tt.ptr<f32> -> tensor<4x!tt.ptr<f32>>\n    %34 = tt.addptr %33, %32 : tensor<4x!tt.ptr<f32>>, tensor<4xi32>\n    tt.store %34, %28, %14 {operandSegmentSizes = array<i32: 1, 1, 1>} : tensor<4x!tt.ptr<f32>>\n    tt.return\n  }\n  tt.func public @entry_point(%arg0: !tt.ptr<f32> {tt.divisibility = 16 : i32}, %arg1: !tt.ptr<f32> {tt.divisibility = 16 : i32}, %arg2: i32 {tt.divisibility = 16 : i32}, %arg3: i32 {tt.divisibility = 16 : i32}, %arg4: i32 {tt.divisibility = 16 : i32}, %arg5: i32 {tt.divisibility = 16 : i32}, %arg6: i32 {tt.divisibility = 16 : i32}, %arg7: i32 {tt.divisibility = 16 : i32}, %arg8: f32 {tt.divisibility = 16 : i32}) {\n    tt.call @_RINvCs4YzE1pGPztM_81lppool2d_forward_ddea1d10af5b2c38ab879ff7778d6f24bc2746a359e8ac18906a28ce7304b60e16lppool2d_forwardNtNtNtNtB2_6triton4llvm6triton10LlvmTritonfKl2_KB2B_KB2B_KB2B_Kl4_EB2_(%arg0, %arg1, %arg2, %arg3, %arg4, %arg5, %arg6, %arg7, %arg8) {arg_attrs = [{}, {}, {}, {}, {}, {}, {}, {}, {}], res_attrs = []} : (!tt.ptr<f32>, !tt.ptr<f32>, i32, i32, i32, i32, i32, i32, f32) -> ()\n    tt.return\n  }\n}"
