---
source: kernels/teeny-kernels/tests/test_optim_rmsprop.rs
expression: mlir.trim()
---
"module {\n  tt.func private @_RINvCs98zYgvCjyOV_77rmsprop_step_9c93033914b334acea55014895a17398e630c20314c0e60f2297cf321049868412rmsprop_stepNtNtNtNtB2_6triton4llvm6triton10LlvmTritonKl80_EB2_(%arg0: !tt.ptr<f32> {tt.divisibility = 16 : i32}, %arg1: !tt.ptr<f32> {tt.divisibility = 16 : i32}, %arg2: !tt.ptr<f32> {tt.divisibility = 16 : i32}, %arg3: i32 {tt.divisibility = 16 : i32}, %arg4: f32 {tt.divisibility = 16 : i32}, %arg5: f32 {tt.divisibility = 16 : i32}, %arg6: f32 {tt.divisibility = 16 : i32}, %arg7: f32 {tt.divisibility = 16 : i32}) {\n    %cst = arith.constant dense<5.000000e-01> : tensor<128xf32>\n    %cst_0 = arith.constant 1.000000e+00 : f32\n    %c128_i32 = arith.constant 128 : i32\n    %0 = tt.get_program_id x : i32\n    %1 = arith.muli %0, %c128_i32 : i32\n    %2 = tt.make_range {end = 128 : i32, start = 0 : i32} : tensor<128xi32>\n    %3 = tt.splat %1 : i32 -> tensor<128xi32>\n    %4 = arith.addi %2, %3 : tensor<128xi32>\n    %5 = tt.splat %arg3 : i32 -> tensor<128xi32>\n    %6 = arith.cmpi slt, %4, %5 : tensor<128xi32>\n    %7 = tt.splat %arg0 : !tt.ptr<f32> -> tensor<128x!tt.ptr<f32>>\n    %8 = tt.addptr %7, %4 : tensor<128x!tt.ptr<f32>>, tensor<128xi32>\n    %9 = tt.load %8, %6 : tensor<128x!tt.ptr<f32>>\n    %10 = tt.splat %arg1 : !tt.ptr<f32> -> tensor<128x!tt.ptr<f32>>\n    %11 = tt.addptr %10, %4 : tensor<128x!tt.ptr<f32>>, tensor<128xi32>\n    %12 = tt.load %11, %6 : tensor<128x!tt.ptr<f32>>\n    %13 = tt.splat %arg2 : !tt.ptr<f32> -> tensor<128x!tt.ptr<f32>>\n    %14 = tt.addptr %13, %4 : tensor<128x!tt.ptr<f32>>, tensor<128xi32>\n    %15 = tt.load %14, %6 : tensor<128x!tt.ptr<f32>>\n    %16 = tt.splat %arg4 : f32 -> tensor<128xf32>\n    %17 = tt.splat %arg5 : f32 -> tensor<128xf32>\n    %18 = arith.subf %cst_0, %arg5 : f32\n    %19 = tt.splat %18 : f32 -> tensor<128xf32>\n    %20 = tt.splat %arg6 : f32 -> tensor<128xf32>\n    %21 = tt.splat %arg7 : f32 -> tensor<128xf32>\n    %22 = arith.mulf %21, %9 : tensor<128xf32>\n    %23 = arith.addf %12, %22 : tensor<128xf32>\n    %24 = arith.mulf %17, %15 : tensor<128xf32>\n    %25 = arith.mulf %19, %23 : tensor<128xf32>\n    %26 = arith.mulf %25, %23 : tensor<128xf32>\n    %27 = arith.addf %24, %26 : tensor<128xf32>\n    %28 = arith.mulf %16, %23 : tensor<128xf32>\n    %29 = math.log %27 : tensor<128xf32>\n    %30 = arith.mulf %29, %cst : tensor<128xf32>\n    %31 = math.exp %30 : tensor<128xf32>\n    %32 = arith.addf %31, %20 : tensor<128xf32>\n    %33 = arith.divf %28, %32 : tensor<128xf32>\n    %34 = arith.subf %9, %33 : tensor<128xf32>\n    %35 = tt.splat %arg0 : !tt.ptr<f32> -> tensor<128x!tt.ptr<f32>>\n    %36 = tt.addptr %35, %4 : tensor<128x!tt.ptr<f32>>, tensor<128xi32>\n    tt.store %36, %34, %6 {operandSegmentSizes = array<i32: 1, 1, 1>} : tensor<128x!tt.ptr<f32>>\n    %37 = tt.splat %arg2 : !tt.ptr<f32> -> tensor<128x!tt.ptr<f32>>\n    %38 = tt.addptr %37, %4 : tensor<128x!tt.ptr<f32>>, tensor<128xi32>\n    tt.store %38, %27, %6 {operandSegmentSizes = array<i32: 1, 1, 1>} : tensor<128x!tt.ptr<f32>>\n    tt.return\n  }\n  tt.func public @entry_point(%arg0: !tt.ptr<f32> {tt.divisibility = 16 : i32}, %arg1: !tt.ptr<f32> {tt.divisibility = 16 : i32}, %arg2: !tt.ptr<f32> {tt.divisibility = 16 : i32}, %arg3: i32 {tt.divisibility = 16 : i32}, %arg4: f32 {tt.divisibility = 16 : i32}, %arg5: f32 {tt.divisibility = 16 : i32}, %arg6: f32 {tt.divisibility = 16 : i32}, %arg7: f32 {tt.divisibility = 16 : i32}) {\n    tt.call @_RINvCs98zYgvCjyOV_77rmsprop_step_9c93033914b334acea55014895a17398e630c20314c0e60f2297cf321049868412rmsprop_stepNtNtNtNtB2_6triton4llvm6triton10LlvmTritonKl80_EB2_(%arg0, %arg1, %arg2, %arg3, %arg4, %arg5, %arg6, %arg7) {arg_attrs = [{}, {}, {}, {}, {}, {}, {}, {}], res_attrs = []} : (!tt.ptr<f32>, !tt.ptr<f32>, !tt.ptr<f32>, i32, f32, f32, f32, f32) -> ()\n    tt.return\n  }\n}"
