---
source: kernels/teeny-kernels/tests/test_optim_nadam.rs
expression: mlir.trim()
---
"module {\n  tt.func private @_RINvCs8DyJjYH91ec_75nadam_step_b41481002e8c1fb556e7fe39e09098eae227d7c36a504f730533df378ba94c9510nadam_stepNtNtNtNtB2_6triton4llvm6triton10LlvmTritonKl80_EB2_(%arg0: !tt.ptr<f32> {tt.divisibility = 16 : i32}, %arg1: !tt.ptr<f32> {tt.divisibility = 16 : i32}, %arg2: !tt.ptr<f32> {tt.divisibility = 16 : i32}, %arg3: !tt.ptr<f32> {tt.divisibility = 16 : i32}, %arg4: i32 {tt.divisibility = 16 : i32}, %arg5: f32 {tt.divisibility = 16 : i32}, %arg6: f32 {tt.divisibility = 16 : i32}, %arg7: f32 {tt.divisibility = 16 : i32}, %arg8: f32 {tt.divisibility = 16 : i32}, %arg9: f32 {tt.divisibility = 16 : i32}, %arg10: f32 {tt.divisibility = 16 : i32}, %arg11: f32 {tt.divisibility = 16 : i32}, %arg12: f32 {tt.divisibility = 16 : i32}) {\n    %cst = arith.constant 1.000000e+00 : f32\n    %c128_i32 = arith.constant 128 : i32\n    %0 = tt.get_program_id x : i32\n    %1 = arith.muli %0, %c128_i32 : i32\n    %2 = tt.make_range {end = 128 : i32, start = 0 : i32} : tensor<128xi32>\n    %3 = tt.splat %1 : i32 -> tensor<128xi32>\n    %4 = arith.addi %2, %3 : tensor<128xi32>\n    %5 = tt.splat %arg4 : i32 -> tensor<128xi32>\n    %6 = arith.cmpi slt, %4, %5 : tensor<128xi32>\n    %7 = tt.splat %arg0 : !tt.ptr<f32> -> tensor<128x!tt.ptr<f32>>\n    %8 = tt.addptr %7, %4 : tensor<128x!tt.ptr<f32>>, tensor<128xi32>\n    %9 = tt.load %8, %6 : tensor<128x!tt.ptr<f32>>\n    %10 = tt.splat %arg1 : !tt.ptr<f32> -> tensor<128x!tt.ptr<f32>>\n    %11 = tt.addptr %10, %4 : tensor<128x!tt.ptr<f32>>, tensor<128xi32>\n    %12 = tt.load %11, %6 : tensor<128x!tt.ptr<f32>>\n    %13 = tt.splat %arg2 : !tt.ptr<f32> -> tensor<128x!tt.ptr<f32>>\n    %14 = tt.addptr %13, %4 : tensor<128x!tt.ptr<f32>>, tensor<128xi32>\n    %15 = tt.load %14, %6 : tensor<128x!tt.ptr<f32>>\n    %16 = tt.splat %arg3 : !tt.ptr<f32> -> tensor<128x!tt.ptr<f32>>\n    %17 = tt.addptr %16, %4 : tensor<128x!tt.ptr<f32>>, tensor<128xi32>\n    %18 = tt.load %17, %6 : tensor<128x!tt.ptr<f32>>\n    %19 = tt.splat %arg6 : f32 -> tensor<128xf32>\n    %20 = tt.splat %arg7 : f32 -> tensor<128xf32>\n    %21 = arith.subf %cst, %arg6 : f32\n    %22 = tt.splat %21 : f32 -> tensor<128xf32>\n    %23 = arith.subf %cst, %arg7 : f32\n    %24 = tt.splat %23 : f32 -> tensor<128xf32>\n    %25 = tt.splat %arg8 : f32 -> tensor<128xf32>\n    %26 = tt.splat %arg5 : f32 -> tensor<128xf32>\n    %27 = tt.splat %arg10 : f32 -> tensor<128xf32>\n    %28 = tt.splat %arg11 : f32 -> tensor<128xf32>\n    %29 = tt.splat %arg12 : f32 -> tensor<128xf32>\n    %30 = tt.splat %arg9 : f32 -> tensor<128xf32>\n    %31 = arith.mulf %30, %9 : tensor<128xf32>\n    %32 = arith.addf %12, %31 : tensor<128xf32>\n    %33 = arith.mulf %19, %15 : tensor<128xf32>\n    %34 = arith.mulf %22, %32 : tensor<128xf32>\n    %35 = arith.addf %33, %34 : tensor<128xf32>\n    %36 = arith.mulf %20, %18 : tensor<128xf32>\n    %37 = arith.mulf %24, %32 : tensor<128xf32>\n    %38 = arith.mulf %37, %32 : tensor<128xf32>\n    %39 = arith.addf %36, %38 : tensor<128xf32>\n    %40 = tt.precise_sqrt %39 : tensor<128xf32>\n    %41 = arith.divf %40, %27 : tensor<128xf32>\n    %42 = arith.addf %41, %25 : tensor<128xf32>\n    %43 = arith.mulf %28, %32 : tensor<128xf32>\n    %44 = arith.mulf %29, %35 : tensor<128xf32>\n    %45 = arith.addf %43, %44 : tensor<128xf32>\n    %46 = arith.mulf %26, %45 : tensor<128xf32>\n    %47 = arith.divf %46, %42 : tensor<128xf32>\n    %48 = arith.subf %9, %47 : tensor<128xf32>\n    %49 = tt.splat %arg0 : !tt.ptr<f32> -> tensor<128x!tt.ptr<f32>>\n    %50 = tt.addptr %49, %4 : tensor<128x!tt.ptr<f32>>, tensor<128xi32>\n    tt.store %50, %48, %6 {operandSegmentSizes = array<i32: 1, 1, 1>} : tensor<128x!tt.ptr<f32>>\n    %51 = tt.splat %arg2 : !tt.ptr<f32> -> tensor<128x!tt.ptr<f32>>\n    %52 = tt.addptr %51, %4 : tensor<128x!tt.ptr<f32>>, tensor<128xi32>\n    tt.store %52, %35, %6 {operandSegmentSizes = array<i32: 1, 1, 1>} : tensor<128x!tt.ptr<f32>>\n    %53 = tt.splat %arg3 : !tt.ptr<f32> -> tensor<128x!tt.ptr<f32>>\n    %54 = tt.addptr %53, %4 : tensor<128x!tt.ptr<f32>>, tensor<128xi32>\n    tt.store %54, %39, %6 {operandSegmentSizes = array<i32: 1, 1, 1>} : tensor<128x!tt.ptr<f32>>\n    tt.return\n  }\n  tt.func public @entry_point(%arg0: !tt.ptr<f32> {tt.divisibility = 16 : i32}, %arg1: !tt.ptr<f32> {tt.divisibility = 16 : i32}, %arg2: !tt.ptr<f32> {tt.divisibility = 16 : i32}, %arg3: !tt.ptr<f32> {tt.divisibility = 16 : i32}, %arg4: i32 {tt.divisibility = 16 : i32}, %arg5: f32 {tt.divisibility = 16 : i32}, %arg6: f32 {tt.divisibility = 16 : i32}, %arg7: f32 {tt.divisibility = 16 : i32}, %arg8: f32 {tt.divisibility = 16 : i32}, %arg9: f32 {tt.divisibility = 16 : i32}, %arg10: f32 {tt.divisibility = 16 : i32}, %arg11: f32 {tt.divisibility = 16 : i32}, %arg12: f32 {tt.divisibility = 16 : i32}) {\n    tt.call @_RINvCs8DyJjYH91ec_75nadam_step_b41481002e8c1fb556e7fe39e09098eae227d7c36a504f730533df378ba94c9510nadam_stepNtNtNtNtB2_6triton4llvm6triton10LlvmTritonKl80_EB2_(%arg0, %arg1, %arg2, %arg3, %arg4, %arg5, %arg6, %arg7, %arg8, %arg9, %arg10, %arg11, %arg12) {arg_attrs = [{}, {}, {}, {}, {}, {}, {}, {}, {}, {}, {}, {}, {}], res_attrs = []} : (!tt.ptr<f32>, !tt.ptr<f32>, !tt.ptr<f32>, !tt.ptr<f32>, i32, f32, f32, f32, f32, f32, f32, f32, f32) -> ()\n    tt.return\n  }\n}"
