---
source: kernels/teeny-kernels/tests/test_tanh_acts.rs
expression: mlir.trim()
---
"module {\n  tt.func private @_RINvCsk2JvtsN70UW_83tanhshrink_forward_3d54497590a5306a5b4e293ce1ca577835a75818f0c7818b224c42b8713f5ea318tanhshrink_forwardNtNtNtNtB2_6triton4llvm6triton10LlvmTritonKl80_EB2_(%arg0: !tt.ptr<f32> {tt.divisibility = 16 : i32}, %arg1: !tt.ptr<f32> {tt.divisibility = 16 : i32}, %arg2: i32 {tt.divisibility = 16 : i32}) {\n    %cst = arith.constant dense<-2.000000e+00> : tensor<128xf32>\n    %cst_0 = arith.constant dense<2.000000e+00> : tensor<128xf32>\n    %cst_1 = arith.constant dense<1.000000e+00> : tensor<128xf32>\n    %c128_i32 = arith.constant 128 : i32\n    %0 = tt.get_program_id x : i32\n    %1 = arith.muli %0, %c128_i32 : i32\n    %2 = tt.make_range {end = 128 : i32, start = 0 : i32} : tensor<128xi32>\n    %3 = tt.splat %1 : i32 -> tensor<128xi32>\n    %4 = arith.addi %2, %3 : tensor<128xi32>\n    %5 = tt.splat %arg2 : i32 -> tensor<128xi32>\n    %6 = arith.cmpi slt, %4, %5 : tensor<128xi32>\n    %7 = tt.splat %arg0 : !tt.ptr<f32> -> tensor<128x!tt.ptr<f32>>\n    %8 = tt.addptr %7, %4 : tensor<128x!tt.ptr<f32>>, tensor<128xi32>\n    %9 = tt.load %8, %6 : tensor<128x!tt.ptr<f32>>\n    %10 = arith.mulf %9, %cst : tensor<128xf32>\n    %11 = math.exp %10 : tensor<128xf32>\n    %12 = arith.addf %11, %cst_1 : tensor<128xf32>\n    %13 = arith.divf %cst_1, %12 : tensor<128xf32>\n    %14 = arith.mulf %13, %cst_0 : tensor<128xf32>\n    %15 = arith.subf %14, %cst_1 : tensor<128xf32>\n    %16 = arith.subf %9, %15 : tensor<128xf32>\n    %17 = tt.splat %arg1 : !tt.ptr<f32> -> tensor<128x!tt.ptr<f32>>\n    %18 = tt.addptr %17, %4 : tensor<128x!tt.ptr<f32>>, tensor<128xi32>\n    tt.store %18, %16, %6 {operandSegmentSizes = array<i32: 1, 1, 1>} : tensor<128x!tt.ptr<f32>>\n    tt.return\n  }\n  tt.func public @entry_point(%arg0: !tt.ptr<f32> {tt.divisibility = 16 : i32}, %arg1: !tt.ptr<f32> {tt.divisibility = 16 : i32}, %arg2: i32 {tt.divisibility = 16 : i32}) {\n    tt.call @_RINvCsk2JvtsN70UW_83tanhshrink_forward_3d54497590a5306a5b4e293ce1ca577835a75818f0c7818b224c42b8713f5ea318tanhshrink_forwardNtNtNtNtB2_6triton4llvm6triton10LlvmTritonKl80_EB2_(%arg0, %arg1, %arg2) {arg_attrs = [{}, {}, {}], res_attrs = []} : (!tt.ptr<f32>, !tt.ptr<f32>, i32) -> ()\n    tt.return\n  }\n}"
