---
source: kernels/teeny-kernels/tests/test_upsample_nearest2d.rs
expression: mlir.trim()
---
"module {\n  tt.func private @_RINvCsljS24elelNM_92upsample_nearest2d_backward_e7d6d8c84e846e7e289df0e787de8037b13371c37bfe2a29b425839e1a9e831627upsample_nearest2d_backwardNtNtNtNtB2_6triton4llvm6triton10LlvmTritonfKl2_KB2X_Kl4_EB2_(%arg0: !tt.ptr<f32> {tt.divisibility = 16 : i32}, %arg1: !tt.ptr<f32> {tt.divisibility = 16 : i32}, %arg2: i32 {tt.divisibility = 16 : i32}, %arg3: i32 {tt.divisibility = 16 : i32}, %arg4: i32 {tt.divisibility = 16 : i32}, %arg5: i32 {tt.divisibility = 16 : i32}, %arg6: i32 {tt.divisibility = 16 : i32}, %arg7: i32 {tt.divisibility = 16 : i32}) {\n    %cst = arith.constant dense<2> : tensor<4xi32>\n    %cst_0 = arith.constant dense<0.000000e+00> : tensor<4xf32>\n    %c3_i32 = arith.constant 3 : i32\n    %c2_i32 = arith.constant 2 : i32\n    %c0_i32 = arith.constant 0 : i32\n    %c1_i32 = arith.constant 1 : i32\n    %c4_i32 = arith.constant 4 : i32\n    %0 = tt.get_program_id x : i32\n    %1 = arith.addi %arg5, %c3_i32 : i32\n    %2 = arith.divsi %1, %c4_i32 : i32\n    %3 = arith.remsi %0, %2 : i32\n    %4 = arith.divsi %0, %2 : i32\n    %5 = arith.remsi %4, %arg4 : i32\n    %6 = arith.divsi %4, %arg4 : i32\n    %7 = arith.remsi %6, %arg3 : i32\n    %8 = arith.divsi %6, %arg3 : i32\n    %9 = arith.muli %3, %c4_i32 : i32\n    %10 = tt.make_range {end = 4 : i32, start = 0 : i32} : tensor<4xi32>\n    %11 = tt.splat %9 : i32 -> tensor<4xi32>\n    %12 = arith.addi %10, %11 : tensor<4xi32>\n    %13 = tt.splat %arg5 : i32 -> tensor<4xi32>\n    %14 = arith.cmpi slt, %12, %13 : tensor<4xi32>\n    %15 = arith.muli %8, %arg3 : i32\n    %16 = arith.addi %15, %7 : i32\n    %17 = arith.muli %16, %arg6 : i32\n    %18 = arith.muli %17, %arg7 : i32\n    %19 = arith.muli %16, %arg4 : i32\n    %20 = arith.muli %19, %arg5 : i32\n    %21:2 = scf.for %arg8 = %c0_i32 to %c4_i32 step %c1_i32 iter_args(%arg9 = %c0_i32, %arg10 = %cst_0) -> (i32, tensor<4xf32>)  : i32 {\n      %28 = arith.addi %arg9, %c1_i32 : i32\n      %29 = arith.remsi %arg9, %c2_i32 : i32\n      %30 = arith.divsi %arg9, %c2_i32 : i32\n      %31 = arith.muli %5, %c2_i32 : i32\n      %32 = arith.addi %31, %30 : i32\n      %33 = arith.muli %12, %cst : tensor<4xi32>\n      %34 = tt.splat %29 : i32 -> tensor<4xi32>\n      %35 = arith.addi %33, %34 : tensor<4xi32>\n      %36 = arith.muli %32, %arg7 : i32\n      %37 = arith.addi %18, %36 : i32\n      %38 = tt.splat %37 : i32 -> tensor<4xi32>\n      %39 = arith.addi %35, %38 : tensor<4xi32>\n      %40 = tt.splat %arg7 : i32 -> tensor<4xi32>\n      %41 = arith.cmpi slt, %35, %40 : tensor<4xi32>\n      %42 = tt.splat %arg0 : !tt.ptr<f32> -> tensor<4x!tt.ptr<f32>>\n      %43 = tt.addptr %42, %39 : tensor<4x!tt.ptr<f32>>, tensor<4xi32>\n      %44 = tt.load %43, %41, %cst_0 : tensor<4x!tt.ptr<f32>>\n      %45 = arith.addf %arg10, %44 : tensor<4xf32>\n      scf.yield %28, %45 : i32, tensor<4xf32>\n    }\n    %22 = arith.muli %5, %arg5 : i32\n    %23 = arith.addi %20, %22 : i32\n    %24 = tt.splat %23 : i32 -> tensor<4xi32>\n    %25 = arith.addi %12, %24 : tensor<4xi32>\n    %26 = tt.splat %arg1 : !tt.ptr<f32> -> tensor<4x!tt.ptr<f32>>\n    %27 = tt.addptr %26, %25 : tensor<4x!tt.ptr<f32>>, tensor<4xi32>\n    tt.store %27, %21#1, %14 {operandSegmentSizes = array<i32: 1, 1, 1>} : tensor<4x!tt.ptr<f32>>\n    tt.return\n  }\n  tt.func public @entry_point(%arg0: !tt.ptr<f32> {tt.divisibility = 16 : i32}, %arg1: !tt.ptr<f32> {tt.divisibility = 16 : i32}, %arg2: i32 {tt.divisibility = 16 : i32}, %arg3: i32 {tt.divisibility = 16 : i32}, %arg4: i32 {tt.divisibility = 16 : i32}, %arg5: i32 {tt.divisibility = 16 : i32}, %arg6: i32 {tt.divisibility = 16 : i32}, %arg7: i32 {tt.divisibility = 16 : i32}) {\n    tt.call @_RINvCsljS24elelNM_92upsample_nearest2d_backward_e7d6d8c84e846e7e289df0e787de8037b13371c37bfe2a29b425839e1a9e831627upsample_nearest2d_backwardNtNtNtNtB2_6triton4llvm6triton10LlvmTritonfKl2_KB2X_Kl4_EB2_(%arg0, %arg1, %arg2, %arg3, %arg4, %arg5, %arg6, %arg7) {arg_attrs = [{}, {}, {}, {}, {}, {}, {}, {}], res_attrs = []} : (!tt.ptr<f32>, !tt.ptr<f32>, i32, i32, i32, i32, i32, i32) -> ()\n    tt.return\n  }\n}"
