---
source: kernels/teeny-kernels/tests/test_conv1d.rs
expression: mlir.trim()
---
"module {\n  tt.func private @_RINvCs49hCN5RWMlH_83conv1d_backward_dw_62d3c6ddcaada857e69a334fe23898d3865b4d2eb1e46735a4beaf0e65f04fd818conv1d_backward_dwNtNtNtNtB2_6triton4llvm6triton10LlvmTritonfKl3_Kl1_Kl0_Kl8_EB2_(%arg0: !tt.ptr<f32> {tt.divisibility = 16 : i32}, %arg1: !tt.ptr<f32> {tt.divisibility = 16 : i32}, %arg2: !tt.ptr<f32> {tt.divisibility = 16 : i32}, %arg3: i32 {tt.divisibility = 16 : i32}, %arg4: i32 {tt.divisibility = 16 : i32}, %arg5: i32 {tt.divisibility = 16 : i32}, %arg6: i32 {tt.divisibility = 16 : i32}, %arg7: i32 {tt.divisibility = 16 : i32}) {\n    %cst = arith.constant dense<0> : tensor<8xi32>\n    %cst_0 = arith.constant dense<0.000000e+00> : tensor<8xf32>\n    %c7_i32 = arith.constant 7 : i32\n    %c3_i32 = arith.constant 3 : i32\n    %c0_i32 = arith.constant 0 : i32\n    %c1_i32 = arith.constant 1 : i32\n    %c8_i32 = arith.constant 8 : i32\n    %0 = tt.get_program_id x : i32\n    %1 = arith.addi %arg7, %c7_i32 : i32\n    %2 = arith.divsi %1, %c8_i32 : i32\n    %3 = arith.remsi %0, %2 : i32\n    %4 = arith.divsi %0, %2 : i32\n    %5 = arith.remsi %4, %arg5 : i32\n    %6 = arith.divsi %4, %arg5 : i32\n    %7 = arith.muli %3, %c8_i32 : i32\n    %8 = tt.make_range {end = 8 : i32, start = 0 : i32} : tensor<8xi32>\n    %9 = tt.splat %7 : i32 -> tensor<8xi32>\n    %10 = arith.addi %8, %9 : tensor<8xi32>\n    %11 = tt.splat %arg7 : i32 -> tensor<8xi32>\n    %12 = arith.cmpi slt, %10, %11 : tensor<8xi32>\n    %13 = arith.muli %6, %arg5 : i32\n    %14 = arith.addi %13, %5 : i32\n    %15 = arith.muli %14, %arg7 : i32\n    %16 = tt.splat %15 : i32 -> tensor<8xi32>\n    %17 = arith.addi %10, %16 : tensor<8xi32>\n    %18 = tt.splat %arg0 : !tt.ptr<f32> -> tensor<8x!tt.ptr<f32>>\n    %19 = tt.addptr %18, %17 : tensor<8x!tt.ptr<f32>>, tensor<8xi32>\n    %20 = tt.load %19, %12, %cst_0 : tensor<8x!tt.ptr<f32>>\n    %21 = arith.muli %arg4, %c3_i32 : i32\n    %22 = scf.for %arg8 = %c0_i32 to %21 step %c1_i32 iter_args(%arg9 = %c0_i32) -> (i32)  : i32 {\n      %23 = arith.addi %arg9, %c1_i32 : i32\n      %24 = arith.remsi %arg9, %c3_i32 : i32\n      %25 = arith.divsi %arg9, %c3_i32 : i32\n      %26 = tt.splat %24 : i32 -> tensor<8xi32>\n      %27 = arith.addi %10, %26 : tensor<8xi32>\n      %28 = arith.cmpi sge, %27, %cst : tensor<8xi32>\n      %29 = tt.splat %arg6 : i32 -> tensor<8xi32>\n      %30 = arith.cmpi slt, %27, %29 : tensor<8xi32>\n      %31 = arith.andi %28, %30 : tensor<8xi1>\n      %32 = arith.andi %12, %31 : tensor<8xi1>\n      %33 = arith.muli %6, %arg4 : i32\n      %34 = arith.addi %33, %25 : i32\n      %35 = arith.muli %34, %arg6 : i32\n      %36 = tt.splat %35 : i32 -> tensor<8xi32>\n      %37 = arith.addi %27, %36 : tensor<8xi32>\n      %38 = tt.splat %arg1 : !tt.ptr<f32> -> tensor<8x!tt.ptr<f32>>\n      %39 = tt.addptr %38, %37 : tensor<8x!tt.ptr<f32>>, tensor<8xi32>\n      %40 = tt.load %39, %32, %cst_0 : tensor<8x!tt.ptr<f32>>\n      %41 = arith.mulf %20, %40 : tensor<8xf32>\n      %42 = \"tt.reduce\"(%41) <{axis = 0 : i32}> ({\n      ^bb0(%arg10: f32, %arg11: f32):\n        %52 = arith.addf %arg10, %arg11 : f32\n        tt.reduce.return %52 : f32\n      }) : (tensor<8xf32>) -> f32\n      %43 = tt.splat %42 : f32 -> tensor<1xf32>\n      %44 = arith.muli %5, %arg4 : i32\n      %45 = arith.addi %44, %25 : i32\n      %46 = arith.muli %45, %c3_i32 : i32\n      %47 = arith.addi %46, %24 : i32\n      %48 = tt.splat %47 : i32 -> tensor<1xi32>\n      %49 = tt.splat %arg2 : !tt.ptr<f32> -> tensor<1x!tt.ptr<f32>>\n      %50 = tt.addptr %49, %48 : tensor<1x!tt.ptr<f32>>, tensor<1xi32>\n      %51 = tt.atomic_rmw fadd, relaxed, gpu, %50, %43 {operandSegmentSizes = array<i32: 1, 1, 0>} : (tensor<1x!tt.ptr<f32>>, tensor<1xf32>) -> tensor<1xf32>\n      scf.yield %23 : i32\n    }\n    tt.return\n  }\n  tt.func public @entry_point(%arg0: !tt.ptr<f32> {tt.divisibility = 16 : i32}, %arg1: !tt.ptr<f32> {tt.divisibility = 16 : i32}, %arg2: !tt.ptr<f32> {tt.divisibility = 16 : i32}, %arg3: i32 {tt.divisibility = 16 : i32}, %arg4: i32 {tt.divisibility = 16 : i32}, %arg5: i32 {tt.divisibility = 16 : i32}, %arg6: i32 {tt.divisibility = 16 : i32}, %arg7: i32 {tt.divisibility = 16 : i32}) {\n    tt.call @_RINvCs49hCN5RWMlH_83conv1d_backward_dw_62d3c6ddcaada857e69a334fe23898d3865b4d2eb1e46735a4beaf0e65f04fd818conv1d_backward_dwNtNtNtNtB2_6triton4llvm6triton10LlvmTritonfKl3_Kl1_Kl0_Kl8_EB2_(%arg0, %arg1, %arg2, %arg3, %arg4, %arg5, %arg6, %arg7) {arg_attrs = [{}, {}, {}, {}, {}, {}, {}, {}], res_attrs = []} : (!tt.ptr<f32>, !tt.ptr<f32>, !tt.ptr<f32>, i32, i32, i32, i32, i32) -> ()\n    tt.return\n  }\n}"
