---
source: kernels/teeny-kernels/tests/test_optim_rmsprop.rs
expression: mlir.trim()
---
"module {\n  tt.func private @_RINvCskJQVHE9DTGQ_86rmsprop_momentum_step_bc176ae24ba2c1a1b3336a4a06c7c7e154a34f6fb8586902ecf596476742b31f21rmsprop_momentum_stepNtNtNtNtB2_6triton4llvm6triton10LlvmTritonKl80_EB2_(%arg0: !tt.ptr<f32> {tt.divisibility = 16 : i32}, %arg1: !tt.ptr<f32> {tt.divisibility = 16 : i32}, %arg2: !tt.ptr<f32> {tt.divisibility = 16 : i32}, %arg3: !tt.ptr<f32> {tt.divisibility = 16 : i32}, %arg4: i32 {tt.divisibility = 16 : i32}, %arg5: f32 {tt.divisibility = 16 : i32}, %arg6: f32 {tt.divisibility = 16 : i32}, %arg7: f32 {tt.divisibility = 16 : i32}, %arg8: f32 {tt.divisibility = 16 : i32}, %arg9: f32 {tt.divisibility = 16 : i32}) {\n    %cst = arith.constant 1.000000e+00 : f32\n    %c128_i32 = arith.constant 128 : i32\n    %0 = tt.get_program_id x : i32\n    %1 = arith.muli %0, %c128_i32 : i32\n    %2 = tt.make_range {end = 128 : i32, start = 0 : i32} : tensor<128xi32>\n    %3 = tt.splat %1 : i32 -> tensor<128xi32>\n    %4 = arith.addi %2, %3 : tensor<128xi32>\n    %5 = tt.splat %arg4 : i32 -> tensor<128xi32>\n    %6 = arith.cmpi slt, %4, %5 : tensor<128xi32>\n    %7 = tt.splat %arg0 : !tt.ptr<f32> -> tensor<128x!tt.ptr<f32>>\n    %8 = tt.addptr %7, %4 : tensor<128x!tt.ptr<f32>>, tensor<128xi32>\n    %9 = tt.load %8, %6 : tensor<128x!tt.ptr<f32>>\n    %10 = tt.splat %arg1 : !tt.ptr<f32> -> tensor<128x!tt.ptr<f32>>\n    %11 = tt.addptr %10, %4 : tensor<128x!tt.ptr<f32>>, tensor<128xi32>\n    %12 = tt.load %11, %6 : tensor<128x!tt.ptr<f32>>\n    %13 = tt.splat %arg2 : !tt.ptr<f32> -> tensor<128x!tt.ptr<f32>>\n    %14 = tt.addptr %13, %4 : tensor<128x!tt.ptr<f32>>, tensor<128xi32>\n    %15 = tt.load %14, %6 : tensor<128x!tt.ptr<f32>>\n    %16 = tt.splat %arg3 : !tt.ptr<f32> -> tensor<128x!tt.ptr<f32>>\n    %17 = tt.addptr %16, %4 : tensor<128x!tt.ptr<f32>>, tensor<128xi32>\n    %18 = tt.load %17, %6 : tensor<128x!tt.ptr<f32>>\n    %19 = tt.splat %arg5 : f32 -> tensor<128xf32>\n    %20 = tt.splat %arg6 : f32 -> tensor<128xf32>\n    %21 = arith.subf %cst, %arg6 : f32\n    %22 = tt.splat %21 : f32 -> tensor<128xf32>\n    %23 = tt.splat %arg7 : f32 -> tensor<128xf32>\n    %24 = tt.splat %arg8 : f32 -> tensor<128xf32>\n    %25 = tt.splat %arg9 : f32 -> tensor<128xf32>\n    %26 = arith.mulf %24, %9 : tensor<128xf32>\n    %27 = arith.addf %12, %26 : tensor<128xf32>\n    %28 = arith.mulf %20, %15 : tensor<128xf32>\n    %29 = arith.mulf %22, %27 : tensor<128xf32>\n    %30 = arith.mulf %29, %27 : tensor<128xf32>\n    %31 = arith.addf %28, %30 : tensor<128xf32>\n    %32 = arith.mulf %25, %18 : tensor<128xf32>\n    %33 = arith.addf %31, %23 : tensor<128xf32>\n    %34 = tt.precise_sqrt %33 : tensor<128xf32>\n    %35 = arith.divf %27, %34 : tensor<128xf32>\n    %36 = arith.addf %32, %35 : tensor<128xf32>\n    %37 = arith.mulf %19, %36 : tensor<128xf32>\n    %38 = arith.subf %9, %37 : tensor<128xf32>\n    %39 = tt.splat %arg0 : !tt.ptr<f32> -> tensor<128x!tt.ptr<f32>>\n    %40 = tt.addptr %39, %4 : tensor<128x!tt.ptr<f32>>, tensor<128xi32>\n    tt.store %40, %38, %6 {operandSegmentSizes = array<i32: 1, 1, 1>} : tensor<128x!tt.ptr<f32>>\n    %41 = tt.splat %arg2 : !tt.ptr<f32> -> tensor<128x!tt.ptr<f32>>\n    %42 = tt.addptr %41, %4 : tensor<128x!tt.ptr<f32>>, tensor<128xi32>\n    tt.store %42, %31, %6 {operandSegmentSizes = array<i32: 1, 1, 1>} : tensor<128x!tt.ptr<f32>>\n    %43 = tt.splat %arg3 : !tt.ptr<f32> -> tensor<128x!tt.ptr<f32>>\n    %44 = tt.addptr %43, %4 : tensor<128x!tt.ptr<f32>>, tensor<128xi32>\n    tt.store %44, %36, %6 {operandSegmentSizes = array<i32: 1, 1, 1>} : tensor<128x!tt.ptr<f32>>\n    tt.return\n  }\n  tt.func public @entry_point(%arg0: !tt.ptr<f32> {tt.divisibility = 16 : i32}, %arg1: !tt.ptr<f32> {tt.divisibility = 16 : i32}, %arg2: !tt.ptr<f32> {tt.divisibility = 16 : i32}, %arg3: !tt.ptr<f32> {tt.divisibility = 16 : i32}, %arg4: i32 {tt.divisibility = 16 : i32}, %arg5: f32 {tt.divisibility = 16 : i32}, %arg6: f32 {tt.divisibility = 16 : i32}, %arg7: f32 {tt.divisibility = 16 : i32}, %arg8: f32 {tt.divisibility = 16 : i32}, %arg9: f32 {tt.divisibility = 16 : i32}) {\n    tt.call @_RINvCskJQVHE9DTGQ_86rmsprop_momentum_step_bc176ae24ba2c1a1b3336a4a06c7c7e154a34f6fb8586902ecf596476742b31f21rmsprop_momentum_stepNtNtNtNtB2_6triton4llvm6triton10LlvmTritonKl80_EB2_(%arg0, %arg1, %arg2, %arg3, %arg4, %arg5, %arg6, %arg7, %arg8, %arg9) {arg_attrs = [{}, {}, {}, {}, {}, {}, {}, {}, {}, {}], res_attrs = []} : (!tt.ptr<f32>, !tt.ptr<f32>, !tt.ptr<f32>, !tt.ptr<f32>, i32, f32, f32, f32, f32, f32) -> ()\n    tt.return\n  }\n}"
