---
source: kernels/teeny-kernels/tests/test_optim_asgd.rs
expression: mlir.trim()
---
"module {\n  tt.func private @_RINvCsivfzzrcI39u_74asgd_step_ae09ee5a32df4783748d250694c97e82b89cd3311ab6bf3e9f973ee860c2e7069asgd_stepNtNtNtNtB2_6triton4llvm6triton10LlvmTritonKl80_EB2_(%arg0: !tt.ptr<f32> {tt.divisibility = 16 : i32}, %arg1: !tt.ptr<f32> {tt.divisibility = 16 : i32}, %arg2: !tt.ptr<f32> {tt.divisibility = 16 : i32}, %arg3: i32 {tt.divisibility = 16 : i32}, %arg4: f32 {tt.divisibility = 16 : i32}, %arg5: f32 {tt.divisibility = 16 : i32}, %arg6: f32 {tt.divisibility = 16 : i32}) {\n    %c128_i32 = arith.constant 128 : i32\n    %0 = tt.get_program_id x : i32\n    %1 = arith.muli %0, %c128_i32 : i32\n    %2 = tt.make_range {end = 128 : i32, start = 0 : i32} : tensor<128xi32>\n    %3 = tt.splat %1 : i32 -> tensor<128xi32>\n    %4 = arith.addi %2, %3 : tensor<128xi32>\n    %5 = tt.splat %arg3 : i32 -> tensor<128xi32>\n    %6 = arith.cmpi slt, %4, %5 : tensor<128xi32>\n    %7 = tt.splat %arg0 : !tt.ptr<f32> -> tensor<128x!tt.ptr<f32>>\n    %8 = tt.addptr %7, %4 : tensor<128x!tt.ptr<f32>>, tensor<128xi32>\n    %9 = tt.load %8, %6 : tensor<128x!tt.ptr<f32>>\n    %10 = tt.splat %arg1 : !tt.ptr<f32> -> tensor<128x!tt.ptr<f32>>\n    %11 = tt.addptr %10, %4 : tensor<128x!tt.ptr<f32>>, tensor<128xi32>\n    %12 = tt.load %11, %6 : tensor<128x!tt.ptr<f32>>\n    %13 = tt.splat %arg2 : !tt.ptr<f32> -> tensor<128x!tt.ptr<f32>>\n    %14 = tt.addptr %13, %4 : tensor<128x!tt.ptr<f32>>, tensor<128xi32>\n    %15 = tt.load %14, %6 : tensor<128x!tt.ptr<f32>>\n    %16 = tt.splat %arg4 : f32 -> tensor<128xf32>\n    %17 = tt.splat %arg5 : f32 -> tensor<128xf32>\n    %18 = tt.splat %arg6 : f32 -> tensor<128xf32>\n    %19 = arith.mulf %17, %9 : tensor<128xf32>\n    %20 = arith.addf %12, %19 : tensor<128xf32>\n    %21 = arith.mulf %16, %20 : tensor<128xf32>\n    %22 = arith.subf %9, %21 : tensor<128xf32>\n    %23 = arith.subf %22, %15 : tensor<128xf32>\n    %24 = arith.divf %23, %18 : tensor<128xf32>\n    %25 = arith.addf %15, %24 : tensor<128xf32>\n    %26 = tt.splat %arg0 : !tt.ptr<f32> -> tensor<128x!tt.ptr<f32>>\n    %27 = tt.addptr %26, %4 : tensor<128x!tt.ptr<f32>>, tensor<128xi32>\n    tt.store %27, %22, %6 {operandSegmentSizes = array<i32: 1, 1, 1>} : tensor<128x!tt.ptr<f32>>\n    %28 = tt.splat %arg2 : !tt.ptr<f32> -> tensor<128x!tt.ptr<f32>>\n    %29 = tt.addptr %28, %4 : tensor<128x!tt.ptr<f32>>, tensor<128xi32>\n    tt.store %29, %25, %6 {operandSegmentSizes = array<i32: 1, 1, 1>} : tensor<128x!tt.ptr<f32>>\n    tt.return\n  }\n  tt.func public @entry_point(%arg0: !tt.ptr<f32> {tt.divisibility = 16 : i32}, %arg1: !tt.ptr<f32> {tt.divisibility = 16 : i32}, %arg2: !tt.ptr<f32> {tt.divisibility = 16 : i32}, %arg3: i32 {tt.divisibility = 16 : i32}, %arg4: f32 {tt.divisibility = 16 : i32}, %arg5: f32 {tt.divisibility = 16 : i32}, %arg6: f32 {tt.divisibility = 16 : i32}) {\n    tt.call @_RINvCsivfzzrcI39u_74asgd_step_ae09ee5a32df4783748d250694c97e82b89cd3311ab6bf3e9f973ee860c2e7069asgd_stepNtNtNtNtB2_6triton4llvm6triton10LlvmTritonKl80_EB2_(%arg0, %arg1, %arg2, %arg3, %arg4, %arg5, %arg6) {arg_attrs = [{}, {}, {}, {}, {}, {}, {}], res_attrs = []} : (!tt.ptr<f32>, !tt.ptr<f32>, !tt.ptr<f32>, i32, f32, f32, f32) -> ()\n    tt.return\n  }\n}"
