---
source: kernels/teeny-kernels/tests/test_lppool1d.rs
expression: mlir.trim()
---
"module {\n  tt.func private @_RINvCsiwuVkQk9wIO_82lppool1d_backward_c9a26a53fc87d82ef38b7dd1b605f98abfe2f28064873875db84745f0245af7817lppool1d_backwardNtNtNtNtB2_6triton4llvm6triton10LlvmTritonfKl4_KB2D_KB2D_EB2_(%arg0: !tt.ptr<f32> {tt.divisibility = 16 : i32}, %arg1: !tt.ptr<f32> {tt.divisibility = 16 : i32}, %arg2: !tt.ptr<f32> {tt.divisibility = 16 : i32}, %arg3: !tt.ptr<f32> {tt.divisibility = 16 : i32}, %arg4: i32 {tt.divisibility = 16 : i32}, %arg5: i32 {tt.divisibility = 16 : i32}, %arg6: i32 {tt.divisibility = 16 : i32}, %arg7: i32 {tt.divisibility = 16 : i32}, %arg8: f32 {tt.divisibility = 16 : i32}) {\n    %cst = arith.constant dense<1.000000e+00> : tensor<4xf32>\n    %cst_0 = arith.constant dense<4> : tensor<4xi32>\n    %cst_1 = arith.constant dense<0.000000e+00> : tensor<4xf32>\n    %cst_2 = arith.constant dense<9.99999996E-13> : tensor<4xf32>\n    %c3_i32 = arith.constant 3 : i32\n    %cst_3 = arith.constant 1.000000e+00 : f32\n    %c0_i32 = arith.constant 0 : i32\n    %c1_i32 = arith.constant 1 : i32\n    %c4_i32 = arith.constant 4 : i32\n    %0 = tt.get_program_id x : i32\n    %1 = arith.addi %arg7, %c3_i32 : i32\n    %2 = arith.divsi %1, %c4_i32 : i32\n    %3 = arith.remsi %0, %2 : i32\n    %4 = arith.divsi %0, %2 : i32\n    %5 = arith.remsi %4, %arg5 : i32\n    %6 = arith.divsi %4, %arg5 : i32\n    %7 = arith.muli %3, %c4_i32 : i32\n    %8 = tt.make_range {end = 4 : i32, start = 0 : i32} : tensor<4xi32>\n    %9 = tt.splat %7 : i32 -> tensor<4xi32>\n    %10 = arith.addi %8, %9 : tensor<4xi32>\n    %11 = tt.splat %arg7 : i32 -> tensor<4xi32>\n    %12 = arith.cmpi slt, %10, %11 : tensor<4xi32>\n    %13 = arith.muli %6, %arg5 : i32\n    %14 = arith.addi %13, %5 : i32\n    %15 = arith.muli %14, %arg6 : i32\n    %16 = arith.muli %14, %arg7 : i32\n    %17 = arith.subf %arg8, %cst_3 : f32\n    %18 = tt.splat %17 : f32 -> tensor<4xf32>\n    %19 = tt.splat %16 : i32 -> tensor<4xi32>\n    %20 = arith.addi %10, %19 : tensor<4xi32>\n    %21 = tt.splat %arg0 : !tt.ptr<f32> -> tensor<4x!tt.ptr<f32>>\n    %22 = tt.addptr %21, %20 : tensor<4x!tt.ptr<f32>>, tensor<4xi32>\n    %23 = tt.load %22, %12, %cst_1 : tensor<4x!tt.ptr<f32>>\n    %24 = tt.splat %arg2 : !tt.ptr<f32> -> tensor<4x!tt.ptr<f32>>\n    %25 = tt.addptr %24, %20 : tensor<4x!tt.ptr<f32>>, tensor<4xi32>\n    %26 = tt.load %25, %12, %cst_1 : tensor<4x!tt.ptr<f32>>\n    %27 = arith.maximumf %26, %cst_2 : tensor<4xf32>\n    %28 = scf.for %arg9 = %c0_i32 to %c4_i32 step %c1_i32 iter_args(%arg10 = %c0_i32) -> (i32)  : i32 {\n      %29 = arith.addi %arg10, %c1_i32 : i32\n      %30 = arith.muli %10, %cst_0 : tensor<4xi32>\n      %31 = tt.splat %arg10 : i32 -> tensor<4xi32>\n      %32 = arith.addi %30, %31 : tensor<4xi32>\n      %33 = tt.splat %15 : i32 -> tensor<4xi32>\n      %34 = arith.addi %32, %33 : tensor<4xi32>\n      %35 = tt.splat %arg1 : !tt.ptr<f32> -> tensor<4x!tt.ptr<f32>>\n      %36 = tt.addptr %35, %34 : tensor<4x!tt.ptr<f32>>, tensor<4xi32>\n      %37 = tt.load %36, %12, %cst_1 : tensor<4x!tt.ptr<f32>>\n      %38 = math.absf %37 : tensor<4xf32>\n      %39 = arith.maximumf %38, %cst_2 : tensor<4xf32>\n      %40 = arith.cmpf ogt, %37, %cst_1 : tensor<4xf32>\n      %41 = arith.select %40, %cst, %cst_1 : tensor<4xi1>, tensor<4xf32>\n      %42 = arith.cmpf ogt, %cst_1, %37 : tensor<4xf32>\n      %43 = arith.select %42, %cst, %cst_1 : tensor<4xi1>, tensor<4xf32>\n      %44 = arith.subf %41, %43 : tensor<4xf32>\n      %45 = arith.divf %39, %27 : tensor<4xf32>\n      %46 = arith.maximumf %45, %cst_2 : tensor<4xf32>\n      %47 = math.log %46 : tensor<4xf32>\n      %48 = arith.mulf %18, %47 : tensor<4xf32>\n      %49 = math.exp %48 : tensor<4xf32>\n      %50 = arith.mulf %23, %44 : tensor<4xf32>\n      %51 = arith.mulf %50, %49 : tensor<4xf32>\n      %52 = tt.splat %arg3 : !tt.ptr<f32> -> tensor<4x!tt.ptr<f32>>\n      %53 = tt.addptr %52, %34 : tensor<4x!tt.ptr<f32>>, tensor<4xi32>\n      %54 = tt.atomic_rmw fadd, relaxed, gpu, %53, %51, %12 {operandSegmentSizes = array<i32: 1, 1, 1>} : (tensor<4x!tt.ptr<f32>>, tensor<4xf32>, tensor<4xi1>) -> tensor<4xf32>\n      scf.yield %29 : i32\n    }\n    tt.return\n  }\n  tt.func public @entry_point(%arg0: !tt.ptr<f32> {tt.divisibility = 16 : i32}, %arg1: !tt.ptr<f32> {tt.divisibility = 16 : i32}, %arg2: !tt.ptr<f32> {tt.divisibility = 16 : i32}, %arg3: !tt.ptr<f32> {tt.divisibility = 16 : i32}, %arg4: i32 {tt.divisibility = 16 : i32}, %arg5: i32 {tt.divisibility = 16 : i32}, %arg6: i32 {tt.divisibility = 16 : i32}, %arg7: i32 {tt.divisibility = 16 : i32}, %arg8: f32 {tt.divisibility = 16 : i32}) {\n    tt.call @_RINvCsiwuVkQk9wIO_82lppool1d_backward_c9a26a53fc87d82ef38b7dd1b605f98abfe2f28064873875db84745f0245af7817lppool1d_backwardNtNtNtNtB2_6triton4llvm6triton10LlvmTritonfKl4_KB2D_KB2D_EB2_(%arg0, %arg1, %arg2, %arg3, %arg4, %arg5, %arg6, %arg7, %arg8) {arg_attrs = [{}, {}, {}, {}, {}, {}, {}, {}, {}], res_attrs = []} : (!tt.ptr<f32>, !tt.ptr<f32>, !tt.ptr<f32>, !tt.ptr<f32>, i32, i32, i32, i32, f32) -> ()\n    tt.return\n  }\n}"
