---
source: kernels/teeny-kernels/tests/test_loss_bce.rs
expression: mlir.trim()
---
"module {\n  tt.func private @_RINvCs8cgk3dTAXLQ_93bce_with_logits_loss_forward_50c368370106360cc52686692bcea6ea0a0b53f9db0ac608432eb364d4664e0a28bce_with_logits_loss_forwardNtNtNtNtB2_6triton4llvm6triton10LlvmTritonKl400_EB2_(%arg0: !tt.ptr<f32> {tt.divisibility = 16 : i32}, %arg1: !tt.ptr<f32> {tt.divisibility = 16 : i32}, %arg2: !tt.ptr<f32> {tt.divisibility = 16 : i32}, %arg3: i32 {tt.divisibility = 16 : i32}) {\n    %cst = arith.constant dense<-1.000000e+00> : tensor<1024xf32>\n    %cst_0 = arith.constant dense<1.000000e+00> : tensor<1024xf32>\n    %cst_1 = arith.constant dense<0.000000e+00> : tensor<1024xf32>\n    %c1024_i32 = arith.constant 1024 : i32\n    %0 = tt.get_program_id x : i32\n    %1 = arith.muli %0, %c1024_i32 : i32\n    %2 = tt.make_range {end = 1024 : i32, start = 0 : i32} : tensor<1024xi32>\n    %3 = tt.splat %1 : i32 -> tensor<1024xi32>\n    %4 = arith.addi %2, %3 : tensor<1024xi32>\n    %5 = tt.splat %arg3 : i32 -> tensor<1024xi32>\n    %6 = arith.cmpi slt, %4, %5 : tensor<1024xi32>\n    %7 = tt.splat %arg0 : !tt.ptr<f32> -> tensor<1024x!tt.ptr<f32>>\n    %8 = tt.addptr %7, %4 : tensor<1024x!tt.ptr<f32>>, tensor<1024xi32>\n    %9 = tt.load %8, %6, %cst_1 : tensor<1024x!tt.ptr<f32>>\n    %10 = tt.splat %arg1 : !tt.ptr<f32> -> tensor<1024x!tt.ptr<f32>>\n    %11 = tt.addptr %10, %4 : tensor<1024x!tt.ptr<f32>>, tensor<1024xi32>\n    %12 = tt.load %11, %6, %cst_1 : tensor<1024x!tt.ptr<f32>>\n    %13 = arith.maximumf %9, %cst_1 : tensor<1024xf32>\n    %14 = math.absf %9 : tensor<1024xf32>\n    %15 = arith.mulf %14, %cst : tensor<1024xf32>\n    %16 = arith.mulf %9, %12 : tensor<1024xf32>\n    %17 = arith.subf %13, %16 : tensor<1024xf32>\n    %18 = math.exp %15 : tensor<1024xf32>\n    %19 = arith.addf %18, %cst_0 : tensor<1024xf32>\n    %20 = math.log %19 : tensor<1024xf32>\n    %21 = arith.addf %17, %20 : tensor<1024xf32>\n    %22 = tt.splat %arg2 : !tt.ptr<f32> -> tensor<1024x!tt.ptr<f32>>\n    %23 = tt.addptr %22, %4 : tensor<1024x!tt.ptr<f32>>, tensor<1024xi32>\n    tt.store %23, %21, %6 {operandSegmentSizes = array<i32: 1, 1, 1>} : tensor<1024x!tt.ptr<f32>>\n    tt.return\n  }\n  tt.func public @entry_point(%arg0: !tt.ptr<f32> {tt.divisibility = 16 : i32}, %arg1: !tt.ptr<f32> {tt.divisibility = 16 : i32}, %arg2: !tt.ptr<f32> {tt.divisibility = 16 : i32}, %arg3: i32 {tt.divisibility = 16 : i32}) {\n    tt.call @_RINvCs8cgk3dTAXLQ_93bce_with_logits_loss_forward_50c368370106360cc52686692bcea6ea0a0b53f9db0ac608432eb364d4664e0a28bce_with_logits_loss_forwardNtNtNtNtB2_6triton4llvm6triton10LlvmTritonKl400_EB2_(%arg0, %arg1, %arg2, %arg3) {arg_attrs = [{}, {}, {}, {}], res_attrs = []} : (!tt.ptr<f32>, !tt.ptr<f32>, !tt.ptr<f32>, i32) -> ()\n    tt.return\n  }\n}"
