---
source: kernels/teeny-kernels/tests/test_lppool2d.rs
expression: mlir.trim()
---
"module {\n  tt.func private @_RINvCs1BEHMnjk6To_82lppool2d_backward_854ee8a435776fe0eefba9714188b47fee8005c631fa194f2604f8e58ec628fe17lppool2d_backwardNtNtNtNtB2_6triton4llvm6triton10LlvmTritonfKl2_KB2D_KB2D_KB2D_Kl4_EB2_(%arg0: !tt.ptr<f32> {tt.divisibility = 16 : i32}, %arg1: !tt.ptr<f32> {tt.divisibility = 16 : i32}, %arg2: !tt.ptr<f32> {tt.divisibility = 16 : i32}, %arg3: !tt.ptr<f32> {tt.divisibility = 16 : i32}, %arg4: i32 {tt.divisibility = 16 : i32}, %arg5: i32 {tt.divisibility = 16 : i32}, %arg6: i32 {tt.divisibility = 16 : i32}, %arg7: i32 {tt.divisibility = 16 : i32}, %arg8: i32 {tt.divisibility = 16 : i32}, %arg9: i32 {tt.divisibility = 16 : i32}, %arg10: f32 {tt.divisibility = 16 : i32}) {\n    %cst = arith.constant dense<1.000000e+00> : tensor<4xf32>\n    %cst_0 = arith.constant dense<2> : tensor<4xi32>\n    %cst_1 = arith.constant dense<0.000000e+00> : tensor<4xf32>\n    %cst_2 = arith.constant dense<9.99999996E-13> : tensor<4xf32>\n    %c3_i32 = arith.constant 3 : i32\n    %c2_i32 = arith.constant 2 : i32\n    %cst_3 = arith.constant 1.000000e+00 : f32\n    %c0_i32 = arith.constant 0 : i32\n    %c1_i32 = arith.constant 1 : i32\n    %c4_i32 = arith.constant 4 : i32\n    %0 = tt.get_program_id x : i32\n    %1 = arith.addi %arg9, %c3_i32 : i32\n    %2 = arith.divsi %1, %c4_i32 : i32\n    %3 = arith.remsi %0, %2 : i32\n    %4 = arith.divsi %0, %2 : i32\n    %5 = arith.remsi %4, %arg8 : i32\n    %6 = arith.divsi %4, %arg8 : i32\n    %7 = arith.remsi %6, %arg5 : i32\n    %8 = arith.divsi %6, %arg5 : i32\n    %9 = arith.muli %3, %c4_i32 : i32\n    %10 = tt.make_range {end = 4 : i32, start = 0 : i32} : tensor<4xi32>\n    %11 = tt.splat %9 : i32 -> tensor<4xi32>\n    %12 = arith.addi %10, %11 : tensor<4xi32>\n    %13 = tt.splat %arg9 : i32 -> tensor<4xi32>\n    %14 = arith.cmpi slt, %12, %13 : tensor<4xi32>\n    %15 = arith.muli %8, %arg5 : i32\n    %16 = arith.addi %15, %7 : i32\n    %17 = arith.muli %16, %arg6 : i32\n    %18 = arith.muli %17, %arg7 : i32\n    %19 = arith.muli %16, %arg8 : i32\n    %20 = arith.muli %19, %arg9 : i32\n    %21 = arith.subf %arg10, %cst_3 : f32\n    %22 = tt.splat %21 : f32 -> tensor<4xf32>\n    %23 = arith.muli %5, %arg9 : i32\n    %24 = arith.addi %20, %23 : i32\n    %25 = tt.splat %24 : i32 -> tensor<4xi32>\n    %26 = arith.addi %12, %25 : tensor<4xi32>\n    %27 = tt.splat %arg0 : !tt.ptr<f32> -> tensor<4x!tt.ptr<f32>>\n    %28 = tt.addptr %27, %26 : tensor<4x!tt.ptr<f32>>, tensor<4xi32>\n    %29 = tt.load %28, %14, %cst_1 : tensor<4x!tt.ptr<f32>>\n    %30 = tt.splat %arg2 : !tt.ptr<f32> -> tensor<4x!tt.ptr<f32>>\n    %31 = tt.addptr %30, %26 : tensor<4x!tt.ptr<f32>>, tensor<4xi32>\n    %32 = tt.load %31, %14, %cst_1 : tensor<4x!tt.ptr<f32>>\n    %33 = arith.maximumf %32, %cst_2 : tensor<4xf32>\n    %34 = scf.for %arg11 = %c0_i32 to %c4_i32 step %c1_i32 iter_args(%arg12 = %c0_i32) -> (i32)  : i32 {\n      %35 = arith.addi %arg12, %c1_i32 : i32\n      %36 = arith.remsi %arg12, %c2_i32 : i32\n      %37 = arith.divsi %arg12, %c2_i32 : i32\n      %38 = arith.muli %5, %c2_i32 : i32\n      %39 = arith.addi %38, %37 : i32\n      %40 = arith.muli %12, %cst_0 : tensor<4xi32>\n      %41 = tt.splat %36 : i32 -> tensor<4xi32>\n      %42 = arith.addi %40, %41 : tensor<4xi32>\n      %43 = arith.muli %39, %arg7 : i32\n      %44 = arith.addi %18, %43 : i32\n      %45 = tt.splat %44 : i32 -> tensor<4xi32>\n      %46 = arith.addi %42, %45 : tensor<4xi32>\n      %47 = tt.splat %arg1 : !tt.ptr<f32> -> tensor<4x!tt.ptr<f32>>\n      %48 = tt.addptr %47, %46 : tensor<4x!tt.ptr<f32>>, tensor<4xi32>\n      %49 = tt.load %48, %14, %cst_1 : tensor<4x!tt.ptr<f32>>\n      %50 = math.absf %49 : tensor<4xf32>\n      %51 = arith.maximumf %50, %cst_2 : tensor<4xf32>\n      %52 = arith.cmpf ogt, %49, %cst_1 : tensor<4xf32>\n      %53 = arith.select %52, %cst, %cst_1 : tensor<4xi1>, tensor<4xf32>\n      %54 = arith.cmpf ogt, %cst_1, %49 : tensor<4xf32>\n      %55 = arith.select %54, %cst, %cst_1 : tensor<4xi1>, tensor<4xf32>\n      %56 = arith.subf %53, %55 : tensor<4xf32>\n      %57 = arith.divf %51, %33 : tensor<4xf32>\n      %58 = arith.maximumf %57, %cst_2 : tensor<4xf32>\n      %59 = math.log %58 : tensor<4xf32>\n      %60 = arith.mulf %22, %59 : tensor<4xf32>\n      %61 = math.exp %60 : tensor<4xf32>\n      %62 = arith.mulf %29, %56 : tensor<4xf32>\n      %63 = arith.mulf %62, %61 : tensor<4xf32>\n      %64 = tt.splat %arg3 : !tt.ptr<f32> -> tensor<4x!tt.ptr<f32>>\n      %65 = tt.addptr %64, %46 : tensor<4x!tt.ptr<f32>>, tensor<4xi32>\n      %66 = tt.atomic_rmw fadd, relaxed, gpu, %65, %63, %14 {operandSegmentSizes = array<i32: 1, 1, 1>} : (tensor<4x!tt.ptr<f32>>, tensor<4xf32>, tensor<4xi1>) -> tensor<4xf32>\n      scf.yield %35 : i32\n    }\n    tt.return\n  }\n  tt.func public @entry_point(%arg0: !tt.ptr<f32> {tt.divisibility = 16 : i32}, %arg1: !tt.ptr<f32> {tt.divisibility = 16 : i32}, %arg2: !tt.ptr<f32> {tt.divisibility = 16 : i32}, %arg3: !tt.ptr<f32> {tt.divisibility = 16 : i32}, %arg4: i32 {tt.divisibility = 16 : i32}, %arg5: i32 {tt.divisibility = 16 : i32}, %arg6: i32 {tt.divisibility = 16 : i32}, %arg7: i32 {tt.divisibility = 16 : i32}, %arg8: i32 {tt.divisibility = 16 : i32}, %arg9: i32 {tt.divisibility = 16 : i32}, %arg10: f32 {tt.divisibility = 16 : i32}) {\n    tt.call @_RINvCs1BEHMnjk6To_82lppool2d_backward_854ee8a435776fe0eefba9714188b47fee8005c631fa194f2604f8e58ec628fe17lppool2d_backwardNtNtNtNtB2_6triton4llvm6triton10LlvmTritonfKl2_KB2D_KB2D_KB2D_Kl4_EB2_(%arg0, %arg1, %arg2, %arg3, %arg4, %arg5, %arg6, %arg7, %arg8, %arg9, %arg10) {arg_attrs = [{}, {}, {}, {}, {}, {}, {}, {}, {}, {}, {}], res_attrs = []} : (!tt.ptr<f32>, !tt.ptr<f32>, !tt.ptr<f32>, !tt.ptr<f32>, i32, i32, i32, i32, i32, i32, f32) -> ()\n    tt.return\n  }\n}"
