---
source: kernels/teeny-kernels/tests/test_flash_attn2.rs
expression: mlir.trim()
---
"module {\n  tt.func private @_RINvCs80eHfgUqP5y_94flash_attention2_backward_dkv_fc42d0f735948c2ffb5eb4e7e7757569dc5949cbc0a3057f6bd2fb4c3f4ec28d29flash_attention2_backward_dkvNtNtNtNtB2_6triton4llvm6triton10LlvmTritonKl40_EB2_(%arg0: !tt.ptr<f32> {tt.divisibility = 16 : i32}, %arg1: !tt.ptr<f32> {tt.divisibility = 16 : i32}, %arg2: !tt.ptr<f32> {tt.divisibility = 16 : i32}, %arg3: !tt.ptr<f32> {tt.divisibility = 16 : i32}, %arg4: !tt.ptr<f32> {tt.divisibility = 16 : i32}, %arg5: !tt.ptr<f32> {tt.divisibility = 16 : i32}, %arg6: !tt.ptr<f32> {tt.divisibility = 16 : i32}, %arg7: !tt.ptr<f32> {tt.divisibility = 16 : i32}, %arg8: i32 {tt.divisibility = 16 : i32}, %arg9: i32 {tt.divisibility = 16 : i32}, %arg10: f32 {tt.divisibility = 16 : i32}) {\n    %cst = arith.constant dense<0.000000e+00> : tensor<64xf32>\n    %c1_i32 = arith.constant 1 : i32\n    %c0_i32 = arith.constant 0 : i32\n    %c64_i32 = arith.constant 64 : i32\n    %0 = tt.get_program_id x : i32\n    %1 = tt.get_program_id y : i32\n    %2 = arith.muli %1, %arg8 : i32\n    %3 = arith.muli %2, %c64_i32 : i32\n    %4 = arith.muli %1, %arg9 : i32\n    %5 = arith.muli %4, %c64_i32 : i32\n    %6 = arith.muli %0, %c64_i32 : i32\n    %7 = arith.addi %5, %6 : i32\n    %8 = tt.make_range {end = 64 : i32, start = 0 : i32} : tensor<64xi32>\n    %9 = tt.splat %arg10 : f32 -> tensor<64xf32>\n    %10 = tt.splat %7 : i32 -> tensor<64xi32>\n    %11 = arith.addi %8, %10 : tensor<64xi32>\n    %12 = tt.splat %arg1 : !tt.ptr<f32> -> tensor<64x!tt.ptr<f32>>\n    %13 = tt.addptr %12, %11 : tensor<64x!tt.ptr<f32>>, tensor<64xi32>\n    %14 = tt.load %13 : tensor<64x!tt.ptr<f32>>\n    %15 = tt.splat %7 : i32 -> tensor<64xi32>\n    %16 = arith.addi %8, %15 : tensor<64xi32>\n    %17 = tt.splat %arg2 : !tt.ptr<f32> -> tensor<64x!tt.ptr<f32>>\n    %18 = tt.addptr %17, %16 : tensor<64x!tt.ptr<f32>>, tensor<64xi32>\n    %19 = tt.load %18 : tensor<64x!tt.ptr<f32>>\n    %20:3 = scf.for %arg11 = %c0_i32 to %arg8 step %c1_i32 iter_args(%arg12 = %c0_i32, %arg13 = %cst, %arg14 = %cst) -> (i32, tensor<64xf32>, tensor<64xf32>)  : i32 {\n      %29 = arith.addi %arg12, %c1_i32 : i32\n      %30 = arith.muli %arg12, %c64_i32 : i32\n      %31 = arith.addi %3, %30 : i32\n      %32 = arith.addi %2, %arg12 : i32\n      %33 = tt.splat %31 : i32 -> tensor<64xi32>\n      %34 = arith.addi %8, %33 : tensor<64xi32>\n      %35 = tt.splat %arg0 : !tt.ptr<f32> -> tensor<64x!tt.ptr<f32>>\n      %36 = tt.addptr %35, %34 : tensor<64x!tt.ptr<f32>>, tensor<64xi32>\n      %37 = tt.load %36 : tensor<64x!tt.ptr<f32>>\n      %38 = tt.splat %31 : i32 -> tensor<64xi32>\n      %39 = arith.addi %8, %38 : tensor<64xi32>\n      %40 = tt.splat %arg3 : !tt.ptr<f32> -> tensor<64x!tt.ptr<f32>>\n      %41 = tt.addptr %40, %39 : tensor<64x!tt.ptr<f32>>, tensor<64xi32>\n      %42 = tt.load %41 : tensor<64x!tt.ptr<f32>>\n      %43 = tt.splat %31 : i32 -> tensor<64xi32>\n      %44 = arith.addi %8, %43 : tensor<64xi32>\n      %45 = tt.splat %arg4 : !tt.ptr<f32> -> tensor<64x!tt.ptr<f32>>\n      %46 = tt.addptr %45, %44 : tensor<64x!tt.ptr<f32>>, tensor<64xi32>\n      %47 = tt.load %46 : tensor<64x!tt.ptr<f32>>\n      %48 = tt.splat %32 : i32 -> tensor<1xi32>\n      %49 = tt.splat %arg5 : !tt.ptr<f32> -> tensor<1x!tt.ptr<f32>>\n      %50 = tt.addptr %49, %48 : tensor<1x!tt.ptr<f32>>, tensor<1xi32>\n      %51 = tt.load %50 : tensor<1x!tt.ptr<f32>>\n      %52 = \"tt.reduce\"(%51) <{axis = 0 : i32}> ({\n      ^bb0(%arg15: f32, %arg16: f32):\n        %72 = arith.addf %arg15, %arg16 : f32\n        tt.reduce.return %72 : f32\n      }) : (tensor<1xf32>) -> f32\n      %53 = arith.mulf %42, %47 : tensor<64xf32>\n      %54 = \"tt.reduce\"(%53) <{axis = 0 : i32}> ({\n      ^bb0(%arg15: f32, %arg16: f32):\n        %72 = arith.addf %arg15, %arg16 : f32\n        tt.reduce.return %72 : f32\n      }) : (tensor<64xf32>) -> f32\n      %55 = arith.mulf %37, %14 : tensor<64xf32>\n      %56 = \"tt.reduce\"(%55) <{axis = 0 : i32}> ({\n      ^bb0(%arg15: f32, %arg16: f32):\n        %72 = arith.addf %arg15, %arg16 : f32\n        tt.reduce.return %72 : f32\n      }) : (tensor<64xf32>) -> f32\n      %57 = tt.splat %56 : f32 -> tensor<64xf32>\n      %58 = arith.mulf %57, %9 : tensor<64xf32>\n      %59 = tt.splat %52 : f32 -> tensor<64xf32>\n      %60 = arith.subf %58, %59 : tensor<64xf32>\n      %61 = math.exp %60 : tensor<64xf32>\n      %62 = arith.mulf %61, %47 : tensor<64xf32>\n      %63 = arith.addf %arg13, %62 : tensor<64xf32>\n      %64 = arith.mulf %47, %19 : tensor<64xf32>\n      %65 = \"tt.reduce\"(%64) <{axis = 0 : i32}> ({\n      ^bb0(%arg15: f32, %arg16: f32):\n        %72 = arith.addf %arg15, %arg16 : f32\n        tt.reduce.return %72 : f32\n      }) : (tensor<64xf32>) -> f32\n      %66 = arith.subf %65, %54 : f32\n      %67 = tt.splat %66 : f32 -> tensor<64xf32>\n      %68 = arith.mulf %61, %67 : tensor<64xf32>\n      %69 = arith.mulf %68, %37 : tensor<64xf32>\n      %70 = arith.mulf %69, %9 : tensor<64xf32>\n      %71 = arith.addf %arg14, %70 : tensor<64xf32>\n      scf.yield %29, %63, %71 : i32, tensor<64xf32>, tensor<64xf32>\n    }\n    %21 = tt.splat %7 : i32 -> tensor<64xi32>\n    %22 = arith.addi %8, %21 : tensor<64xi32>\n    %23 = tt.splat %arg6 : !tt.ptr<f32> -> tensor<64x!tt.ptr<f32>>\n    %24 = tt.addptr %23, %22 : tensor<64x!tt.ptr<f32>>, tensor<64xi32>\n    tt.store %24, %20#2 {operandSegmentSizes = array<i32: 1, 1, 0>} : tensor<64x!tt.ptr<f32>>\n    %25 = tt.splat %7 : i32 -> tensor<64xi32>\n    %26 = arith.addi %8, %25 : tensor<64xi32>\n    %27 = tt.splat %arg7 : !tt.ptr<f32> -> tensor<64x!tt.ptr<f32>>\n    %28 = tt.addptr %27, %26 : tensor<64x!tt.ptr<f32>>, tensor<64xi32>\n    tt.store %28, %20#1 {operandSegmentSizes = array<i32: 1, 1, 0>} : tensor<64x!tt.ptr<f32>>\n    tt.return\n  }\n  tt.func public @entry_point(%arg0: !tt.ptr<f32> {tt.divisibility = 16 : i32}, %arg1: !tt.ptr<f32> {tt.divisibility = 16 : i32}, %arg2: !tt.ptr<f32> {tt.divisibility = 16 : i32}, %arg3: !tt.ptr<f32> {tt.divisibility = 16 : i32}, %arg4: !tt.ptr<f32> {tt.divisibility = 16 : i32}, %arg5: !tt.ptr<f32> {tt.divisibility = 16 : i32}, %arg6: !tt.ptr<f32> {tt.divisibility = 16 : i32}, %arg7: !tt.ptr<f32> {tt.divisibility = 16 : i32}, %arg8: i32 {tt.divisibility = 16 : i32}, %arg9: i32 {tt.divisibility = 16 : i32}, %arg10: f32 {tt.divisibility = 16 : i32}) {\n    tt.call @_RINvCs80eHfgUqP5y_94flash_attention2_backward_dkv_fc42d0f735948c2ffb5eb4e7e7757569dc5949cbc0a3057f6bd2fb4c3f4ec28d29flash_attention2_backward_dkvNtNtNtNtB2_6triton4llvm6triton10LlvmTritonKl40_EB2_(%arg0, %arg1, %arg2, %arg3, %arg4, %arg5, %arg6, %arg7, %arg8, %arg9, %arg10) {arg_attrs = [{}, {}, {}, {}, {}, {}, {}, {}, {}, {}, {}], res_attrs = []} : (!tt.ptr<f32>, !tt.ptr<f32>, !tt.ptr<f32>, !tt.ptr<f32>, !tt.ptr<f32>, !tt.ptr<f32>, !tt.ptr<f32>, !tt.ptr<f32>, i32, i32, f32) -> ()\n    tt.return\n  }\n}"
