---
source: kernels/teeny-kernels/tests/test_replication_pad2d.rs
expression: mlir.trim()
---
"module {\n  tt.func private @_RINvCsichn7Hz0HkK_90replication_pad2d_forward_959456f06083e2edf65e33f5c8254eab16adc9388bfbbb7403466bc1d78120dd25replication_pad2d_forwardNtNtNtNtB2_6triton4llvm6triton10LlvmTritonfKl1_Kl2_KB2X_Kl3_Kl10_EB2_(%arg0: !tt.ptr<f32> {tt.divisibility = 16 : i32}, %arg1: !tt.ptr<f32> {tt.divisibility = 16 : i32}, %arg2: i32 {tt.divisibility = 16 : i32}, %arg3: i32 {tt.divisibility = 16 : i32}, %arg4: i32 {tt.divisibility = 16 : i32}, %arg5: i32 {tt.divisibility = 16 : i32}, %arg6: i32 {tt.divisibility = 16 : i32}, %arg7: i32 {tt.divisibility = 16 : i32}) {\n    %cst = arith.constant dense<0.000000e+00> : tensor<16xf32>\n    %cst_0 = arith.constant dense<0> : tensor<16xi32>\n    %cst_1 = arith.constant dense<2> : tensor<16xi32>\n    %c15_i32 = arith.constant 15 : i32\n    %false = arith.constant false\n    %c0_i32 = arith.constant 0 : i32\n    %c1_i32 = arith.constant 1 : i32\n    %c16_i32 = arith.constant 16 : i32\n    %0 = tt.get_program_id x : i32\n    %1 = arith.addi %arg7, %c15_i32 : i32\n    %2 = arith.divsi %1, %c16_i32 : i32\n    %3 = arith.remsi %0, %2 : i32\n    %4 = arith.divsi %0, %2 : i32\n    %5 = arith.remsi %4, %arg6 : i32\n    %6 = arith.divsi %4, %arg6 : i32\n    %7 = arith.remsi %6, %arg3 : i32\n    %8 = arith.divsi %6, %arg3 : i32\n    %9 = arith.muli %3, %c16_i32 : i32\n    %10 = tt.make_range {end = 16 : i32, start = 0 : i32} : tensor<16xi32>\n    %11 = tt.splat %9 : i32 -> tensor<16xi32>\n    %12 = arith.addi %10, %11 : tensor<16xi32>\n    %13 = tt.splat %arg7 : i32 -> tensor<16xi32>\n    %14 = arith.cmpi slt, %12, %13 : tensor<16xi32>\n    %15 = arith.subi %5, %c1_i32 : i32\n    %16 = arith.cmpi slt, %15, %c0_i32 : i32\n    %17 = arith.cmpi eq, %16, %false : i1\n    cf.cond_br %17, ^bb2, ^bb1(%c0_i32 : i32)\n  ^bb1(%18: i32):  // 3 preds: ^bb0, ^bb2, ^bb3\n    %19 = arith.muli %8, %arg3 : i32\n    %20 = arith.addi %19, %7 : i32\n    %21 = arith.muli %20, %arg4 : i32\n    %22 = arith.muli %21, %arg5 : i32\n    %23 = arith.muli %18, %arg5 : i32\n    %24 = arith.addi %22, %23 : i32\n    %25 = arith.muli %20, %arg6 : i32\n    %26 = arith.addi %25, %5 : i32\n    %27 = arith.muli %26, %arg7 : i32\n    %28 = arith.subi %12, %cst_1 : tensor<16xi32>\n    %29 = arith.cmpi slt, %28, %cst_0 : tensor<16xi32>\n    %30 = tt.splat %arg5 : i32 -> tensor<16xi32>\n    %31 = arith.cmpi sge, %28, %30 : tensor<16xi32>\n    %32 = arith.cmpi sge, %28, %cst_0 : tensor<16xi32>\n    %33 = tt.splat %arg5 : i32 -> tensor<16xi32>\n    %34 = arith.cmpi slt, %28, %33 : tensor<16xi32>\n    %35 = arith.andi %32, %34 : tensor<16xi1>\n    %36 = arith.subi %arg5, %c1_i32 : i32\n    %37 = tt.splat %36 : i32 -> tensor<16xi32>\n    %38 = tt.splat %24 : i32 -> tensor<16xi32>\n    %39 = arith.addi %28, %38 : tensor<16xi32>\n    %40 = tt.splat %arg0 : !tt.ptr<f32> -> tensor<16x!tt.ptr<f32>>\n    %41 = tt.addptr %40, %39 : tensor<16x!tt.ptr<f32>>, tensor<16xi32>\n    %42 = arith.andi %14, %35 : tensor<16xi1>\n    %43 = tt.load %41, %42, %cst : tensor<16x!tt.ptr<f32>>\n    %44 = tt.splat %24 : i32 -> tensor<16xi32>\n    %45 = tt.splat %arg0 : !tt.ptr<f32> -> tensor<16x!tt.ptr<f32>>\n    %46 = tt.addptr %45, %44 : tensor<16x!tt.ptr<f32>>, tensor<16xi32>\n    %47 = arith.andi %14, %29 : tensor<16xi1>\n    %48 = tt.load %46, %47, %cst : tensor<16x!tt.ptr<f32>>\n    %49 = tt.splat %24 : i32 -> tensor<16xi32>\n    %50 = arith.addi %37, %49 : tensor<16xi32>\n    %51 = tt.splat %arg0 : !tt.ptr<f32> -> tensor<16x!tt.ptr<f32>>\n    %52 = tt.addptr %51, %50 : tensor<16x!tt.ptr<f32>>, tensor<16xi32>\n    %53 = arith.andi %14, %31 : tensor<16xi1>\n    %54 = tt.load %52, %53, %cst : tensor<16x!tt.ptr<f32>>\n    %55 = arith.select %31, %54, %43 : tensor<16xi1>, tensor<16xf32>\n    %56 = arith.select %29, %48, %55 : tensor<16xi1>, tensor<16xf32>\n    %57 = tt.splat %27 : i32 -> tensor<16xi32>\n    %58 = arith.addi %12, %57 : tensor<16xi32>\n    %59 = tt.splat %arg1 : !tt.ptr<f32> -> tensor<16x!tt.ptr<f32>>\n    %60 = tt.addptr %59, %58 : tensor<16x!tt.ptr<f32>>, tensor<16xi32>\n    tt.store %60, %56, %14 {operandSegmentSizes = array<i32: 1, 1, 1>} : tensor<16x!tt.ptr<f32>>\n    tt.return\n  ^bb2:  // pred: ^bb0\n    %61 = arith.cmpi sge, %15, %arg4 : i32\n    %62 = arith.cmpi eq, %61, %false : i1\n    cf.cond_br %62, ^bb1(%15 : i32), ^bb3\n  ^bb3:  // pred: ^bb2\n    %63 = arith.subi %arg4, %c1_i32 : i32\n    cf.br ^bb1(%63 : i32)\n  }\n  tt.func public @entry_point(%arg0: !tt.ptr<f32> {tt.divisibility = 16 : i32}, %arg1: !tt.ptr<f32> {tt.divisibility = 16 : i32}, %arg2: i32 {tt.divisibility = 16 : i32}, %arg3: i32 {tt.divisibility = 16 : i32}, %arg4: i32 {tt.divisibility = 16 : i32}, %arg5: i32 {tt.divisibility = 16 : i32}, %arg6: i32 {tt.divisibility = 16 : i32}, %arg7: i32 {tt.divisibility = 16 : i32}) {\n    tt.call @_RINvCsichn7Hz0HkK_90replication_pad2d_forward_959456f06083e2edf65e33f5c8254eab16adc9388bfbbb7403466bc1d78120dd25replication_pad2d_forwardNtNtNtNtB2_6triton4llvm6triton10LlvmTritonfKl1_Kl2_KB2X_Kl3_Kl10_EB2_(%arg0, %arg1, %arg2, %arg3, %arg4, %arg5, %arg6, %arg7) {arg_attrs = [{}, {}, {}, {}, {}, {}, {}, {}], res_attrs = []} : (!tt.ptr<f32>, !tt.ptr<f32>, i32, i32, i32, i32, i32, i32) -> ()\n    tt.return\n  }\n}"
