---
source: kernels/teeny-kernels/tests/test_replication_pad3d.rs
expression: mlir.trim()
---
"module {\n  tt.func private @_RINvCs9hH6heVwP61_91replication_pad3d_backward_7b2140e5f1232bd6dd033ed45b9e5c2069b115e80aa8e1f73d3d42096956cdca26replication_pad3d_backwardNtNtNtNtB2_6triton4llvm6triton10LlvmTritonfKl1_KB2V_KB2V_Kl2_KB39_KB39_Kl10_EB2_(%arg0: !tt.ptr<f32> {tt.divisibility = 16 : i32}, %arg1: !tt.ptr<f32> {tt.divisibility = 16 : i32}, %arg2: i32 {tt.divisibility = 16 : i32}, %arg3: i32 {tt.divisibility = 16 : i32}, %arg4: i32 {tt.divisibility = 16 : i32}, %arg5: i32 {tt.divisibility = 16 : i32}, %arg6: i32 {tt.divisibility = 16 : i32}, %arg7: i32 {tt.divisibility = 16 : i32}, %arg8: i32 {tt.divisibility = 16 : i32}, %arg9: i32 {tt.divisibility = 16 : i32}) {\n    %cst = arith.constant dense<0> : tensor<16xi32>\n    %cst_0 = arith.constant dense<2> : tensor<16xi32>\n    %cst_1 = arith.constant dense<0.000000e+00> : tensor<16xf32>\n    %c15_i32 = arith.constant 15 : i32\n    %false = arith.constant false\n    %c0_i32 = arith.constant 0 : i32\n    %c1_i32 = arith.constant 1 : i32\n    %c16_i32 = arith.constant 16 : i32\n    %0 = tt.get_program_id x : i32\n    %1 = arith.addi %arg9, %c15_i32 : i32\n    %2 = arith.divsi %1, %c16_i32 : i32\n    %3 = arith.remsi %0, %2 : i32\n    %4 = arith.divsi %0, %2 : i32\n    %5 = arith.remsi %4, %arg8 : i32\n    %6 = arith.divsi %4, %arg8 : i32\n    %7 = arith.remsi %6, %arg7 : i32\n    %8 = arith.divsi %6, %arg7 : i32\n    %9 = arith.remsi %8, %arg3 : i32\n    %10 = arith.divsi %8, %arg3 : i32\n    %11 = arith.muli %3, %c16_i32 : i32\n    %12 = tt.make_range {end = 16 : i32, start = 0 : i32} : tensor<16xi32>\n    %13 = tt.splat %11 : i32 -> tensor<16xi32>\n    %14 = arith.addi %12, %13 : tensor<16xi32>\n    %15 = tt.splat %arg9 : i32 -> tensor<16xi32>\n    %16 = arith.cmpi slt, %14, %15 : tensor<16xi32>\n    %17 = arith.subi %7, %c1_i32 : i32\n    %18 = arith.cmpi slt, %17, %c0_i32 : i32\n    %19 = arith.cmpi eq, %18, %false : i1\n    cf.cond_br %19, ^bb1, ^bb3(%c0_i32 : i32)\n  ^bb1:  // pred: ^bb0\n    %20 = arith.cmpi sge, %17, %arg4 : i32\n    %21 = arith.cmpi eq, %20, %false : i1\n    cf.cond_br %21, ^bb3(%17 : i32), ^bb2\n  ^bb2:  // pred: ^bb1\n    %22 = arith.subi %arg4, %c1_i32 : i32\n    cf.br ^bb3(%22 : i32)\n  ^bb3(%23: i32):  // 3 preds: ^bb0, ^bb1, ^bb2\n    %24 = arith.subi %5, %c1_i32 : i32\n    %25 = arith.cmpi slt, %24, %c0_i32 : i32\n    %26 = arith.cmpi eq, %25, %false : i1\n    cf.cond_br %26, ^bb4, ^bb6(%c0_i32 : i32)\n  ^bb4:  // pred: ^bb3\n    %27 = arith.cmpi sge, %24, %arg5 : i32\n    %28 = arith.cmpi eq, %27, %false : i1\n    cf.cond_br %28, ^bb6(%24 : i32), ^bb5\n  ^bb5:  // pred: ^bb4\n    %29 = arith.subi %arg5, %c1_i32 : i32\n    cf.br ^bb6(%29 : i32)\n  ^bb6(%30: i32):  // 3 preds: ^bb3, ^bb4, ^bb5\n    %31 = arith.muli %10, %arg3 : i32\n    %32 = arith.addi %31, %9 : i32\n    %33 = arith.muli %32, %arg7 : i32\n    %34 = arith.addi %33, %7 : i32\n    %35 = arith.muli %34, %arg8 : i32\n    %36 = arith.addi %35, %5 : i32\n    %37 = arith.muli %36, %arg9 : i32\n    %38 = arith.muli %32, %arg4 : i32\n    %39 = arith.addi %38, %23 : i32\n    %40 = arith.muli %39, %arg5 : i32\n    %41 = arith.muli %40, %arg6 : i32\n    %42 = arith.muli %30, %arg6 : i32\n    %43 = arith.addi %41, %42 : i32\n    %44 = tt.splat %37 : i32 -> tensor<16xi32>\n    %45 = arith.addi %14, %44 : tensor<16xi32>\n    %46 = tt.splat %arg0 : !tt.ptr<f32> -> tensor<16x!tt.ptr<f32>>\n    %47 = tt.addptr %46, %45 : tensor<16x!tt.ptr<f32>>, tensor<16xi32>\n    %48 = tt.load %47, %16, %cst_1 : tensor<16x!tt.ptr<f32>>\n    %49 = arith.subi %14, %cst_0 : tensor<16xi32>\n    %50 = arith.cmpi slt, %49, %cst : tensor<16xi32>\n    %51 = tt.splat %arg6 : i32 -> tensor<16xi32>\n    %52 = arith.cmpi sge, %49, %51 : tensor<16xi32>\n    %53 = arith.cmpi sge, %49, %cst : tensor<16xi32>\n    %54 = tt.splat %arg6 : i32 -> tensor<16xi32>\n    %55 = arith.cmpi slt, %49, %54 : tensor<16xi32>\n    %56 = arith.andi %53, %55 : tensor<16xi1>\n    %57 = arith.subi %arg6, %c1_i32 : i32\n    %58 = tt.splat %57 : i32 -> tensor<16xi32>\n    %59 = tt.splat %43 : i32 -> tensor<16xi32>\n    %60 = arith.addi %49, %59 : tensor<16xi32>\n    %61 = tt.splat %arg1 : !tt.ptr<f32> -> tensor<16x!tt.ptr<f32>>\n    %62 = tt.addptr %61, %60 : tensor<16x!tt.ptr<f32>>, tensor<16xi32>\n    %63 = arith.andi %16, %56 : tensor<16xi1>\n    %64 = tt.atomic_rmw fadd, relaxed, gpu, %62, %48, %63 {operandSegmentSizes = array<i32: 1, 1, 1>} : (tensor<16x!tt.ptr<f32>>, tensor<16xf32>, tensor<16xi1>) -> tensor<16xf32>\n    %65 = tt.splat %43 : i32 -> tensor<16xi32>\n    %66 = tt.splat %arg1 : !tt.ptr<f32> -> tensor<16x!tt.ptr<f32>>\n    %67 = tt.addptr %66, %65 : tensor<16x!tt.ptr<f32>>, tensor<16xi32>\n    %68 = arith.andi %16, %50 : tensor<16xi1>\n    %69 = tt.atomic_rmw fadd, relaxed, gpu, %67, %48, %68 {operandSegmentSizes = array<i32: 1, 1, 1>} : (tensor<16x!tt.ptr<f32>>, tensor<16xf32>, tensor<16xi1>) -> tensor<16xf32>\n    %70 = tt.splat %43 : i32 -> tensor<16xi32>\n    %71 = arith.addi %58, %70 : tensor<16xi32>\n    %72 = tt.splat %arg1 : !tt.ptr<f32> -> tensor<16x!tt.ptr<f32>>\n    %73 = tt.addptr %72, %71 : tensor<16x!tt.ptr<f32>>, tensor<16xi32>\n    %74 = arith.andi %16, %52 : tensor<16xi1>\n    %75 = tt.atomic_rmw fadd, relaxed, gpu, %73, %48, %74 {operandSegmentSizes = array<i32: 1, 1, 1>} : (tensor<16x!tt.ptr<f32>>, tensor<16xf32>, tensor<16xi1>) -> tensor<16xf32>\n    tt.return\n  }\n  tt.func public @entry_point(%arg0: !tt.ptr<f32> {tt.divisibility = 16 : i32}, %arg1: !tt.ptr<f32> {tt.divisibility = 16 : i32}, %arg2: i32 {tt.divisibility = 16 : i32}, %arg3: i32 {tt.divisibility = 16 : i32}, %arg4: i32 {tt.divisibility = 16 : i32}, %arg5: i32 {tt.divisibility = 16 : i32}, %arg6: i32 {tt.divisibility = 16 : i32}, %arg7: i32 {tt.divisibility = 16 : i32}, %arg8: i32 {tt.divisibility = 16 : i32}, %arg9: i32 {tt.divisibility = 16 : i32}) {\n    tt.call @_RINvCs9hH6heVwP61_91replication_pad3d_backward_7b2140e5f1232bd6dd033ed45b9e5c2069b115e80aa8e1f73d3d42096956cdca26replication_pad3d_backwardNtNtNtNtB2_6triton4llvm6triton10LlvmTritonfKl1_KB2V_KB2V_Kl2_KB39_KB39_Kl10_EB2_(%arg0, %arg1, %arg2, %arg3, %arg4, %arg5, %arg6, %arg7, %arg8, %arg9) {arg_attrs = [{}, {}, {}, {}, {}, {}, {}, {}, {}, {}], res_attrs = []} : (!tt.ptr<f32>, !tt.ptr<f32>, i32, i32, i32, i32, i32, i32, i32, i32) -> ()\n    tt.return\n  }\n}"
