---
source: kernels/teeny-kernels/tests/test_constant_pad3d.rs
expression: mlir.trim()
---
"module {\n  tt.func private @_RINvCs8Vk4wKvyq9F_87constant_pad3d_forward_dd8cc850033ad08675a55e5d6a1aa4102df2357a7c87fa13a3308f65dff8a26322constant_pad3d_forwardNtNtNtNtB2_6triton4llvm6triton10LlvmTritonfKl1_KB2N_KB2N_Kl2_KB31_KB31_Kl10_EB2_(%arg0: !tt.ptr<f32> {tt.divisibility = 16 : i32}, %arg1: !tt.ptr<f32> {tt.divisibility = 16 : i32}, %arg2: i32 {tt.divisibility = 16 : i32}, %arg3: i32 {tt.divisibility = 16 : i32}, %arg4: i32 {tt.divisibility = 16 : i32}, %arg5: i32 {tt.divisibility = 16 : i32}, %arg6: i32 {tt.divisibility = 16 : i32}, %arg7: i32 {tt.divisibility = 16 : i32}, %arg8: i32 {tt.divisibility = 16 : i32}, %arg9: i32 {tt.divisibility = 16 : i32}, %arg10: f32 {tt.divisibility = 16 : i32}) {\n    %cst = arith.constant dense<0> : tensor<16xi32>\n    %cst_0 = arith.constant dense<2> : tensor<16xi32>\n    %c15_i32 = arith.constant 15 : i32\n    %c1_i32 = arith.constant 1 : i32\n    %c16_i32 = arith.constant 16 : i32\n    %0 = tt.get_program_id x : i32\n    %1 = arith.addi %arg9, %c15_i32 : i32\n    %2 = arith.divsi %1, %c16_i32 : i32\n    %3 = arith.remsi %0, %2 : i32\n    %4 = arith.divsi %0, %2 : i32\n    %5 = arith.remsi %4, %arg8 : i32\n    %6 = arith.divsi %4, %arg8 : i32\n    %7 = arith.remsi %6, %arg7 : i32\n    %8 = arith.divsi %6, %arg7 : i32\n    %9 = arith.remsi %8, %arg3 : i32\n    %10 = arith.divsi %8, %arg3 : i32\n    %11 = arith.muli %3, %c16_i32 : i32\n    %12 = tt.make_range {end = 16 : i32, start = 0 : i32} : tensor<16xi32>\n    %13 = tt.splat %11 : i32 -> tensor<16xi32>\n    %14 = arith.addi %12, %13 : tensor<16xi32>\n    %15 = tt.splat %arg9 : i32 -> tensor<16xi32>\n    %16 = arith.cmpi slt, %14, %15 : tensor<16xi32>\n    %17 = arith.subi %7, %c1_i32 : i32\n    %18 = arith.subi %5, %c1_i32 : i32\n    %19 = arith.subi %14, %cst_0 : tensor<16xi32>\n    %20 = tt.splat %arg10 : f32 -> tensor<16xf32>\n    %21 = tt.splat %17 : i32 -> tensor<16xi32>\n    %22 = tt.splat %18 : i32 -> tensor<16xi32>\n    %23 = arith.cmpi sge, %21, %cst : tensor<16xi32>\n    %24 = tt.splat %arg4 : i32 -> tensor<16xi32>\n    %25 = arith.cmpi slt, %21, %24 : tensor<16xi32>\n    %26 = arith.andi %23, %25 : tensor<16xi1>\n    %27 = arith.cmpi sge, %22, %cst : tensor<16xi32>\n    %28 = tt.splat %arg5 : i32 -> tensor<16xi32>\n    %29 = arith.cmpi slt, %22, %28 : tensor<16xi32>\n    %30 = arith.andi %27, %29 : tensor<16xi1>\n    %31 = arith.cmpi sge, %19, %cst : tensor<16xi32>\n    %32 = tt.splat %arg6 : i32 -> tensor<16xi32>\n    %33 = arith.cmpi slt, %19, %32 : tensor<16xi32>\n    %34 = arith.andi %31, %33 : tensor<16xi1>\n    %35 = arith.muli %10, %arg3 : i32\n    %36 = arith.addi %35, %9 : i32\n    %37 = arith.muli %36, %arg4 : i32\n    %38 = arith.addi %37, %17 : i32\n    %39 = arith.muli %38, %arg5 : i32\n    %40 = arith.muli %39, %arg6 : i32\n    %41 = arith.muli %18, %arg6 : i32\n    %42 = arith.addi %40, %41 : i32\n    %43 = arith.muli %36, %arg7 : i32\n    %44 = arith.addi %43, %7 : i32\n    %45 = arith.muli %44, %arg8 : i32\n    %46 = arith.addi %45, %5 : i32\n    %47 = arith.muli %46, %arg9 : i32\n    %48 = arith.andi %16, %26 : tensor<16xi1>\n    %49 = arith.andi %48, %30 : tensor<16xi1>\n    %50 = arith.andi %49, %34 : tensor<16xi1>\n    %51 = tt.splat %42 : i32 -> tensor<16xi32>\n    %52 = arith.addi %19, %51 : tensor<16xi32>\n    %53 = tt.splat %arg0 : !tt.ptr<f32> -> tensor<16x!tt.ptr<f32>>\n    %54 = tt.addptr %53, %52 : tensor<16x!tt.ptr<f32>>, tensor<16xi32>\n    %55 = tt.load %54, %50, %20 : tensor<16x!tt.ptr<f32>>\n    %56 = arith.select %50, %55, %20 : tensor<16xi1>, tensor<16xf32>\n    %57 = tt.splat %47 : i32 -> tensor<16xi32>\n    %58 = arith.addi %14, %57 : tensor<16xi32>\n    %59 = tt.splat %arg1 : !tt.ptr<f32> -> tensor<16x!tt.ptr<f32>>\n    %60 = tt.addptr %59, %58 : tensor<16x!tt.ptr<f32>>, tensor<16xi32>\n    tt.store %60, %56, %16 {operandSegmentSizes = array<i32: 1, 1, 1>} : tensor<16x!tt.ptr<f32>>\n    tt.return\n  }\n  tt.func public @entry_point(%arg0: !tt.ptr<f32> {tt.divisibility = 16 : i32}, %arg1: !tt.ptr<f32> {tt.divisibility = 16 : i32}, %arg2: i32 {tt.divisibility = 16 : i32}, %arg3: i32 {tt.divisibility = 16 : i32}, %arg4: i32 {tt.divisibility = 16 : i32}, %arg5: i32 {tt.divisibility = 16 : i32}, %arg6: i32 {tt.divisibility = 16 : i32}, %arg7: i32 {tt.divisibility = 16 : i32}, %arg8: i32 {tt.divisibility = 16 : i32}, %arg9: i32 {tt.divisibility = 16 : i32}, %arg10: f32 {tt.divisibility = 16 : i32}) {\n    tt.call @_RINvCs8Vk4wKvyq9F_87constant_pad3d_forward_dd8cc850033ad08675a55e5d6a1aa4102df2357a7c87fa13a3308f65dff8a26322constant_pad3d_forwardNtNtNtNtB2_6triton4llvm6triton10LlvmTritonfKl1_KB2N_KB2N_Kl2_KB31_KB31_Kl10_EB2_(%arg0, %arg1, %arg2, %arg3, %arg4, %arg5, %arg6, %arg7, %arg8, %arg9, %arg10) {arg_attrs = [{}, {}, {}, {}, {}, {}, {}, {}, {}, {}, {}], res_attrs = []} : (!tt.ptr<f32>, !tt.ptr<f32>, i32, i32, i32, i32, i32, i32, i32, i32, f32) -> ()\n    tt.return\n  }\n}"
