---
source: kernels/teeny-kernels/tests/test_groupnorm.rs
expression: mlir.trim()
---
"module {\n  tt.func private @_RINvCs6kx4uOS7kfp_93group_norm_forward_inference_f7ed70efc9fe1827413deff1e69ae4672cfe05c6786675d19a5eeb10b7b96ffc28group_norm_forward_inferenceNtNtNtNtB2_6triton4llvm6triton10LlvmTritonfKl100_EB2_(%arg0: !tt.ptr<f32> {tt.divisibility = 16 : i32}, %arg1: !tt.ptr<f32> {tt.divisibility = 16 : i32}, %arg2: !tt.ptr<f32> {tt.divisibility = 16 : i32}, %arg3: !tt.ptr<f32> {tt.divisibility = 16 : i32}, %arg4: i32 {tt.divisibility = 16 : i32}, %arg5: i32 {tt.divisibility = 16 : i32}, %arg6: i32 {tt.divisibility = 16 : i32}, %arg7: i32 {tt.divisibility = 16 : i32}, %arg8: f32 {tt.divisibility = 16 : i32}) {\n    %cst = arith.constant dense<1.000000e+00> : tensor<1xf32>\n    %cst_0 = arith.constant dense<0.000000e+00> : tensor<1xf32>\n    %cst_1 = arith.constant dense<0.000000e+00> : tensor<256xf32>\n    %c256_i32 = arith.constant 256 : i32\n    %cst_2 = arith.constant 1.000000e+00 : f32\n    %c0_i32 = arith.constant 0 : i32\n    %0 = tt.get_program_id x : i32\n    %1 = arith.divsi %0, %arg7 : i32\n    %2 = arith.muli %1, %arg7 : i32\n    %3 = arith.subi %0, %2 : i32\n    %4 = arith.divsi %arg5, %arg7 : i32\n    %5 = arith.muli %4, %arg6 : i32\n    %6 = arith.muli %1, %arg5 : i32\n    %7 = arith.muli %6, %arg6 : i32\n    %8 = arith.muli %3, %4 : i32\n    %9 = arith.muli %8, %arg6 : i32\n    %10 = arith.addi %7, %9 : i32\n    %11 = arith.sitofp %5 : i32 to f32\n    %12 = arith.divf %cst_2, %11 : f32\n    %13 = tt.splat %12 : f32 -> tensor<1xf32>\n    %14:2 = scf.while (%arg9 = %cst_0, %arg10 = %c0_i32) : (tensor<1xf32>, i32) -> (tensor<1xf32>, i32) {\n      %25 = arith.cmpi slt, %arg10, %5 : i32\n      scf.condition(%25) %arg9, %arg10 : tensor<1xf32>, i32\n    } do {\n    ^bb0(%arg9: tensor<1xf32>, %arg10: i32):\n      %25 = tt.make_range {end = 256 : i32, start = 0 : i32} : tensor<256xi32>\n      %26 = tt.splat %arg10 : i32 -> tensor<256xi32>\n      %27 = arith.addi %25, %26 : tensor<256xi32>\n      %28 = tt.splat %5 : i32 -> tensor<256xi32>\n      %29 = arith.cmpi slt, %27, %28 : tensor<256xi32>\n      %30 = tt.splat %10 : i32 -> tensor<256xi32>\n      %31 = arith.addi %27, %30 : tensor<256xi32>\n      %32 = tt.splat %arg0 : !tt.ptr<f32> -> tensor<256x!tt.ptr<f32>>\n      %33 = tt.addptr %32, %31 : tensor<256x!tt.ptr<f32>>, tensor<256xi32>\n      %34 = tt.load %33, %29, %cst_1 : tensor<256x!tt.ptr<f32>>\n      %35 = \"tt.reduce\"(%34) <{axis = 0 : i32}> ({\n      ^bb0(%arg11: f32, %arg12: f32):\n        %39 = arith.addf %arg11, %arg12 : f32\n        tt.reduce.return %39 : f32\n      }) : (tensor<256xf32>) -> f32\n      %36 = tt.splat %35 : f32 -> tensor<1xf32>\n      %37 = arith.addf %arg9, %36 : tensor<1xf32>\n      %38 = arith.addi %arg10, %c256_i32 : i32\n      scf.yield %37, %38 : tensor<1xf32>, i32\n    }\n    %15 = arith.mulf %14#0, %13 : tensor<1xf32>\n    %16 = tt.broadcast %15 : tensor<1xf32> -> tensor<256xf32>\n    %17:2 = scf.while (%arg9 = %cst_0, %arg10 = %c0_i32) : (tensor<1xf32>, i32) -> (tensor<1xf32>, i32) {\n      %25 = arith.cmpi slt, %arg10, %5 : i32\n      scf.condition(%25) %arg9, %arg10 : tensor<1xf32>, i32\n    } do {\n    ^bb0(%arg9: tensor<1xf32>, %arg10: i32):\n      %25 = tt.make_range {end = 256 : i32, start = 0 : i32} : tensor<256xi32>\n      %26 = tt.splat %arg10 : i32 -> tensor<256xi32>\n      %27 = arith.addi %25, %26 : tensor<256xi32>\n      %28 = tt.splat %5 : i32 -> tensor<256xi32>\n      %29 = arith.cmpi slt, %27, %28 : tensor<256xi32>\n      %30 = tt.splat %10 : i32 -> tensor<256xi32>\n      %31 = arith.addi %27, %30 : tensor<256xi32>\n      %32 = tt.splat %arg0 : !tt.ptr<f32> -> tensor<256x!tt.ptr<f32>>\n      %33 = tt.addptr %32, %31 : tensor<256x!tt.ptr<f32>>, tensor<256xi32>\n      %34 = tt.load %33, %29, %cst_1 : tensor<256x!tt.ptr<f32>>\n      %35 = arith.subf %34, %16 : tensor<256xf32>\n      %36 = arith.select %29, %35, %cst_1 : tensor<256xi1>, tensor<256xf32>\n      %37 = arith.mulf %36, %36 : tensor<256xf32>\n      %38 = \"tt.reduce\"(%37) <{axis = 0 : i32}> ({\n      ^bb0(%arg11: f32, %arg12: f32):\n        %42 = arith.addf %arg11, %arg12 : f32\n        tt.reduce.return %42 : f32\n      }) : (tensor<256xf32>) -> f32\n      %39 = tt.splat %38 : f32 -> tensor<1xf32>\n      %40 = arith.addf %arg9, %39 : tensor<1xf32>\n      %41 = arith.addi %arg10, %c256_i32 : i32\n      scf.yield %40, %41 : tensor<1xf32>, i32\n    }\n    %18 = tt.splat %arg8 : f32 -> tensor<1xf32>\n    %19 = arith.mulf %17#0, %13 : tensor<1xf32>\n    %20 = arith.addf %19, %18 : tensor<1xf32>\n    %21 = tt.precise_sqrt %20 : tensor<1xf32>\n    %22 = tt.precise_divf %cst, %21 : tensor<1xf32>\n    %23 = tt.broadcast %22 : tensor<1xf32> -> tensor<256xf32>\n    %24 = scf.while (%arg9 = %c0_i32) : (i32) -> i32 {\n      %25 = arith.cmpi slt, %arg9, %5 : i32\n      scf.condition(%25) %arg9 : i32\n    } do {\n    ^bb0(%arg9: i32):\n      %25 = tt.make_range {end = 256 : i32, start = 0 : i32} : tensor<256xi32>\n      %26 = tt.splat %arg9 : i32 -> tensor<256xi32>\n      %27 = arith.addi %25, %26 : tensor<256xi32>\n      %28 = tt.splat %5 : i32 -> tensor<256xi32>\n      %29 = arith.cmpi slt, %27, %28 : tensor<256xi32>\n      %30 = tt.make_range {end = 256 : i32, start = 0 : i32} : tensor<256xi32>\n      %31 = tt.splat %arg9 : i32 -> tensor<256xi32>\n      %32 = arith.addi %30, %31 : tensor<256xi32>\n      %33 = tt.splat %arg6 : i32 -> tensor<256xi32>\n      %34 = arith.divsi %32, %33 : tensor<256xi32>\n      %35 = tt.splat %8 : i32 -> tensor<256xi32>\n      %36 = arith.addi %34, %35 : tensor<256xi32>\n      %37 = tt.splat %10 : i32 -> tensor<256xi32>\n      %38 = arith.addi %27, %37 : tensor<256xi32>\n      %39 = tt.splat %arg0 : !tt.ptr<f32> -> tensor<256x!tt.ptr<f32>>\n      %40 = tt.addptr %39, %38 : tensor<256x!tt.ptr<f32>>, tensor<256xi32>\n      %41 = tt.load %40, %29, %cst_1 : tensor<256x!tt.ptr<f32>>\n      %42 = tt.splat %arg2 : !tt.ptr<f32> -> tensor<256x!tt.ptr<f32>>\n      %43 = tt.addptr %42, %36 : tensor<256x!tt.ptr<f32>>, tensor<256xi32>\n      %44 = tt.load %43, %29, %cst_1 : tensor<256x!tt.ptr<f32>>\n      %45 = tt.splat %arg3 : !tt.ptr<f32> -> tensor<256x!tt.ptr<f32>>\n      %46 = tt.addptr %45, %36 : tensor<256x!tt.ptr<f32>>, tensor<256xi32>\n      %47 = tt.load %46, %29, %cst_1 : tensor<256x!tt.ptr<f32>>\n      %48 = arith.subf %41, %16 : tensor<256xf32>\n      %49 = arith.mulf %48, %23 : tensor<256xf32>\n      %50 = arith.mulf %49, %44 : tensor<256xf32>\n      %51 = arith.addf %50, %47 : tensor<256xf32>\n      %52 = tt.splat %10 : i32 -> tensor<256xi32>\n      %53 = arith.addi %27, %52 : tensor<256xi32>\n      %54 = tt.splat %arg1 : !tt.ptr<f32> -> tensor<256x!tt.ptr<f32>>\n      %55 = tt.addptr %54, %53 : tensor<256x!tt.ptr<f32>>, tensor<256xi32>\n      tt.store %55, %51, %29 {operandSegmentSizes = array<i32: 1, 1, 1>} : tensor<256x!tt.ptr<f32>>\n      %56 = arith.addi %arg9, %c256_i32 : i32\n      scf.yield %56 : i32\n    }\n    tt.return\n  }\n  tt.func public @entry_point(%arg0: !tt.ptr<f32> {tt.divisibility = 16 : i32}, %arg1: !tt.ptr<f32> {tt.divisibility = 16 : i32}, %arg2: !tt.ptr<f32> {tt.divisibility = 16 : i32}, %arg3: !tt.ptr<f32> {tt.divisibility = 16 : i32}, %arg4: i32 {tt.divisibility = 16 : i32}, %arg5: i32 {tt.divisibility = 16 : i32}, %arg6: i32 {tt.divisibility = 16 : i32}, %arg7: i32 {tt.divisibility = 16 : i32}, %arg8: f32 {tt.divisibility = 16 : i32}) {\n    tt.call @_RINvCs6kx4uOS7kfp_93group_norm_forward_inference_f7ed70efc9fe1827413deff1e69ae4672cfe05c6786675d19a5eeb10b7b96ffc28group_norm_forward_inferenceNtNtNtNtB2_6triton4llvm6triton10LlvmTritonfKl100_EB2_(%arg0, %arg1, %arg2, %arg3, %arg4, %arg5, %arg6, %arg7, %arg8) {arg_attrs = [{}, {}, {}, {}, {}, {}, {}, {}, {}], res_attrs = []} : (!tt.ptr<f32>, !tt.ptr<f32>, !tt.ptr<f32>, !tt.ptr<f32>, i32, i32, i32, i32, f32) -> ()\n    tt.return\n  }\n}"
