---
source: kernels/teeny-kernels/tests/test_maxpool3d.rs
expression: mlir.trim()
---
"module {\n  tt.func private @_RINvCs4yB3KIfMdpg_83maxpool3d_backward_41ce225151c69ff29229bc2dfcf4975bcaa60398318df2b8b13306eaf832d68118maxpool3d_backwardNtNtNtNtB2_6triton4llvm6triton10LlvmTritonfKl2_KB2F_KB2F_KB2F_KB2F_KB2F_Kl4_EB2_(%arg0: !tt.ptr<f32> {tt.divisibility = 16 : i32}, %arg1: !tt.ptr<f32> {tt.divisibility = 16 : i32}, %arg2: !tt.ptr<f32> {tt.divisibility = 16 : i32}, %arg3: !tt.ptr<f32> {tt.divisibility = 16 : i32}, %arg4: i32 {tt.divisibility = 16 : i32}, %arg5: i32 {tt.divisibility = 16 : i32}, %arg6: i32 {tt.divisibility = 16 : i32}, %arg7: i32 {tt.divisibility = 16 : i32}, %arg8: i32 {tt.divisibility = 16 : i32}, %arg9: i32 {tt.divisibility = 16 : i32}, %arg10: i32 {tt.divisibility = 16 : i32}, %arg11: i32 {tt.divisibility = 16 : i32}) {\n    %cst = arith.constant dense<-3.40282347E+38> : tensor<4xf32>\n    %cst_0 = arith.constant dense<2> : tensor<4xi32>\n    %c8_i32 = arith.constant 8 : i32\n    %cst_1 = arith.constant dense<0.000000e+00> : tensor<4xf32>\n    %c3_i32 = arith.constant 3 : i32\n    %c2_i32 = arith.constant 2 : i32\n    %c0_i32 = arith.constant 0 : i32\n    %c1_i32 = arith.constant 1 : i32\n    %c4_i32 = arith.constant 4 : i32\n    %0 = tt.get_program_id x : i32\n    %1 = arith.addi %arg11, %c3_i32 : i32\n    %2 = arith.divsi %1, %c4_i32 : i32\n    %3 = arith.remsi %0, %2 : i32\n    %4 = arith.divsi %0, %2 : i32\n    %5 = arith.remsi %4, %arg10 : i32\n    %6 = arith.divsi %4, %arg10 : i32\n    %7 = arith.remsi %6, %arg9 : i32\n    %8 = arith.divsi %6, %arg9 : i32\n    %9 = arith.remsi %8, %arg5 : i32\n    %10 = arith.divsi %8, %arg5 : i32\n    %11 = arith.muli %3, %c4_i32 : i32\n    %12 = tt.make_range {end = 4 : i32, start = 0 : i32} : tensor<4xi32>\n    %13 = tt.splat %11 : i32 -> tensor<4xi32>\n    %14 = arith.addi %12, %13 : tensor<4xi32>\n    %15 = tt.splat %arg11 : i32 -> tensor<4xi32>\n    %16 = arith.cmpi slt, %14, %15 : tensor<4xi32>\n    %17 = arith.muli %10, %arg5 : i32\n    %18 = arith.addi %17, %9 : i32\n    %19 = arith.muli %18, %arg6 : i32\n    %20 = arith.muli %19, %arg7 : i32\n    %21 = arith.muli %20, %arg8 : i32\n    %22 = arith.muli %18, %arg9 : i32\n    %23 = arith.muli %22, %arg10 : i32\n    %24 = arith.muli %23, %arg11 : i32\n    %25 = arith.muli %7, %arg10 : i32\n    %26 = arith.muli %25, %arg11 : i32\n    %27 = arith.addi %24, %26 : i32\n    %28 = arith.muli %5, %arg11 : i32\n    %29 = arith.addi %27, %28 : i32\n    %30 = tt.splat %29 : i32 -> tensor<4xi32>\n    %31 = arith.addi %14, %30 : tensor<4xi32>\n    %32 = tt.splat %arg0 : !tt.ptr<f32> -> tensor<4x!tt.ptr<f32>>\n    %33 = tt.addptr %32, %31 : tensor<4x!tt.ptr<f32>>, tensor<4xi32>\n    %34 = tt.load %33, %16, %cst_1 : tensor<4x!tt.ptr<f32>>\n    %35 = tt.splat %arg2 : !tt.ptr<f32> -> tensor<4x!tt.ptr<f32>>\n    %36 = tt.addptr %35, %31 : tensor<4x!tt.ptr<f32>>, tensor<4xi32>\n    %37 = tt.load %36, %16, %cst_1 : tensor<4x!tt.ptr<f32>>\n    %38 = scf.for %arg12 = %c0_i32 to %c8_i32 step %c1_i32 iter_args(%arg13 = %c0_i32) -> (i32)  : i32 {\n      %39 = arith.addi %arg13, %c1_i32 : i32\n      %40 = arith.remsi %arg13, %c2_i32 : i32\n      %41 = arith.divsi %arg13, %c2_i32 : i32\n      %42 = arith.remsi %41, %c2_i32 : i32\n      %43 = arith.divsi %41, %c2_i32 : i32\n      %44 = arith.muli %7, %c2_i32 : i32\n      %45 = arith.addi %44, %43 : i32\n      %46 = arith.muli %5, %c2_i32 : i32\n      %47 = arith.addi %46, %42 : i32\n      %48 = arith.muli %14, %cst_0 : tensor<4xi32>\n      %49 = tt.splat %40 : i32 -> tensor<4xi32>\n      %50 = arith.addi %48, %49 : tensor<4xi32>\n      %51 = arith.muli %45, %arg7 : i32\n      %52 = arith.muli %51, %arg8 : i32\n      %53 = arith.addi %21, %52 : i32\n      %54 = arith.muli %47, %arg8 : i32\n      %55 = arith.addi %53, %54 : i32\n      %56 = tt.splat %55 : i32 -> tensor<4xi32>\n      %57 = arith.addi %50, %56 : tensor<4xi32>\n      %58 = tt.splat %arg1 : !tt.ptr<f32> -> tensor<4x!tt.ptr<f32>>\n      %59 = tt.addptr %58, %57 : tensor<4x!tt.ptr<f32>>, tensor<4xi32>\n      %60 = tt.load %59, %16, %cst : tensor<4x!tt.ptr<f32>>\n      %61 = arith.cmpf oeq, %60, %37 : tensor<4xf32>\n      %62 = arith.select %61, %34, %cst_1 : tensor<4xi1>, tensor<4xf32>\n      %63 = tt.splat %arg3 : !tt.ptr<f32> -> tensor<4x!tt.ptr<f32>>\n      %64 = tt.addptr %63, %57 : tensor<4x!tt.ptr<f32>>, tensor<4xi32>\n      %65 = tt.atomic_rmw fadd, relaxed, gpu, %64, %62, %16 {operandSegmentSizes = array<i32: 1, 1, 1>} : (tensor<4x!tt.ptr<f32>>, tensor<4xf32>, tensor<4xi1>) -> tensor<4xf32>\n      scf.yield %39 : i32\n    }\n    tt.return\n  }\n  tt.func public @entry_point(%arg0: !tt.ptr<f32> {tt.divisibility = 16 : i32}, %arg1: !tt.ptr<f32> {tt.divisibility = 16 : i32}, %arg2: !tt.ptr<f32> {tt.divisibility = 16 : i32}, %arg3: !tt.ptr<f32> {tt.divisibility = 16 : i32}, %arg4: i32 {tt.divisibility = 16 : i32}, %arg5: i32 {tt.divisibility = 16 : i32}, %arg6: i32 {tt.divisibility = 16 : i32}, %arg7: i32 {tt.divisibility = 16 : i32}, %arg8: i32 {tt.divisibility = 16 : i32}, %arg9: i32 {tt.divisibility = 16 : i32}, %arg10: i32 {tt.divisibility = 16 : i32}, %arg11: i32 {tt.divisibility = 16 : i32}) {\n    tt.call @_RINvCs4yB3KIfMdpg_83maxpool3d_backward_41ce225151c69ff29229bc2dfcf4975bcaa60398318df2b8b13306eaf832d68118maxpool3d_backwardNtNtNtNtB2_6triton4llvm6triton10LlvmTritonfKl2_KB2F_KB2F_KB2F_KB2F_KB2F_Kl4_EB2_(%arg0, %arg1, %arg2, %arg3, %arg4, %arg5, %arg6, %arg7, %arg8, %arg9, %arg10, %arg11) {arg_attrs = [{}, {}, {}, {}, {}, {}, {}, {}, {}, {}, {}, {}], res_attrs = []} : (!tt.ptr<f32>, !tt.ptr<f32>, !tt.ptr<f32>, !tt.ptr<f32>, i32, i32, i32, i32, i32, i32, i32, i32) -> ()\n    tt.return\n  }\n}"
