---
source: kernels/teeny-kernels/tests/test_replication_pad1d.rs
expression: mlir.trim()
---
"module {\n  tt.func private @_RINvCscQ7dV0XSNLd_90replication_pad1d_forward_3e3e8efbd95ce1e842c160161f3911d9f625fe1baa56dcf4c10aedca0744f1b425replication_pad1d_forwardNtNtNtNtB2_6triton4llvm6triton10LlvmTritonfKl2_Kl3_Kl10_EB2_(%arg0: !tt.ptr<f32> {tt.divisibility = 16 : i32}, %arg1: !tt.ptr<f32> {tt.divisibility = 16 : i32}, %arg2: i32 {tt.divisibility = 16 : i32}, %arg3: i32 {tt.divisibility = 16 : i32}, %arg4: i32 {tt.divisibility = 16 : i32}, %arg5: i32 {tt.divisibility = 16 : i32}) {\n    %cst = arith.constant dense<0.000000e+00> : tensor<16xf32>\n    %cst_0 = arith.constant dense<0> : tensor<16xi32>\n    %cst_1 = arith.constant dense<2> : tensor<16xi32>\n    %c15_i32 = arith.constant 15 : i32\n    %c1_i32 = arith.constant 1 : i32\n    %c16_i32 = arith.constant 16 : i32\n    %0 = tt.get_program_id x : i32\n    %1 = arith.addi %arg5, %c15_i32 : i32\n    %2 = arith.divsi %1, %c16_i32 : i32\n    %3 = arith.remsi %0, %2 : i32\n    %4 = arith.divsi %0, %2 : i32\n    %5 = arith.remsi %4, %arg3 : i32\n    %6 = arith.divsi %4, %arg3 : i32\n    %7 = arith.muli %3, %c16_i32 : i32\n    %8 = tt.make_range {end = 16 : i32, start = 0 : i32} : tensor<16xi32>\n    %9 = tt.splat %7 : i32 -> tensor<16xi32>\n    %10 = arith.addi %8, %9 : tensor<16xi32>\n    %11 = tt.splat %arg5 : i32 -> tensor<16xi32>\n    %12 = arith.cmpi slt, %10, %11 : tensor<16xi32>\n    %13 = arith.muli %6, %arg3 : i32\n    %14 = arith.addi %13, %5 : i32\n    %15 = arith.muli %14, %arg4 : i32\n    %16 = arith.muli %14, %arg5 : i32\n    %17 = arith.subi %10, %cst_1 : tensor<16xi32>\n    %18 = arith.cmpi slt, %17, %cst_0 : tensor<16xi32>\n    %19 = tt.splat %arg4 : i32 -> tensor<16xi32>\n    %20 = arith.cmpi sge, %17, %19 : tensor<16xi32>\n    %21 = arith.cmpi sge, %17, %cst_0 : tensor<16xi32>\n    %22 = tt.splat %arg4 : i32 -> tensor<16xi32>\n    %23 = arith.cmpi slt, %17, %22 : tensor<16xi32>\n    %24 = arith.andi %21, %23 : tensor<16xi1>\n    %25 = arith.subi %arg4, %c1_i32 : i32\n    %26 = tt.splat %25 : i32 -> tensor<16xi32>\n    %27 = tt.splat %15 : i32 -> tensor<16xi32>\n    %28 = arith.addi %17, %27 : tensor<16xi32>\n    %29 = tt.splat %arg0 : !tt.ptr<f32> -> tensor<16x!tt.ptr<f32>>\n    %30 = tt.addptr %29, %28 : tensor<16x!tt.ptr<f32>>, tensor<16xi32>\n    %31 = arith.andi %12, %24 : tensor<16xi1>\n    %32 = tt.load %30, %31, %cst : tensor<16x!tt.ptr<f32>>\n    %33 = tt.splat %15 : i32 -> tensor<16xi32>\n    %34 = tt.splat %arg0 : !tt.ptr<f32> -> tensor<16x!tt.ptr<f32>>\n    %35 = tt.addptr %34, %33 : tensor<16x!tt.ptr<f32>>, tensor<16xi32>\n    %36 = arith.andi %12, %18 : tensor<16xi1>\n    %37 = tt.load %35, %36, %cst : tensor<16x!tt.ptr<f32>>\n    %38 = tt.splat %15 : i32 -> tensor<16xi32>\n    %39 = arith.addi %26, %38 : tensor<16xi32>\n    %40 = tt.splat %arg0 : !tt.ptr<f32> -> tensor<16x!tt.ptr<f32>>\n    %41 = tt.addptr %40, %39 : tensor<16x!tt.ptr<f32>>, tensor<16xi32>\n    %42 = arith.andi %12, %20 : tensor<16xi1>\n    %43 = tt.load %41, %42, %cst : tensor<16x!tt.ptr<f32>>\n    %44 = arith.select %20, %43, %32 : tensor<16xi1>, tensor<16xf32>\n    %45 = arith.select %18, %37, %44 : tensor<16xi1>, tensor<16xf32>\n    %46 = tt.splat %16 : i32 -> tensor<16xi32>\n    %47 = arith.addi %10, %46 : tensor<16xi32>\n    %48 = tt.splat %arg1 : !tt.ptr<f32> -> tensor<16x!tt.ptr<f32>>\n    %49 = tt.addptr %48, %47 : tensor<16x!tt.ptr<f32>>, tensor<16xi32>\n    tt.store %49, %45, %12 {operandSegmentSizes = array<i32: 1, 1, 1>} : tensor<16x!tt.ptr<f32>>\n    tt.return\n  }\n  tt.func public @entry_point(%arg0: !tt.ptr<f32> {tt.divisibility = 16 : i32}, %arg1: !tt.ptr<f32> {tt.divisibility = 16 : i32}, %arg2: i32 {tt.divisibility = 16 : i32}, %arg3: i32 {tt.divisibility = 16 : i32}, %arg4: i32 {tt.divisibility = 16 : i32}, %arg5: i32 {tt.divisibility = 16 : i32}) {\n    tt.call @_RINvCscQ7dV0XSNLd_90replication_pad1d_forward_3e3e8efbd95ce1e842c160161f3911d9f625fe1baa56dcf4c10aedca0744f1b425replication_pad1d_forwardNtNtNtNtB2_6triton4llvm6triton10LlvmTritonfKl2_Kl3_Kl10_EB2_(%arg0, %arg1, %arg2, %arg3, %arg4, %arg5) {arg_attrs = [{}, {}, {}, {}, {}, {}], res_attrs = []} : (!tt.ptr<f32>, !tt.ptr<f32>, i32, i32, i32, i32) -> ()\n    tt.return\n  }\n}"
