---
source: kernels/teeny-kernels/tests/test_avgpool3d.rs
expression: mlir.trim()
---
"module {\n  tt.func private @_RINvCs97VbqG5eQhG_83avgpool3d_backward_74f2327d9f825db01a4a44e449f336a60d0f51c9ca02e39053e4ec808b9263d818avgpool3d_backwardNtNtNtNtB2_6triton4llvm6triton10LlvmTritonfKl2_KB2F_KB2F_KB2F_KB2F_KB2F_Kl4_EB2_(%arg0: !tt.ptr<f32> {tt.divisibility = 16 : i32}, %arg1: !tt.ptr<f32> {tt.divisibility = 16 : i32}, %arg2: i32 {tt.divisibility = 16 : i32}, %arg3: i32 {tt.divisibility = 16 : i32}, %arg4: i32 {tt.divisibility = 16 : i32}, %arg5: i32 {tt.divisibility = 16 : i32}, %arg6: i32 {tt.divisibility = 16 : i32}, %arg7: i32 {tt.divisibility = 16 : i32}, %arg8: i32 {tt.divisibility = 16 : i32}, %arg9: i32 {tt.divisibility = 16 : i32}) {\n    %cst = arith.constant dense<2> : tensor<4xi32>\n    %cst_0 = arith.constant dense<8.000000e+00> : tensor<4xf32>\n    %c8_i32 = arith.constant 8 : i32\n    %cst_1 = arith.constant dense<0.000000e+00> : tensor<4xf32>\n    %c3_i32 = arith.constant 3 : i32\n    %c2_i32 = arith.constant 2 : i32\n    %c0_i32 = arith.constant 0 : i32\n    %c1_i32 = arith.constant 1 : i32\n    %c4_i32 = arith.constant 4 : i32\n    %0 = tt.get_program_id x : i32\n    %1 = arith.addi %arg9, %c3_i32 : i32\n    %2 = arith.divsi %1, %c4_i32 : i32\n    %3 = arith.remsi %0, %2 : i32\n    %4 = arith.divsi %0, %2 : i32\n    %5 = arith.remsi %4, %arg8 : i32\n    %6 = arith.divsi %4, %arg8 : i32\n    %7 = arith.remsi %6, %arg7 : i32\n    %8 = arith.divsi %6, %arg7 : i32\n    %9 = arith.remsi %8, %arg3 : i32\n    %10 = arith.divsi %8, %arg3 : i32\n    %11 = arith.muli %3, %c4_i32 : i32\n    %12 = tt.make_range {end = 4 : i32, start = 0 : i32} : tensor<4xi32>\n    %13 = tt.splat %11 : i32 -> tensor<4xi32>\n    %14 = arith.addi %12, %13 : tensor<4xi32>\n    %15 = tt.splat %arg9 : i32 -> tensor<4xi32>\n    %16 = arith.cmpi slt, %14, %15 : tensor<4xi32>\n    %17 = arith.muli %10, %arg3 : i32\n    %18 = arith.addi %17, %9 : i32\n    %19 = arith.muli %18, %arg7 : i32\n    %20 = arith.muli %19, %arg8 : i32\n    %21 = arith.muli %20, %arg9 : i32\n    %22 = arith.muli %7, %arg8 : i32\n    %23 = arith.muli %22, %arg9 : i32\n    %24 = arith.addi %21, %23 : i32\n    %25 = arith.muli %5, %arg9 : i32\n    %26 = arith.addi %24, %25 : i32\n    %27 = arith.muli %18, %arg4 : i32\n    %28 = arith.muli %27, %arg5 : i32\n    %29 = arith.muli %28, %arg6 : i32\n    %30 = tt.splat %26 : i32 -> tensor<4xi32>\n    %31 = arith.addi %14, %30 : tensor<4xi32>\n    %32 = tt.splat %arg0 : !tt.ptr<f32> -> tensor<4x!tt.ptr<f32>>\n    %33 = tt.addptr %32, %31 : tensor<4x!tt.ptr<f32>>, tensor<4xi32>\n    %34 = tt.load %33, %16, %cst_1 : tensor<4x!tt.ptr<f32>>\n    %35 = arith.divf %34, %cst_0 : tensor<4xf32>\n    %36 = scf.for %arg10 = %c0_i32 to %c8_i32 step %c1_i32 iter_args(%arg11 = %c0_i32) -> (i32)  : i32 {\n      %37 = arith.addi %arg11, %c1_i32 : i32\n      %38 = arith.remsi %arg11, %c2_i32 : i32\n      %39 = arith.divsi %arg11, %c2_i32 : i32\n      %40 = arith.remsi %39, %c2_i32 : i32\n      %41 = arith.divsi %39, %c2_i32 : i32\n      %42 = arith.muli %7, %c2_i32 : i32\n      %43 = arith.addi %42, %41 : i32\n      %44 = arith.muli %5, %c2_i32 : i32\n      %45 = arith.addi %44, %40 : i32\n      %46 = arith.muli %14, %cst : tensor<4xi32>\n      %47 = tt.splat %38 : i32 -> tensor<4xi32>\n      %48 = arith.addi %46, %47 : tensor<4xi32>\n      %49 = arith.muli %43, %arg5 : i32\n      %50 = arith.muli %49, %arg6 : i32\n      %51 = arith.addi %29, %50 : i32\n      %52 = arith.muli %45, %arg6 : i32\n      %53 = arith.addi %51, %52 : i32\n      %54 = tt.splat %53 : i32 -> tensor<4xi32>\n      %55 = arith.addi %48, %54 : tensor<4xi32>\n      %56 = tt.splat %arg1 : !tt.ptr<f32> -> tensor<4x!tt.ptr<f32>>\n      %57 = tt.addptr %56, %55 : tensor<4x!tt.ptr<f32>>, tensor<4xi32>\n      %58 = tt.atomic_rmw fadd, relaxed, gpu, %57, %35, %16 {operandSegmentSizes = array<i32: 1, 1, 1>} : (tensor<4x!tt.ptr<f32>>, tensor<4xf32>, tensor<4xi1>) -> tensor<4xf32>\n      scf.yield %37 : i32\n    }\n    tt.return\n  }\n  tt.func public @entry_point(%arg0: !tt.ptr<f32> {tt.divisibility = 16 : i32}, %arg1: !tt.ptr<f32> {tt.divisibility = 16 : i32}, %arg2: i32 {tt.divisibility = 16 : i32}, %arg3: i32 {tt.divisibility = 16 : i32}, %arg4: i32 {tt.divisibility = 16 : i32}, %arg5: i32 {tt.divisibility = 16 : i32}, %arg6: i32 {tt.divisibility = 16 : i32}, %arg7: i32 {tt.divisibility = 16 : i32}, %arg8: i32 {tt.divisibility = 16 : i32}, %arg9: i32 {tt.divisibility = 16 : i32}) {\n    tt.call @_RINvCs97VbqG5eQhG_83avgpool3d_backward_74f2327d9f825db01a4a44e449f336a60d0f51c9ca02e39053e4ec808b9263d818avgpool3d_backwardNtNtNtNtB2_6triton4llvm6triton10LlvmTritonfKl2_KB2F_KB2F_KB2F_KB2F_KB2F_Kl4_EB2_(%arg0, %arg1, %arg2, %arg3, %arg4, %arg5, %arg6, %arg7, %arg8, %arg9) {arg_attrs = [{}, {}, {}, {}, {}, {}, {}, {}, {}, {}], res_attrs = []} : (!tt.ptr<f32>, !tt.ptr<f32>, i32, i32, i32, i32, i32, i32, i32, i32) -> ()\n    tt.return\n  }\n}"
