---
source: kernels/teeny-kernels/tests/test_avgpool2d.rs
expression: mlir.trim()
---
"module {\n  tt.func private @_RINvCsdL50NFQcGlK_83avgpool2d_backward_d9e436175fff255075d9fd2a5dd6bbba05b1ff32ccef275b243a4bc05bfdf16d18avgpool2d_backwardNtNtNtNtB2_6triton4llvm6triton10LlvmTritonfKl2_KB2F_KB2F_KB2F_Kl4_EB2_(%arg0: !tt.ptr<f32> {tt.divisibility = 16 : i32}, %arg1: !tt.ptr<f32> {tt.divisibility = 16 : i32}, %arg2: i32 {tt.divisibility = 16 : i32}, %arg3: i32 {tt.divisibility = 16 : i32}, %arg4: i32 {tt.divisibility = 16 : i32}, %arg5: i32 {tt.divisibility = 16 : i32}, %arg6: i32 {tt.divisibility = 16 : i32}, %arg7: i32 {tt.divisibility = 16 : i32}) {\n    %cst = arith.constant dense<2> : tensor<4xi32>\n    %cst_0 = arith.constant dense<4.000000e+00> : tensor<4xf32>\n    %cst_1 = arith.constant dense<0.000000e+00> : tensor<4xf32>\n    %c3_i32 = arith.constant 3 : i32\n    %c2_i32 = arith.constant 2 : i32\n    %c0_i32 = arith.constant 0 : i32\n    %c1_i32 = arith.constant 1 : i32\n    %c4_i32 = arith.constant 4 : i32\n    %0 = tt.get_program_id x : i32\n    %1 = arith.addi %arg7, %c3_i32 : i32\n    %2 = arith.divsi %1, %c4_i32 : i32\n    %3 = arith.remsi %0, %2 : i32\n    %4 = arith.divsi %0, %2 : i32\n    %5 = arith.remsi %4, %arg6 : i32\n    %6 = arith.divsi %4, %arg6 : i32\n    %7 = arith.remsi %6, %arg3 : i32\n    %8 = arith.divsi %6, %arg3 : i32\n    %9 = arith.muli %3, %c4_i32 : i32\n    %10 = tt.make_range {end = 4 : i32, start = 0 : i32} : tensor<4xi32>\n    %11 = tt.splat %9 : i32 -> tensor<4xi32>\n    %12 = arith.addi %10, %11 : tensor<4xi32>\n    %13 = tt.splat %arg7 : i32 -> tensor<4xi32>\n    %14 = arith.cmpi slt, %12, %13 : tensor<4xi32>\n    %15 = arith.muli %8, %arg3 : i32\n    %16 = arith.addi %15, %7 : i32\n    %17 = arith.muli %16, %arg6 : i32\n    %18 = arith.muli %17, %arg7 : i32\n    %19 = arith.muli %16, %arg4 : i32\n    %20 = arith.muli %19, %arg5 : i32\n    %21 = arith.muli %5, %arg7 : i32\n    %22 = arith.addi %18, %21 : i32\n    %23 = tt.splat %22 : i32 -> tensor<4xi32>\n    %24 = arith.addi %12, %23 : tensor<4xi32>\n    %25 = tt.splat %arg0 : !tt.ptr<f32> -> tensor<4x!tt.ptr<f32>>\n    %26 = tt.addptr %25, %24 : tensor<4x!tt.ptr<f32>>, tensor<4xi32>\n    %27 = tt.load %26, %14, %cst_1 : tensor<4x!tt.ptr<f32>>\n    %28 = arith.divf %27, %cst_0 : tensor<4xf32>\n    %29 = scf.for %arg8 = %c0_i32 to %c4_i32 step %c1_i32 iter_args(%arg9 = %c0_i32) -> (i32)  : i32 {\n      %30 = arith.addi %arg9, %c1_i32 : i32\n      %31 = arith.remsi %arg9, %c2_i32 : i32\n      %32 = arith.divsi %arg9, %c2_i32 : i32\n      %33 = arith.muli %5, %c2_i32 : i32\n      %34 = arith.addi %33, %32 : i32\n      %35 = arith.muli %12, %cst : tensor<4xi32>\n      %36 = tt.splat %31 : i32 -> tensor<4xi32>\n      %37 = arith.addi %35, %36 : tensor<4xi32>\n      %38 = arith.muli %34, %arg5 : i32\n      %39 = arith.addi %20, %38 : i32\n      %40 = tt.splat %39 : i32 -> tensor<4xi32>\n      %41 = arith.addi %37, %40 : tensor<4xi32>\n      %42 = tt.splat %arg1 : !tt.ptr<f32> -> tensor<4x!tt.ptr<f32>>\n      %43 = tt.addptr %42, %41 : tensor<4x!tt.ptr<f32>>, tensor<4xi32>\n      %44 = tt.atomic_rmw fadd, relaxed, gpu, %43, %28, %14 {operandSegmentSizes = array<i32: 1, 1, 1>} : (tensor<4x!tt.ptr<f32>>, tensor<4xf32>, tensor<4xi1>) -> tensor<4xf32>\n      scf.yield %30 : i32\n    }\n    tt.return\n  }\n  tt.func public @entry_point(%arg0: !tt.ptr<f32> {tt.divisibility = 16 : i32}, %arg1: !tt.ptr<f32> {tt.divisibility = 16 : i32}, %arg2: i32 {tt.divisibility = 16 : i32}, %arg3: i32 {tt.divisibility = 16 : i32}, %arg4: i32 {tt.divisibility = 16 : i32}, %arg5: i32 {tt.divisibility = 16 : i32}, %arg6: i32 {tt.divisibility = 16 : i32}, %arg7: i32 {tt.divisibility = 16 : i32}) {\n    tt.call @_RINvCsdL50NFQcGlK_83avgpool2d_backward_d9e436175fff255075d9fd2a5dd6bbba05b1ff32ccef275b243a4bc05bfdf16d18avgpool2d_backwardNtNtNtNtB2_6triton4llvm6triton10LlvmTritonfKl2_KB2F_KB2F_KB2F_Kl4_EB2_(%arg0, %arg1, %arg2, %arg3, %arg4, %arg5, %arg6, %arg7) {arg_attrs = [{}, {}, {}, {}, {}, {}, {}, {}], res_attrs = []} : (!tt.ptr<f32>, !tt.ptr<f32>, i32, i32, i32, i32, i32, i32) -> ()\n    tt.return\n  }\n}"
