---
source: kernels/teeny-kernels/tests/test_loss_embedding.rs
expression: mlir.trim()
---
"module {\n  tt.func private @_RINvCshTzppvo1aMu_92triplet_margin_loss_forward_9bdd9f9a446aaddaed033585f3177c8384d5d691ecbd2298901cec5f643101b827triplet_margin_loss_forwardNtNtNtNtB2_6triton4llvm6triton10LlvmTritonKl40_EB2_(%arg0: !tt.ptr<f32> {tt.divisibility = 16 : i32}, %arg1: !tt.ptr<f32> {tt.divisibility = 16 : i32}, %arg2: !tt.ptr<f32> {tt.divisibility = 16 : i32}, %arg3: !tt.ptr<f32> {tt.divisibility = 16 : i32}, %arg4: i32 {tt.divisibility = 16 : i32}, %arg5: i32 {tt.divisibility = 16 : i32}, %arg6: f32 {tt.divisibility = 16 : i32}, %arg7: f32 {tt.divisibility = 16 : i32}) {\n    %cst = arith.constant dense<0.000000e+00> : tensor<1xf32>\n    %cst_0 = arith.constant dense<0.000000e+00> : tensor<64xf32>\n    %0 = tt.get_program_id x : i32\n    %1 = arith.muli %0, %arg5 : i32\n    %2 = tt.make_range {end = 64 : i32, start = 0 : i32} : tensor<64xi32>\n    %3 = tt.splat %1 : i32 -> tensor<64xi32>\n    %4 = arith.addi %2, %3 : tensor<64xi32>\n    %5 = tt.splat %arg5 : i32 -> tensor<64xi32>\n    %6 = arith.cmpi slt, %2, %5 : tensor<64xi32>\n    %7 = tt.splat %arg0 : !tt.ptr<f32> -> tensor<64x!tt.ptr<f32>>\n    %8 = tt.addptr %7, %4 : tensor<64x!tt.ptr<f32>>, tensor<64xi32>\n    %9 = tt.load %8, %6, %cst_0 : tensor<64x!tt.ptr<f32>>\n    %10 = tt.splat %arg1 : !tt.ptr<f32> -> tensor<64x!tt.ptr<f32>>\n    %11 = tt.addptr %10, %4 : tensor<64x!tt.ptr<f32>>, tensor<64xi32>\n    %12 = tt.load %11, %6, %cst_0 : tensor<64x!tt.ptr<f32>>\n    %13 = tt.splat %arg2 : !tt.ptr<f32> -> tensor<64x!tt.ptr<f32>>\n    %14 = tt.addptr %13, %4 : tensor<64x!tt.ptr<f32>>, tensor<64xi32>\n    %15 = tt.load %14, %6, %cst_0 : tensor<64x!tt.ptr<f32>>\n    %16 = arith.subf %9, %12 : tensor<64xf32>\n    %17 = arith.subf %9, %15 : tensor<64xf32>\n    %18 = tt.splat %arg7 : f32 -> tensor<1xf32>\n    %19 = arith.mulf %16, %16 : tensor<64xf32>\n    %20 = \"tt.reduce\"(%19) <{axis = 0 : i32}> ({\n    ^bb0(%arg8: f32, %arg9: f32):\n      %36 = arith.addf %arg8, %arg9 : f32\n      tt.reduce.return %36 : f32\n    }) : (tensor<64xf32>) -> f32\n    %21 = tt.splat %20 : f32 -> tensor<1xf32>\n    %22 = arith.addf %21, %18 : tensor<1xf32>\n    %23 = arith.mulf %17, %17 : tensor<64xf32>\n    %24 = \"tt.reduce\"(%23) <{axis = 0 : i32}> ({\n    ^bb0(%arg8: f32, %arg9: f32):\n      %36 = arith.addf %arg8, %arg9 : f32\n      tt.reduce.return %36 : f32\n    }) : (tensor<64xf32>) -> f32\n    %25 = tt.splat %24 : f32 -> tensor<1xf32>\n    %26 = arith.addf %25, %18 : tensor<1xf32>\n    %27 = tt.precise_sqrt %22 : tensor<1xf32>\n    %28 = tt.precise_sqrt %26 : tensor<1xf32>\n    %29 = tt.splat %arg6 : f32 -> tensor<1xf32>\n    %30 = arith.subf %27, %28 : tensor<1xf32>\n    %31 = arith.addf %30, %29 : tensor<1xf32>\n    %32 = arith.maximumf %31, %cst : tensor<1xf32>\n    %33 = tt.splat %0 : i32 -> tensor<1xi32>\n    %34 = tt.splat %arg3 : !tt.ptr<f32> -> tensor<1x!tt.ptr<f32>>\n    %35 = tt.addptr %34, %33 : tensor<1x!tt.ptr<f32>>, tensor<1xi32>\n    tt.store %35, %32 {operandSegmentSizes = array<i32: 1, 1, 0>} : tensor<1x!tt.ptr<f32>>\n    tt.return\n  }\n  tt.func public @entry_point(%arg0: !tt.ptr<f32> {tt.divisibility = 16 : i32}, %arg1: !tt.ptr<f32> {tt.divisibility = 16 : i32}, %arg2: !tt.ptr<f32> {tt.divisibility = 16 : i32}, %arg3: !tt.ptr<f32> {tt.divisibility = 16 : i32}, %arg4: i32 {tt.divisibility = 16 : i32}, %arg5: i32 {tt.divisibility = 16 : i32}, %arg6: f32 {tt.divisibility = 16 : i32}, %arg7: f32 {tt.divisibility = 16 : i32}) {\n    tt.call @_RINvCshTzppvo1aMu_92triplet_margin_loss_forward_9bdd9f9a446aaddaed033585f3177c8384d5d691ecbd2298901cec5f643101b827triplet_margin_loss_forwardNtNtNtNtB2_6triton4llvm6triton10LlvmTritonKl40_EB2_(%arg0, %arg1, %arg2, %arg3, %arg4, %arg5, %arg6, %arg7) {arg_attrs = [{}, {}, {}, {}, {}, {}, {}, {}], res_attrs = []} : (!tt.ptr<f32>, !tt.ptr<f32>, !tt.ptr<f32>, !tt.ptr<f32>, i32, i32, f32, f32) -> ()\n    tt.return\n  }\n}"
