---
source: kernels/teeny-kernels/tests/test_circular_pad2d.rs
expression: mlir.trim()
---
"module {\n  tt.func private @_RINvCs1xareg7Bnxg_87circular_pad2d_forward_0656c4b3196ed547166aa1b74c3604cd5003dadb5a2e97447e72c01115f4067d22circular_pad2d_forwardNtNtNtNtB2_6triton4llvm6triton10LlvmTritonfKl1_Kl2_KB2R_Kl3_Kl10_EB2_(%arg0: !tt.ptr<f32> {tt.divisibility = 16 : i32}, %arg1: !tt.ptr<f32> {tt.divisibility = 16 : i32}, %arg2: i32 {tt.divisibility = 16 : i32}, %arg3: i32 {tt.divisibility = 16 : i32}, %arg4: i32 {tt.divisibility = 16 : i32}, %arg5: i32 {tt.divisibility = 16 : i32}, %arg6: i32 {tt.divisibility = 16 : i32}, %arg7: i32 {tt.divisibility = 16 : i32}) {\n    %cst = arith.constant dense<0.000000e+00> : tensor<16xf32>\n    %cst_0 = arith.constant dense<0> : tensor<16xi32>\n    %cst_1 = arith.constant dense<2> : tensor<16xi32>\n    %c15_i32 = arith.constant 15 : i32\n    %c1_i32 = arith.constant 1 : i32\n    %c16_i32 = arith.constant 16 : i32\n    %0 = tt.get_program_id x : i32\n    %1 = arith.addi %arg7, %c15_i32 : i32\n    %2 = arith.divsi %1, %c16_i32 : i32\n    %3 = arith.remsi %0, %2 : i32\n    %4 = arith.divsi %0, %2 : i32\n    %5 = arith.remsi %4, %arg6 : i32\n    %6 = arith.divsi %4, %arg6 : i32\n    %7 = arith.remsi %6, %arg3 : i32\n    %8 = arith.divsi %6, %arg3 : i32\n    %9 = arith.muli %3, %c16_i32 : i32\n    %10 = tt.make_range {end = 16 : i32, start = 0 : i32} : tensor<16xi32>\n    %11 = tt.splat %9 : i32 -> tensor<16xi32>\n    %12 = arith.addi %10, %11 : tensor<16xi32>\n    %13 = tt.splat %arg7 : i32 -> tensor<16xi32>\n    %14 = arith.cmpi slt, %12, %13 : tensor<16xi32>\n    %15 = arith.subi %5, %c1_i32 : i32\n    %16 = arith.addi %15, %arg4 : i32\n    %17 = arith.remsi %16, %arg4 : i32\n    %18 = arith.muli %8, %arg3 : i32\n    %19 = arith.addi %18, %7 : i32\n    %20 = arith.muli %19, %arg4 : i32\n    %21 = arith.muli %20, %arg5 : i32\n    %22 = arith.muli %17, %arg5 : i32\n    %23 = arith.addi %21, %22 : i32\n    %24 = arith.muli %19, %arg6 : i32\n    %25 = arith.addi %24, %5 : i32\n    %26 = arith.muli %25, %arg7 : i32\n    %27 = arith.subi %12, %cst_1 : tensor<16xi32>\n    %28 = arith.cmpi slt, %27, %cst_0 : tensor<16xi32>\n    %29 = tt.splat %arg5 : i32 -> tensor<16xi32>\n    %30 = arith.cmpi sge, %27, %29 : tensor<16xi32>\n    %31 = arith.cmpi sge, %27, %cst_0 : tensor<16xi32>\n    %32 = tt.splat %arg5 : i32 -> tensor<16xi32>\n    %33 = arith.cmpi slt, %27, %32 : tensor<16xi32>\n    %34 = arith.andi %31, %33 : tensor<16xi1>\n    %35 = tt.splat %arg5 : i32 -> tensor<16xi32>\n    %36 = arith.addi %27, %35 : tensor<16xi32>\n    %37 = tt.splat %arg5 : i32 -> tensor<16xi32>\n    %38 = arith.subi %27, %37 : tensor<16xi32>\n    %39 = tt.splat %23 : i32 -> tensor<16xi32>\n    %40 = arith.addi %27, %39 : tensor<16xi32>\n    %41 = tt.splat %arg0 : !tt.ptr<f32> -> tensor<16x!tt.ptr<f32>>\n    %42 = tt.addptr %41, %40 : tensor<16x!tt.ptr<f32>>, tensor<16xi32>\n    %43 = arith.andi %14, %34 : tensor<16xi1>\n    %44 = tt.load %42, %43, %cst : tensor<16x!tt.ptr<f32>>\n    %45 = tt.splat %23 : i32 -> tensor<16xi32>\n    %46 = arith.addi %36, %45 : tensor<16xi32>\n    %47 = tt.splat %arg0 : !tt.ptr<f32> -> tensor<16x!tt.ptr<f32>>\n    %48 = tt.addptr %47, %46 : tensor<16x!tt.ptr<f32>>, tensor<16xi32>\n    %49 = arith.andi %14, %28 : tensor<16xi1>\n    %50 = tt.load %48, %49, %cst : tensor<16x!tt.ptr<f32>>\n    %51 = tt.splat %23 : i32 -> tensor<16xi32>\n    %52 = arith.addi %38, %51 : tensor<16xi32>\n    %53 = tt.splat %arg0 : !tt.ptr<f32> -> tensor<16x!tt.ptr<f32>>\n    %54 = tt.addptr %53, %52 : tensor<16x!tt.ptr<f32>>, tensor<16xi32>\n    %55 = arith.andi %14, %30 : tensor<16xi1>\n    %56 = tt.load %54, %55, %cst : tensor<16x!tt.ptr<f32>>\n    %57 = arith.select %30, %56, %44 : tensor<16xi1>, tensor<16xf32>\n    %58 = arith.select %28, %50, %57 : tensor<16xi1>, tensor<16xf32>\n    %59 = tt.splat %26 : i32 -> tensor<16xi32>\n    %60 = arith.addi %12, %59 : tensor<16xi32>\n    %61 = tt.splat %arg1 : !tt.ptr<f32> -> tensor<16x!tt.ptr<f32>>\n    %62 = tt.addptr %61, %60 : tensor<16x!tt.ptr<f32>>, tensor<16xi32>\n    tt.store %62, %58, %14 {operandSegmentSizes = array<i32: 1, 1, 1>} : tensor<16x!tt.ptr<f32>>\n    tt.return\n  }\n  tt.func public @entry_point(%arg0: !tt.ptr<f32> {tt.divisibility = 16 : i32}, %arg1: !tt.ptr<f32> {tt.divisibility = 16 : i32}, %arg2: i32 {tt.divisibility = 16 : i32}, %arg3: i32 {tt.divisibility = 16 : i32}, %arg4: i32 {tt.divisibility = 16 : i32}, %arg5: i32 {tt.divisibility = 16 : i32}, %arg6: i32 {tt.divisibility = 16 : i32}, %arg7: i32 {tt.divisibility = 16 : i32}) {\n    tt.call @_RINvCs1xareg7Bnxg_87circular_pad2d_forward_0656c4b3196ed547166aa1b74c3604cd5003dadb5a2e97447e72c01115f4067d22circular_pad2d_forwardNtNtNtNtB2_6triton4llvm6triton10LlvmTritonfKl1_Kl2_KB2R_Kl3_Kl10_EB2_(%arg0, %arg1, %arg2, %arg3, %arg4, %arg5, %arg6, %arg7) {arg_attrs = [{}, {}, {}, {}, {}, {}, {}, {}], res_attrs = []} : (!tt.ptr<f32>, !tt.ptr<f32>, i32, i32, i32, i32, i32, i32) -> ()\n    tt.return\n  }\n}"
