---
source: kernels/teeny-kernels/tests/test_flash_attn2.rs
expression: mlir.trim()
---
"module {\n  tt.func private @_RINvCs9yqlPCkmZGE_93flash_attention2_backward_dq_e0f1015d3d80c8b39bcb0fba05e388c430b3cc8e7a843678d5003027c5c23fd628flash_attention2_backward_dqNtNtNtNtB2_6triton4llvm6triton10LlvmTritonKl40_EB2_(%arg0: !tt.ptr<f32> {tt.divisibility = 16 : i32}, %arg1: !tt.ptr<f32> {tt.divisibility = 16 : i32}, %arg2: !tt.ptr<f32> {tt.divisibility = 16 : i32}, %arg3: !tt.ptr<f32> {tt.divisibility = 16 : i32}, %arg4: !tt.ptr<f32> {tt.divisibility = 16 : i32}, %arg5: !tt.ptr<f32> {tt.divisibility = 16 : i32}, %arg6: !tt.ptr<f32> {tt.divisibility = 16 : i32}, %arg7: i32 {tt.divisibility = 16 : i32}, %arg8: i32 {tt.divisibility = 16 : i32}, %arg9: f32 {tt.divisibility = 16 : i32}) {\n    %cst = arith.constant dense<0.000000e+00> : tensor<64xf32>\n    %c1_i32 = arith.constant 1 : i32\n    %c0_i32 = arith.constant 0 : i32\n    %c64_i32 = arith.constant 64 : i32\n    %0 = tt.get_program_id x : i32\n    %1 = tt.get_program_id y : i32\n    %2 = arith.muli %1, %arg7 : i32\n    %3 = arith.muli %2, %c64_i32 : i32\n    %4 = arith.muli %0, %c64_i32 : i32\n    %5 = arith.addi %3, %4 : i32\n    %6 = arith.muli %1, %arg8 : i32\n    %7 = arith.muli %6, %c64_i32 : i32\n    %8 = arith.addi %2, %0 : i32\n    %9 = tt.make_range {end = 64 : i32, start = 0 : i32} : tensor<64xi32>\n    %10 = tt.splat %arg9 : f32 -> tensor<64xf32>\n    %11 = tt.splat %5 : i32 -> tensor<64xi32>\n    %12 = arith.addi %9, %11 : tensor<64xi32>\n    %13 = tt.splat %arg0 : !tt.ptr<f32> -> tensor<64x!tt.ptr<f32>>\n    %14 = tt.addptr %13, %12 : tensor<64x!tt.ptr<f32>>, tensor<64xi32>\n    %15 = tt.load %14 : tensor<64x!tt.ptr<f32>>\n    %16 = tt.splat %5 : i32 -> tensor<64xi32>\n    %17 = arith.addi %9, %16 : tensor<64xi32>\n    %18 = tt.splat %arg3 : !tt.ptr<f32> -> tensor<64x!tt.ptr<f32>>\n    %19 = tt.addptr %18, %17 : tensor<64x!tt.ptr<f32>>, tensor<64xi32>\n    %20 = tt.load %19 : tensor<64x!tt.ptr<f32>>\n    %21 = tt.splat %5 : i32 -> tensor<64xi32>\n    %22 = arith.addi %9, %21 : tensor<64xi32>\n    %23 = tt.splat %arg4 : !tt.ptr<f32> -> tensor<64x!tt.ptr<f32>>\n    %24 = tt.addptr %23, %22 : tensor<64x!tt.ptr<f32>>, tensor<64xi32>\n    %25 = tt.load %24 : tensor<64x!tt.ptr<f32>>\n    %26 = arith.mulf %20, %25 : tensor<64xf32>\n    %27 = \"tt.reduce\"(%26) <{axis = 0 : i32}> ({\n    ^bb0(%arg10: f32, %arg11: f32):\n      %38 = arith.addf %arg10, %arg11 : f32\n      tt.reduce.return %38 : f32\n    }) : (tensor<64xf32>) -> f32\n    %28 = tt.splat %8 : i32 -> tensor<1xi32>\n    %29 = tt.splat %arg5 : !tt.ptr<f32> -> tensor<1x!tt.ptr<f32>>\n    %30 = tt.addptr %29, %28 : tensor<1x!tt.ptr<f32>>, tensor<1xi32>\n    %31 = tt.load %30 : tensor<1x!tt.ptr<f32>>\n    %32 = \"tt.reduce\"(%31) <{axis = 0 : i32}> ({\n    ^bb0(%arg10: f32, %arg11: f32):\n      %38 = arith.addf %arg10, %arg11 : f32\n      tt.reduce.return %38 : f32\n    }) : (tensor<1xf32>) -> f32\n    %33:2 = scf.for %arg10 = %c0_i32 to %arg8 step %c1_i32 iter_args(%arg11 = %c0_i32, %arg12 = %cst) -> (i32, tensor<64xf32>)  : i32 {\n      %38 = arith.addi %arg11, %c1_i32 : i32\n      %39 = arith.muli %arg11, %c64_i32 : i32\n      %40 = arith.addi %7, %39 : i32\n      %41 = tt.splat %40 : i32 -> tensor<64xi32>\n      %42 = arith.addi %9, %41 : tensor<64xi32>\n      %43 = tt.splat %arg1 : !tt.ptr<f32> -> tensor<64x!tt.ptr<f32>>\n      %44 = tt.addptr %43, %42 : tensor<64x!tt.ptr<f32>>, tensor<64xi32>\n      %45 = tt.load %44 : tensor<64x!tt.ptr<f32>>\n      %46 = tt.splat %40 : i32 -> tensor<64xi32>\n      %47 = arith.addi %9, %46 : tensor<64xi32>\n      %48 = tt.splat %arg2 : !tt.ptr<f32> -> tensor<64x!tt.ptr<f32>>\n      %49 = tt.addptr %48, %47 : tensor<64x!tt.ptr<f32>>, tensor<64xi32>\n      %50 = tt.load %49 : tensor<64x!tt.ptr<f32>>\n      %51 = arith.mulf %15, %45 : tensor<64xf32>\n      %52 = \"tt.reduce\"(%51) <{axis = 0 : i32}> ({\n      ^bb0(%arg13: f32, %arg14: f32):\n        %66 = arith.addf %arg13, %arg14 : f32\n        tt.reduce.return %66 : f32\n      }) : (tensor<64xf32>) -> f32\n      %53 = tt.splat %52 : f32 -> tensor<64xf32>\n      %54 = arith.mulf %53, %10 : tensor<64xf32>\n      %55 = tt.splat %32 : f32 -> tensor<64xf32>\n      %56 = arith.subf %54, %55 : tensor<64xf32>\n      %57 = math.exp %56 : tensor<64xf32>\n      %58 = arith.mulf %25, %50 : tensor<64xf32>\n      %59 = \"tt.reduce\"(%58) <{axis = 0 : i32}> ({\n      ^bb0(%arg13: f32, %arg14: f32):\n        %66 = arith.addf %arg13, %arg14 : f32\n        tt.reduce.return %66 : f32\n      }) : (tensor<64xf32>) -> f32\n      %60 = arith.subf %59, %27 : f32\n      %61 = tt.splat %60 : f32 -> tensor<64xf32>\n      %62 = arith.mulf %57, %61 : tensor<64xf32>\n      %63 = arith.mulf %62, %45 : tensor<64xf32>\n      %64 = arith.mulf %63, %10 : tensor<64xf32>\n      %65 = arith.addf %arg12, %64 : tensor<64xf32>\n      scf.yield %38, %65 : i32, tensor<64xf32>\n    }\n    %34 = tt.splat %5 : i32 -> tensor<64xi32>\n    %35 = arith.addi %9, %34 : tensor<64xi32>\n    %36 = tt.splat %arg6 : !tt.ptr<f32> -> tensor<64x!tt.ptr<f32>>\n    %37 = tt.addptr %36, %35 : tensor<64x!tt.ptr<f32>>, tensor<64xi32>\n    tt.store %37, %33#1 {operandSegmentSizes = array<i32: 1, 1, 0>} : tensor<64x!tt.ptr<f32>>\n    tt.return\n  }\n  tt.func public @entry_point(%arg0: !tt.ptr<f32> {tt.divisibility = 16 : i32}, %arg1: !tt.ptr<f32> {tt.divisibility = 16 : i32}, %arg2: !tt.ptr<f32> {tt.divisibility = 16 : i32}, %arg3: !tt.ptr<f32> {tt.divisibility = 16 : i32}, %arg4: !tt.ptr<f32> {tt.divisibility = 16 : i32}, %arg5: !tt.ptr<f32> {tt.divisibility = 16 : i32}, %arg6: !tt.ptr<f32> {tt.divisibility = 16 : i32}, %arg7: i32 {tt.divisibility = 16 : i32}, %arg8: i32 {tt.divisibility = 16 : i32}, %arg9: f32 {tt.divisibility = 16 : i32}) {\n    tt.call @_RINvCs9yqlPCkmZGE_93flash_attention2_backward_dq_e0f1015d3d80c8b39bcb0fba05e388c430b3cc8e7a843678d5003027c5c23fd628flash_attention2_backward_dqNtNtNtNtB2_6triton4llvm6triton10LlvmTritonKl40_EB2_(%arg0, %arg1, %arg2, %arg3, %arg4, %arg5, %arg6, %arg7, %arg8, %arg9) {arg_attrs = [{}, {}, {}, {}, {}, {}, {}, {}, {}, {}], res_attrs = []} : (!tt.ptr<f32>, !tt.ptr<f32>, !tt.ptr<f32>, !tt.ptr<f32>, !tt.ptr<f32>, !tt.ptr<f32>, !tt.ptr<f32>, i32, i32, f32) -> ()\n    tt.return\n  }\n}"
