---
source: kernels/teeny-kernels/tests/test_conv2d.rs
expression: mlir.trim()
---
"module {\n  tt.func private @_RINvCs2HsUXlxzPai_83conv2d_backward_dx_daaefc3c065415ea0b00f82015448be74378bc26d50b889400ce212581077a7f18conv2d_backward_dxNtNtNtNtB2_6triton4llvm6triton10LlvmTritonfKl3_KB2F_Kl1_KB2O_Kl8_EB2_(%arg0: !tt.ptr<f32> {tt.divisibility = 16 : i32}, %arg1: !tt.ptr<f32> {tt.divisibility = 16 : i32}, %arg2: !tt.ptr<f32> {tt.divisibility = 16 : i32}, %arg3: i32 {tt.divisibility = 16 : i32}, %arg4: i32 {tt.divisibility = 16 : i32}, %arg5: i32 {tt.divisibility = 16 : i32}, %arg6: i32 {tt.divisibility = 16 : i32}, %arg7: i32 {tt.divisibility = 16 : i32}, %arg8: i32 {tt.divisibility = 16 : i32}, %arg9: i32 {tt.divisibility = 16 : i32}) {\n    %c9_i32 = arith.constant 9 : i32\n    %cst = arith.constant dense<0.000000e+00> : tensor<8xf32>\n    %c7_i32 = arith.constant 7 : i32\n    %c3_i32 = arith.constant 3 : i32\n    %c0_i32 = arith.constant 0 : i32\n    %c1_i32 = arith.constant 1 : i32\n    %c8_i32 = arith.constant 8 : i32\n    %0 = tt.get_program_id x : i32\n    %1 = arith.addi %arg9, %c7_i32 : i32\n    %2 = arith.divsi %1, %c8_i32 : i32\n    %3 = arith.remsi %0, %2 : i32\n    %4 = arith.divsi %0, %2 : i32\n    %5 = arith.remsi %4, %arg8 : i32\n    %6 = arith.divsi %4, %arg8 : i32\n    %7 = arith.remsi %6, %arg5 : i32\n    %8 = arith.divsi %6, %arg5 : i32\n    %9 = arith.muli %3, %c8_i32 : i32\n    %10 = tt.make_range {end = 8 : i32, start = 0 : i32} : tensor<8xi32>\n    %11 = tt.splat %9 : i32 -> tensor<8xi32>\n    %12 = arith.addi %10, %11 : tensor<8xi32>\n    %13 = tt.splat %arg9 : i32 -> tensor<8xi32>\n    %14 = arith.cmpi slt, %12, %13 : tensor<8xi32>\n    %15 = arith.muli %8, %arg5 : i32\n    %16 = arith.addi %15, %7 : i32\n    %17 = arith.muli %16, %arg8 : i32\n    %18 = arith.muli %17, %arg9 : i32\n    %19 = arith.muli %5, %arg9 : i32\n    %20 = arith.addi %18, %19 : i32\n    %21 = tt.splat %20 : i32 -> tensor<8xi32>\n    %22 = arith.addi %12, %21 : tensor<8xi32>\n    %23 = tt.splat %arg0 : !tt.ptr<f32> -> tensor<8x!tt.ptr<f32>>\n    %24 = tt.addptr %23, %22 : tensor<8x!tt.ptr<f32>>, tensor<8xi32>\n    %25 = tt.load %24, %14, %cst : tensor<8x!tt.ptr<f32>>\n    %26 = arith.muli %arg4, %c9_i32 : i32\n    %27 = scf.for %arg10 = %c0_i32 to %26 step %c1_i32 iter_args(%arg11 = %c0_i32) -> (i32)  : i32 {\n      %28 = arith.addi %arg11, %c1_i32 : i32\n      %29 = arith.remsi %arg11, %c3_i32 : i32\n      %30 = arith.divsi %arg11, %c3_i32 : i32\n      %31 = arith.remsi %30, %c3_i32 : i32\n      %32 = arith.divsi %30, %c3_i32 : i32\n      %33 = arith.muli %7, %arg4 : i32\n      %34 = arith.addi %33, %32 : i32\n      %35 = arith.muli %34, %c3_i32 : i32\n      %36 = arith.addi %35, %31 : i32\n      %37 = arith.muli %36, %c3_i32 : i32\n      %38 = arith.addi %37, %29 : i32\n      %39 = tt.splat %38 : i32 -> tensor<1xi32>\n      %40 = tt.splat %arg1 : !tt.ptr<f32> -> tensor<1x!tt.ptr<f32>>\n      %41 = tt.addptr %40, %39 : tensor<1x!tt.ptr<f32>>, tensor<1xi32>\n      %42 = tt.load %41 : tensor<1x!tt.ptr<f32>>\n      %43 = tt.broadcast %42 : tensor<1xf32> -> tensor<8xf32>\n      %44 = arith.mulf %25, %43 : tensor<8xf32>\n      %45 = arith.addi %5, %31 : i32\n      %46 = tt.splat %29 : i32 -> tensor<8xi32>\n      %47 = arith.addi %12, %46 : tensor<8xi32>\n      %48 = arith.muli %8, %arg4 : i32\n      %49 = arith.addi %48, %32 : i32\n      %50 = arith.muli %49, %arg6 : i32\n      %51 = arith.muli %50, %arg7 : i32\n      %52 = arith.muli %45, %arg7 : i32\n      %53 = arith.addi %51, %52 : i32\n      %54 = tt.splat %53 : i32 -> tensor<8xi32>\n      %55 = arith.addi %47, %54 : tensor<8xi32>\n      %56 = tt.splat %arg2 : !tt.ptr<f32> -> tensor<8x!tt.ptr<f32>>\n      %57 = tt.addptr %56, %55 : tensor<8x!tt.ptr<f32>>, tensor<8xi32>\n      %58 = tt.atomic_rmw fadd, relaxed, gpu, %57, %44, %14 {operandSegmentSizes = array<i32: 1, 1, 1>} : (tensor<8x!tt.ptr<f32>>, tensor<8xf32>, tensor<8xi1>) -> tensor<8xf32>\n      scf.yield %28 : i32\n    }\n    tt.return\n  }\n  tt.func public @entry_point(%arg0: !tt.ptr<f32> {tt.divisibility = 16 : i32}, %arg1: !tt.ptr<f32> {tt.divisibility = 16 : i32}, %arg2: !tt.ptr<f32> {tt.divisibility = 16 : i32}, %arg3: i32 {tt.divisibility = 16 : i32}, %arg4: i32 {tt.divisibility = 16 : i32}, %arg5: i32 {tt.divisibility = 16 : i32}, %arg6: i32 {tt.divisibility = 16 : i32}, %arg7: i32 {tt.divisibility = 16 : i32}, %arg8: i32 {tt.divisibility = 16 : i32}, %arg9: i32 {tt.divisibility = 16 : i32}) {\n    tt.call @_RINvCs2HsUXlxzPai_83conv2d_backward_dx_daaefc3c065415ea0b00f82015448be74378bc26d50b889400ce212581077a7f18conv2d_backward_dxNtNtNtNtB2_6triton4llvm6triton10LlvmTritonfKl3_KB2F_Kl1_KB2O_Kl8_EB2_(%arg0, %arg1, %arg2, %arg3, %arg4, %arg5, %arg6, %arg7, %arg8, %arg9) {arg_attrs = [{}, {}, {}, {}, {}, {}, {}, {}, {}, {}], res_attrs = []} : (!tt.ptr<f32>, !tt.ptr<f32>, !tt.ptr<f32>, i32, i32, i32, i32, i32, i32, i32) -> ()\n    tt.return\n  }\n}"
