---
source: kernels/teeny-kernels/tests/test_optim_adagrad.rs
expression: mlir.trim()
---
"module {\n  tt.func private @_RINvCsg36tKjDKihd_78adadelta_step_3f146fff76962caee383297cc47600b1bc02a69af0c760415e1d1546ae3ac16113adadelta_stepNtNtNtNtB2_6triton4llvm6triton10LlvmTritonKl80_EB2_(%arg0: !tt.ptr<f32> {tt.divisibility = 16 : i32}, %arg1: !tt.ptr<f32> {tt.divisibility = 16 : i32}, %arg2: !tt.ptr<f32> {tt.divisibility = 16 : i32}, %arg3: !tt.ptr<f32> {tt.divisibility = 16 : i32}, %arg4: i32 {tt.divisibility = 16 : i32}, %arg5: f32 {tt.divisibility = 16 : i32}, %arg6: f32 {tt.divisibility = 16 : i32}, %arg7: f32 {tt.divisibility = 16 : i32}, %arg8: f32 {tt.divisibility = 16 : i32}) {\n    %cst = arith.constant dense<5.000000e-01> : tensor<128xf32>\n    %cst_0 = arith.constant 1.000000e+00 : f32\n    %c128_i32 = arith.constant 128 : i32\n    %0 = tt.get_program_id x : i32\n    %1 = arith.muli %0, %c128_i32 : i32\n    %2 = tt.make_range {end = 128 : i32, start = 0 : i32} : tensor<128xi32>\n    %3 = tt.splat %1 : i32 -> tensor<128xi32>\n    %4 = arith.addi %2, %3 : tensor<128xi32>\n    %5 = tt.splat %arg4 : i32 -> tensor<128xi32>\n    %6 = arith.cmpi slt, %4, %5 : tensor<128xi32>\n    %7 = tt.splat %arg0 : !tt.ptr<f32> -> tensor<128x!tt.ptr<f32>>\n    %8 = tt.addptr %7, %4 : tensor<128x!tt.ptr<f32>>, tensor<128xi32>\n    %9 = tt.load %8, %6 : tensor<128x!tt.ptr<f32>>\n    %10 = tt.splat %arg1 : !tt.ptr<f32> -> tensor<128x!tt.ptr<f32>>\n    %11 = tt.addptr %10, %4 : tensor<128x!tt.ptr<f32>>, tensor<128xi32>\n    %12 = tt.load %11, %6 : tensor<128x!tt.ptr<f32>>\n    %13 = tt.splat %arg2 : !tt.ptr<f32> -> tensor<128x!tt.ptr<f32>>\n    %14 = tt.addptr %13, %4 : tensor<128x!tt.ptr<f32>>, tensor<128xi32>\n    %15 = tt.load %14, %6 : tensor<128x!tt.ptr<f32>>\n    %16 = tt.splat %arg3 : !tt.ptr<f32> -> tensor<128x!tt.ptr<f32>>\n    %17 = tt.addptr %16, %4 : tensor<128x!tt.ptr<f32>>, tensor<128xi32>\n    %18 = tt.load %17, %6 : tensor<128x!tt.ptr<f32>>\n    %19 = tt.splat %arg5 : f32 -> tensor<128xf32>\n    %20 = tt.splat %arg6 : f32 -> tensor<128xf32>\n    %21 = arith.subf %cst_0, %arg6 : f32\n    %22 = tt.splat %21 : f32 -> tensor<128xf32>\n    %23 = tt.splat %arg7 : f32 -> tensor<128xf32>\n    %24 = tt.splat %arg8 : f32 -> tensor<128xf32>\n    %25 = arith.mulf %24, %9 : tensor<128xf32>\n    %26 = arith.addf %12, %25 : tensor<128xf32>\n    %27 = arith.mulf %20, %15 : tensor<128xf32>\n    %28 = arith.mulf %22, %26 : tensor<128xf32>\n    %29 = arith.mulf %28, %26 : tensor<128xf32>\n    %30 = arith.addf %27, %29 : tensor<128xf32>\n    %31 = arith.addf %30, %23 : tensor<128xf32>\n    %32 = math.log %31 : tensor<128xf32>\n    %33 = arith.mulf %32, %cst : tensor<128xf32>\n    %34 = math.exp %33 : tensor<128xf32>\n    %35 = arith.addf %18, %23 : tensor<128xf32>\n    %36 = math.log %35 : tensor<128xf32>\n    %37 = arith.mulf %36, %cst : tensor<128xf32>\n    %38 = math.exp %37 : tensor<128xf32>\n    %39 = arith.divf %38, %34 : tensor<128xf32>\n    %40 = arith.mulf %39, %26 : tensor<128xf32>\n    %41 = arith.mulf %19, %40 : tensor<128xf32>\n    %42 = arith.subf %9, %41 : tensor<128xf32>\n    %43 = arith.mulf %20, %18 : tensor<128xf32>\n    %44 = arith.mulf %22, %40 : tensor<128xf32>\n    %45 = arith.mulf %44, %40 : tensor<128xf32>\n    %46 = arith.addf %43, %45 : tensor<128xf32>\n    %47 = tt.splat %arg0 : !tt.ptr<f32> -> tensor<128x!tt.ptr<f32>>\n    %48 = tt.addptr %47, %4 : tensor<128x!tt.ptr<f32>>, tensor<128xi32>\n    tt.store %48, %42, %6 {operandSegmentSizes = array<i32: 1, 1, 1>} : tensor<128x!tt.ptr<f32>>\n    %49 = tt.splat %arg2 : !tt.ptr<f32> -> tensor<128x!tt.ptr<f32>>\n    %50 = tt.addptr %49, %4 : tensor<128x!tt.ptr<f32>>, tensor<128xi32>\n    tt.store %50, %30, %6 {operandSegmentSizes = array<i32: 1, 1, 1>} : tensor<128x!tt.ptr<f32>>\n    %51 = tt.splat %arg3 : !tt.ptr<f32> -> tensor<128x!tt.ptr<f32>>\n    %52 = tt.addptr %51, %4 : tensor<128x!tt.ptr<f32>>, tensor<128xi32>\n    tt.store %52, %46, %6 {operandSegmentSizes = array<i32: 1, 1, 1>} : tensor<128x!tt.ptr<f32>>\n    tt.return\n  }\n  tt.func public @entry_point(%arg0: !tt.ptr<f32> {tt.divisibility = 16 : i32}, %arg1: !tt.ptr<f32> {tt.divisibility = 16 : i32}, %arg2: !tt.ptr<f32> {tt.divisibility = 16 : i32}, %arg3: !tt.ptr<f32> {tt.divisibility = 16 : i32}, %arg4: i32 {tt.divisibility = 16 : i32}, %arg5: f32 {tt.divisibility = 16 : i32}, %arg6: f32 {tt.divisibility = 16 : i32}, %arg7: f32 {tt.divisibility = 16 : i32}, %arg8: f32 {tt.divisibility = 16 : i32}) {\n    tt.call @_RINvCsg36tKjDKihd_78adadelta_step_3f146fff76962caee383297cc47600b1bc02a69af0c760415e1d1546ae3ac16113adadelta_stepNtNtNtNtB2_6triton4llvm6triton10LlvmTritonKl80_EB2_(%arg0, %arg1, %arg2, %arg3, %arg4, %arg5, %arg6, %arg7, %arg8) {arg_attrs = [{}, {}, {}, {}, {}, {}, {}, {}, {}], res_attrs = []} : (!tt.ptr<f32>, !tt.ptr<f32>, !tt.ptr<f32>, !tt.ptr<f32>, i32, f32, f32, f32, f32) -> ()\n    tt.return\n  }\n}"
