---
source: kernels/teeny-kernels/tests/test_reflection_pad2d.rs
expression: mlir.trim()
---
"module {\n  tt.func private @_RINvCscinbTxmZ9w1_90reflection_pad2d_backward_a1640dd97dc7a11270dbc7c193de4e4884778e12082173cd495b3fa883a6832725reflection_pad2d_backwardNtNtNtNtB2_6triton4llvm6triton10LlvmTritonfKl1_Kl2_KB2X_Kl3_Kl10_EB2_(%arg0: !tt.ptr<f32> {tt.divisibility = 16 : i32}, %arg1: !tt.ptr<f32> {tt.divisibility = 16 : i32}, %arg2: i32 {tt.divisibility = 16 : i32}, %arg3: i32 {tt.divisibility = 16 : i32}, %arg4: i32 {tt.divisibility = 16 : i32}, %arg5: i32 {tt.divisibility = 16 : i32}, %arg6: i32 {tt.divisibility = 16 : i32}, %arg7: i32 {tt.divisibility = 16 : i32}) {\n    %cst = arith.constant dense<0> : tensor<16xi32>\n    %cst_0 = arith.constant dense<2> : tensor<16xi32>\n    %cst_1 = arith.constant dense<0.000000e+00> : tensor<16xf32>\n    %c15_i32 = arith.constant 15 : i32\n    %c2_i32 = arith.constant 2 : i32\n    %false = arith.constant false\n    %c0_i32 = arith.constant 0 : i32\n    %c1_i32 = arith.constant 1 : i32\n    %c16_i32 = arith.constant 16 : i32\n    %0 = tt.get_program_id x : i32\n    %1 = arith.addi %arg7, %c15_i32 : i32\n    %2 = arith.divsi %1, %c16_i32 : i32\n    %3 = arith.remsi %0, %2 : i32\n    %4 = arith.divsi %0, %2 : i32\n    %5 = arith.remsi %4, %arg6 : i32\n    %6 = arith.divsi %4, %arg6 : i32\n    %7 = arith.remsi %6, %arg3 : i32\n    %8 = arith.divsi %6, %arg3 : i32\n    %9 = arith.muli %3, %c16_i32 : i32\n    %10 = tt.make_range {end = 16 : i32, start = 0 : i32} : tensor<16xi32>\n    %11 = tt.splat %9 : i32 -> tensor<16xi32>\n    %12 = arith.addi %10, %11 : tensor<16xi32>\n    %13 = tt.splat %arg7 : i32 -> tensor<16xi32>\n    %14 = arith.cmpi slt, %12, %13 : tensor<16xi32>\n    %15 = arith.subi %5, %c1_i32 : i32\n    %16 = arith.cmpi slt, %15, %c0_i32 : i32\n    %17 = arith.cmpi eq, %16, %false : i1\n    cf.cond_br %17, ^bb1, ^bb2\n  ^bb1:  // pred: ^bb0\n    %18 = arith.cmpi sge, %15, %arg4 : i32\n    %19 = arith.cmpi eq, %18, %false : i1\n    cf.cond_br %19, ^bb4(%15 : i32), ^bb3\n  ^bb2:  // pred: ^bb0\n    %20 = arith.subi %c1_i32, %5 : i32\n    cf.br ^bb4(%20 : i32)\n  ^bb3:  // pred: ^bb1\n    %21 = arith.subi %arg4, %c1_i32 : i32\n    %22 = arith.muli %21, %c2_i32 : i32\n    %23 = arith.subi %22, %15 : i32\n    cf.br ^bb4(%23 : i32)\n  ^bb4(%24: i32):  // 3 preds: ^bb1, ^bb2, ^bb3\n    %25 = arith.muli %8, %arg3 : i32\n    %26 = arith.addi %25, %7 : i32\n    %27 = arith.muli %26, %arg6 : i32\n    %28 = arith.addi %27, %5 : i32\n    %29 = arith.muli %28, %arg7 : i32\n    %30 = arith.muli %26, %arg4 : i32\n    %31 = arith.muli %30, %arg5 : i32\n    %32 = arith.muli %24, %arg5 : i32\n    %33 = arith.addi %31, %32 : i32\n    %34 = tt.splat %29 : i32 -> tensor<16xi32>\n    %35 = arith.addi %12, %34 : tensor<16xi32>\n    %36 = tt.splat %arg0 : !tt.ptr<f32> -> tensor<16x!tt.ptr<f32>>\n    %37 = tt.addptr %36, %35 : tensor<16x!tt.ptr<f32>>, tensor<16xi32>\n    %38 = tt.load %37, %14, %cst_1 : tensor<16x!tt.ptr<f32>>\n    %39 = arith.subi %12, %cst_0 : tensor<16xi32>\n    %40 = arith.cmpi slt, %39, %cst : tensor<16xi32>\n    %41 = tt.splat %arg5 : i32 -> tensor<16xi32>\n    %42 = arith.cmpi sge, %39, %41 : tensor<16xi32>\n    %43 = arith.cmpi sge, %39, %cst : tensor<16xi32>\n    %44 = tt.splat %arg5 : i32 -> tensor<16xi32>\n    %45 = arith.cmpi slt, %39, %44 : tensor<16xi32>\n    %46 = arith.andi %43, %45 : tensor<16xi1>\n    %47 = arith.subi %arg5, %c1_i32 : i32\n    %48 = arith.muli %47, %c2_i32 : i32\n    %49 = tt.splat %48 : i32 -> tensor<16xi32>\n    %50 = arith.subi %49, %39 : tensor<16xi32>\n    %51 = tt.splat %33 : i32 -> tensor<16xi32>\n    %52 = arith.addi %39, %51 : tensor<16xi32>\n    %53 = tt.splat %arg1 : !tt.ptr<f32> -> tensor<16x!tt.ptr<f32>>\n    %54 = tt.addptr %53, %52 : tensor<16x!tt.ptr<f32>>, tensor<16xi32>\n    %55 = arith.andi %14, %46 : tensor<16xi1>\n    %56 = tt.atomic_rmw fadd, relaxed, gpu, %54, %38, %55 {operandSegmentSizes = array<i32: 1, 1, 1>} : (tensor<16x!tt.ptr<f32>>, tensor<16xf32>, tensor<16xi1>) -> tensor<16xf32>\n    %57 = tt.splat %33 : i32 -> tensor<16xi32>\n    %58 = arith.subi %57, %39 : tensor<16xi32>\n    %59 = tt.splat %arg1 : !tt.ptr<f32> -> tensor<16x!tt.ptr<f32>>\n    %60 = tt.addptr %59, %58 : tensor<16x!tt.ptr<f32>>, tensor<16xi32>\n    %61 = arith.andi %14, %40 : tensor<16xi1>\n    %62 = tt.atomic_rmw fadd, relaxed, gpu, %60, %38, %61 {operandSegmentSizes = array<i32: 1, 1, 1>} : (tensor<16x!tt.ptr<f32>>, tensor<16xf32>, tensor<16xi1>) -> tensor<16xf32>\n    %63 = tt.splat %33 : i32 -> tensor<16xi32>\n    %64 = arith.addi %50, %63 : tensor<16xi32>\n    %65 = tt.splat %arg1 : !tt.ptr<f32> -> tensor<16x!tt.ptr<f32>>\n    %66 = tt.addptr %65, %64 : tensor<16x!tt.ptr<f32>>, tensor<16xi32>\n    %67 = arith.andi %14, %42 : tensor<16xi1>\n    %68 = tt.atomic_rmw fadd, relaxed, gpu, %66, %38, %67 {operandSegmentSizes = array<i32: 1, 1, 1>} : (tensor<16x!tt.ptr<f32>>, tensor<16xf32>, tensor<16xi1>) -> tensor<16xf32>\n    tt.return\n  }\n  tt.func public @entry_point(%arg0: !tt.ptr<f32> {tt.divisibility = 16 : i32}, %arg1: !tt.ptr<f32> {tt.divisibility = 16 : i32}, %arg2: i32 {tt.divisibility = 16 : i32}, %arg3: i32 {tt.divisibility = 16 : i32}, %arg4: i32 {tt.divisibility = 16 : i32}, %arg5: i32 {tt.divisibility = 16 : i32}, %arg6: i32 {tt.divisibility = 16 : i32}, %arg7: i32 {tt.divisibility = 16 : i32}) {\n    tt.call @_RINvCscinbTxmZ9w1_90reflection_pad2d_backward_a1640dd97dc7a11270dbc7c193de4e4884778e12082173cd495b3fa883a6832725reflection_pad2d_backwardNtNtNtNtB2_6triton4llvm6triton10LlvmTritonfKl1_Kl2_KB2X_Kl3_Kl10_EB2_(%arg0, %arg1, %arg2, %arg3, %arg4, %arg5, %arg6, %arg7) {arg_attrs = [{}, {}, {}, {}, {}, {}, {}, {}], res_attrs = []} : (!tt.ptr<f32>, !tt.ptr<f32>, i32, i32, i32, i32, i32, i32) -> ()\n    tt.return\n  }\n}"
