---
source: kernels/teeny-kernels/tests/test_loss_bce.rs
expression: mlir.trim()
---
"module {\n  tt.func private @_RINvCsd34yqYa1l5x_90gaussian_nll_loss_forward_41e2a0d4b0ac23e13d41f50c78cbe5c79205ae1d675d9a1a4f944f3ae688a94c25gaussian_nll_loss_forwardNtNtNtNtB2_6triton4llvm6triton10LlvmTritonKl400_EB2_(%arg0: !tt.ptr<f32> {tt.divisibility = 16 : i32}, %arg1: !tt.ptr<f32> {tt.divisibility = 16 : i32}, %arg2: !tt.ptr<f32> {tt.divisibility = 16 : i32}, %arg3: !tt.ptr<f32> {tt.divisibility = 16 : i32}, %arg4: i32 {tt.divisibility = 16 : i32}, %arg5: f32 {tt.divisibility = 16 : i32}) {\n    %cst = arith.constant dense<5.000000e-01> : tensor<1024xf32>\n    %cst_0 = arith.constant dense<0.000000e+00> : tensor<1024xf32>\n    %c1024_i32 = arith.constant 1024 : i32\n    %0 = tt.get_program_id x : i32\n    %1 = arith.muli %0, %c1024_i32 : i32\n    %2 = tt.make_range {end = 1024 : i32, start = 0 : i32} : tensor<1024xi32>\n    %3 = tt.splat %1 : i32 -> tensor<1024xi32>\n    %4 = arith.addi %2, %3 : tensor<1024xi32>\n    %5 = tt.splat %arg4 : i32 -> tensor<1024xi32>\n    %6 = arith.cmpi slt, %4, %5 : tensor<1024xi32>\n    %7 = tt.splat %arg0 : !tt.ptr<f32> -> tensor<1024x!tt.ptr<f32>>\n    %8 = tt.addptr %7, %4 : tensor<1024x!tt.ptr<f32>>, tensor<1024xi32>\n    %9 = tt.load %8, %6, %cst_0 : tensor<1024x!tt.ptr<f32>>\n    %10 = tt.splat %arg1 : !tt.ptr<f32> -> tensor<1024x!tt.ptr<f32>>\n    %11 = tt.addptr %10, %4 : tensor<1024x!tt.ptr<f32>>, tensor<1024xi32>\n    %12 = tt.load %11, %6, %cst_0 : tensor<1024x!tt.ptr<f32>>\n    %13 = tt.splat %arg2 : !tt.ptr<f32> -> tensor<1024x!tt.ptr<f32>>\n    %14 = tt.addptr %13, %4 : tensor<1024x!tt.ptr<f32>>, tensor<1024xi32>\n    %15 = tt.load %14, %6, %cst_0 : tensor<1024x!tt.ptr<f32>>\n    %16 = tt.splat %arg5 : f32 -> tensor<1024xf32>\n    %17 = arith.maximumf %15, %16 : tensor<1024xf32>\n    %18 = arith.subf %9, %12 : tensor<1024xf32>\n    %19 = math.log %17 : tensor<1024xf32>\n    %20 = arith.mulf %18, %18 : tensor<1024xf32>\n    %21 = arith.divf %20, %17 : tensor<1024xf32>\n    %22 = arith.addf %19, %21 : tensor<1024xf32>\n    %23 = arith.mulf %22, %cst : tensor<1024xf32>\n    %24 = tt.splat %arg3 : !tt.ptr<f32> -> tensor<1024x!tt.ptr<f32>>\n    %25 = tt.addptr %24, %4 : tensor<1024x!tt.ptr<f32>>, tensor<1024xi32>\n    tt.store %25, %23, %6 {operandSegmentSizes = array<i32: 1, 1, 1>} : tensor<1024x!tt.ptr<f32>>\n    tt.return\n  }\n  tt.func public @entry_point(%arg0: !tt.ptr<f32> {tt.divisibility = 16 : i32}, %arg1: !tt.ptr<f32> {tt.divisibility = 16 : i32}, %arg2: !tt.ptr<f32> {tt.divisibility = 16 : i32}, %arg3: !tt.ptr<f32> {tt.divisibility = 16 : i32}, %arg4: i32 {tt.divisibility = 16 : i32}, %arg5: f32 {tt.divisibility = 16 : i32}) {\n    tt.call @_RINvCsd34yqYa1l5x_90gaussian_nll_loss_forward_41e2a0d4b0ac23e13d41f50c78cbe5c79205ae1d675d9a1a4f944f3ae688a94c25gaussian_nll_loss_forwardNtNtNtNtB2_6triton4llvm6triton10LlvmTritonKl400_EB2_(%arg0, %arg1, %arg2, %arg3, %arg4, %arg5) {arg_attrs = [{}, {}, {}, {}, {}, {}], res_attrs = []} : (!tt.ptr<f32>, !tt.ptr<f32>, !tt.ptr<f32>, !tt.ptr<f32>, i32, f32) -> ()\n    tt.return\n  }\n}"
