---
source: kernels/teeny-kernels/tests/test_gelu.rs
assertion_line: 48
expression: mlir.trim()
---
"module {\n  tt.func private @_RINvCsbwJQJFp6Yd7_77gelu_forward_ac6feb70a0a2839c498a42c1fb1564709189f8dbbad9daa15c1d2fa169805ecc12gelu_forwardNtNtNtNtB2_6triton4llvm6triton10LlvmTritonKl80_EB2_(%arg0: !tt.ptr<f32> {tt.divisibility = 16 : i32}, %arg1: !tt.ptr<f32> {tt.divisibility = 16 : i32}, %arg2: i32 {tt.divisibility = 16 : i32}) {\n    %cst = arith.constant dense<4.471500e-02> : tensor<128xf32>\n    %cst_0 = arith.constant dense<-1.59576917> : tensor<128xf32>\n    %cst_1 = arith.constant dense<1.000000e+00> : tensor<128xf32>\n    %c128_i32 = arith.constant 128 : i32\n    %0 = tt.get_program_id x : i32\n    %1 = arith.muli %0, %c128_i32 : i32\n    %2 = tt.make_range {end = 128 : i32, start = 0 : i32} : tensor<128xi32>\n    %3 = tt.splat %1 : i32 -> tensor<128xi32>\n    %4 = arith.addi %2, %3 : tensor<128xi32>\n    %5 = tt.splat %arg2 : i32 -> tensor<128xi32>\n    %6 = arith.cmpi slt, %4, %5 : tensor<128xi32>\n    %7 = tt.splat %arg0 : !tt.ptr<f32> -> tensor<128x!tt.ptr<f32>>\n    %8 = tt.addptr %7, %4 : tensor<128x!tt.ptr<f32>>, tensor<128xi32>\n    %9 = tt.load %8, %6 : tensor<128x!tt.ptr<f32>>\n    %10 = arith.mulf %9, %cst : tensor<128xf32>\n    %11 = arith.mulf %10, %9 : tensor<128xf32>\n    %12 = arith.mulf %11, %9 : tensor<128xf32>\n    %13 = arith.addf %9, %12 : tensor<128xf32>\n    %14 = arith.mulf %13, %cst_0 : tensor<128xf32>\n    %15 = math.exp %14 : tensor<128xf32>\n    %16 = arith.addf %15, %cst_1 : tensor<128xf32>\n    %17 = arith.divf %9, %16 : tensor<128xf32>\n    %18 = tt.splat %arg1 : !tt.ptr<f32> -> tensor<128x!tt.ptr<f32>>\n    %19 = tt.addptr %18, %4 : tensor<128x!tt.ptr<f32>>, tensor<128xi32>\n    tt.store %19, %17, %6 {operandSegmentSizes = array<i32: 1, 1, 1>} : tensor<128x!tt.ptr<f32>>\n    tt.return\n  }\n  tt.func public @entry_point(%arg0: !tt.ptr<f32> {tt.divisibility = 16 : i32}, %arg1: !tt.ptr<f32> {tt.divisibility = 16 : i32}, %arg2: i32 {tt.divisibility = 16 : i32}) {\n    tt.call @_RINvCsbwJQJFp6Yd7_77gelu_forward_ac6feb70a0a2839c498a42c1fb1564709189f8dbbad9daa15c1d2fa169805ecc12gelu_forwardNtNtNtNtB2_6triton4llvm6triton10LlvmTritonKl80_EB2_(%arg0, %arg1, %arg2) {arg_attrs = [{}, {}, {}], res_attrs = []} : (!tt.ptr<f32>, !tt.ptr<f32>, i32) -> ()\n    tt.return\n  }\n}"
