---
source: kernels/teeny-kernels/tests/test_loss_ranking.rs
expression: mlir.trim()
---
"module {\n  tt.func private @_RINvCsgrf5gBAxR7E_90multi_margin_loss_forward_b81d47be4a93f978b5fe3097b0ef91d123820fa8cd7d1bcb11ec561247120c4825multi_margin_loss_forwardNtNtNtNtB2_6triton4llvm6triton10LlvmTritonKl10_EB2_(%arg0: !tt.ptr<f32> {tt.divisibility = 16 : i32}, %arg1: !tt.ptr<i32> {tt.divisibility = 16 : i32}, %arg2: !tt.ptr<f32> {tt.divisibility = 16 : i32}, %arg3: i32 {tt.divisibility = 16 : i32}, %arg4: i32 {tt.divisibility = 16 : i32}, %arg5: f32 {tt.divisibility = 16 : i32}) {\n    %cst = arith.constant dense<0.000000e+00> : tensor<1xf32>\n    %cst_0 = arith.constant dense<0.000000e+00> : tensor<16xf32>\n    %0 = tt.get_program_id x : i32\n    %1 = arith.muli %0, %arg4 : i32\n    %2 = tt.make_range {end = 16 : i32, start = 0 : i32} : tensor<16xi32>\n    %3 = tt.splat %1 : i32 -> tensor<16xi32>\n    %4 = arith.addi %2, %3 : tensor<16xi32>\n    %5 = tt.splat %arg4 : i32 -> tensor<16xi32>\n    %6 = arith.cmpi slt, %2, %5 : tensor<16xi32>\n    %7 = tt.splat %arg0 : !tt.ptr<f32> -> tensor<16x!tt.ptr<f32>>\n    %8 = tt.addptr %7, %4 : tensor<16x!tt.ptr<f32>>, tensor<16xi32>\n    %9 = tt.load %8, %6, %cst_0 : tensor<16x!tt.ptr<f32>>\n    %10 = tt.splat %0 : i32 -> tensor<1xi32>\n    %11 = tt.splat %arg1 : !tt.ptr<i32> -> tensor<1x!tt.ptr<i32>>\n    %12 = tt.addptr %11, %10 : tensor<1x!tt.ptr<i32>>, tensor<1xi32>\n    %13 = tt.load %12 : tensor<1x!tt.ptr<i32>>\n    %14 = tt.splat %1 : i32 -> tensor<1xi32>\n    %15 = arith.addi %14, %13 : tensor<1xi32>\n    %16 = tt.splat %arg0 : !tt.ptr<f32> -> tensor<1x!tt.ptr<f32>>\n    %17 = tt.addptr %16, %15 : tensor<1x!tt.ptr<f32>>, tensor<1xi32>\n    %18 = tt.load %17 : tensor<1x!tt.ptr<f32>>\n    %19 = tt.splat %arg5 : f32 -> tensor<16xf32>\n    %20 = tt.broadcast %18 : tensor<1xf32> -> tensor<16xf32>\n    %21 = arith.subf %19, %20 : tensor<16xf32>\n    %22 = arith.addf %21, %9 : tensor<16xf32>\n    %23 = arith.maximumf %22, %cst_0 : tensor<16xf32>\n    %24 = \"tt.reduce\"(%23) <{axis = 0 : i32}> ({\n    ^bb0(%arg6: f32, %arg7: f32):\n      %35 = arith.addf %arg6, %arg7 : f32\n      tt.reduce.return %35 : f32\n    }) : (tensor<16xf32>) -> f32\n    %25 = tt.splat %arg5 : f32 -> tensor<1xf32>\n    %26 = arith.maximumf %25, %cst : tensor<1xf32>\n    %27 = tt.splat %arg4 : i32 -> tensor<1xi32>\n    %28 = arith.sitofp %27 : tensor<1xi32> to tensor<1xf32>\n    %29 = tt.splat %24 : f32 -> tensor<1xf32>\n    %30 = arith.subf %29, %26 : tensor<1xf32>\n    %31 = arith.divf %30, %28 : tensor<1xf32>\n    %32 = tt.splat %0 : i32 -> tensor<1xi32>\n    %33 = tt.splat %arg2 : !tt.ptr<f32> -> tensor<1x!tt.ptr<f32>>\n    %34 = tt.addptr %33, %32 : tensor<1x!tt.ptr<f32>>, tensor<1xi32>\n    tt.store %34, %31 {operandSegmentSizes = array<i32: 1, 1, 0>} : tensor<1x!tt.ptr<f32>>\n    tt.return\n  }\n  tt.func public @entry_point(%arg0: !tt.ptr<f32> {tt.divisibility = 16 : i32}, %arg1: !tt.ptr<i32> {tt.divisibility = 16 : i32}, %arg2: !tt.ptr<f32> {tt.divisibility = 16 : i32}, %arg3: i32 {tt.divisibility = 16 : i32}, %arg4: i32 {tt.divisibility = 16 : i32}, %arg5: f32 {tt.divisibility = 16 : i32}) {\n    tt.call @_RINvCsgrf5gBAxR7E_90multi_margin_loss_forward_b81d47be4a93f978b5fe3097b0ef91d123820fa8cd7d1bcb11ec561247120c4825multi_margin_loss_forwardNtNtNtNtB2_6triton4llvm6triton10LlvmTritonKl10_EB2_(%arg0, %arg1, %arg2, %arg3, %arg4, %arg5) {arg_attrs = [{}, {}, {}, {}, {}, {}], res_attrs = []} : (!tt.ptr<f32>, !tt.ptr<i32>, !tt.ptr<f32>, i32, i32, f32) -> ()\n    tt.return\n  }\n}"
