---
source: kernels/teeny-kernels/tests/test_lppool3d.rs
expression: mlir.trim()
---
"module {\n  tt.func private @_RINvCsbRSSe3v33to_81lppool3d_forward_2b7dac72aa234268cdce90d090ad4ff9a3db990b806ee4f26e380bb48d44ad8316lppool3d_forwardNtNtNtNtB2_6triton4llvm6triton10LlvmTritonfKl2_KB2B_KB2B_KB2B_KB2B_KB2B_Kl4_EB2_(%arg0: !tt.ptr<f32> {tt.divisibility = 16 : i32}, %arg1: !tt.ptr<f32> {tt.divisibility = 16 : i32}, %arg2: i32 {tt.divisibility = 16 : i32}, %arg3: i32 {tt.divisibility = 16 : i32}, %arg4: i32 {tt.divisibility = 16 : i32}, %arg5: i32 {tt.divisibility = 16 : i32}, %arg6: i32 {tt.divisibility = 16 : i32}, %arg7: i32 {tt.divisibility = 16 : i32}, %arg8: i32 {tt.divisibility = 16 : i32}, %arg9: i32 {tt.divisibility = 16 : i32}, %arg10: f32 {tt.divisibility = 16 : i32}) {\n    %cst = arith.constant dense<2> : tensor<4xi32>\n    %c8_i32 = arith.constant 8 : i32\n    %cst_0 = arith.constant dense<0.000000e+00> : tensor<4xf32>\n    %cst_1 = arith.constant dense<9.99999996E-13> : tensor<4xf32>\n    %c3_i32 = arith.constant 3 : i32\n    %c2_i32 = arith.constant 2 : i32\n    %cst_2 = arith.constant 1.000000e+00 : f32\n    %c0_i32 = arith.constant 0 : i32\n    %c1_i32 = arith.constant 1 : i32\n    %c4_i32 = arith.constant 4 : i32\n    %0 = tt.get_program_id x : i32\n    %1 = arith.addi %arg9, %c3_i32 : i32\n    %2 = arith.divsi %1, %c4_i32 : i32\n    %3 = arith.remsi %0, %2 : i32\n    %4 = arith.divsi %0, %2 : i32\n    %5 = arith.remsi %4, %arg8 : i32\n    %6 = arith.divsi %4, %arg8 : i32\n    %7 = arith.remsi %6, %arg7 : i32\n    %8 = arith.divsi %6, %arg7 : i32\n    %9 = arith.remsi %8, %arg3 : i32\n    %10 = arith.divsi %8, %arg3 : i32\n    %11 = arith.muli %3, %c4_i32 : i32\n    %12 = tt.make_range {end = 4 : i32, start = 0 : i32} : tensor<4xi32>\n    %13 = tt.splat %11 : i32 -> tensor<4xi32>\n    %14 = arith.addi %12, %13 : tensor<4xi32>\n    %15 = tt.splat %arg9 : i32 -> tensor<4xi32>\n    %16 = arith.cmpi slt, %14, %15 : tensor<4xi32>\n    %17 = arith.muli %10, %arg3 : i32\n    %18 = arith.addi %17, %9 : i32\n    %19 = arith.muli %18, %arg4 : i32\n    %20 = arith.muli %19, %arg5 : i32\n    %21 = arith.muli %20, %arg6 : i32\n    %22 = arith.muli %18, %arg7 : i32\n    %23 = arith.muli %22, %arg8 : i32\n    %24 = arith.muli %23, %arg9 : i32\n    %25 = arith.muli %7, %arg8 : i32\n    %26 = arith.muli %25, %arg9 : i32\n    %27 = arith.addi %24, %26 : i32\n    %28 = arith.muli %5, %arg9 : i32\n    %29 = arith.addi %27, %28 : i32\n    %30 = tt.splat %arg10 : f32 -> tensor<4xf32>\n    %31 = arith.divf %cst_2, %arg10 : f32\n    %32 = tt.splat %31 : f32 -> tensor<4xf32>\n    %33:2 = scf.for %arg11 = %c0_i32 to %c8_i32 step %c1_i32 iter_args(%arg12 = %c0_i32, %arg13 = %cst_0) -> (i32, tensor<4xf32>)  : i32 {\n      %42 = arith.addi %arg12, %c1_i32 : i32\n      %43 = arith.remsi %arg12, %c2_i32 : i32\n      %44 = arith.divsi %arg12, %c2_i32 : i32\n      %45 = arith.remsi %44, %c2_i32 : i32\n      %46 = arith.divsi %44, %c2_i32 : i32\n      %47 = arith.muli %7, %c2_i32 : i32\n      %48 = arith.addi %47, %46 : i32\n      %49 = arith.muli %5, %c2_i32 : i32\n      %50 = arith.addi %49, %45 : i32\n      %51 = arith.muli %14, %cst : tensor<4xi32>\n      %52 = tt.splat %43 : i32 -> tensor<4xi32>\n      %53 = arith.addi %51, %52 : tensor<4xi32>\n      %54 = arith.muli %48, %arg5 : i32\n      %55 = arith.muli %54, %arg6 : i32\n      %56 = arith.addi %21, %55 : i32\n      %57 = arith.muli %50, %arg6 : i32\n      %58 = arith.addi %56, %57 : i32\n      %59 = tt.splat %58 : i32 -> tensor<4xi32>\n      %60 = arith.addi %53, %59 : tensor<4xi32>\n      %61 = tt.splat %arg0 : !tt.ptr<f32> -> tensor<4x!tt.ptr<f32>>\n      %62 = tt.addptr %61, %60 : tensor<4x!tt.ptr<f32>>, tensor<4xi32>\n      %63 = tt.load %62, %16, %cst_0 : tensor<4x!tt.ptr<f32>>\n      %64 = math.absf %63 : tensor<4xf32>\n      %65 = arith.maximumf %64, %cst_1 : tensor<4xf32>\n      %66 = math.log %65 : tensor<4xf32>\n      %67 = arith.mulf %30, %66 : tensor<4xf32>\n      %68 = math.exp %67 : tensor<4xf32>\n      %69 = arith.addf %arg13, %68 : tensor<4xf32>\n      scf.yield %42, %69 : i32, tensor<4xf32>\n    }\n    %34 = arith.maximumf %33#1, %cst_1 : tensor<4xf32>\n    %35 = math.log %34 : tensor<4xf32>\n    %36 = arith.mulf %35, %32 : tensor<4xf32>\n    %37 = math.exp %36 : tensor<4xf32>\n    %38 = tt.splat %29 : i32 -> tensor<4xi32>\n    %39 = arith.addi %14, %38 : tensor<4xi32>\n    %40 = tt.splat %arg1 : !tt.ptr<f32> -> tensor<4x!tt.ptr<f32>>\n    %41 = tt.addptr %40, %39 : tensor<4x!tt.ptr<f32>>, tensor<4xi32>\n    tt.store %41, %37, %16 {operandSegmentSizes = array<i32: 1, 1, 1>} : tensor<4x!tt.ptr<f32>>\n    tt.return\n  }\n  tt.func public @entry_point(%arg0: !tt.ptr<f32> {tt.divisibility = 16 : i32}, %arg1: !tt.ptr<f32> {tt.divisibility = 16 : i32}, %arg2: i32 {tt.divisibility = 16 : i32}, %arg3: i32 {tt.divisibility = 16 : i32}, %arg4: i32 {tt.divisibility = 16 : i32}, %arg5: i32 {tt.divisibility = 16 : i32}, %arg6: i32 {tt.divisibility = 16 : i32}, %arg7: i32 {tt.divisibility = 16 : i32}, %arg8: i32 {tt.divisibility = 16 : i32}, %arg9: i32 {tt.divisibility = 16 : i32}, %arg10: f32 {tt.divisibility = 16 : i32}) {\n    tt.call @_RINvCsbRSSe3v33to_81lppool3d_forward_2b7dac72aa234268cdce90d090ad4ff9a3db990b806ee4f26e380bb48d44ad8316lppool3d_forwardNtNtNtNtB2_6triton4llvm6triton10LlvmTritonfKl2_KB2B_KB2B_KB2B_KB2B_KB2B_Kl4_EB2_(%arg0, %arg1, %arg2, %arg3, %arg4, %arg5, %arg6, %arg7, %arg8, %arg9, %arg10) {arg_attrs = [{}, {}, {}, {}, {}, {}, {}, {}, {}, {}, {}], res_attrs = []} : (!tt.ptr<f32>, !tt.ptr<f32>, i32, i32, i32, i32, i32, i32, i32, i32, f32) -> ()\n    tt.return\n  }\n}"
