---
source: kernels/teeny-kernels/tests/test_reflection_pad2d.rs
expression: mlir.trim()
---
"module {\n  tt.func private @_RINvCs5h75gyrSutb_89reflection_pad2d_forward_844c94539dff8cfa0446363b0b3b10d05c97f8c22e61f50da50e09d084fc459224reflection_pad2d_forwardNtNtNtNtB2_6triton4llvm6triton10LlvmTritonfKl1_Kl2_KB2V_Kl3_Kl10_EB2_(%arg0: !tt.ptr<f32> {tt.divisibility = 16 : i32}, %arg1: !tt.ptr<f32> {tt.divisibility = 16 : i32}, %arg2: i32 {tt.divisibility = 16 : i32}, %arg3: i32 {tt.divisibility = 16 : i32}, %arg4: i32 {tt.divisibility = 16 : i32}, %arg5: i32 {tt.divisibility = 16 : i32}, %arg6: i32 {tt.divisibility = 16 : i32}, %arg7: i32 {tt.divisibility = 16 : i32}) {\n    %cst = arith.constant dense<0.000000e+00> : tensor<16xf32>\n    %cst_0 = arith.constant dense<0> : tensor<16xi32>\n    %cst_1 = arith.constant dense<2> : tensor<16xi32>\n    %c15_i32 = arith.constant 15 : i32\n    %c2_i32 = arith.constant 2 : i32\n    %false = arith.constant false\n    %c0_i32 = arith.constant 0 : i32\n    %c1_i32 = arith.constant 1 : i32\n    %c16_i32 = arith.constant 16 : i32\n    %0 = tt.get_program_id x : i32\n    %1 = arith.addi %arg7, %c15_i32 : i32\n    %2 = arith.divsi %1, %c16_i32 : i32\n    %3 = arith.remsi %0, %2 : i32\n    %4 = arith.divsi %0, %2 : i32\n    %5 = arith.remsi %4, %arg6 : i32\n    %6 = arith.divsi %4, %arg6 : i32\n    %7 = arith.remsi %6, %arg3 : i32\n    %8 = arith.divsi %6, %arg3 : i32\n    %9 = arith.muli %3, %c16_i32 : i32\n    %10 = tt.make_range {end = 16 : i32, start = 0 : i32} : tensor<16xi32>\n    %11 = tt.splat %9 : i32 -> tensor<16xi32>\n    %12 = arith.addi %10, %11 : tensor<16xi32>\n    %13 = tt.splat %arg7 : i32 -> tensor<16xi32>\n    %14 = arith.cmpi slt, %12, %13 : tensor<16xi32>\n    %15 = arith.subi %5, %c1_i32 : i32\n    %16 = arith.cmpi slt, %15, %c0_i32 : i32\n    %17 = arith.cmpi eq, %16, %false : i1\n    cf.cond_br %17, ^bb3, ^bb1\n  ^bb1:  // pred: ^bb0\n    %18 = arith.subi %c1_i32, %5 : i32\n    cf.br ^bb2(%18 : i32)\n  ^bb2(%19: i32):  // 3 preds: ^bb1, ^bb3, ^bb4\n    %20 = arith.muli %8, %arg3 : i32\n    %21 = arith.addi %20, %7 : i32\n    %22 = arith.muli %21, %arg4 : i32\n    %23 = arith.muli %22, %arg5 : i32\n    %24 = arith.muli %19, %arg5 : i32\n    %25 = arith.addi %23, %24 : i32\n    %26 = arith.muli %21, %arg6 : i32\n    %27 = arith.addi %26, %5 : i32\n    %28 = arith.muli %27, %arg7 : i32\n    %29 = arith.subi %12, %cst_1 : tensor<16xi32>\n    %30 = arith.cmpi slt, %29, %cst_0 : tensor<16xi32>\n    %31 = tt.splat %arg5 : i32 -> tensor<16xi32>\n    %32 = arith.cmpi sge, %29, %31 : tensor<16xi32>\n    %33 = arith.cmpi sge, %29, %cst_0 : tensor<16xi32>\n    %34 = tt.splat %arg5 : i32 -> tensor<16xi32>\n    %35 = arith.cmpi slt, %29, %34 : tensor<16xi32>\n    %36 = arith.andi %33, %35 : tensor<16xi1>\n    %37 = arith.subi %arg5, %c1_i32 : i32\n    %38 = arith.muli %37, %c2_i32 : i32\n    %39 = tt.splat %38 : i32 -> tensor<16xi32>\n    %40 = arith.subi %39, %29 : tensor<16xi32>\n    %41 = tt.splat %25 : i32 -> tensor<16xi32>\n    %42 = arith.addi %29, %41 : tensor<16xi32>\n    %43 = tt.splat %arg0 : !tt.ptr<f32> -> tensor<16x!tt.ptr<f32>>\n    %44 = tt.addptr %43, %42 : tensor<16x!tt.ptr<f32>>, tensor<16xi32>\n    %45 = arith.andi %14, %36 : tensor<16xi1>\n    %46 = tt.load %44, %45, %cst : tensor<16x!tt.ptr<f32>>\n    %47 = tt.splat %25 : i32 -> tensor<16xi32>\n    %48 = arith.subi %47, %29 : tensor<16xi32>\n    %49 = tt.splat %arg0 : !tt.ptr<f32> -> tensor<16x!tt.ptr<f32>>\n    %50 = tt.addptr %49, %48 : tensor<16x!tt.ptr<f32>>, tensor<16xi32>\n    %51 = arith.andi %14, %30 : tensor<16xi1>\n    %52 = tt.load %50, %51, %cst : tensor<16x!tt.ptr<f32>>\n    %53 = tt.splat %25 : i32 -> tensor<16xi32>\n    %54 = arith.addi %40, %53 : tensor<16xi32>\n    %55 = tt.splat %arg0 : !tt.ptr<f32> -> tensor<16x!tt.ptr<f32>>\n    %56 = tt.addptr %55, %54 : tensor<16x!tt.ptr<f32>>, tensor<16xi32>\n    %57 = arith.andi %14, %32 : tensor<16xi1>\n    %58 = tt.load %56, %57, %cst : tensor<16x!tt.ptr<f32>>\n    %59 = arith.select %32, %58, %46 : tensor<16xi1>, tensor<16xf32>\n    %60 = arith.select %30, %52, %59 : tensor<16xi1>, tensor<16xf32>\n    %61 = tt.splat %28 : i32 -> tensor<16xi32>\n    %62 = arith.addi %12, %61 : tensor<16xi32>\n    %63 = tt.splat %arg1 : !tt.ptr<f32> -> tensor<16x!tt.ptr<f32>>\n    %64 = tt.addptr %63, %62 : tensor<16x!tt.ptr<f32>>, tensor<16xi32>\n    tt.store %64, %60, %14 {operandSegmentSizes = array<i32: 1, 1, 1>} : tensor<16x!tt.ptr<f32>>\n    tt.return\n  ^bb3:  // pred: ^bb0\n    %65 = arith.cmpi sge, %15, %arg4 : i32\n    %66 = arith.cmpi eq, %65, %false : i1\n    cf.cond_br %66, ^bb2(%15 : i32), ^bb4\n  ^bb4:  // pred: ^bb3\n    %67 = arith.subi %arg4, %c1_i32 : i32\n    %68 = arith.muli %67, %c2_i32 : i32\n    %69 = arith.subi %68, %15 : i32\n    cf.br ^bb2(%69 : i32)\n  }\n  tt.func public @entry_point(%arg0: !tt.ptr<f32> {tt.divisibility = 16 : i32}, %arg1: !tt.ptr<f32> {tt.divisibility = 16 : i32}, %arg2: i32 {tt.divisibility = 16 : i32}, %arg3: i32 {tt.divisibility = 16 : i32}, %arg4: i32 {tt.divisibility = 16 : i32}, %arg5: i32 {tt.divisibility = 16 : i32}, %arg6: i32 {tt.divisibility = 16 : i32}, %arg7: i32 {tt.divisibility = 16 : i32}) {\n    tt.call @_RINvCs5h75gyrSutb_89reflection_pad2d_forward_844c94539dff8cfa0446363b0b3b10d05c97f8c22e61f50da50e09d084fc459224reflection_pad2d_forwardNtNtNtNtB2_6triton4llvm6triton10LlvmTritonfKl1_Kl2_KB2V_Kl3_Kl10_EB2_(%arg0, %arg1, %arg2, %arg3, %arg4, %arg5, %arg6, %arg7) {arg_attrs = [{}, {}, {}, {}, {}, {}, {}, {}], res_attrs = []} : (!tt.ptr<f32>, !tt.ptr<f32>, i32, i32, i32, i32, i32, i32) -> ()\n    tt.return\n  }\n}"
