---
source: kernels/teeny-kernels/tests/test_avgpool3d.rs
expression: mlir.trim()
---
"module {\n  tt.func private @_RINvCsbJBjObr7xoj_82avgpool3d_forward_f47d45f7cb00b418b083462d7a5ef2095904bcbc849a79f3f86c98ecc967a77c17avgpool3d_forwardNtNtNtNtB2_6triton4llvm6triton10LlvmTritonfKl2_KB2D_KB2D_KB2D_KB2D_KB2D_Kl4_EB2_(%arg0: !tt.ptr<f32> {tt.divisibility = 16 : i32}, %arg1: !tt.ptr<f32> {tt.divisibility = 16 : i32}, %arg2: i32 {tt.divisibility = 16 : i32}, %arg3: i32 {tt.divisibility = 16 : i32}, %arg4: i32 {tt.divisibility = 16 : i32}, %arg5: i32 {tt.divisibility = 16 : i32}, %arg6: i32 {tt.divisibility = 16 : i32}, %arg7: i32 {tt.divisibility = 16 : i32}, %arg8: i32 {tt.divisibility = 16 : i32}, %arg9: i32 {tt.divisibility = 16 : i32}) {\n    %cst = arith.constant dense<8.000000e+00> : tensor<4xf32>\n    %cst_0 = arith.constant dense<2> : tensor<4xi32>\n    %c8_i32 = arith.constant 8 : i32\n    %cst_1 = arith.constant dense<0.000000e+00> : tensor<4xf32>\n    %c3_i32 = arith.constant 3 : i32\n    %c2_i32 = arith.constant 2 : i32\n    %c0_i32 = arith.constant 0 : i32\n    %c1_i32 = arith.constant 1 : i32\n    %c4_i32 = arith.constant 4 : i32\n    %0 = tt.get_program_id x : i32\n    %1 = arith.addi %arg9, %c3_i32 : i32\n    %2 = arith.divsi %1, %c4_i32 : i32\n    %3 = arith.remsi %0, %2 : i32\n    %4 = arith.divsi %0, %2 : i32\n    %5 = arith.remsi %4, %arg8 : i32\n    %6 = arith.divsi %4, %arg8 : i32\n    %7 = arith.remsi %6, %arg7 : i32\n    %8 = arith.divsi %6, %arg7 : i32\n    %9 = arith.remsi %8, %arg3 : i32\n    %10 = arith.divsi %8, %arg3 : i32\n    %11 = arith.muli %3, %c4_i32 : i32\n    %12 = tt.make_range {end = 4 : i32, start = 0 : i32} : tensor<4xi32>\n    %13 = tt.splat %11 : i32 -> tensor<4xi32>\n    %14 = arith.addi %12, %13 : tensor<4xi32>\n    %15 = tt.splat %arg9 : i32 -> tensor<4xi32>\n    %16 = arith.cmpi slt, %14, %15 : tensor<4xi32>\n    %17 = arith.muli %10, %arg3 : i32\n    %18 = arith.addi %17, %9 : i32\n    %19 = arith.muli %18, %arg4 : i32\n    %20 = arith.muli %19, %arg5 : i32\n    %21 = arith.muli %20, %arg6 : i32\n    %22 = arith.muli %18, %arg7 : i32\n    %23 = arith.muli %22, %arg8 : i32\n    %24 = arith.muli %23, %arg9 : i32\n    %25 = arith.muli %7, %arg8 : i32\n    %26 = arith.muli %25, %arg9 : i32\n    %27 = arith.addi %24, %26 : i32\n    %28 = arith.muli %5, %arg9 : i32\n    %29 = arith.addi %27, %28 : i32\n    %30:2 = scf.for %arg10 = %c0_i32 to %c8_i32 step %c1_i32 iter_args(%arg11 = %c0_i32, %arg12 = %cst_1) -> (i32, tensor<4xf32>)  : i32 {\n      %36 = arith.addi %arg11, %c1_i32 : i32\n      %37 = arith.remsi %arg11, %c2_i32 : i32\n      %38 = arith.divsi %arg11, %c2_i32 : i32\n      %39 = arith.remsi %38, %c2_i32 : i32\n      %40 = arith.divsi %38, %c2_i32 : i32\n      %41 = arith.muli %7, %c2_i32 : i32\n      %42 = arith.addi %41, %40 : i32\n      %43 = arith.muli %5, %c2_i32 : i32\n      %44 = arith.addi %43, %39 : i32\n      %45 = arith.muli %14, %cst_0 : tensor<4xi32>\n      %46 = tt.splat %37 : i32 -> tensor<4xi32>\n      %47 = arith.addi %45, %46 : tensor<4xi32>\n      %48 = arith.muli %42, %arg5 : i32\n      %49 = arith.muli %48, %arg6 : i32\n      %50 = arith.addi %21, %49 : i32\n      %51 = arith.muli %44, %arg6 : i32\n      %52 = arith.addi %50, %51 : i32\n      %53 = tt.splat %52 : i32 -> tensor<4xi32>\n      %54 = arith.addi %47, %53 : tensor<4xi32>\n      %55 = tt.splat %arg0 : !tt.ptr<f32> -> tensor<4x!tt.ptr<f32>>\n      %56 = tt.addptr %55, %54 : tensor<4x!tt.ptr<f32>>, tensor<4xi32>\n      %57 = tt.load %56, %16, %cst_1 : tensor<4x!tt.ptr<f32>>\n      %58 = arith.addf %arg12, %57 : tensor<4xf32>\n      scf.yield %36, %58 : i32, tensor<4xf32>\n    }\n    %31 = arith.divf %30#1, %cst : tensor<4xf32>\n    %32 = tt.splat %29 : i32 -> tensor<4xi32>\n    %33 = arith.addi %14, %32 : tensor<4xi32>\n    %34 = tt.splat %arg1 : !tt.ptr<f32> -> tensor<4x!tt.ptr<f32>>\n    %35 = tt.addptr %34, %33 : tensor<4x!tt.ptr<f32>>, tensor<4xi32>\n    tt.store %35, %31, %16 {operandSegmentSizes = array<i32: 1, 1, 1>} : tensor<4x!tt.ptr<f32>>\n    tt.return\n  }\n  tt.func public @entry_point(%arg0: !tt.ptr<f32> {tt.divisibility = 16 : i32}, %arg1: !tt.ptr<f32> {tt.divisibility = 16 : i32}, %arg2: i32 {tt.divisibility = 16 : i32}, %arg3: i32 {tt.divisibility = 16 : i32}, %arg4: i32 {tt.divisibility = 16 : i32}, %arg5: i32 {tt.divisibility = 16 : i32}, %arg6: i32 {tt.divisibility = 16 : i32}, %arg7: i32 {tt.divisibility = 16 : i32}, %arg8: i32 {tt.divisibility = 16 : i32}, %arg9: i32 {tt.divisibility = 16 : i32}) {\n    tt.call @_RINvCsbJBjObr7xoj_82avgpool3d_forward_f47d45f7cb00b418b083462d7a5ef2095904bcbc849a79f3f86c98ecc967a77c17avgpool3d_forwardNtNtNtNtB2_6triton4llvm6triton10LlvmTritonfKl2_KB2D_KB2D_KB2D_KB2D_KB2D_Kl4_EB2_(%arg0, %arg1, %arg2, %arg3, %arg4, %arg5, %arg6, %arg7, %arg8, %arg9) {arg_attrs = [{}, {}, {}, {}, {}, {}, {}, {}, {}, {}], res_attrs = []} : (!tt.ptr<f32>, !tt.ptr<f32>, i32, i32, i32, i32, i32, i32, i32, i32) -> ()\n    tt.return\n  }\n}"
