---
source: kernels/teeny-kernels/tests/test_maxpool1d.rs
expression: mlir.trim()
---
"module {\n  tt.func private @_RINvCsjNjopGlqLIT_83maxpool1d_backward_688e4afee7d71a50687fb70dad155bbf9aa058409a7384d3e68e2f625e15075b18maxpool1d_backwardNtNtNtNtB2_6triton4llvm6triton10LlvmTritonfKl4_KB2F_KB2F_EB2_(%arg0: !tt.ptr<f32> {tt.divisibility = 16 : i32}, %arg1: !tt.ptr<f32> {tt.divisibility = 16 : i32}, %arg2: !tt.ptr<f32> {tt.divisibility = 16 : i32}, %arg3: !tt.ptr<f32> {tt.divisibility = 16 : i32}, %arg4: i32 {tt.divisibility = 16 : i32}, %arg5: i32 {tt.divisibility = 16 : i32}, %arg6: i32 {tt.divisibility = 16 : i32}, %arg7: i32 {tt.divisibility = 16 : i32}) {\n    %cst = arith.constant dense<-3.40282347E+38> : tensor<4xf32>\n    %cst_0 = arith.constant dense<4> : tensor<4xi32>\n    %cst_1 = arith.constant dense<0.000000e+00> : tensor<4xf32>\n    %c3_i32 = arith.constant 3 : i32\n    %c0_i32 = arith.constant 0 : i32\n    %c1_i32 = arith.constant 1 : i32\n    %c4_i32 = arith.constant 4 : i32\n    %0 = tt.get_program_id x : i32\n    %1 = arith.addi %arg7, %c3_i32 : i32\n    %2 = arith.divsi %1, %c4_i32 : i32\n    %3 = arith.remsi %0, %2 : i32\n    %4 = arith.divsi %0, %2 : i32\n    %5 = arith.remsi %4, %arg5 : i32\n    %6 = arith.divsi %4, %arg5 : i32\n    %7 = arith.muli %3, %c4_i32 : i32\n    %8 = tt.make_range {end = 4 : i32, start = 0 : i32} : tensor<4xi32>\n    %9 = tt.splat %7 : i32 -> tensor<4xi32>\n    %10 = arith.addi %8, %9 : tensor<4xi32>\n    %11 = tt.splat %arg7 : i32 -> tensor<4xi32>\n    %12 = arith.cmpi slt, %10, %11 : tensor<4xi32>\n    %13 = arith.muli %6, %arg5 : i32\n    %14 = arith.addi %13, %5 : i32\n    %15 = arith.muli %14, %arg6 : i32\n    %16 = arith.muli %14, %arg7 : i32\n    %17 = tt.splat %16 : i32 -> tensor<4xi32>\n    %18 = arith.addi %10, %17 : tensor<4xi32>\n    %19 = tt.splat %arg0 : !tt.ptr<f32> -> tensor<4x!tt.ptr<f32>>\n    %20 = tt.addptr %19, %18 : tensor<4x!tt.ptr<f32>>, tensor<4xi32>\n    %21 = tt.load %20, %12, %cst_1 : tensor<4x!tt.ptr<f32>>\n    %22 = tt.splat %arg2 : !tt.ptr<f32> -> tensor<4x!tt.ptr<f32>>\n    %23 = tt.addptr %22, %18 : tensor<4x!tt.ptr<f32>>, tensor<4xi32>\n    %24 = tt.load %23, %12, %cst_1 : tensor<4x!tt.ptr<f32>>\n    %25 = scf.for %arg8 = %c0_i32 to %c4_i32 step %c1_i32 iter_args(%arg9 = %c0_i32) -> (i32)  : i32 {\n      %26 = arith.addi %arg9, %c1_i32 : i32\n      %27 = arith.muli %10, %cst_0 : tensor<4xi32>\n      %28 = tt.splat %arg9 : i32 -> tensor<4xi32>\n      %29 = arith.addi %27, %28 : tensor<4xi32>\n      %30 = tt.splat %15 : i32 -> tensor<4xi32>\n      %31 = arith.addi %29, %30 : tensor<4xi32>\n      %32 = tt.splat %arg1 : !tt.ptr<f32> -> tensor<4x!tt.ptr<f32>>\n      %33 = tt.addptr %32, %31 : tensor<4x!tt.ptr<f32>>, tensor<4xi32>\n      %34 = tt.load %33, %12, %cst : tensor<4x!tt.ptr<f32>>\n      %35 = arith.cmpf oeq, %34, %24 : tensor<4xf32>\n      %36 = arith.select %35, %21, %cst_1 : tensor<4xi1>, tensor<4xf32>\n      %37 = tt.splat %arg3 : !tt.ptr<f32> -> tensor<4x!tt.ptr<f32>>\n      %38 = tt.addptr %37, %31 : tensor<4x!tt.ptr<f32>>, tensor<4xi32>\n      %39 = tt.atomic_rmw fadd, relaxed, gpu, %38, %36, %12 {operandSegmentSizes = array<i32: 1, 1, 1>} : (tensor<4x!tt.ptr<f32>>, tensor<4xf32>, tensor<4xi1>) -> tensor<4xf32>\n      scf.yield %26 : i32\n    }\n    tt.return\n  }\n  tt.func public @entry_point(%arg0: !tt.ptr<f32> {tt.divisibility = 16 : i32}, %arg1: !tt.ptr<f32> {tt.divisibility = 16 : i32}, %arg2: !tt.ptr<f32> {tt.divisibility = 16 : i32}, %arg3: !tt.ptr<f32> {tt.divisibility = 16 : i32}, %arg4: i32 {tt.divisibility = 16 : i32}, %arg5: i32 {tt.divisibility = 16 : i32}, %arg6: i32 {tt.divisibility = 16 : i32}, %arg7: i32 {tt.divisibility = 16 : i32}) {\n    tt.call @_RINvCsjNjopGlqLIT_83maxpool1d_backward_688e4afee7d71a50687fb70dad155bbf9aa058409a7384d3e68e2f625e15075b18maxpool1d_backwardNtNtNtNtB2_6triton4llvm6triton10LlvmTritonfKl4_KB2F_KB2F_EB2_(%arg0, %arg1, %arg2, %arg3, %arg4, %arg5, %arg6, %arg7) {arg_attrs = [{}, {}, {}, {}, {}, {}, {}, {}], res_attrs = []} : (!tt.ptr<f32>, !tt.ptr<f32>, !tt.ptr<f32>, !tt.ptr<f32>, i32, i32, i32, i32) -> ()\n    tt.return\n  }\n}"
