---
source: kernels/teeny-kernels/tests/test_reflection_pad2d.rs
expression: mlir.trim()
---
"module {\n  tt.func private @_RINvCsiTxclog4OdP_89reflection_pad2d_forward_ff7ca53ee6518609804dfbe189cbb6af58392a60e407b95332c691fadb3f727424reflection_pad2d_forwardNtNtNtNtB2_6triton4llvm6triton10LlvmTritonfKl1_Kl2_KB2V_Kl3_Kl10_EB2_(%arg0: !tt.ptr<f32> {tt.divisibility = 16 : i32}, %arg1: !tt.ptr<f32> {tt.divisibility = 16 : i32}, %arg2: i32 {tt.divisibility = 16 : i32}, %arg3: i32 {tt.divisibility = 16 : i32}, %arg4: i32 {tt.divisibility = 16 : i32}, %arg5: i32 {tt.divisibility = 16 : i32}, %arg6: i32 {tt.divisibility = 16 : i32}, %arg7: i32 {tt.divisibility = 16 : i32}) {\n    %cst = arith.constant dense<0.000000e+00> : tensor<16xf32>\n    %cst_0 = arith.constant dense<0> : tensor<16xi32>\n    %cst_1 = arith.constant dense<2> : tensor<16xi32>\n    %c15_i32 = arith.constant 15 : i32\n    %c2_i32 = arith.constant 2 : i32\n    %false = arith.constant false\n    %c0_i32 = arith.constant 0 : i32\n    %c1_i32 = arith.constant 1 : i32\n    %c16_i32 = arith.constant 16 : i32\n    %0 = tt.get_program_id x : i32\n    %1 = arith.addi %arg7, %c15_i32 : i32\n    %2 = arith.divsi %1, %c16_i32 : i32\n    %3 = arith.remsi %0, %2 : i32\n    %4 = arith.divsi %0, %2 : i32\n    %5 = arith.remsi %4, %arg6 : i32\n    %6 = arith.divsi %4, %arg6 : i32\n    %7 = arith.remsi %6, %arg3 : i32\n    %8 = arith.divsi %6, %arg3 : i32\n    %9 = arith.muli %3, %c16_i32 : i32\n    %10 = tt.make_range {end = 16 : i32, start = 0 : i32} : tensor<16xi32>\n    %11 = tt.splat %9 : i32 -> tensor<16xi32>\n    %12 = arith.addi %10, %11 : tensor<16xi32>\n    %13 = tt.splat %arg7 : i32 -> tensor<16xi32>\n    %14 = arith.cmpi slt, %12, %13 : tensor<16xi32>\n    %15 = arith.subi %5, %c1_i32 : i32\n    %16 = arith.cmpi slt, %15, %c0_i32 : i32\n    %17 = arith.cmpi eq, %16, %false : i1\n    cf.cond_br %17, ^bb1, ^bb2\n  ^bb1:  // pred: ^bb0\n    %18 = arith.cmpi sge, %15, %arg4 : i32\n    %19 = arith.cmpi eq, %18, %false : i1\n    cf.cond_br %19, ^bb4(%15 : i32), ^bb3\n  ^bb2:  // pred: ^bb0\n    %20 = arith.subi %c1_i32, %5 : i32\n    cf.br ^bb4(%20 : i32)\n  ^bb3:  // pred: ^bb1\n    %21 = arith.subi %arg4, %c1_i32 : i32\n    %22 = arith.muli %21, %c2_i32 : i32\n    %23 = arith.subi %22, %15 : i32\n    cf.br ^bb4(%23 : i32)\n  ^bb4(%24: i32):  // 3 preds: ^bb1, ^bb2, ^bb3\n    %25 = arith.muli %8, %arg3 : i32\n    %26 = arith.addi %25, %7 : i32\n    %27 = arith.muli %26, %arg4 : i32\n    %28 = arith.muli %27, %arg5 : i32\n    %29 = arith.muli %24, %arg5 : i32\n    %30 = arith.addi %28, %29 : i32\n    %31 = arith.muli %26, %arg6 : i32\n    %32 = arith.addi %31, %5 : i32\n    %33 = arith.muli %32, %arg7 : i32\n    %34 = arith.subi %12, %cst_1 : tensor<16xi32>\n    %35 = arith.cmpi slt, %34, %cst_0 : tensor<16xi32>\n    %36 = tt.splat %arg5 : i32 -> tensor<16xi32>\n    %37 = arith.cmpi sge, %34, %36 : tensor<16xi32>\n    %38 = arith.cmpi sge, %34, %cst_0 : tensor<16xi32>\n    %39 = tt.splat %arg5 : i32 -> tensor<16xi32>\n    %40 = arith.cmpi slt, %34, %39 : tensor<16xi32>\n    %41 = arith.andi %38, %40 : tensor<16xi1>\n    %42 = arith.subi %arg5, %c1_i32 : i32\n    %43 = arith.muli %42, %c2_i32 : i32\n    %44 = tt.splat %43 : i32 -> tensor<16xi32>\n    %45 = arith.subi %44, %34 : tensor<16xi32>\n    %46 = tt.splat %30 : i32 -> tensor<16xi32>\n    %47 = arith.addi %34, %46 : tensor<16xi32>\n    %48 = tt.splat %arg0 : !tt.ptr<f32> -> tensor<16x!tt.ptr<f32>>\n    %49 = tt.addptr %48, %47 : tensor<16x!tt.ptr<f32>>, tensor<16xi32>\n    %50 = arith.andi %14, %41 : tensor<16xi1>\n    %51 = tt.load %49, %50, %cst : tensor<16x!tt.ptr<f32>>\n    %52 = tt.splat %30 : i32 -> tensor<16xi32>\n    %53 = arith.subi %52, %34 : tensor<16xi32>\n    %54 = tt.splat %arg0 : !tt.ptr<f32> -> tensor<16x!tt.ptr<f32>>\n    %55 = tt.addptr %54, %53 : tensor<16x!tt.ptr<f32>>, tensor<16xi32>\n    %56 = arith.andi %14, %35 : tensor<16xi1>\n    %57 = tt.load %55, %56, %cst : tensor<16x!tt.ptr<f32>>\n    %58 = tt.splat %30 : i32 -> tensor<16xi32>\n    %59 = arith.addi %45, %58 : tensor<16xi32>\n    %60 = tt.splat %arg0 : !tt.ptr<f32> -> tensor<16x!tt.ptr<f32>>\n    %61 = tt.addptr %60, %59 : tensor<16x!tt.ptr<f32>>, tensor<16xi32>\n    %62 = arith.andi %14, %37 : tensor<16xi1>\n    %63 = tt.load %61, %62, %cst : tensor<16x!tt.ptr<f32>>\n    %64 = arith.select %37, %63, %51 : tensor<16xi1>, tensor<16xf32>\n    %65 = arith.select %35, %57, %64 : tensor<16xi1>, tensor<16xf32>\n    %66 = tt.splat %33 : i32 -> tensor<16xi32>\n    %67 = arith.addi %12, %66 : tensor<16xi32>\n    %68 = tt.splat %arg1 : !tt.ptr<f32> -> tensor<16x!tt.ptr<f32>>\n    %69 = tt.addptr %68, %67 : tensor<16x!tt.ptr<f32>>, tensor<16xi32>\n    tt.store %69, %65, %14 {operandSegmentSizes = array<i32: 1, 1, 1>} : tensor<16x!tt.ptr<f32>>\n    tt.return\n  }\n  tt.func public @entry_point(%arg0: !tt.ptr<f32> {tt.divisibility = 16 : i32}, %arg1: !tt.ptr<f32> {tt.divisibility = 16 : i32}, %arg2: i32 {tt.divisibility = 16 : i32}, %arg3: i32 {tt.divisibility = 16 : i32}, %arg4: i32 {tt.divisibility = 16 : i32}, %arg5: i32 {tt.divisibility = 16 : i32}, %arg6: i32 {tt.divisibility = 16 : i32}, %arg7: i32 {tt.divisibility = 16 : i32}) {\n    tt.call @_RINvCsiTxclog4OdP_89reflection_pad2d_forward_ff7ca53ee6518609804dfbe189cbb6af58392a60e407b95332c691fadb3f727424reflection_pad2d_forwardNtNtNtNtB2_6triton4llvm6triton10LlvmTritonfKl1_Kl2_KB2V_Kl3_Kl10_EB2_(%arg0, %arg1, %arg2, %arg3, %arg4, %arg5, %arg6, %arg7) {arg_attrs = [{}, {}, {}, {}, {}, {}, {}, {}], res_attrs = []} : (!tt.ptr<f32>, !tt.ptr<f32>, i32, i32, i32, i32, i32, i32) -> ()\n    tt.return\n  }\n}"
