---
source: kernels/teeny-kernels/tests/test_constant_pad1d.rs
expression: mlir.trim()
---
"module {\n  tt.func private @_RINvCs4pZFZTLQ7rU_88constant_pad1d_backward_7e17ab9762440bf7b0ba209c88f80bba03cf898c3d11946b0f73c2601527f2f423constant_pad1d_backwardNtNtNtNtB2_6triton4llvm6triton10LlvmTritonfKl2_Kl3_Kl10_EB2_(%arg0: !tt.ptr<f32> {tt.divisibility = 16 : i32}, %arg1: !tt.ptr<f32> {tt.divisibility = 16 : i32}, %arg2: i32 {tt.divisibility = 16 : i32}, %arg3: i32 {tt.divisibility = 16 : i32}, %arg4: i32 {tt.divisibility = 16 : i32}, %arg5: i32 {tt.divisibility = 16 : i32}) {\n    %cst = arith.constant dense<0.000000e+00> : tensor<16xf32>\n    %cst_0 = arith.constant dense<0> : tensor<16xi32>\n    %cst_1 = arith.constant dense<2> : tensor<16xi32>\n    %c15_i32 = arith.constant 15 : i32\n    %c16_i32 = arith.constant 16 : i32\n    %0 = tt.get_program_id x : i32\n    %1 = arith.addi %arg5, %c15_i32 : i32\n    %2 = arith.divsi %1, %c16_i32 : i32\n    %3 = arith.remsi %0, %2 : i32\n    %4 = arith.divsi %0, %2 : i32\n    %5 = arith.remsi %4, %arg3 : i32\n    %6 = arith.divsi %4, %arg3 : i32\n    %7 = arith.muli %3, %c16_i32 : i32\n    %8 = tt.make_range {end = 16 : i32, start = 0 : i32} : tensor<16xi32>\n    %9 = tt.splat %7 : i32 -> tensor<16xi32>\n    %10 = arith.addi %8, %9 : tensor<16xi32>\n    %11 = tt.splat %arg5 : i32 -> tensor<16xi32>\n    %12 = arith.cmpi slt, %10, %11 : tensor<16xi32>\n    %13 = arith.muli %6, %arg3 : i32\n    %14 = arith.addi %13, %5 : i32\n    %15 = arith.muli %14, %arg5 : i32\n    %16 = arith.muli %14, %arg4 : i32\n    %17 = arith.subi %10, %cst_1 : tensor<16xi32>\n    %18 = arith.cmpi sge, %17, %cst_0 : tensor<16xi32>\n    %19 = tt.splat %arg4 : i32 -> tensor<16xi32>\n    %20 = arith.cmpi slt, %17, %19 : tensor<16xi32>\n    %21 = arith.andi %18, %20 : tensor<16xi1>\n    %22 = arith.andi %12, %21 : tensor<16xi1>\n    %23 = tt.splat %15 : i32 -> tensor<16xi32>\n    %24 = arith.addi %10, %23 : tensor<16xi32>\n    %25 = tt.splat %arg0 : !tt.ptr<f32> -> tensor<16x!tt.ptr<f32>>\n    %26 = tt.addptr %25, %24 : tensor<16x!tt.ptr<f32>>, tensor<16xi32>\n    %27 = tt.load %26, %12, %cst : tensor<16x!tt.ptr<f32>>\n    %28 = tt.splat %16 : i32 -> tensor<16xi32>\n    %29 = arith.addi %17, %28 : tensor<16xi32>\n    %30 = tt.splat %arg1 : !tt.ptr<f32> -> tensor<16x!tt.ptr<f32>>\n    %31 = tt.addptr %30, %29 : tensor<16x!tt.ptr<f32>>, tensor<16xi32>\n    tt.store %31, %27, %22 {operandSegmentSizes = array<i32: 1, 1, 1>} : tensor<16x!tt.ptr<f32>>\n    tt.return\n  }\n  tt.func public @entry_point(%arg0: !tt.ptr<f32> {tt.divisibility = 16 : i32}, %arg1: !tt.ptr<f32> {tt.divisibility = 16 : i32}, %arg2: i32 {tt.divisibility = 16 : i32}, %arg3: i32 {tt.divisibility = 16 : i32}, %arg4: i32 {tt.divisibility = 16 : i32}, %arg5: i32 {tt.divisibility = 16 : i32}) {\n    tt.call @_RINvCs4pZFZTLQ7rU_88constant_pad1d_backward_7e17ab9762440bf7b0ba209c88f80bba03cf898c3d11946b0f73c2601527f2f423constant_pad1d_backwardNtNtNtNtB2_6triton4llvm6triton10LlvmTritonfKl2_Kl3_Kl10_EB2_(%arg0, %arg1, %arg2, %arg3, %arg4, %arg5) {arg_attrs = [{}, {}, {}, {}, {}, {}], res_attrs = []} : (!tt.ptr<f32>, !tt.ptr<f32>, i32, i32, i32, i32) -> ()\n    tt.return\n  }\n}"
