---
source: kernels/teeny-kernels/tests/test_layernorm.rs
expression: mlir.trim()
---
"module {\n  tt.func private @_RINvCsgFBakaBmnbN_93layer_norm_forward_inference_6dc8d7ac72f5c7cb9014795289c66495e7070b376a6042833ce4cb8022c6a2ab28layer_norm_forward_inferenceNtNtNtNtB2_6triton4llvm6triton10LlvmTritonfKl100_EB2_(%arg0: !tt.ptr<f32> {tt.divisibility = 16 : i32}, %arg1: !tt.ptr<f32> {tt.divisibility = 16 : i32}, %arg2: !tt.ptr<f32> {tt.divisibility = 16 : i32}, %arg3: !tt.ptr<f32> {tt.divisibility = 16 : i32}, %arg4: i32 {tt.divisibility = 16 : i32}, %arg5: i32 {tt.divisibility = 16 : i32}, %arg6: f32 {tt.divisibility = 16 : i32}) {\n    %cst = arith.constant dense<1.000000e+00> : tensor<1xf32>\n    %cst_0 = arith.constant dense<0.000000e+00> : tensor<1xf32>\n    %cst_1 = arith.constant dense<0.000000e+00> : tensor<256xf32>\n    %cst_2 = arith.constant 1.000000e+00 : f32\n    %c256_i32 = arith.constant 256 : i32\n    %c0_i32 = arith.constant 0 : i32\n    %0 = tt.get_program_id x : i32\n    %1 = arith.muli %0, %arg5 : i32\n    %2:2 = scf.while (%arg7 = %cst_0, %arg8 = %c0_i32) : (tensor<1xf32>, i32) -> (tensor<1xf32>, i32) {\n      %16 = arith.cmpi slt, %arg8, %arg5 : i32\n      scf.condition(%16) %arg7, %arg8 : tensor<1xf32>, i32\n    } do {\n    ^bb0(%arg7: tensor<1xf32>, %arg8: i32):\n      %16 = tt.make_range {end = 256 : i32, start = 0 : i32} : tensor<256xi32>\n      %17 = tt.splat %arg8 : i32 -> tensor<256xi32>\n      %18 = arith.addi %16, %17 : tensor<256xi32>\n      %19 = tt.splat %arg5 : i32 -> tensor<256xi32>\n      %20 = arith.cmpi slt, %18, %19 : tensor<256xi32>\n      %21 = tt.splat %1 : i32 -> tensor<256xi32>\n      %22 = arith.addi %18, %21 : tensor<256xi32>\n      %23 = tt.splat %arg0 : !tt.ptr<f32> -> tensor<256x!tt.ptr<f32>>\n      %24 = tt.addptr %23, %22 : tensor<256x!tt.ptr<f32>>, tensor<256xi32>\n      %25 = tt.load %24, %20, %cst_1 : tensor<256x!tt.ptr<f32>>\n      %26 = \"tt.reduce\"(%25) <{axis = 0 : i32}> ({\n      ^bb0(%arg9: f32, %arg10: f32):\n        %30 = arith.addf %arg9, %arg10 : f32\n        tt.reduce.return %30 : f32\n      }) : (tensor<256xf32>) -> f32\n      %27 = tt.splat %26 : f32 -> tensor<1xf32>\n      %28 = arith.addf %arg7, %27 : tensor<1xf32>\n      %29 = arith.addi %arg8, %c256_i32 : i32\n      scf.yield %28, %29 : tensor<1xf32>, i32\n    }\n    %3 = arith.sitofp %arg5 : i32 to f32\n    %4 = arith.divf %cst_2, %3 : f32\n    %5 = tt.splat %4 : f32 -> tensor<1xf32>\n    %6 = arith.mulf %2#0, %5 : tensor<1xf32>\n    %7 = tt.broadcast %6 : tensor<1xf32> -> tensor<256xf32>\n    %8:2 = scf.while (%arg7 = %cst_0, %arg8 = %c0_i32) : (tensor<1xf32>, i32) -> (tensor<1xf32>, i32) {\n      %16 = arith.cmpi slt, %arg8, %arg5 : i32\n      scf.condition(%16) %arg7, %arg8 : tensor<1xf32>, i32\n    } do {\n    ^bb0(%arg7: tensor<1xf32>, %arg8: i32):\n      %16 = tt.make_range {end = 256 : i32, start = 0 : i32} : tensor<256xi32>\n      %17 = tt.splat %arg8 : i32 -> tensor<256xi32>\n      %18 = arith.addi %16, %17 : tensor<256xi32>\n      %19 = tt.splat %arg5 : i32 -> tensor<256xi32>\n      %20 = arith.cmpi slt, %18, %19 : tensor<256xi32>\n      %21 = tt.splat %1 : i32 -> tensor<256xi32>\n      %22 = arith.addi %18, %21 : tensor<256xi32>\n      %23 = tt.splat %arg0 : !tt.ptr<f32> -> tensor<256x!tt.ptr<f32>>\n      %24 = tt.addptr %23, %22 : tensor<256x!tt.ptr<f32>>, tensor<256xi32>\n      %25 = tt.load %24, %20, %cst_1 : tensor<256x!tt.ptr<f32>>\n      %26 = arith.subf %25, %7 : tensor<256xf32>\n      %27 = arith.select %20, %26, %cst_1 : tensor<256xi1>, tensor<256xf32>\n      %28 = arith.mulf %27, %27 : tensor<256xf32>\n      %29 = \"tt.reduce\"(%28) <{axis = 0 : i32}> ({\n      ^bb0(%arg9: f32, %arg10: f32):\n        %33 = arith.addf %arg9, %arg10 : f32\n        tt.reduce.return %33 : f32\n      }) : (tensor<256xf32>) -> f32\n      %30 = tt.splat %29 : f32 -> tensor<1xf32>\n      %31 = arith.addf %arg7, %30 : tensor<1xf32>\n      %32 = arith.addi %arg8, %c256_i32 : i32\n      scf.yield %31, %32 : tensor<1xf32>, i32\n    }\n    %9 = tt.splat %arg6 : f32 -> tensor<1xf32>\n    %10 = arith.mulf %8#0, %5 : tensor<1xf32>\n    %11 = arith.addf %10, %9 : tensor<1xf32>\n    %12 = tt.precise_sqrt %11 : tensor<1xf32>\n    %13 = tt.precise_divf %cst, %12 : tensor<1xf32>\n    %14 = tt.broadcast %13 : tensor<1xf32> -> tensor<256xf32>\n    %15 = scf.while (%arg7 = %c0_i32) : (i32) -> i32 {\n      %16 = arith.cmpi slt, %arg7, %arg5 : i32\n      scf.condition(%16) %arg7 : i32\n    } do {\n    ^bb0(%arg7: i32):\n      %16 = tt.make_range {end = 256 : i32, start = 0 : i32} : tensor<256xi32>\n      %17 = tt.splat %arg7 : i32 -> tensor<256xi32>\n      %18 = arith.addi %16, %17 : tensor<256xi32>\n      %19 = tt.splat %arg5 : i32 -> tensor<256xi32>\n      %20 = arith.cmpi slt, %18, %19 : tensor<256xi32>\n      %21 = tt.splat %1 : i32 -> tensor<256xi32>\n      %22 = arith.addi %18, %21 : tensor<256xi32>\n      %23 = tt.splat %arg0 : !tt.ptr<f32> -> tensor<256x!tt.ptr<f32>>\n      %24 = tt.addptr %23, %22 : tensor<256x!tt.ptr<f32>>, tensor<256xi32>\n      %25 = tt.load %24, %20, %cst_1 : tensor<256x!tt.ptr<f32>>\n      %26 = tt.splat %arg2 : !tt.ptr<f32> -> tensor<256x!tt.ptr<f32>>\n      %27 = tt.addptr %26, %18 : tensor<256x!tt.ptr<f32>>, tensor<256xi32>\n      %28 = tt.load %27, %20, %cst_1 : tensor<256x!tt.ptr<f32>>\n      %29 = tt.splat %arg3 : !tt.ptr<f32> -> tensor<256x!tt.ptr<f32>>\n      %30 = tt.addptr %29, %18 : tensor<256x!tt.ptr<f32>>, tensor<256xi32>\n      %31 = tt.load %30, %20, %cst_1 : tensor<256x!tt.ptr<f32>>\n      %32 = arith.subf %25, %7 : tensor<256xf32>\n      %33 = arith.mulf %32, %14 : tensor<256xf32>\n      %34 = arith.mulf %33, %28 : tensor<256xf32>\n      %35 = arith.addf %34, %31 : tensor<256xf32>\n      %36 = tt.splat %1 : i32 -> tensor<256xi32>\n      %37 = arith.addi %18, %36 : tensor<256xi32>\n      %38 = tt.splat %arg1 : !tt.ptr<f32> -> tensor<256x!tt.ptr<f32>>\n      %39 = tt.addptr %38, %37 : tensor<256x!tt.ptr<f32>>, tensor<256xi32>\n      tt.store %39, %35, %20 {operandSegmentSizes = array<i32: 1, 1, 1>} : tensor<256x!tt.ptr<f32>>\n      %40 = arith.addi %arg7, %c256_i32 : i32\n      scf.yield %40 : i32\n    }\n    tt.return\n  }\n  tt.func public @entry_point(%arg0: !tt.ptr<f32> {tt.divisibility = 16 : i32}, %arg1: !tt.ptr<f32> {tt.divisibility = 16 : i32}, %arg2: !tt.ptr<f32> {tt.divisibility = 16 : i32}, %arg3: !tt.ptr<f32> {tt.divisibility = 16 : i32}, %arg4: i32 {tt.divisibility = 16 : i32}, %arg5: i32 {tt.divisibility = 16 : i32}, %arg6: f32 {tt.divisibility = 16 : i32}) {\n    tt.call @_RINvCsgFBakaBmnbN_93layer_norm_forward_inference_6dc8d7ac72f5c7cb9014795289c66495e7070b376a6042833ce4cb8022c6a2ab28layer_norm_forward_inferenceNtNtNtNtB2_6triton4llvm6triton10LlvmTritonfKl100_EB2_(%arg0, %arg1, %arg2, %arg3, %arg4, %arg5, %arg6) {arg_attrs = [{}, {}, {}, {}, {}, {}, {}], res_attrs = []} : (!tt.ptr<f32>, !tt.ptr<f32>, !tt.ptr<f32>, !tt.ptr<f32>, i32, i32, f32) -> ()\n    tt.return\n  }\n}"
