---
source: kernels/teeny-kernels/tests/test_optim_muon.rs
expression: mlir.trim()
---
"module {\n  tt.func private @_RINvCsk0oJGbER4V7_76muon_update_245349068ef0b6f2b6f94374c7b100070eba1ffff7ebdc12b18f4bd571f9508411muon_updateNtNtNtNtB2_6triton4llvm6triton10LlvmTritonKl80_EB2_(%arg0: !tt.ptr<f32> {tt.divisibility = 16 : i32}, %arg1: !tt.ptr<f32> {tt.divisibility = 16 : i32}, %arg2: i32 {tt.divisibility = 16 : i32}, %arg3: f32 {tt.divisibility = 16 : i32}) {\n    %c128_i32 = arith.constant 128 : i32\n    %0 = tt.get_program_id x : i32\n    %1 = tt.make_range {end = 128 : i32, start = 0 : i32} : tensor<128xi32>\n    %2 = arith.muli %0, %c128_i32 : i32\n    %3 = tt.splat %2 : i32 -> tensor<128xi32>\n    %4 = arith.addi %1, %3 : tensor<128xi32>\n    %5 = tt.splat %arg2 : i32 -> tensor<128xi32>\n    %6 = arith.cmpi slt, %4, %5 : tensor<128xi32>\n    %7 = tt.splat %arg0 : !tt.ptr<f32> -> tensor<128x!tt.ptr<f32>>\n    %8 = tt.addptr %7, %4 : tensor<128x!tt.ptr<f32>>, tensor<128xi32>\n    %9 = tt.load %8, %6 : tensor<128x!tt.ptr<f32>>\n    %10 = tt.splat %arg1 : !tt.ptr<f32> -> tensor<128x!tt.ptr<f32>>\n    %11 = tt.addptr %10, %4 : tensor<128x!tt.ptr<f32>>, tensor<128xi32>\n    %12 = tt.load %11, %6 : tensor<128x!tt.ptr<f32>>\n    %13 = tt.splat %arg3 : f32 -> tensor<128xf32>\n    %14 = tt.splat %arg0 : !tt.ptr<f32> -> tensor<128x!tt.ptr<f32>>\n    %15 = tt.addptr %14, %4 : tensor<128x!tt.ptr<f32>>, tensor<128xi32>\n    %16 = arith.mulf %13, %12 : tensor<128xf32>\n    %17 = arith.subf %9, %16 : tensor<128xf32>\n    tt.store %15, %17, %6 {operandSegmentSizes = array<i32: 1, 1, 1>} : tensor<128x!tt.ptr<f32>>\n    tt.return\n  }\n  tt.func public @entry_point(%arg0: !tt.ptr<f32> {tt.divisibility = 16 : i32}, %arg1: !tt.ptr<f32> {tt.divisibility = 16 : i32}, %arg2: i32 {tt.divisibility = 16 : i32}, %arg3: f32 {tt.divisibility = 16 : i32}) {\n    tt.call @_RINvCsk0oJGbER4V7_76muon_update_245349068ef0b6f2b6f94374c7b100070eba1ffff7ebdc12b18f4bd571f9508411muon_updateNtNtNtNtB2_6triton4llvm6triton10LlvmTritonKl80_EB2_(%arg0, %arg1, %arg2, %arg3) {arg_attrs = [{}, {}, {}, {}], res_attrs = []} : (!tt.ptr<f32>, !tt.ptr<f32>, i32, f32) -> ()\n    tt.return\n  }\n}"
