---
source: kernels/teeny-kernels/tests/test_constant_pad2d.rs
expression: mlir.trim()
---
"module {\n  tt.func private @_RINvCs3XNiasG2blP_88constant_pad2d_backward_d38bdfec3b24af94b4809dde91a9b063b762aa6e2317c9960980d1afb6b9ccd623constant_pad2d_backwardNtNtNtNtB2_6triton4llvm6triton10LlvmTritonfKl1_Kl2_KB2T_Kl3_Kl10_EB2_(%arg0: !tt.ptr<f32> {tt.divisibility = 16 : i32}, %arg1: !tt.ptr<f32> {tt.divisibility = 16 : i32}, %arg2: i32 {tt.divisibility = 16 : i32}, %arg3: i32 {tt.divisibility = 16 : i32}, %arg4: i32 {tt.divisibility = 16 : i32}, %arg5: i32 {tt.divisibility = 16 : i32}, %arg6: i32 {tt.divisibility = 16 : i32}, %arg7: i32 {tt.divisibility = 16 : i32}) {\n    %cst = arith.constant dense<0.000000e+00> : tensor<16xf32>\n    %cst_0 = arith.constant dense<0> : tensor<16xi32>\n    %cst_1 = arith.constant dense<2> : tensor<16xi32>\n    %c15_i32 = arith.constant 15 : i32\n    %false = arith.constant false\n    %c0_i32 = arith.constant 0 : i32\n    %c1_i32 = arith.constant 1 : i32\n    %c16_i32 = arith.constant 16 : i32\n    %0 = tt.get_program_id x : i32\n    %1 = arith.addi %arg7, %c15_i32 : i32\n    %2 = arith.divsi %1, %c16_i32 : i32\n    %3 = arith.remsi %0, %2 : i32\n    %4 = arith.divsi %0, %2 : i32\n    %5 = arith.remsi %4, %arg6 : i32\n    %6 = arith.divsi %4, %arg6 : i32\n    %7 = arith.remsi %6, %arg3 : i32\n    %8 = arith.divsi %6, %arg3 : i32\n    %9 = arith.muli %3, %c16_i32 : i32\n    %10 = tt.make_range {end = 16 : i32, start = 0 : i32} : tensor<16xi32>\n    %11 = tt.splat %9 : i32 -> tensor<16xi32>\n    %12 = arith.addi %10, %11 : tensor<16xi32>\n    %13 = tt.splat %arg7 : i32 -> tensor<16xi32>\n    %14 = arith.cmpi slt, %12, %13 : tensor<16xi32>\n    %15 = arith.subi %5, %c1_i32 : i32\n    %16 = arith.cmpi slt, %15, %c0_i32 : i32\n    %17 = arith.cmpi eq, %16, %false : i1\n    cf.cond_br %17, ^bb2, ^bb1\n  ^bb1:  // 3 preds: ^bb0, ^bb2, ^bb3\n    tt.return\n  ^bb2:  // pred: ^bb0\n    %18 = arith.cmpi sge, %15, %arg4 : i32\n    %19 = arith.cmpi eq, %18, %false : i1\n    cf.cond_br %19, ^bb3, ^bb1\n  ^bb3:  // pred: ^bb2\n    %20 = arith.subi %12, %cst_1 : tensor<16xi32>\n    %21 = arith.cmpi sge, %20, %cst_0 : tensor<16xi32>\n    %22 = tt.splat %arg5 : i32 -> tensor<16xi32>\n    %23 = arith.cmpi slt, %20, %22 : tensor<16xi32>\n    %24 = arith.andi %21, %23 : tensor<16xi1>\n    %25 = arith.muli %8, %arg3 : i32\n    %26 = arith.addi %25, %7 : i32\n    %27 = arith.muli %26, %arg6 : i32\n    %28 = arith.addi %27, %5 : i32\n    %29 = arith.muli %28, %arg7 : i32\n    %30 = arith.muli %26, %arg4 : i32\n    %31 = arith.muli %30, %arg5 : i32\n    %32 = arith.muli %15, %arg5 : i32\n    %33 = arith.addi %31, %32 : i32\n    %34 = arith.andi %14, %24 : tensor<16xi1>\n    %35 = tt.splat %29 : i32 -> tensor<16xi32>\n    %36 = arith.addi %12, %35 : tensor<16xi32>\n    %37 = tt.splat %arg0 : !tt.ptr<f32> -> tensor<16x!tt.ptr<f32>>\n    %38 = tt.addptr %37, %36 : tensor<16x!tt.ptr<f32>>, tensor<16xi32>\n    %39 = tt.load %38, %14, %cst : tensor<16x!tt.ptr<f32>>\n    %40 = tt.splat %33 : i32 -> tensor<16xi32>\n    %41 = arith.addi %20, %40 : tensor<16xi32>\n    %42 = tt.splat %arg1 : !tt.ptr<f32> -> tensor<16x!tt.ptr<f32>>\n    %43 = tt.addptr %42, %41 : tensor<16x!tt.ptr<f32>>, tensor<16xi32>\n    tt.store %43, %39, %34 {operandSegmentSizes = array<i32: 1, 1, 1>} : tensor<16x!tt.ptr<f32>>\n    cf.br ^bb1\n  }\n  tt.func public @entry_point(%arg0: !tt.ptr<f32> {tt.divisibility = 16 : i32}, %arg1: !tt.ptr<f32> {tt.divisibility = 16 : i32}, %arg2: i32 {tt.divisibility = 16 : i32}, %arg3: i32 {tt.divisibility = 16 : i32}, %arg4: i32 {tt.divisibility = 16 : i32}, %arg5: i32 {tt.divisibility = 16 : i32}, %arg6: i32 {tt.divisibility = 16 : i32}, %arg7: i32 {tt.divisibility = 16 : i32}) {\n    tt.call @_RINvCs3XNiasG2blP_88constant_pad2d_backward_d38bdfec3b24af94b4809dde91a9b063b762aa6e2317c9960980d1afb6b9ccd623constant_pad2d_backwardNtNtNtNtB2_6triton4llvm6triton10LlvmTritonfKl1_Kl2_KB2T_Kl3_Kl10_EB2_(%arg0, %arg1, %arg2, %arg3, %arg4, %arg5, %arg6, %arg7) {arg_attrs = [{}, {}, {}, {}, {}, {}, {}, {}], res_attrs = []} : (!tt.ptr<f32>, !tt.ptr<f32>, i32, i32, i32, i32, i32, i32) -> ()\n    tt.return\n  }\n}"
