---
source: kernels/teeny-kernels/tests/test_avgpool1d.rs
expression: mlir.trim()
---
"module {\n  tt.func private @_RINvCs8aAwTZdTgxa_82avgpool1d_forward_f606c0aafadde44a304e085df1585c2eeefb7fbdb856046799c721767c541ad817avgpool1d_forwardNtNtNtNtB2_6triton4llvm6triton10LlvmTritonfKl4_KB2D_KB2D_EB2_(%arg0: !tt.ptr<f32> {tt.divisibility = 16 : i32}, %arg1: !tt.ptr<f32> {tt.divisibility = 16 : i32}, %arg2: i32 {tt.divisibility = 16 : i32}, %arg3: i32 {tt.divisibility = 16 : i32}, %arg4: i32 {tt.divisibility = 16 : i32}, %arg5: i32 {tt.divisibility = 16 : i32}) {\n    %cst = arith.constant dense<4.000000e+00> : tensor<4xf32>\n    %cst_0 = arith.constant dense<4> : tensor<4xi32>\n    %cst_1 = arith.constant dense<0.000000e+00> : tensor<4xf32>\n    %c3_i32 = arith.constant 3 : i32\n    %c0_i32 = arith.constant 0 : i32\n    %c1_i32 = arith.constant 1 : i32\n    %c4_i32 = arith.constant 4 : i32\n    %0 = tt.get_program_id x : i32\n    %1 = arith.addi %arg5, %c3_i32 : i32\n    %2 = arith.divsi %1, %c4_i32 : i32\n    %3 = arith.remsi %0, %2 : i32\n    %4 = arith.divsi %0, %2 : i32\n    %5 = arith.remsi %4, %arg3 : i32\n    %6 = arith.divsi %4, %arg3 : i32\n    %7 = arith.muli %3, %c4_i32 : i32\n    %8 = tt.make_range {end = 4 : i32, start = 0 : i32} : tensor<4xi32>\n    %9 = tt.splat %7 : i32 -> tensor<4xi32>\n    %10 = arith.addi %8, %9 : tensor<4xi32>\n    %11 = tt.splat %arg5 : i32 -> tensor<4xi32>\n    %12 = arith.cmpi slt, %10, %11 : tensor<4xi32>\n    %13 = arith.muli %6, %arg3 : i32\n    %14 = arith.addi %13, %5 : i32\n    %15 = arith.muli %14, %arg4 : i32\n    %16 = arith.muli %14, %arg5 : i32\n    %17:2 = scf.for %arg6 = %c0_i32 to %c4_i32 step %c1_i32 iter_args(%arg7 = %c0_i32, %arg8 = %cst_1) -> (i32, tensor<4xf32>)  : i32 {\n      %23 = arith.addi %arg7, %c1_i32 : i32\n      %24 = arith.muli %10, %cst_0 : tensor<4xi32>\n      %25 = tt.splat %arg7 : i32 -> tensor<4xi32>\n      %26 = arith.addi %24, %25 : tensor<4xi32>\n      %27 = tt.splat %15 : i32 -> tensor<4xi32>\n      %28 = arith.addi %26, %27 : tensor<4xi32>\n      %29 = tt.splat %arg0 : !tt.ptr<f32> -> tensor<4x!tt.ptr<f32>>\n      %30 = tt.addptr %29, %28 : tensor<4x!tt.ptr<f32>>, tensor<4xi32>\n      %31 = tt.load %30, %12, %cst_1 : tensor<4x!tt.ptr<f32>>\n      %32 = arith.addf %arg8, %31 : tensor<4xf32>\n      scf.yield %23, %32 : i32, tensor<4xf32>\n    }\n    %18 = arith.divf %17#1, %cst : tensor<4xf32>\n    %19 = tt.splat %16 : i32 -> tensor<4xi32>\n    %20 = arith.addi %10, %19 : tensor<4xi32>\n    %21 = tt.splat %arg1 : !tt.ptr<f32> -> tensor<4x!tt.ptr<f32>>\n    %22 = tt.addptr %21, %20 : tensor<4x!tt.ptr<f32>>, tensor<4xi32>\n    tt.store %22, %18, %12 {operandSegmentSizes = array<i32: 1, 1, 1>} : tensor<4x!tt.ptr<f32>>\n    tt.return\n  }\n  tt.func public @entry_point(%arg0: !tt.ptr<f32> {tt.divisibility = 16 : i32}, %arg1: !tt.ptr<f32> {tt.divisibility = 16 : i32}, %arg2: i32 {tt.divisibility = 16 : i32}, %arg3: i32 {tt.divisibility = 16 : i32}, %arg4: i32 {tt.divisibility = 16 : i32}, %arg5: i32 {tt.divisibility = 16 : i32}) {\n    tt.call @_RINvCs8aAwTZdTgxa_82avgpool1d_forward_f606c0aafadde44a304e085df1585c2eeefb7fbdb856046799c721767c541ad817avgpool1d_forwardNtNtNtNtB2_6triton4llvm6triton10LlvmTritonfKl4_KB2D_KB2D_EB2_(%arg0, %arg1, %arg2, %arg3, %arg4, %arg5) {arg_attrs = [{}, {}, {}, {}, {}, {}], res_attrs = []} : (!tt.ptr<f32>, !tt.ptr<f32>, i32, i32, i32, i32) -> ()\n    tt.return\n  }\n}"
