---
source: kernels/teeny-kernels/tests/test_replication_pad3d.rs
expression: mlir.trim()
---
"module {\n  tt.func private @_RINvCs3lqYEJpwXVT_91replication_pad3d_backward_6955c5ae4b0805a07fdeef6ff9b7439b430f50e20d6e7e63cb1acb7c3bee930726replication_pad3d_backwardNtNtNtNtB2_6triton4llvm6triton10LlvmTritonfKl1_KB2V_KB2V_Kl2_KB39_KB39_Kl10_EB2_(%arg0: !tt.ptr<f32> {tt.divisibility = 16 : i32}, %arg1: !tt.ptr<f32> {tt.divisibility = 16 : i32}, %arg2: i32 {tt.divisibility = 16 : i32}, %arg3: i32 {tt.divisibility = 16 : i32}, %arg4: i32 {tt.divisibility = 16 : i32}, %arg5: i32 {tt.divisibility = 16 : i32}, %arg6: i32 {tt.divisibility = 16 : i32}, %arg7: i32 {tt.divisibility = 16 : i32}, %arg8: i32 {tt.divisibility = 16 : i32}, %arg9: i32 {tt.divisibility = 16 : i32}) {\n    %cst = arith.constant dense<0> : tensor<16xi32>\n    %cst_0 = arith.constant dense<2> : tensor<16xi32>\n    %cst_1 = arith.constant dense<0.000000e+00> : tensor<16xf32>\n    %c15_i32 = arith.constant 15 : i32\n    %false = arith.constant false\n    %c0_i32 = arith.constant 0 : i32\n    %c1_i32 = arith.constant 1 : i32\n    %c16_i32 = arith.constant 16 : i32\n    %0 = tt.get_program_id x : i32\n    %1 = arith.addi %arg9, %c15_i32 : i32\n    %2 = arith.divsi %1, %c16_i32 : i32\n    %3 = arith.remsi %0, %2 : i32\n    %4 = arith.divsi %0, %2 : i32\n    %5 = arith.remsi %4, %arg8 : i32\n    %6 = arith.divsi %4, %arg8 : i32\n    %7 = arith.remsi %6, %arg7 : i32\n    %8 = arith.divsi %6, %arg7 : i32\n    %9 = arith.remsi %8, %arg3 : i32\n    %10 = arith.divsi %8, %arg3 : i32\n    %11 = arith.muli %3, %c16_i32 : i32\n    %12 = tt.make_range {end = 16 : i32, start = 0 : i32} : tensor<16xi32>\n    %13 = tt.splat %11 : i32 -> tensor<16xi32>\n    %14 = arith.addi %12, %13 : tensor<16xi32>\n    %15 = tt.splat %arg9 : i32 -> tensor<16xi32>\n    %16 = arith.cmpi slt, %14, %15 : tensor<16xi32>\n    %17 = arith.subi %7, %c1_i32 : i32\n    %18 = arith.cmpi slt, %17, %c0_i32 : i32\n    %19 = arith.cmpi eq, %18, %false : i1\n    cf.cond_br %19, ^bb5, ^bb1(%c0_i32 : i32)\n  ^bb1(%20: i32):  // 3 preds: ^bb0, ^bb5, ^bb6\n    %21 = arith.subi %5, %c1_i32 : i32\n    %22 = arith.cmpi slt, %21, %c0_i32 : i32\n    %23 = arith.cmpi eq, %22, %false : i1\n    cf.cond_br %23, ^bb3, ^bb2(%c0_i32 : i32)\n  ^bb2(%24: i32):  // 3 preds: ^bb1, ^bb3, ^bb4\n    %25 = arith.muli %10, %arg3 : i32\n    %26 = arith.addi %25, %9 : i32\n    %27 = arith.muli %26, %arg7 : i32\n    %28 = arith.addi %27, %7 : i32\n    %29 = arith.muli %28, %arg8 : i32\n    %30 = arith.addi %29, %5 : i32\n    %31 = arith.muli %30, %arg9 : i32\n    %32 = arith.muli %26, %arg4 : i32\n    %33 = arith.addi %32, %20 : i32\n    %34 = arith.muli %33, %arg5 : i32\n    %35 = arith.muli %34, %arg6 : i32\n    %36 = arith.muli %24, %arg6 : i32\n    %37 = arith.addi %35, %36 : i32\n    %38 = tt.splat %31 : i32 -> tensor<16xi32>\n    %39 = arith.addi %14, %38 : tensor<16xi32>\n    %40 = tt.splat %arg0 : !tt.ptr<f32> -> tensor<16x!tt.ptr<f32>>\n    %41 = tt.addptr %40, %39 : tensor<16x!tt.ptr<f32>>, tensor<16xi32>\n    %42 = tt.load %41, %16, %cst_1 : tensor<16x!tt.ptr<f32>>\n    %43 = arith.subi %14, %cst_0 : tensor<16xi32>\n    %44 = arith.cmpi slt, %43, %cst : tensor<16xi32>\n    %45 = tt.splat %arg6 : i32 -> tensor<16xi32>\n    %46 = arith.cmpi sge, %43, %45 : tensor<16xi32>\n    %47 = arith.cmpi sge, %43, %cst : tensor<16xi32>\n    %48 = tt.splat %arg6 : i32 -> tensor<16xi32>\n    %49 = arith.cmpi slt, %43, %48 : tensor<16xi32>\n    %50 = arith.andi %47, %49 : tensor<16xi1>\n    %51 = arith.subi %arg6, %c1_i32 : i32\n    %52 = tt.splat %51 : i32 -> tensor<16xi32>\n    %53 = tt.splat %37 : i32 -> tensor<16xi32>\n    %54 = arith.addi %43, %53 : tensor<16xi32>\n    %55 = tt.splat %arg1 : !tt.ptr<f32> -> tensor<16x!tt.ptr<f32>>\n    %56 = tt.addptr %55, %54 : tensor<16x!tt.ptr<f32>>, tensor<16xi32>\n    %57 = arith.andi %16, %50 : tensor<16xi1>\n    %58 = tt.atomic_rmw fadd, relaxed, gpu, %56, %42, %57 {operandSegmentSizes = array<i32: 1, 1, 1>} : (tensor<16x!tt.ptr<f32>>, tensor<16xf32>, tensor<16xi1>) -> tensor<16xf32>\n    %59 = tt.splat %37 : i32 -> tensor<16xi32>\n    %60 = tt.splat %arg1 : !tt.ptr<f32> -> tensor<16x!tt.ptr<f32>>\n    %61 = tt.addptr %60, %59 : tensor<16x!tt.ptr<f32>>, tensor<16xi32>\n    %62 = arith.andi %16, %44 : tensor<16xi1>\n    %63 = tt.atomic_rmw fadd, relaxed, gpu, %61, %42, %62 {operandSegmentSizes = array<i32: 1, 1, 1>} : (tensor<16x!tt.ptr<f32>>, tensor<16xf32>, tensor<16xi1>) -> tensor<16xf32>\n    %64 = tt.splat %37 : i32 -> tensor<16xi32>\n    %65 = arith.addi %52, %64 : tensor<16xi32>\n    %66 = tt.splat %arg1 : !tt.ptr<f32> -> tensor<16x!tt.ptr<f32>>\n    %67 = tt.addptr %66, %65 : tensor<16x!tt.ptr<f32>>, tensor<16xi32>\n    %68 = arith.andi %16, %46 : tensor<16xi1>\n    %69 = tt.atomic_rmw fadd, relaxed, gpu, %67, %42, %68 {operandSegmentSizes = array<i32: 1, 1, 1>} : (tensor<16x!tt.ptr<f32>>, tensor<16xf32>, tensor<16xi1>) -> tensor<16xf32>\n    tt.return\n  ^bb3:  // pred: ^bb1\n    %70 = arith.cmpi sge, %21, %arg5 : i32\n    %71 = arith.cmpi eq, %70, %false : i1\n    cf.cond_br %71, ^bb2(%21 : i32), ^bb4\n  ^bb4:  // pred: ^bb3\n    %72 = arith.subi %arg5, %c1_i32 : i32\n    cf.br ^bb2(%72 : i32)\n  ^bb5:  // pred: ^bb0\n    %73 = arith.cmpi sge, %17, %arg4 : i32\n    %74 = arith.cmpi eq, %73, %false : i1\n    cf.cond_br %74, ^bb1(%17 : i32), ^bb6\n  ^bb6:  // pred: ^bb5\n    %75 = arith.subi %arg4, %c1_i32 : i32\n    cf.br ^bb1(%75 : i32)\n  }\n  tt.func public @entry_point(%arg0: !tt.ptr<f32> {tt.divisibility = 16 : i32}, %arg1: !tt.ptr<f32> {tt.divisibility = 16 : i32}, %arg2: i32 {tt.divisibility = 16 : i32}, %arg3: i32 {tt.divisibility = 16 : i32}, %arg4: i32 {tt.divisibility = 16 : i32}, %arg5: i32 {tt.divisibility = 16 : i32}, %arg6: i32 {tt.divisibility = 16 : i32}, %arg7: i32 {tt.divisibility = 16 : i32}, %arg8: i32 {tt.divisibility = 16 : i32}, %arg9: i32 {tt.divisibility = 16 : i32}) {\n    tt.call @_RINvCs3lqYEJpwXVT_91replication_pad3d_backward_6955c5ae4b0805a07fdeef6ff9b7439b430f50e20d6e7e63cb1acb7c3bee930726replication_pad3d_backwardNtNtNtNtB2_6triton4llvm6triton10LlvmTritonfKl1_KB2V_KB2V_Kl2_KB39_KB39_Kl10_EB2_(%arg0, %arg1, %arg2, %arg3, %arg4, %arg5, %arg6, %arg7, %arg8, %arg9) {arg_attrs = [{}, {}, {}, {}, {}, {}, {}, {}, {}, {}], res_attrs = []} : (!tt.ptr<f32>, !tt.ptr<f32>, i32, i32, i32, i32, i32, i32, i32, i32) -> ()\n    tt.return\n  }\n}"
