---
source: kernels/teeny-kernels/tests/test_optim_adam.rs
expression: mlir.trim()
---
"module {\n  tt.func private @_RINvCsiZojbWUQpJi_75adamw_step_28c86a4ba462149477da88eb344fd2342fa8b410a450c8f0b73e204ae90a679210adamw_stepNtNtNtNtB2_6triton4llvm6triton10LlvmTritonKl80_EB2_(%arg0: !tt.ptr<f32> {tt.divisibility = 16 : i32}, %arg1: !tt.ptr<f32> {tt.divisibility = 16 : i32}, %arg2: !tt.ptr<f32> {tt.divisibility = 16 : i32}, %arg3: !tt.ptr<f32> {tt.divisibility = 16 : i32}, %arg4: i32 {tt.divisibility = 16 : i32}, %arg5: f32 {tt.divisibility = 16 : i32}, %arg6: f32 {tt.divisibility = 16 : i32}, %arg7: f32 {tt.divisibility = 16 : i32}, %arg8: f32 {tt.divisibility = 16 : i32}, %arg9: f32 {tt.divisibility = 16 : i32}, %arg10: f32 {tt.divisibility = 16 : i32}, %arg11: f32 {tt.divisibility = 16 : i32}) {\n    %cst = arith.constant dense<5.000000e-01> : tensor<128xf32>\n    %cst_0 = arith.constant 1.000000e+00 : f32\n    %c128_i32 = arith.constant 128 : i32\n    %0 = tt.get_program_id x : i32\n    %1 = arith.muli %0, %c128_i32 : i32\n    %2 = tt.make_range {end = 128 : i32, start = 0 : i32} : tensor<128xi32>\n    %3 = tt.splat %1 : i32 -> tensor<128xi32>\n    %4 = arith.addi %2, %3 : tensor<128xi32>\n    %5 = tt.splat %arg4 : i32 -> tensor<128xi32>\n    %6 = arith.cmpi slt, %4, %5 : tensor<128xi32>\n    %7 = tt.splat %arg0 : !tt.ptr<f32> -> tensor<128x!tt.ptr<f32>>\n    %8 = tt.addptr %7, %4 : tensor<128x!tt.ptr<f32>>, tensor<128xi32>\n    %9 = tt.load %8, %6 : tensor<128x!tt.ptr<f32>>\n    %10 = tt.splat %arg1 : !tt.ptr<f32> -> tensor<128x!tt.ptr<f32>>\n    %11 = tt.addptr %10, %4 : tensor<128x!tt.ptr<f32>>, tensor<128xi32>\n    %12 = tt.load %11, %6 : tensor<128x!tt.ptr<f32>>\n    %13 = tt.splat %arg2 : !tt.ptr<f32> -> tensor<128x!tt.ptr<f32>>\n    %14 = tt.addptr %13, %4 : tensor<128x!tt.ptr<f32>>, tensor<128xi32>\n    %15 = tt.load %14, %6 : tensor<128x!tt.ptr<f32>>\n    %16 = tt.splat %arg3 : !tt.ptr<f32> -> tensor<128x!tt.ptr<f32>>\n    %17 = tt.addptr %16, %4 : tensor<128x!tt.ptr<f32>>, tensor<128xi32>\n    %18 = tt.load %17, %6 : tensor<128x!tt.ptr<f32>>\n    %19 = tt.splat %arg7 : f32 -> tensor<128xf32>\n    %20 = tt.splat %arg8 : f32 -> tensor<128xf32>\n    %21 = arith.subf %cst_0, %arg7 : f32\n    %22 = tt.splat %21 : f32 -> tensor<128xf32>\n    %23 = arith.subf %cst_0, %arg8 : f32\n    %24 = tt.splat %23 : f32 -> tensor<128xf32>\n    %25 = tt.splat %arg9 : f32 -> tensor<128xf32>\n    %26 = tt.splat %arg5 : f32 -> tensor<128xf32>\n    %27 = tt.splat %arg6 : f32 -> tensor<128xf32>\n    %28 = arith.mulf %arg11, %arg10 : f32\n    %29 = arith.subf %cst_0, %28 : f32\n    %30 = tt.splat %29 : f32 -> tensor<128xf32>\n    %31 = arith.mulf %9, %30 : tensor<128xf32>\n    %32 = arith.mulf %19, %15 : tensor<128xf32>\n    %33 = arith.mulf %22, %12 : tensor<128xf32>\n    %34 = arith.addf %32, %33 : tensor<128xf32>\n    %35 = arith.mulf %20, %18 : tensor<128xf32>\n    %36 = arith.mulf %24, %12 : tensor<128xf32>\n    %37 = arith.mulf %36, %12 : tensor<128xf32>\n    %38 = arith.addf %35, %37 : tensor<128xf32>\n    %39 = math.log %38 : tensor<128xf32>\n    %40 = arith.mulf %39, %cst : tensor<128xf32>\n    %41 = math.exp %40 : tensor<128xf32>\n    %42 = arith.divf %41, %27 : tensor<128xf32>\n    %43 = arith.addf %42, %25 : tensor<128xf32>\n    %44 = arith.mulf %26, %34 : tensor<128xf32>\n    %45 = arith.divf %44, %43 : tensor<128xf32>\n    %46 = arith.subf %31, %45 : tensor<128xf32>\n    %47 = tt.splat %arg0 : !tt.ptr<f32> -> tensor<128x!tt.ptr<f32>>\n    %48 = tt.addptr %47, %4 : tensor<128x!tt.ptr<f32>>, tensor<128xi32>\n    tt.store %48, %46, %6 {operandSegmentSizes = array<i32: 1, 1, 1>} : tensor<128x!tt.ptr<f32>>\n    %49 = tt.splat %arg2 : !tt.ptr<f32> -> tensor<128x!tt.ptr<f32>>\n    %50 = tt.addptr %49, %4 : tensor<128x!tt.ptr<f32>>, tensor<128xi32>\n    tt.store %50, %34, %6 {operandSegmentSizes = array<i32: 1, 1, 1>} : tensor<128x!tt.ptr<f32>>\n    %51 = tt.splat %arg3 : !tt.ptr<f32> -> tensor<128x!tt.ptr<f32>>\n    %52 = tt.addptr %51, %4 : tensor<128x!tt.ptr<f32>>, tensor<128xi32>\n    tt.store %52, %38, %6 {operandSegmentSizes = array<i32: 1, 1, 1>} : tensor<128x!tt.ptr<f32>>\n    tt.return\n  }\n  tt.func public @entry_point(%arg0: !tt.ptr<f32> {tt.divisibility = 16 : i32}, %arg1: !tt.ptr<f32> {tt.divisibility = 16 : i32}, %arg2: !tt.ptr<f32> {tt.divisibility = 16 : i32}, %arg3: !tt.ptr<f32> {tt.divisibility = 16 : i32}, %arg4: i32 {tt.divisibility = 16 : i32}, %arg5: f32 {tt.divisibility = 16 : i32}, %arg6: f32 {tt.divisibility = 16 : i32}, %arg7: f32 {tt.divisibility = 16 : i32}, %arg8: f32 {tt.divisibility = 16 : i32}, %arg9: f32 {tt.divisibility = 16 : i32}, %arg10: f32 {tt.divisibility = 16 : i32}, %arg11: f32 {tt.divisibility = 16 : i32}) {\n    tt.call @_RINvCsiZojbWUQpJi_75adamw_step_28c86a4ba462149477da88eb344fd2342fa8b410a450c8f0b73e204ae90a679210adamw_stepNtNtNtNtB2_6triton4llvm6triton10LlvmTritonKl80_EB2_(%arg0, %arg1, %arg2, %arg3, %arg4, %arg5, %arg6, %arg7, %arg8, %arg9, %arg10, %arg11) {arg_attrs = [{}, {}, {}, {}, {}, {}, {}, {}, {}, {}, {}, {}], res_attrs = []} : (!tt.ptr<f32>, !tt.ptr<f32>, !tt.ptr<f32>, !tt.ptr<f32>, i32, f32, f32, f32, f32, f32, f32, f32) -> ()\n    tt.return\n  }\n}"
