---
source: kernels/teeny-kernels/tests/test_lppool1d.rs
expression: mlir.trim()
---
"module {\n  tt.func private @_RINvCs8pllIyGplOZ_81lppool1d_forward_77e3f80db67040484e052321252d1b39337f64f2c7e81234de7a4490831cb8d816lppool1d_forwardNtNtNtNtB2_6triton4llvm6triton10LlvmTritonfKl4_KB2B_KB2B_EB2_(%arg0: !tt.ptr<f32> {tt.divisibility = 16 : i32}, %arg1: !tt.ptr<f32> {tt.divisibility = 16 : i32}, %arg2: i32 {tt.divisibility = 16 : i32}, %arg3: i32 {tt.divisibility = 16 : i32}, %arg4: i32 {tt.divisibility = 16 : i32}, %arg5: i32 {tt.divisibility = 16 : i32}, %arg6: f32 {tt.divisibility = 16 : i32}) {\n    %cst = arith.constant dense<4> : tensor<4xi32>\n    %cst_0 = arith.constant dense<0.000000e+00> : tensor<4xf32>\n    %cst_1 = arith.constant dense<9.99999996E-13> : tensor<4xf32>\n    %c3_i32 = arith.constant 3 : i32\n    %cst_2 = arith.constant 1.000000e+00 : f32\n    %c0_i32 = arith.constant 0 : i32\n    %c1_i32 = arith.constant 1 : i32\n    %c4_i32 = arith.constant 4 : i32\n    %0 = tt.get_program_id x : i32\n    %1 = arith.addi %arg5, %c3_i32 : i32\n    %2 = arith.divsi %1, %c4_i32 : i32\n    %3 = arith.remsi %0, %2 : i32\n    %4 = arith.divsi %0, %2 : i32\n    %5 = arith.remsi %4, %arg3 : i32\n    %6 = arith.divsi %4, %arg3 : i32\n    %7 = arith.muli %3, %c4_i32 : i32\n    %8 = tt.make_range {end = 4 : i32, start = 0 : i32} : tensor<4xi32>\n    %9 = tt.splat %7 : i32 -> tensor<4xi32>\n    %10 = arith.addi %8, %9 : tensor<4xi32>\n    %11 = tt.splat %arg5 : i32 -> tensor<4xi32>\n    %12 = arith.cmpi slt, %10, %11 : tensor<4xi32>\n    %13 = arith.muli %6, %arg3 : i32\n    %14 = arith.addi %13, %5 : i32\n    %15 = arith.muli %14, %arg4 : i32\n    %16 = arith.muli %14, %arg5 : i32\n    %17 = tt.splat %arg6 : f32 -> tensor<4xf32>\n    %18 = arith.divf %cst_2, %arg6 : f32\n    %19 = tt.splat %18 : f32 -> tensor<4xf32>\n    %20:2 = scf.for %arg7 = %c0_i32 to %c4_i32 step %c1_i32 iter_args(%arg8 = %c0_i32, %arg9 = %cst_0) -> (i32, tensor<4xf32>)  : i32 {\n      %29 = arith.addi %arg8, %c1_i32 : i32\n      %30 = arith.muli %10, %cst : tensor<4xi32>\n      %31 = tt.splat %arg8 : i32 -> tensor<4xi32>\n      %32 = arith.addi %30, %31 : tensor<4xi32>\n      %33 = tt.splat %15 : i32 -> tensor<4xi32>\n      %34 = arith.addi %32, %33 : tensor<4xi32>\n      %35 = tt.splat %arg0 : !tt.ptr<f32> -> tensor<4x!tt.ptr<f32>>\n      %36 = tt.addptr %35, %34 : tensor<4x!tt.ptr<f32>>, tensor<4xi32>\n      %37 = tt.load %36, %12, %cst_0 : tensor<4x!tt.ptr<f32>>\n      %38 = math.absf %37 : tensor<4xf32>\n      %39 = arith.maximumf %38, %cst_1 : tensor<4xf32>\n      %40 = math.log %39 : tensor<4xf32>\n      %41 = arith.mulf %17, %40 : tensor<4xf32>\n      %42 = math.exp %41 : tensor<4xf32>\n      %43 = arith.addf %arg9, %42 : tensor<4xf32>\n      scf.yield %29, %43 : i32, tensor<4xf32>\n    }\n    %21 = arith.maximumf %20#1, %cst_1 : tensor<4xf32>\n    %22 = math.log %21 : tensor<4xf32>\n    %23 = arith.mulf %22, %19 : tensor<4xf32>\n    %24 = math.exp %23 : tensor<4xf32>\n    %25 = tt.splat %16 : i32 -> tensor<4xi32>\n    %26 = arith.addi %10, %25 : tensor<4xi32>\n    %27 = tt.splat %arg1 : !tt.ptr<f32> -> tensor<4x!tt.ptr<f32>>\n    %28 = tt.addptr %27, %26 : tensor<4x!tt.ptr<f32>>, tensor<4xi32>\n    tt.store %28, %24, %12 {operandSegmentSizes = array<i32: 1, 1, 1>} : tensor<4x!tt.ptr<f32>>\n    tt.return\n  }\n  tt.func public @entry_point(%arg0: !tt.ptr<f32> {tt.divisibility = 16 : i32}, %arg1: !tt.ptr<f32> {tt.divisibility = 16 : i32}, %arg2: i32 {tt.divisibility = 16 : i32}, %arg3: i32 {tt.divisibility = 16 : i32}, %arg4: i32 {tt.divisibility = 16 : i32}, %arg5: i32 {tt.divisibility = 16 : i32}, %arg6: f32 {tt.divisibility = 16 : i32}) {\n    tt.call @_RINvCs8pllIyGplOZ_81lppool1d_forward_77e3f80db67040484e052321252d1b39337f64f2c7e81234de7a4490831cb8d816lppool1d_forwardNtNtNtNtB2_6triton4llvm6triton10LlvmTritonfKl4_KB2B_KB2B_EB2_(%arg0, %arg1, %arg2, %arg3, %arg4, %arg5, %arg6) {arg_attrs = [{}, {}, {}, {}, {}, {}, {}], res_attrs = []} : (!tt.ptr<f32>, !tt.ptr<f32>, i32, i32, i32, i32, f32) -> ()\n    tt.return\n  }\n}"
