---
source: kernels/teeny-kernels/tests/test_reflection_pad3d.rs
expression: mlir.trim()
---
"module {\n  tt.func private @_RINvCs8ci7m3cHwYY_90reflection_pad3d_backward_20aa333d0338be1c22b3b6e481190ed0ff319c1cb2f7fb3d10ad78398de3315c25reflection_pad3d_backwardNtNtNtNtB2_6triton4llvm6triton10LlvmTritonfKl1_KB2T_KB2T_Kl2_KB37_KB37_Kl10_EB2_(%arg0: !tt.ptr<f32> {tt.divisibility = 16 : i32}, %arg1: !tt.ptr<f32> {tt.divisibility = 16 : i32}, %arg2: i32 {tt.divisibility = 16 : i32}, %arg3: i32 {tt.divisibility = 16 : i32}, %arg4: i32 {tt.divisibility = 16 : i32}, %arg5: i32 {tt.divisibility = 16 : i32}, %arg6: i32 {tt.divisibility = 16 : i32}, %arg7: i32 {tt.divisibility = 16 : i32}, %arg8: i32 {tt.divisibility = 16 : i32}, %arg9: i32 {tt.divisibility = 16 : i32}) {\n    %cst = arith.constant dense<0> : tensor<16xi32>\n    %cst_0 = arith.constant dense<2> : tensor<16xi32>\n    %cst_1 = arith.constant dense<0.000000e+00> : tensor<16xf32>\n    %c15_i32 = arith.constant 15 : i32\n    %c2_i32 = arith.constant 2 : i32\n    %false = arith.constant false\n    %c0_i32 = arith.constant 0 : i32\n    %c1_i32 = arith.constant 1 : i32\n    %c16_i32 = arith.constant 16 : i32\n    %0 = tt.get_program_id x : i32\n    %1 = arith.addi %arg9, %c15_i32 : i32\n    %2 = arith.divsi %1, %c16_i32 : i32\n    %3 = arith.remsi %0, %2 : i32\n    %4 = arith.divsi %0, %2 : i32\n    %5 = arith.remsi %4, %arg8 : i32\n    %6 = arith.divsi %4, %arg8 : i32\n    %7 = arith.remsi %6, %arg7 : i32\n    %8 = arith.divsi %6, %arg7 : i32\n    %9 = arith.remsi %8, %arg3 : i32\n    %10 = arith.divsi %8, %arg3 : i32\n    %11 = arith.muli %3, %c16_i32 : i32\n    %12 = tt.make_range {end = 16 : i32, start = 0 : i32} : tensor<16xi32>\n    %13 = tt.splat %11 : i32 -> tensor<16xi32>\n    %14 = arith.addi %12, %13 : tensor<16xi32>\n    %15 = tt.splat %arg9 : i32 -> tensor<16xi32>\n    %16 = arith.cmpi slt, %14, %15 : tensor<16xi32>\n    %17 = arith.subi %7, %c1_i32 : i32\n    %18 = arith.cmpi slt, %17, %c0_i32 : i32\n    %19 = arith.cmpi eq, %18, %false : i1\n    cf.cond_br %19, ^bb1, ^bb2\n  ^bb1:  // pred: ^bb0\n    %20 = arith.cmpi sge, %17, %arg4 : i32\n    %21 = arith.cmpi eq, %20, %false : i1\n    cf.cond_br %21, ^bb4(%17 : i32), ^bb3\n  ^bb2:  // pred: ^bb0\n    %22 = arith.subi %c1_i32, %7 : i32\n    cf.br ^bb4(%22 : i32)\n  ^bb3:  // pred: ^bb1\n    %23 = arith.subi %arg4, %c1_i32 : i32\n    %24 = arith.muli %23, %c2_i32 : i32\n    %25 = arith.subi %24, %17 : i32\n    cf.br ^bb4(%25 : i32)\n  ^bb4(%26: i32):  // 3 preds: ^bb1, ^bb2, ^bb3\n    %27 = arith.subi %5, %c1_i32 : i32\n    %28 = arith.cmpi slt, %27, %c0_i32 : i32\n    %29 = arith.cmpi eq, %28, %false : i1\n    cf.cond_br %29, ^bb5, ^bb6\n  ^bb5:  // pred: ^bb4\n    %30 = arith.cmpi sge, %27, %arg5 : i32\n    %31 = arith.cmpi eq, %30, %false : i1\n    cf.cond_br %31, ^bb8(%27 : i32), ^bb7\n  ^bb6:  // pred: ^bb4\n    %32 = arith.subi %c1_i32, %5 : i32\n    cf.br ^bb8(%32 : i32)\n  ^bb7:  // pred: ^bb5\n    %33 = arith.subi %arg5, %c1_i32 : i32\n    %34 = arith.muli %33, %c2_i32 : i32\n    %35 = arith.subi %34, %27 : i32\n    cf.br ^bb8(%35 : i32)\n  ^bb8(%36: i32):  // 3 preds: ^bb5, ^bb6, ^bb7\n    %37 = arith.muli %10, %arg3 : i32\n    %38 = arith.addi %37, %9 : i32\n    %39 = arith.muli %38, %arg7 : i32\n    %40 = arith.addi %39, %7 : i32\n    %41 = arith.muli %40, %arg8 : i32\n    %42 = arith.addi %41, %5 : i32\n    %43 = arith.muli %42, %arg9 : i32\n    %44 = arith.muli %38, %arg4 : i32\n    %45 = arith.addi %44, %26 : i32\n    %46 = arith.muli %45, %arg5 : i32\n    %47 = arith.muli %46, %arg6 : i32\n    %48 = arith.muli %36, %arg6 : i32\n    %49 = arith.addi %47, %48 : i32\n    %50 = tt.splat %43 : i32 -> tensor<16xi32>\n    %51 = arith.addi %14, %50 : tensor<16xi32>\n    %52 = tt.splat %arg0 : !tt.ptr<f32> -> tensor<16x!tt.ptr<f32>>\n    %53 = tt.addptr %52, %51 : tensor<16x!tt.ptr<f32>>, tensor<16xi32>\n    %54 = tt.load %53, %16, %cst_1 : tensor<16x!tt.ptr<f32>>\n    %55 = arith.subi %14, %cst_0 : tensor<16xi32>\n    %56 = arith.cmpi slt, %55, %cst : tensor<16xi32>\n    %57 = tt.splat %arg6 : i32 -> tensor<16xi32>\n    %58 = arith.cmpi sge, %55, %57 : tensor<16xi32>\n    %59 = arith.cmpi sge, %55, %cst : tensor<16xi32>\n    %60 = tt.splat %arg6 : i32 -> tensor<16xi32>\n    %61 = arith.cmpi slt, %55, %60 : tensor<16xi32>\n    %62 = arith.andi %59, %61 : tensor<16xi1>\n    %63 = arith.subi %arg6, %c1_i32 : i32\n    %64 = arith.muli %63, %c2_i32 : i32\n    %65 = tt.splat %64 : i32 -> tensor<16xi32>\n    %66 = arith.subi %65, %55 : tensor<16xi32>\n    %67 = tt.splat %49 : i32 -> tensor<16xi32>\n    %68 = arith.addi %55, %67 : tensor<16xi32>\n    %69 = tt.splat %arg1 : !tt.ptr<f32> -> tensor<16x!tt.ptr<f32>>\n    %70 = tt.addptr %69, %68 : tensor<16x!tt.ptr<f32>>, tensor<16xi32>\n    %71 = arith.andi %16, %62 : tensor<16xi1>\n    %72 = tt.atomic_rmw fadd, relaxed, gpu, %70, %54, %71 {operandSegmentSizes = array<i32: 1, 1, 1>} : (tensor<16x!tt.ptr<f32>>, tensor<16xf32>, tensor<16xi1>) -> tensor<16xf32>\n    %73 = tt.splat %49 : i32 -> tensor<16xi32>\n    %74 = arith.subi %73, %55 : tensor<16xi32>\n    %75 = tt.splat %arg1 : !tt.ptr<f32> -> tensor<16x!tt.ptr<f32>>\n    %76 = tt.addptr %75, %74 : tensor<16x!tt.ptr<f32>>, tensor<16xi32>\n    %77 = arith.andi %16, %56 : tensor<16xi1>\n    %78 = tt.atomic_rmw fadd, relaxed, gpu, %76, %54, %77 {operandSegmentSizes = array<i32: 1, 1, 1>} : (tensor<16x!tt.ptr<f32>>, tensor<16xf32>, tensor<16xi1>) -> tensor<16xf32>\n    %79 = tt.splat %49 : i32 -> tensor<16xi32>\n    %80 = arith.addi %66, %79 : tensor<16xi32>\n    %81 = tt.splat %arg1 : !tt.ptr<f32> -> tensor<16x!tt.ptr<f32>>\n    %82 = tt.addptr %81, %80 : tensor<16x!tt.ptr<f32>>, tensor<16xi32>\n    %83 = arith.andi %16, %58 : tensor<16xi1>\n    %84 = tt.atomic_rmw fadd, relaxed, gpu, %82, %54, %83 {operandSegmentSizes = array<i32: 1, 1, 1>} : (tensor<16x!tt.ptr<f32>>, tensor<16xf32>, tensor<16xi1>) -> tensor<16xf32>\n    tt.return\n  }\n  tt.func public @entry_point(%arg0: !tt.ptr<f32> {tt.divisibility = 16 : i32}, %arg1: !tt.ptr<f32> {tt.divisibility = 16 : i32}, %arg2: i32 {tt.divisibility = 16 : i32}, %arg3: i32 {tt.divisibility = 16 : i32}, %arg4: i32 {tt.divisibility = 16 : i32}, %arg5: i32 {tt.divisibility = 16 : i32}, %arg6: i32 {tt.divisibility = 16 : i32}, %arg7: i32 {tt.divisibility = 16 : i32}, %arg8: i32 {tt.divisibility = 16 : i32}, %arg9: i32 {tt.divisibility = 16 : i32}) {\n    tt.call @_RINvCs8ci7m3cHwYY_90reflection_pad3d_backward_20aa333d0338be1c22b3b6e481190ed0ff319c1cb2f7fb3d10ad78398de3315c25reflection_pad3d_backwardNtNtNtNtB2_6triton4llvm6triton10LlvmTritonfKl1_KB2T_KB2T_Kl2_KB37_KB37_Kl10_EB2_(%arg0, %arg1, %arg2, %arg3, %arg4, %arg5, %arg6, %arg7, %arg8, %arg9) {arg_attrs = [{}, {}, {}, {}, {}, {}, {}, {}, {}, {}], res_attrs = []} : (!tt.ptr<f32>, !tt.ptr<f32>, i32, i32, i32, i32, i32, i32, i32, i32) -> ()\n    tt.return\n  }\n}"
