---
source: kernels/teeny-kernels/tests/test_flash_attn2.rs
expression: mlir.trim()
---
"module {\n  tt.func private @_RINvCsg8ufOLKpVWM_89flash_attention2_forward_b73899bc25aa7c12b9b50865d3b46eb9a0f143de807d0b1f5024253b262ddf7924flash_attention2_forwardNtNtNtNtB2_6triton4llvm6triton10LlvmTritonKl40_EB2_(%arg0: !tt.ptr<f32> {tt.divisibility = 16 : i32}, %arg1: !tt.ptr<f32> {tt.divisibility = 16 : i32}, %arg2: !tt.ptr<f32> {tt.divisibility = 16 : i32}, %arg3: !tt.ptr<f32> {tt.divisibility = 16 : i32}, %arg4: !tt.ptr<f32> {tt.divisibility = 16 : i32}, %arg5: i32 {tt.divisibility = 16 : i32}, %arg6: i32 {tt.divisibility = 16 : i32}, %arg7: f32 {tt.divisibility = 16 : i32}, %arg8: f32 {tt.divisibility = 16 : i32}) {\n    %cst = arith.constant dense<6.400000e+01> : tensor<1xf32>\n    %cst_0 = arith.constant dense<0.000000e+00> : tensor<64xf32>\n    %c1_i32 = arith.constant 1 : i32\n    %c0_i32 = arith.constant 0 : i32\n    %c64_i32 = arith.constant 64 : i32\n    %0 = tt.get_program_id x : i32\n    %1 = tt.get_program_id y : i32\n    %2 = arith.muli %1, %arg6 : i32\n    %3 = arith.muli %2, %c64_i32 : i32\n    %4 = arith.muli %1, %arg5 : i32\n    %5 = arith.muli %4, %c64_i32 : i32\n    %6 = arith.muli %0, %c64_i32 : i32\n    %7 = arith.addi %5, %6 : i32\n    %8 = arith.addi %4, %0 : i32\n    %9 = tt.make_range {end = 64 : i32, start = 0 : i32} : tensor<64xi32>\n    %10 = tt.splat %7 : i32 -> tensor<64xi32>\n    %11 = arith.addi %9, %10 : tensor<64xi32>\n    %12 = tt.splat %arg0 : !tt.ptr<f32> -> tensor<64x!tt.ptr<f32>>\n    %13 = tt.addptr %12, %11 : tensor<64x!tt.ptr<f32>>, tensor<64xi32>\n    %14 = tt.load %13 : tensor<64x!tt.ptr<f32>>\n    %15 = tt.splat %arg8 : f32 -> tensor<64xf32>\n    %16 = tt.splat %arg7 : f32 -> tensor<64xf32>\n    %17:4 = scf.for %arg9 = %c0_i32 to %arg6 step %c1_i32 iter_args(%arg10 = %c0_i32, %arg11 = %cst_0, %arg12 = %cst_0, %arg13 = %15) -> (i32, tensor<64xf32>, tensor<64xf32>, tensor<64xf32>)  : i32 {\n      %31 = arith.addi %arg10, %c1_i32 : i32\n      %32 = arith.muli %arg10, %c64_i32 : i32\n      %33 = arith.addi %3, %32 : i32\n      %34 = tt.splat %33 : i32 -> tensor<64xi32>\n      %35 = arith.addi %9, %34 : tensor<64xi32>\n      %36 = tt.splat %arg1 : !tt.ptr<f32> -> tensor<64x!tt.ptr<f32>>\n      %37 = tt.addptr %36, %35 : tensor<64x!tt.ptr<f32>>, tensor<64xi32>\n      %38 = tt.load %37 : tensor<64x!tt.ptr<f32>>\n      %39 = tt.splat %33 : i32 -> tensor<64xi32>\n      %40 = arith.addi %9, %39 : tensor<64xi32>\n      %41 = tt.splat %arg2 : !tt.ptr<f32> -> tensor<64x!tt.ptr<f32>>\n      %42 = tt.addptr %41, %40 : tensor<64x!tt.ptr<f32>>, tensor<64xi32>\n      %43 = tt.load %42 : tensor<64x!tt.ptr<f32>>\n      %44 = arith.mulf %14, %38 : tensor<64xf32>\n      %45 = \"tt.reduce\"(%44) <{axis = 0 : i32}> ({\n      ^bb0(%arg14: f32, %arg15: f32):\n        %58 = arith.addf %arg14, %arg15 : f32\n        tt.reduce.return %58 : f32\n      }) : (tensor<64xf32>) -> f32\n      %46 = tt.splat %45 : f32 -> tensor<64xf32>\n      %47 = arith.mulf %46, %16 : tensor<64xf32>\n      %48 = arith.maximumf %arg13, %47 : tensor<64xf32>\n      %49 = arith.subf %arg13, %48 : tensor<64xf32>\n      %50 = math.exp %49 : tensor<64xf32>\n      %51 = arith.subf %47, %48 : tensor<64xf32>\n      %52 = math.exp %51 : tensor<64xf32>\n      %53 = arith.mulf %50, %arg11 : tensor<64xf32>\n      %54 = arith.addf %53, %52 : tensor<64xf32>\n      %55 = arith.mulf %50, %arg12 : tensor<64xf32>\n      %56 = arith.mulf %52, %43 : tensor<64xf32>\n      %57 = arith.addf %55, %56 : tensor<64xf32>\n      scf.yield %31, %54, %57, %48 : i32, tensor<64xf32>, tensor<64xf32>, tensor<64xf32>\n    }\n    %18 = arith.divf %17#2, %17#1 : tensor<64xf32>\n    %19 = math.log %17#1 : tensor<64xf32>\n    %20 = arith.addf %17#3, %19 : tensor<64xf32>\n    %21 = \"tt.reduce\"(%20) <{axis = 0 : i32}> ({\n    ^bb0(%arg9: f32, %arg10: f32):\n      %31 = arith.addf %arg9, %arg10 : f32\n      tt.reduce.return %31 : f32\n    }) : (tensor<64xf32>) -> f32\n    %22 = tt.splat %21 : f32 -> tensor<1xf32>\n    %23 = arith.divf %22, %cst : tensor<1xf32>\n    %24 = tt.splat %7 : i32 -> tensor<64xi32>\n    %25 = arith.addi %9, %24 : tensor<64xi32>\n    %26 = tt.splat %arg3 : !tt.ptr<f32> -> tensor<64x!tt.ptr<f32>>\n    %27 = tt.addptr %26, %25 : tensor<64x!tt.ptr<f32>>, tensor<64xi32>\n    tt.store %27, %18 {operandSegmentSizes = array<i32: 1, 1, 0>} : tensor<64x!tt.ptr<f32>>\n    %28 = tt.splat %8 : i32 -> tensor<1xi32>\n    %29 = tt.splat %arg4 : !tt.ptr<f32> -> tensor<1x!tt.ptr<f32>>\n    %30 = tt.addptr %29, %28 : tensor<1x!tt.ptr<f32>>, tensor<1xi32>\n    tt.store %30, %23 {operandSegmentSizes = array<i32: 1, 1, 0>} : tensor<1x!tt.ptr<f32>>\n    tt.return\n  }\n  tt.func public @entry_point(%arg0: !tt.ptr<f32> {tt.divisibility = 16 : i32}, %arg1: !tt.ptr<f32> {tt.divisibility = 16 : i32}, %arg2: !tt.ptr<f32> {tt.divisibility = 16 : i32}, %arg3: !tt.ptr<f32> {tt.divisibility = 16 : i32}, %arg4: !tt.ptr<f32> {tt.divisibility = 16 : i32}, %arg5: i32 {tt.divisibility = 16 : i32}, %arg6: i32 {tt.divisibility = 16 : i32}, %arg7: f32 {tt.divisibility = 16 : i32}, %arg8: f32 {tt.divisibility = 16 : i32}) {\n    tt.call @_RINvCsg8ufOLKpVWM_89flash_attention2_forward_b73899bc25aa7c12b9b50865d3b46eb9a0f143de807d0b1f5024253b262ddf7924flash_attention2_forwardNtNtNtNtB2_6triton4llvm6triton10LlvmTritonKl40_EB2_(%arg0, %arg1, %arg2, %arg3, %arg4, %arg5, %arg6, %arg7, %arg8) {arg_attrs = [{}, {}, {}, {}, {}, {}, {}, {}, {}], res_attrs = []} : (!tt.ptr<f32>, !tt.ptr<f32>, !tt.ptr<f32>, !tt.ptr<f32>, !tt.ptr<f32>, i32, i32, f32, f32) -> ()\n    tt.return\n  }\n}"
