---
source: kernels/teeny-kernels/tests/test_circular_pad1d.rs
expression: mlir.trim()
---
"module {\n  tt.func private @_RINvCshRzYvWrNlcx_88circular_pad1d_backward_ea432ee3e334fa93f2f0d475124b7642b5fe34e08121b943ea49ecf82ebdb7cc23circular_pad1d_backwardNtNtNtNtB2_6triton4llvm6triton10LlvmTritonfKl2_Kl3_Kl10_EB2_(%arg0: !tt.ptr<f32> {tt.divisibility = 16 : i32}, %arg1: !tt.ptr<f32> {tt.divisibility = 16 : i32}, %arg2: i32 {tt.divisibility = 16 : i32}, %arg3: i32 {tt.divisibility = 16 : i32}, %arg4: i32 {tt.divisibility = 16 : i32}, %arg5: i32 {tt.divisibility = 16 : i32}) {\n    %cst = arith.constant dense<0> : tensor<16xi32>\n    %cst_0 = arith.constant dense<2> : tensor<16xi32>\n    %cst_1 = arith.constant dense<0.000000e+00> : tensor<16xf32>\n    %c15_i32 = arith.constant 15 : i32\n    %c16_i32 = arith.constant 16 : i32\n    %0 = tt.get_program_id x : i32\n    %1 = arith.addi %arg5, %c15_i32 : i32\n    %2 = arith.divsi %1, %c16_i32 : i32\n    %3 = arith.remsi %0, %2 : i32\n    %4 = arith.divsi %0, %2 : i32\n    %5 = arith.remsi %4, %arg3 : i32\n    %6 = arith.divsi %4, %arg3 : i32\n    %7 = arith.muli %3, %c16_i32 : i32\n    %8 = tt.make_range {end = 16 : i32, start = 0 : i32} : tensor<16xi32>\n    %9 = tt.splat %7 : i32 -> tensor<16xi32>\n    %10 = arith.addi %8, %9 : tensor<16xi32>\n    %11 = tt.splat %arg5 : i32 -> tensor<16xi32>\n    %12 = arith.cmpi slt, %10, %11 : tensor<16xi32>\n    %13 = arith.muli %6, %arg3 : i32\n    %14 = arith.addi %13, %5 : i32\n    %15 = arith.muli %14, %arg5 : i32\n    %16 = arith.muli %14, %arg4 : i32\n    %17 = tt.splat %15 : i32 -> tensor<16xi32>\n    %18 = arith.addi %10, %17 : tensor<16xi32>\n    %19 = tt.splat %arg0 : !tt.ptr<f32> -> tensor<16x!tt.ptr<f32>>\n    %20 = tt.addptr %19, %18 : tensor<16x!tt.ptr<f32>>, tensor<16xi32>\n    %21 = tt.load %20, %12, %cst_1 : tensor<16x!tt.ptr<f32>>\n    %22 = arith.subi %10, %cst_0 : tensor<16xi32>\n    %23 = arith.cmpi slt, %22, %cst : tensor<16xi32>\n    %24 = tt.splat %arg4 : i32 -> tensor<16xi32>\n    %25 = arith.cmpi sge, %22, %24 : tensor<16xi32>\n    %26 = arith.cmpi sge, %22, %cst : tensor<16xi32>\n    %27 = tt.splat %arg4 : i32 -> tensor<16xi32>\n    %28 = arith.cmpi slt, %22, %27 : tensor<16xi32>\n    %29 = arith.andi %26, %28 : tensor<16xi1>\n    %30 = tt.splat %arg4 : i32 -> tensor<16xi32>\n    %31 = arith.addi %22, %30 : tensor<16xi32>\n    %32 = tt.splat %arg4 : i32 -> tensor<16xi32>\n    %33 = arith.subi %22, %32 : tensor<16xi32>\n    %34 = tt.splat %16 : i32 -> tensor<16xi32>\n    %35 = arith.addi %22, %34 : tensor<16xi32>\n    %36 = tt.splat %arg1 : !tt.ptr<f32> -> tensor<16x!tt.ptr<f32>>\n    %37 = tt.addptr %36, %35 : tensor<16x!tt.ptr<f32>>, tensor<16xi32>\n    %38 = arith.andi %12, %29 : tensor<16xi1>\n    %39 = tt.atomic_rmw fadd, relaxed, gpu, %37, %21, %38 {operandSegmentSizes = array<i32: 1, 1, 1>} : (tensor<16x!tt.ptr<f32>>, tensor<16xf32>, tensor<16xi1>) -> tensor<16xf32>\n    %40 = tt.splat %16 : i32 -> tensor<16xi32>\n    %41 = arith.addi %31, %40 : tensor<16xi32>\n    %42 = tt.splat %arg1 : !tt.ptr<f32> -> tensor<16x!tt.ptr<f32>>\n    %43 = tt.addptr %42, %41 : tensor<16x!tt.ptr<f32>>, tensor<16xi32>\n    %44 = arith.andi %12, %23 : tensor<16xi1>\n    %45 = tt.atomic_rmw fadd, relaxed, gpu, %43, %21, %44 {operandSegmentSizes = array<i32: 1, 1, 1>} : (tensor<16x!tt.ptr<f32>>, tensor<16xf32>, tensor<16xi1>) -> tensor<16xf32>\n    %46 = tt.splat %16 : i32 -> tensor<16xi32>\n    %47 = arith.addi %33, %46 : tensor<16xi32>\n    %48 = tt.splat %arg1 : !tt.ptr<f32> -> tensor<16x!tt.ptr<f32>>\n    %49 = tt.addptr %48, %47 : tensor<16x!tt.ptr<f32>>, tensor<16xi32>\n    %50 = arith.andi %12, %25 : tensor<16xi1>\n    %51 = tt.atomic_rmw fadd, relaxed, gpu, %49, %21, %50 {operandSegmentSizes = array<i32: 1, 1, 1>} : (tensor<16x!tt.ptr<f32>>, tensor<16xf32>, tensor<16xi1>) -> tensor<16xf32>\n    tt.return\n  }\n  tt.func public @entry_point(%arg0: !tt.ptr<f32> {tt.divisibility = 16 : i32}, %arg1: !tt.ptr<f32> {tt.divisibility = 16 : i32}, %arg2: i32 {tt.divisibility = 16 : i32}, %arg3: i32 {tt.divisibility = 16 : i32}, %arg4: i32 {tt.divisibility = 16 : i32}, %arg5: i32 {tt.divisibility = 16 : i32}) {\n    tt.call @_RINvCshRzYvWrNlcx_88circular_pad1d_backward_ea432ee3e334fa93f2f0d475124b7642b5fe34e08121b943ea49ecf82ebdb7cc23circular_pad1d_backwardNtNtNtNtB2_6triton4llvm6triton10LlvmTritonfKl2_Kl3_Kl10_EB2_(%arg0, %arg1, %arg2, %arg3, %arg4, %arg5) {arg_attrs = [{}, {}, {}, {}, {}, {}], res_attrs = []} : (!tt.ptr<f32>, !tt.ptr<f32>, i32, i32, i32, i32) -> ()\n    tt.return\n  }\n}"
