---
source: kernels/teeny-kernels/tests/test_loss_ranking.rs
expression: mlir.trim()
---
"module {\n  tt.func private @_RINvCsLvwMQ8ijhh_92margin_ranking_loss_forward_0d2d9ff27b155f5922fe7f0007b07124294dd3ec8ddbc00d6098ca670053c8d627margin_ranking_loss_forwardNtNtNtNtB2_6triton4llvm6triton10LlvmTritonKl400_EB2_(%arg0: !tt.ptr<f32> {tt.divisibility = 16 : i32}, %arg1: !tt.ptr<f32> {tt.divisibility = 16 : i32}, %arg2: !tt.ptr<f32> {tt.divisibility = 16 : i32}, %arg3: !tt.ptr<f32> {tt.divisibility = 16 : i32}, %arg4: i32 {tt.divisibility = 16 : i32}, %arg5: f32 {tt.divisibility = 16 : i32}) {\n    %cst = arith.constant dense<-1.000000e+00> : tensor<1024xf32>\n    %cst_0 = arith.constant dense<0.000000e+00> : tensor<1024xf32>\n    %c1024_i32 = arith.constant 1024 : i32\n    %0 = tt.get_program_id x : i32\n    %1 = arith.muli %0, %c1024_i32 : i32\n    %2 = tt.make_range {end = 1024 : i32, start = 0 : i32} : tensor<1024xi32>\n    %3 = tt.splat %1 : i32 -> tensor<1024xi32>\n    %4 = arith.addi %2, %3 : tensor<1024xi32>\n    %5 = tt.splat %arg4 : i32 -> tensor<1024xi32>\n    %6 = arith.cmpi slt, %4, %5 : tensor<1024xi32>\n    %7 = tt.splat %arg0 : !tt.ptr<f32> -> tensor<1024x!tt.ptr<f32>>\n    %8 = tt.addptr %7, %4 : tensor<1024x!tt.ptr<f32>>, tensor<1024xi32>\n    %9 = tt.load %8, %6, %cst_0 : tensor<1024x!tt.ptr<f32>>\n    %10 = tt.splat %arg1 : !tt.ptr<f32> -> tensor<1024x!tt.ptr<f32>>\n    %11 = tt.addptr %10, %4 : tensor<1024x!tt.ptr<f32>>, tensor<1024xi32>\n    %12 = tt.load %11, %6, %cst_0 : tensor<1024x!tt.ptr<f32>>\n    %13 = tt.splat %arg2 : !tt.ptr<f32> -> tensor<1024x!tt.ptr<f32>>\n    %14 = tt.addptr %13, %4 : tensor<1024x!tt.ptr<f32>>, tensor<1024xi32>\n    %15 = tt.load %14, %6, %cst_0 : tensor<1024x!tt.ptr<f32>>\n    %16 = tt.splat %arg5 : f32 -> tensor<1024xf32>\n    %17 = arith.mulf %15, %cst : tensor<1024xf32>\n    %18 = arith.subf %9, %12 : tensor<1024xf32>\n    %19 = arith.mulf %17, %18 : tensor<1024xf32>\n    %20 = arith.addf %19, %16 : tensor<1024xf32>\n    %21 = arith.maximumf %20, %cst_0 : tensor<1024xf32>\n    %22 = tt.splat %arg3 : !tt.ptr<f32> -> tensor<1024x!tt.ptr<f32>>\n    %23 = tt.addptr %22, %4 : tensor<1024x!tt.ptr<f32>>, tensor<1024xi32>\n    tt.store %23, %21, %6 {operandSegmentSizes = array<i32: 1, 1, 1>} : tensor<1024x!tt.ptr<f32>>\n    tt.return\n  }\n  tt.func public @entry_point(%arg0: !tt.ptr<f32> {tt.divisibility = 16 : i32}, %arg1: !tt.ptr<f32> {tt.divisibility = 16 : i32}, %arg2: !tt.ptr<f32> {tt.divisibility = 16 : i32}, %arg3: !tt.ptr<f32> {tt.divisibility = 16 : i32}, %arg4: i32 {tt.divisibility = 16 : i32}, %arg5: f32 {tt.divisibility = 16 : i32}) {\n    tt.call @_RINvCsLvwMQ8ijhh_92margin_ranking_loss_forward_0d2d9ff27b155f5922fe7f0007b07124294dd3ec8ddbc00d6098ca670053c8d627margin_ranking_loss_forwardNtNtNtNtB2_6triton4llvm6triton10LlvmTritonKl400_EB2_(%arg0, %arg1, %arg2, %arg3, %arg4, %arg5) {arg_attrs = [{}, {}, {}, {}, {}, {}], res_attrs = []} : (!tt.ptr<f32>, !tt.ptr<f32>, !tt.ptr<f32>, !tt.ptr<f32>, i32, f32) -> ()\n    tt.return\n  }\n}"
