---
source: kernels/teeny-kernels/tests/test_reflection_pad3d.rs
expression: mlir.trim()
---
"module {\n  tt.func private @_RINvCsl2ZNrsflc0a_89reflection_pad3d_forward_99cd7f65fcd2a94ad742f3f34522cba8c7f4ebce3530dbfa9ff947dbfbc365ec24reflection_pad3d_forwardNtNtNtNtB2_6triton4llvm6triton10LlvmTritonfKl1_KB2R_KB2R_Kl2_KB35_KB35_Kl10_EB2_(%arg0: !tt.ptr<f32> {tt.divisibility = 16 : i32}, %arg1: !tt.ptr<f32> {tt.divisibility = 16 : i32}, %arg2: i32 {tt.divisibility = 16 : i32}, %arg3: i32 {tt.divisibility = 16 : i32}, %arg4: i32 {tt.divisibility = 16 : i32}, %arg5: i32 {tt.divisibility = 16 : i32}, %arg6: i32 {tt.divisibility = 16 : i32}, %arg7: i32 {tt.divisibility = 16 : i32}, %arg8: i32 {tt.divisibility = 16 : i32}, %arg9: i32 {tt.divisibility = 16 : i32}) {\n    %cst = arith.constant dense<0.000000e+00> : tensor<16xf32>\n    %cst_0 = arith.constant dense<0> : tensor<16xi32>\n    %cst_1 = arith.constant dense<2> : tensor<16xi32>\n    %c15_i32 = arith.constant 15 : i32\n    %c2_i32 = arith.constant 2 : i32\n    %false = arith.constant false\n    %c0_i32 = arith.constant 0 : i32\n    %c1_i32 = arith.constant 1 : i32\n    %c16_i32 = arith.constant 16 : i32\n    %0 = tt.get_program_id x : i32\n    %1 = arith.addi %arg9, %c15_i32 : i32\n    %2 = arith.divsi %1, %c16_i32 : i32\n    %3 = arith.remsi %0, %2 : i32\n    %4 = arith.divsi %0, %2 : i32\n    %5 = arith.remsi %4, %arg8 : i32\n    %6 = arith.divsi %4, %arg8 : i32\n    %7 = arith.remsi %6, %arg7 : i32\n    %8 = arith.divsi %6, %arg7 : i32\n    %9 = arith.remsi %8, %arg3 : i32\n    %10 = arith.divsi %8, %arg3 : i32\n    %11 = arith.muli %3, %c16_i32 : i32\n    %12 = tt.make_range {end = 16 : i32, start = 0 : i32} : tensor<16xi32>\n    %13 = tt.splat %11 : i32 -> tensor<16xi32>\n    %14 = arith.addi %12, %13 : tensor<16xi32>\n    %15 = tt.splat %arg9 : i32 -> tensor<16xi32>\n    %16 = arith.cmpi slt, %14, %15 : tensor<16xi32>\n    %17 = arith.subi %7, %c1_i32 : i32\n    %18 = arith.cmpi slt, %17, %c0_i32 : i32\n    %19 = arith.cmpi eq, %18, %false : i1\n    cf.cond_br %19, ^bb7, ^bb1\n  ^bb1:  // pred: ^bb0\n    %20 = arith.subi %c1_i32, %7 : i32\n    cf.br ^bb2(%20 : i32)\n  ^bb2(%21: i32):  // 3 preds: ^bb1, ^bb7, ^bb8\n    %22 = arith.subi %5, %c1_i32 : i32\n    %23 = arith.cmpi slt, %22, %c0_i32 : i32\n    %24 = arith.cmpi eq, %23, %false : i1\n    cf.cond_br %24, ^bb5, ^bb3\n  ^bb3:  // pred: ^bb2\n    %25 = arith.subi %c1_i32, %5 : i32\n    cf.br ^bb4(%25 : i32)\n  ^bb4(%26: i32):  // 3 preds: ^bb3, ^bb5, ^bb6\n    %27 = arith.muli %10, %arg3 : i32\n    %28 = arith.addi %27, %9 : i32\n    %29 = arith.muli %28, %arg4 : i32\n    %30 = arith.addi %29, %21 : i32\n    %31 = arith.muli %30, %arg5 : i32\n    %32 = arith.muli %31, %arg6 : i32\n    %33 = arith.muli %26, %arg6 : i32\n    %34 = arith.addi %32, %33 : i32\n    %35 = arith.muli %28, %arg7 : i32\n    %36 = arith.addi %35, %7 : i32\n    %37 = arith.muli %36, %arg8 : i32\n    %38 = arith.addi %37, %5 : i32\n    %39 = arith.muli %38, %arg9 : i32\n    %40 = arith.subi %14, %cst_1 : tensor<16xi32>\n    %41 = arith.cmpi slt, %40, %cst_0 : tensor<16xi32>\n    %42 = tt.splat %arg6 : i32 -> tensor<16xi32>\n    %43 = arith.cmpi sge, %40, %42 : tensor<16xi32>\n    %44 = arith.cmpi sge, %40, %cst_0 : tensor<16xi32>\n    %45 = tt.splat %arg6 : i32 -> tensor<16xi32>\n    %46 = arith.cmpi slt, %40, %45 : tensor<16xi32>\n    %47 = arith.andi %44, %46 : tensor<16xi1>\n    %48 = arith.subi %arg6, %c1_i32 : i32\n    %49 = arith.muli %48, %c2_i32 : i32\n    %50 = tt.splat %49 : i32 -> tensor<16xi32>\n    %51 = arith.subi %50, %40 : tensor<16xi32>\n    %52 = tt.splat %34 : i32 -> tensor<16xi32>\n    %53 = arith.addi %40, %52 : tensor<16xi32>\n    %54 = tt.splat %arg0 : !tt.ptr<f32> -> tensor<16x!tt.ptr<f32>>\n    %55 = tt.addptr %54, %53 : tensor<16x!tt.ptr<f32>>, tensor<16xi32>\n    %56 = arith.andi %16, %47 : tensor<16xi1>\n    %57 = tt.load %55, %56, %cst : tensor<16x!tt.ptr<f32>>\n    %58 = tt.splat %34 : i32 -> tensor<16xi32>\n    %59 = arith.subi %58, %40 : tensor<16xi32>\n    %60 = tt.splat %arg0 : !tt.ptr<f32> -> tensor<16x!tt.ptr<f32>>\n    %61 = tt.addptr %60, %59 : tensor<16x!tt.ptr<f32>>, tensor<16xi32>\n    %62 = arith.andi %16, %41 : tensor<16xi1>\n    %63 = tt.load %61, %62, %cst : tensor<16x!tt.ptr<f32>>\n    %64 = tt.splat %34 : i32 -> tensor<16xi32>\n    %65 = arith.addi %51, %64 : tensor<16xi32>\n    %66 = tt.splat %arg0 : !tt.ptr<f32> -> tensor<16x!tt.ptr<f32>>\n    %67 = tt.addptr %66, %65 : tensor<16x!tt.ptr<f32>>, tensor<16xi32>\n    %68 = arith.andi %16, %43 : tensor<16xi1>\n    %69 = tt.load %67, %68, %cst : tensor<16x!tt.ptr<f32>>\n    %70 = arith.select %43, %69, %57 : tensor<16xi1>, tensor<16xf32>\n    %71 = arith.select %41, %63, %70 : tensor<16xi1>, tensor<16xf32>\n    %72 = tt.splat %39 : i32 -> tensor<16xi32>\n    %73 = arith.addi %14, %72 : tensor<16xi32>\n    %74 = tt.splat %arg1 : !tt.ptr<f32> -> tensor<16x!tt.ptr<f32>>\n    %75 = tt.addptr %74, %73 : tensor<16x!tt.ptr<f32>>, tensor<16xi32>\n    tt.store %75, %71, %16 {operandSegmentSizes = array<i32: 1, 1, 1>} : tensor<16x!tt.ptr<f32>>\n    tt.return\n  ^bb5:  // pred: ^bb2\n    %76 = arith.cmpi sge, %22, %arg5 : i32\n    %77 = arith.cmpi eq, %76, %false : i1\n    cf.cond_br %77, ^bb4(%22 : i32), ^bb6\n  ^bb6:  // pred: ^bb5\n    %78 = arith.subi %arg5, %c1_i32 : i32\n    %79 = arith.muli %78, %c2_i32 : i32\n    %80 = arith.subi %79, %22 : i32\n    cf.br ^bb4(%80 : i32)\n  ^bb7:  // pred: ^bb0\n    %81 = arith.cmpi sge, %17, %arg4 : i32\n    %82 = arith.cmpi eq, %81, %false : i1\n    cf.cond_br %82, ^bb2(%17 : i32), ^bb8\n  ^bb8:  // pred: ^bb7\n    %83 = arith.subi %arg4, %c1_i32 : i32\n    %84 = arith.muli %83, %c2_i32 : i32\n    %85 = arith.subi %84, %17 : i32\n    cf.br ^bb2(%85 : i32)\n  }\n  tt.func public @entry_point(%arg0: !tt.ptr<f32> {tt.divisibility = 16 : i32}, %arg1: !tt.ptr<f32> {tt.divisibility = 16 : i32}, %arg2: i32 {tt.divisibility = 16 : i32}, %arg3: i32 {tt.divisibility = 16 : i32}, %arg4: i32 {tt.divisibility = 16 : i32}, %arg5: i32 {tt.divisibility = 16 : i32}, %arg6: i32 {tt.divisibility = 16 : i32}, %arg7: i32 {tt.divisibility = 16 : i32}, %arg8: i32 {tt.divisibility = 16 : i32}, %arg9: i32 {tt.divisibility = 16 : i32}) {\n    tt.call @_RINvCsl2ZNrsflc0a_89reflection_pad3d_forward_99cd7f65fcd2a94ad742f3f34522cba8c7f4ebce3530dbfa9ff947dbfbc365ec24reflection_pad3d_forwardNtNtNtNtB2_6triton4llvm6triton10LlvmTritonfKl1_KB2R_KB2R_Kl2_KB35_KB35_Kl10_EB2_(%arg0, %arg1, %arg2, %arg3, %arg4, %arg5, %arg6, %arg7, %arg8, %arg9) {arg_attrs = [{}, {}, {}, {}, {}, {}, {}, {}, {}, {}], res_attrs = []} : (!tt.ptr<f32>, !tt.ptr<f32>, i32, i32, i32, i32, i32, i32, i32, i32) -> ()\n    tt.return\n  }\n}"
