---
source: kernels/teeny-kernels/tests/test_instancenorm.rs
expression: mlir.trim()
---
"module {\n  tt.func private @_RINvCs18wRwyu3BMl_96instance_norm_forward_inference_414cdc8db96bd56c48dfd1206f83ddd5ac065f58398f8545386ff887a925386431instance_norm_forward_inferenceNtNtNtNtB2_6triton4llvm6triton10LlvmTritonfKl100_EB2_(%arg0: !tt.ptr<f32> {tt.divisibility = 16 : i32}, %arg1: !tt.ptr<f32> {tt.divisibility = 16 : i32}, %arg2: !tt.ptr<f32> {tt.divisibility = 16 : i32}, %arg3: !tt.ptr<f32> {tt.divisibility = 16 : i32}, %arg4: i32 {tt.divisibility = 16 : i32}, %arg5: i32 {tt.divisibility = 16 : i32}, %arg6: i32 {tt.divisibility = 16 : i32}, %arg7: f32 {tt.divisibility = 16 : i32}) {\n    %cst = arith.constant dense<1.000000e+00> : tensor<1xf32>\n    %cst_0 = arith.constant dense<0.000000e+00> : tensor<1xf32>\n    %cst_1 = arith.constant dense<0.000000e+00> : tensor<256xf32>\n    %c256_i32 = arith.constant 256 : i32\n    %cst_2 = arith.constant 1.000000e+00 : f32\n    %c0_i32 = arith.constant 0 : i32\n    %0 = tt.get_program_id x : i32\n    %1 = arith.divsi %0, %arg5 : i32\n    %2 = arith.muli %1, %arg5 : i32\n    %3 = arith.subi %0, %2 : i32\n    %4 = arith.muli %0, %arg6 : i32\n    %5 = tt.splat %3 : i32 -> tensor<1xi32>\n    %6 = arith.sitofp %arg6 : i32 to f32\n    %7 = arith.divf %cst_2, %6 : f32\n    %8 = tt.splat %7 : f32 -> tensor<1xf32>\n    %9:2 = scf.while (%arg8 = %cst_0, %arg9 = %c0_i32) : (tensor<1xf32>, i32) -> (tensor<1xf32>, i32) {\n      %28 = arith.cmpi slt, %arg9, %arg6 : i32\n      scf.condition(%28) %arg8, %arg9 : tensor<1xf32>, i32\n    } do {\n    ^bb0(%arg8: tensor<1xf32>, %arg9: i32):\n      %28 = tt.make_range {end = 256 : i32, start = 0 : i32} : tensor<256xi32>\n      %29 = tt.splat %arg9 : i32 -> tensor<256xi32>\n      %30 = arith.addi %28, %29 : tensor<256xi32>\n      %31 = tt.splat %arg6 : i32 -> tensor<256xi32>\n      %32 = arith.cmpi slt, %30, %31 : tensor<256xi32>\n      %33 = tt.splat %4 : i32 -> tensor<256xi32>\n      %34 = arith.addi %30, %33 : tensor<256xi32>\n      %35 = tt.splat %arg0 : !tt.ptr<f32> -> tensor<256x!tt.ptr<f32>>\n      %36 = tt.addptr %35, %34 : tensor<256x!tt.ptr<f32>>, tensor<256xi32>\n      %37 = tt.load %36, %32, %cst_1 : tensor<256x!tt.ptr<f32>>\n      %38 = \"tt.reduce\"(%37) <{axis = 0 : i32}> ({\n      ^bb0(%arg10: f32, %arg11: f32):\n        %42 = arith.addf %arg10, %arg11 : f32\n        tt.reduce.return %42 : f32\n      }) : (tensor<256xf32>) -> f32\n      %39 = tt.splat %38 : f32 -> tensor<1xf32>\n      %40 = arith.addf %arg8, %39 : tensor<1xf32>\n      %41 = arith.addi %arg9, %c256_i32 : i32\n      scf.yield %40, %41 : tensor<1xf32>, i32\n    }\n    %10 = arith.mulf %9#0, %8 : tensor<1xf32>\n    %11 = tt.broadcast %10 : tensor<1xf32> -> tensor<256xf32>\n    %12:2 = scf.while (%arg8 = %cst_0, %arg9 = %c0_i32) : (tensor<1xf32>, i32) -> (tensor<1xf32>, i32) {\n      %28 = arith.cmpi slt, %arg9, %arg6 : i32\n      scf.condition(%28) %arg8, %arg9 : tensor<1xf32>, i32\n    } do {\n    ^bb0(%arg8: tensor<1xf32>, %arg9: i32):\n      %28 = tt.make_range {end = 256 : i32, start = 0 : i32} : tensor<256xi32>\n      %29 = tt.splat %arg9 : i32 -> tensor<256xi32>\n      %30 = arith.addi %28, %29 : tensor<256xi32>\n      %31 = tt.splat %arg6 : i32 -> tensor<256xi32>\n      %32 = arith.cmpi slt, %30, %31 : tensor<256xi32>\n      %33 = tt.splat %4 : i32 -> tensor<256xi32>\n      %34 = arith.addi %30, %33 : tensor<256xi32>\n      %35 = tt.splat %arg0 : !tt.ptr<f32> -> tensor<256x!tt.ptr<f32>>\n      %36 = tt.addptr %35, %34 : tensor<256x!tt.ptr<f32>>, tensor<256xi32>\n      %37 = tt.load %36, %32, %cst_1 : tensor<256x!tt.ptr<f32>>\n      %38 = arith.subf %37, %11 : tensor<256xf32>\n      %39 = arith.select %32, %38, %cst_1 : tensor<256xi1>, tensor<256xf32>\n      %40 = arith.mulf %39, %39 : tensor<256xf32>\n      %41 = \"tt.reduce\"(%40) <{axis = 0 : i32}> ({\n      ^bb0(%arg10: f32, %arg11: f32):\n        %45 = arith.addf %arg10, %arg11 : f32\n        tt.reduce.return %45 : f32\n      }) : (tensor<256xf32>) -> f32\n      %42 = tt.splat %41 : f32 -> tensor<1xf32>\n      %43 = arith.addf %arg8, %42 : tensor<1xf32>\n      %44 = arith.addi %arg9, %c256_i32 : i32\n      scf.yield %43, %44 : tensor<1xf32>, i32\n    }\n    %13 = tt.splat %arg7 : f32 -> tensor<1xf32>\n    %14 = arith.mulf %12#0, %8 : tensor<1xf32>\n    %15 = arith.addf %14, %13 : tensor<1xf32>\n    %16 = tt.precise_sqrt %15 : tensor<1xf32>\n    %17 = tt.precise_divf %cst, %16 : tensor<1xf32>\n    %18 = tt.broadcast %17 : tensor<1xf32> -> tensor<256xf32>\n    %19 = tt.splat %arg2 : !tt.ptr<f32> -> tensor<1x!tt.ptr<f32>>\n    %20 = tt.addptr %19, %5 : tensor<1x!tt.ptr<f32>>, tensor<1xi32>\n    %21 = tt.load %20 : tensor<1x!tt.ptr<f32>>\n    %22 = tt.broadcast %21 : tensor<1xf32> -> tensor<256xf32>\n    %23 = tt.splat %arg3 : !tt.ptr<f32> -> tensor<1x!tt.ptr<f32>>\n    %24 = tt.addptr %23, %5 : tensor<1x!tt.ptr<f32>>, tensor<1xi32>\n    %25 = tt.load %24 : tensor<1x!tt.ptr<f32>>\n    %26 = tt.broadcast %25 : tensor<1xf32> -> tensor<256xf32>\n    %27 = scf.while (%arg8 = %c0_i32) : (i32) -> i32 {\n      %28 = arith.cmpi slt, %arg8, %arg6 : i32\n      scf.condition(%28) %arg8 : i32\n    } do {\n    ^bb0(%arg8: i32):\n      %28 = tt.make_range {end = 256 : i32, start = 0 : i32} : tensor<256xi32>\n      %29 = tt.splat %arg8 : i32 -> tensor<256xi32>\n      %30 = arith.addi %28, %29 : tensor<256xi32>\n      %31 = tt.splat %arg6 : i32 -> tensor<256xi32>\n      %32 = arith.cmpi slt, %30, %31 : tensor<256xi32>\n      %33 = tt.splat %4 : i32 -> tensor<256xi32>\n      %34 = arith.addi %30, %33 : tensor<256xi32>\n      %35 = tt.splat %arg0 : !tt.ptr<f32> -> tensor<256x!tt.ptr<f32>>\n      %36 = tt.addptr %35, %34 : tensor<256x!tt.ptr<f32>>, tensor<256xi32>\n      %37 = tt.load %36, %32, %cst_1 : tensor<256x!tt.ptr<f32>>\n      %38 = arith.subf %37, %11 : tensor<256xf32>\n      %39 = arith.mulf %38, %18 : tensor<256xf32>\n      %40 = arith.mulf %39, %22 : tensor<256xf32>\n      %41 = arith.addf %40, %26 : tensor<256xf32>\n      %42 = tt.splat %4 : i32 -> tensor<256xi32>\n      %43 = arith.addi %30, %42 : tensor<256xi32>\n      %44 = tt.splat %arg1 : !tt.ptr<f32> -> tensor<256x!tt.ptr<f32>>\n      %45 = tt.addptr %44, %43 : tensor<256x!tt.ptr<f32>>, tensor<256xi32>\n      tt.store %45, %41, %32 {operandSegmentSizes = array<i32: 1, 1, 1>} : tensor<256x!tt.ptr<f32>>\n      %46 = arith.addi %arg8, %c256_i32 : i32\n      scf.yield %46 : i32\n    }\n    tt.return\n  }\n  tt.func public @entry_point(%arg0: !tt.ptr<f32> {tt.divisibility = 16 : i32}, %arg1: !tt.ptr<f32> {tt.divisibility = 16 : i32}, %arg2: !tt.ptr<f32> {tt.divisibility = 16 : i32}, %arg3: !tt.ptr<f32> {tt.divisibility = 16 : i32}, %arg4: i32 {tt.divisibility = 16 : i32}, %arg5: i32 {tt.divisibility = 16 : i32}, %arg6: i32 {tt.divisibility = 16 : i32}, %arg7: f32 {tt.divisibility = 16 : i32}) {\n    tt.call @_RINvCs18wRwyu3BMl_96instance_norm_forward_inference_414cdc8db96bd56c48dfd1206f83ddd5ac065f58398f8545386ff887a925386431instance_norm_forward_inferenceNtNtNtNtB2_6triton4llvm6triton10LlvmTritonfKl100_EB2_(%arg0, %arg1, %arg2, %arg3, %arg4, %arg5, %arg6, %arg7) {arg_attrs = [{}, {}, {}, {}, {}, {}, {}, {}], res_attrs = []} : (!tt.ptr<f32>, !tt.ptr<f32>, !tt.ptr<f32>, !tt.ptr<f32>, i32, i32, i32, f32) -> ()\n    tt.return\n  }\n}"
