---
source: kernels/teeny-kernels/tests/test_circular_pad3d.rs
expression: mlir.trim()
---
"module {\n  tt.func private @_RINvCs5uCK1PzkT9X_88circular_pad3d_backward_4983339eb53dad3d09668dcd89ba4270c4098ea296b682fbe74b2e421188d13623circular_pad3d_backwardNtNtNtNtB2_6triton4llvm6triton10LlvmTritonfKl1_KB2P_KB2P_Kl2_KB33_KB33_Kl10_EB2_(%arg0: !tt.ptr<f32> {tt.divisibility = 16 : i32}, %arg1: !tt.ptr<f32> {tt.divisibility = 16 : i32}, %arg2: i32 {tt.divisibility = 16 : i32}, %arg3: i32 {tt.divisibility = 16 : i32}, %arg4: i32 {tt.divisibility = 16 : i32}, %arg5: i32 {tt.divisibility = 16 : i32}, %arg6: i32 {tt.divisibility = 16 : i32}, %arg7: i32 {tt.divisibility = 16 : i32}, %arg8: i32 {tt.divisibility = 16 : i32}, %arg9: i32 {tt.divisibility = 16 : i32}) {\n    %cst = arith.constant dense<0> : tensor<16xi32>\n    %cst_0 = arith.constant dense<2> : tensor<16xi32>\n    %cst_1 = arith.constant dense<0.000000e+00> : tensor<16xf32>\n    %c15_i32 = arith.constant 15 : i32\n    %c1_i32 = arith.constant 1 : i32\n    %c16_i32 = arith.constant 16 : i32\n    %0 = tt.get_program_id x : i32\n    %1 = arith.addi %arg9, %c15_i32 : i32\n    %2 = arith.divsi %1, %c16_i32 : i32\n    %3 = arith.remsi %0, %2 : i32\n    %4 = arith.divsi %0, %2 : i32\n    %5 = arith.remsi %4, %arg8 : i32\n    %6 = arith.divsi %4, %arg8 : i32\n    %7 = arith.remsi %6, %arg7 : i32\n    %8 = arith.divsi %6, %arg7 : i32\n    %9 = arith.remsi %8, %arg3 : i32\n    %10 = arith.divsi %8, %arg3 : i32\n    %11 = arith.muli %3, %c16_i32 : i32\n    %12 = tt.make_range {end = 16 : i32, start = 0 : i32} : tensor<16xi32>\n    %13 = tt.splat %11 : i32 -> tensor<16xi32>\n    %14 = arith.addi %12, %13 : tensor<16xi32>\n    %15 = tt.splat %arg9 : i32 -> tensor<16xi32>\n    %16 = arith.cmpi slt, %14, %15 : tensor<16xi32>\n    %17 = arith.subi %7, %c1_i32 : i32\n    %18 = arith.addi %17, %arg4 : i32\n    %19 = arith.remsi %18, %arg4 : i32\n    %20 = arith.subi %5, %c1_i32 : i32\n    %21 = arith.addi %20, %arg5 : i32\n    %22 = arith.remsi %21, %arg5 : i32\n    %23 = arith.muli %10, %arg3 : i32\n    %24 = arith.addi %23, %9 : i32\n    %25 = arith.muli %24, %arg7 : i32\n    %26 = arith.addi %25, %7 : i32\n    %27 = arith.muli %26, %arg8 : i32\n    %28 = arith.addi %27, %5 : i32\n    %29 = arith.muli %28, %arg9 : i32\n    %30 = arith.muli %24, %arg4 : i32\n    %31 = arith.addi %30, %19 : i32\n    %32 = arith.muli %31, %arg5 : i32\n    %33 = arith.muli %32, %arg6 : i32\n    %34 = arith.muli %22, %arg6 : i32\n    %35 = arith.addi %33, %34 : i32\n    %36 = tt.splat %29 : i32 -> tensor<16xi32>\n    %37 = arith.addi %14, %36 : tensor<16xi32>\n    %38 = tt.splat %arg0 : !tt.ptr<f32> -> tensor<16x!tt.ptr<f32>>\n    %39 = tt.addptr %38, %37 : tensor<16x!tt.ptr<f32>>, tensor<16xi32>\n    %40 = tt.load %39, %16, %cst_1 : tensor<16x!tt.ptr<f32>>\n    %41 = arith.subi %14, %cst_0 : tensor<16xi32>\n    %42 = arith.cmpi slt, %41, %cst : tensor<16xi32>\n    %43 = tt.splat %arg6 : i32 -> tensor<16xi32>\n    %44 = arith.cmpi sge, %41, %43 : tensor<16xi32>\n    %45 = arith.cmpi sge, %41, %cst : tensor<16xi32>\n    %46 = tt.splat %arg6 : i32 -> tensor<16xi32>\n    %47 = arith.cmpi slt, %41, %46 : tensor<16xi32>\n    %48 = arith.andi %45, %47 : tensor<16xi1>\n    %49 = tt.splat %arg6 : i32 -> tensor<16xi32>\n    %50 = arith.addi %41, %49 : tensor<16xi32>\n    %51 = tt.splat %arg6 : i32 -> tensor<16xi32>\n    %52 = arith.subi %41, %51 : tensor<16xi32>\n    %53 = tt.splat %35 : i32 -> tensor<16xi32>\n    %54 = arith.addi %41, %53 : tensor<16xi32>\n    %55 = tt.splat %arg1 : !tt.ptr<f32> -> tensor<16x!tt.ptr<f32>>\n    %56 = tt.addptr %55, %54 : tensor<16x!tt.ptr<f32>>, tensor<16xi32>\n    %57 = arith.andi %16, %48 : tensor<16xi1>\n    %58 = tt.atomic_rmw fadd, relaxed, gpu, %56, %40, %57 {operandSegmentSizes = array<i32: 1, 1, 1>} : (tensor<16x!tt.ptr<f32>>, tensor<16xf32>, tensor<16xi1>) -> tensor<16xf32>\n    %59 = tt.splat %35 : i32 -> tensor<16xi32>\n    %60 = arith.addi %50, %59 : tensor<16xi32>\n    %61 = tt.splat %arg1 : !tt.ptr<f32> -> tensor<16x!tt.ptr<f32>>\n    %62 = tt.addptr %61, %60 : tensor<16x!tt.ptr<f32>>, tensor<16xi32>\n    %63 = arith.andi %16, %42 : tensor<16xi1>\n    %64 = tt.atomic_rmw fadd, relaxed, gpu, %62, %40, %63 {operandSegmentSizes = array<i32: 1, 1, 1>} : (tensor<16x!tt.ptr<f32>>, tensor<16xf32>, tensor<16xi1>) -> tensor<16xf32>\n    %65 = tt.splat %35 : i32 -> tensor<16xi32>\n    %66 = arith.addi %52, %65 : tensor<16xi32>\n    %67 = tt.splat %arg1 : !tt.ptr<f32> -> tensor<16x!tt.ptr<f32>>\n    %68 = tt.addptr %67, %66 : tensor<16x!tt.ptr<f32>>, tensor<16xi32>\n    %69 = arith.andi %16, %44 : tensor<16xi1>\n    %70 = tt.atomic_rmw fadd, relaxed, gpu, %68, %40, %69 {operandSegmentSizes = array<i32: 1, 1, 1>} : (tensor<16x!tt.ptr<f32>>, tensor<16xf32>, tensor<16xi1>) -> tensor<16xf32>\n    tt.return\n  }\n  tt.func public @entry_point(%arg0: !tt.ptr<f32> {tt.divisibility = 16 : i32}, %arg1: !tt.ptr<f32> {tt.divisibility = 16 : i32}, %arg2: i32 {tt.divisibility = 16 : i32}, %arg3: i32 {tt.divisibility = 16 : i32}, %arg4: i32 {tt.divisibility = 16 : i32}, %arg5: i32 {tt.divisibility = 16 : i32}, %arg6: i32 {tt.divisibility = 16 : i32}, %arg7: i32 {tt.divisibility = 16 : i32}, %arg8: i32 {tt.divisibility = 16 : i32}, %arg9: i32 {tt.divisibility = 16 : i32}) {\n    tt.call @_RINvCs5uCK1PzkT9X_88circular_pad3d_backward_4983339eb53dad3d09668dcd89ba4270c4098ea296b682fbe74b2e421188d13623circular_pad3d_backwardNtNtNtNtB2_6triton4llvm6triton10LlvmTritonfKl1_KB2P_KB2P_Kl2_KB33_KB33_Kl10_EB2_(%arg0, %arg1, %arg2, %arg3, %arg4, %arg5, %arg6, %arg7, %arg8, %arg9) {arg_attrs = [{}, {}, {}, {}, {}, {}, {}, {}, {}, {}], res_attrs = []} : (!tt.ptr<f32>, !tt.ptr<f32>, i32, i32, i32, i32, i32, i32, i32, i32) -> ()\n    tt.return\n  }\n}"
