---
source: kernels/teeny-kernels/tests/test_optim_muon.rs
expression: mlir_t.trim()
---
"module {\n  tt.func private @_RINvCsfjqU84rGHnb_77muon_ns_step_50d3bad31a6cae00decad5fd527ca8e79d88b186555560e3bf4bf7f56ba54ff012muon_ns_stepNtNtNtNtB2_6triton4llvm6triton10LlvmTritonKb1_Kl20_KB2w_KB2w_Kl8_EB2_(%arg0: !tt.ptr<f32> {tt.divisibility = 16 : i32}, %arg1: !tt.ptr<f32> {tt.divisibility = 16 : i32}, %arg2: i32 {tt.divisibility = 16 : i32}, %arg3: i32 {tt.divisibility = 16 : i32}, %arg4: i32 {tt.divisibility = 16 : i32}, %arg5: i32 {tt.divisibility = 16 : i32}, %arg6: f32 {tt.divisibility = 16 : i32}, %arg7: f32 {tt.divisibility = 16 : i32}) {\n    %cst = arith.constant dense<0.000000e+00> : tensor<32x32xf32>\n    %c1_i64 = arith.constant 1 : i64\n    %c31_i32 = arith.constant 31 : i32\n    %false = arith.constant false\n    %c0_i32 = arith.constant 0 : i32\n    %c8_i32 = arith.constant 8 : i32\n    %c1_i32 = arith.constant 1 : i32\n    %c32_i32 = arith.constant 32 : i32\n    %0 = tt.get_program_id x : i32\n    %1 = arith.addi %arg2, %c31_i32 : i32\n    %2 = arith.divsi %1, %c32_i32 : i32\n    %3 = arith.addi %arg3, %c31_i32 : i32\n    %4 = arith.divsi %3, %c32_i32 : i32\n    %5 = arith.muli %4, %c8_i32 : i32\n    %6 = arith.divsi %0, %5 : i32\n    %7 = arith.muli %6, %c8_i32 : i32\n    %8 = arith.subi %2, %7 : i32\n    %9 = arith.cmpi slt, %8, %c8_i32 : i32\n    %10 = arith.cmpi eq, %9, %false : i1\n    %11 = arith.select %10, %c8_i32, %8 : i32\n    %12 = arith.remsi %0, %5 : i32\n    %13 = arith.remsi %12, %11 : i32\n    %14 = arith.addi %7, %13 : i32\n    %15 = arith.divsi %12, %11 : i32\n    %16 = arith.extsi %arg5 : i32 to i64\n    %17 = tt.make_tensor_descriptor %arg1, [%arg2, %arg3], [%16, %c1_i64] : <f32>, <tensor<32x32xf32>>\n    %18 = arith.extsi %arg4 : i32 to i64\n    %19 = tt.make_tensor_descriptor %arg0, [%arg3, %arg3], [%18, %c1_i64] : <f32>, <tensor<32x32xf32>>\n    %20 = arith.addi %arg3, %c31_i32 : i32\n    %21 = arith.divsi %20, %c32_i32 : i32\n    %22:2 = scf.for %arg8 = %c0_i32 to %21 step %c1_i32 iter_args(%arg9 = %c0_i32, %arg10 = %cst) -> (i32, tensor<32x32xf32>)  : i32 {\n      %33 = arith.addi %arg9, %c1_i32 : i32\n      %34 = arith.muli %14, %c32_i32 : i32\n      %35 = arith.muli %arg9, %c32_i32 : i32\n      %36 = tt.descriptor_load %17[%34, %35] : !tt.tensordesc<tensor<32x32xf32>> -> tensor<32x32xf32>\n      %37 = arith.muli %15, %c32_i32 : i32\n      %38 = tt.descriptor_load %19[%35, %37] : !tt.tensordesc<tensor<32x32xf32>> -> tensor<32x32xf32>\n      %39 = tt.dot %36, %38, %arg10 : tensor<32x32xf32> * tensor<32x32xf32> -> tensor<32x32xf32>\n      scf.yield %33, %39 : i32, tensor<32x32xf32>\n    }\n    %23 = arith.extsi %arg5 : i32 to i64\n    %24 = tt.make_tensor_descriptor %arg1, [%arg2, %arg3], [%23, %c1_i64] : <f32>, <tensor<32x32xf32>>\n    %25 = arith.muli %14, %c32_i32 : i32\n    %26 = arith.muli %15, %c32_i32 : i32\n    %27 = tt.descriptor_load %24[%25, %26] : !tt.tensordesc<tensor<32x32xf32>> -> tensor<32x32xf32>\n    %28 = tt.splat %arg6 : f32 -> tensor<32x32xf32>\n    %29 = tt.splat %arg7 : f32 -> tensor<32x32xf32>\n    %30 = arith.mulf %28, %27 : tensor<32x32xf32>\n    %31 = arith.mulf %29, %22#1 : tensor<32x32xf32>\n    %32 = arith.addf %30, %31 : tensor<32x32xf32>\n    tt.descriptor_store %24[%25, %26], %32 : !tt.tensordesc<tensor<32x32xf32>>, tensor<32x32xf32>\n    tt.return\n  }\n  tt.func public @entry_point(%arg0: !tt.ptr<f32> {tt.divisibility = 16 : i32}, %arg1: !tt.ptr<f32> {tt.divisibility = 16 : i32}, %arg2: i32 {tt.divisibility = 16 : i32}, %arg3: i32 {tt.divisibility = 16 : i32}, %arg4: i32 {tt.divisibility = 16 : i32}, %arg5: i32 {tt.divisibility = 16 : i32}, %arg6: f32 {tt.divisibility = 16 : i32}, %arg7: f32 {tt.divisibility = 16 : i32}) {\n    tt.call @_RINvCsfjqU84rGHnb_77muon_ns_step_50d3bad31a6cae00decad5fd527ca8e79d88b186555560e3bf4bf7f56ba54ff012muon_ns_stepNtNtNtNtB2_6triton4llvm6triton10LlvmTritonKb1_Kl20_KB2w_KB2w_Kl8_EB2_(%arg0, %arg1, %arg2, %arg3, %arg4, %arg5, %arg6, %arg7) {arg_attrs = [{}, {}, {}, {}, {}, {}, {}, {}], res_attrs = []} : (!tt.ptr<f32>, !tt.ptr<f32>, i32, i32, i32, i32, f32, f32) -> ()\n    tt.return\n  }\n}"
