---
source: kernels/teeny-kernels/tests/test_avgpool1d.rs
expression: mlir.trim()
---
"module {\n  tt.func private @_RINvCsko2MITgKjHj_83avgpool1d_backward_b9335942b33e944260b9b35e8bbc4265a055bb6e65fbef30da2bb06b28824adc18avgpool1d_backwardNtNtNtNtB2_6triton4llvm6triton10LlvmTritonfKl4_KB2F_KB2F_EB2_(%arg0: !tt.ptr<f32> {tt.divisibility = 16 : i32}, %arg1: !tt.ptr<f32> {tt.divisibility = 16 : i32}, %arg2: i32 {tt.divisibility = 16 : i32}, %arg3: i32 {tt.divisibility = 16 : i32}, %arg4: i32 {tt.divisibility = 16 : i32}, %arg5: i32 {tt.divisibility = 16 : i32}) {\n    %cst = arith.constant dense<4> : tensor<4xi32>\n    %cst_0 = arith.constant dense<4.000000e+00> : tensor<4xf32>\n    %cst_1 = arith.constant dense<0.000000e+00> : tensor<4xf32>\n    %c3_i32 = arith.constant 3 : i32\n    %c0_i32 = arith.constant 0 : i32\n    %c1_i32 = arith.constant 1 : i32\n    %c4_i32 = arith.constant 4 : i32\n    %0 = tt.get_program_id x : i32\n    %1 = arith.addi %arg5, %c3_i32 : i32\n    %2 = arith.divsi %1, %c4_i32 : i32\n    %3 = arith.remsi %0, %2 : i32\n    %4 = arith.divsi %0, %2 : i32\n    %5 = arith.remsi %4, %arg3 : i32\n    %6 = arith.divsi %4, %arg3 : i32\n    %7 = arith.muli %3, %c4_i32 : i32\n    %8 = tt.make_range {end = 4 : i32, start = 0 : i32} : tensor<4xi32>\n    %9 = tt.splat %7 : i32 -> tensor<4xi32>\n    %10 = arith.addi %8, %9 : tensor<4xi32>\n    %11 = tt.splat %arg5 : i32 -> tensor<4xi32>\n    %12 = arith.cmpi slt, %10, %11 : tensor<4xi32>\n    %13 = arith.muli %6, %arg3 : i32\n    %14 = arith.addi %13, %5 : i32\n    %15 = arith.muli %14, %arg5 : i32\n    %16 = arith.muli %14, %arg4 : i32\n    %17 = tt.splat %15 : i32 -> tensor<4xi32>\n    %18 = arith.addi %10, %17 : tensor<4xi32>\n    %19 = tt.splat %arg0 : !tt.ptr<f32> -> tensor<4x!tt.ptr<f32>>\n    %20 = tt.addptr %19, %18 : tensor<4x!tt.ptr<f32>>, tensor<4xi32>\n    %21 = tt.load %20, %12, %cst_1 : tensor<4x!tt.ptr<f32>>\n    %22 = arith.divf %21, %cst_0 : tensor<4xf32>\n    %23 = scf.for %arg6 = %c0_i32 to %c4_i32 step %c1_i32 iter_args(%arg7 = %c0_i32) -> (i32)  : i32 {\n      %24 = arith.addi %arg7, %c1_i32 : i32\n      %25 = arith.muli %10, %cst : tensor<4xi32>\n      %26 = tt.splat %arg7 : i32 -> tensor<4xi32>\n      %27 = arith.addi %25, %26 : tensor<4xi32>\n      %28 = tt.splat %16 : i32 -> tensor<4xi32>\n      %29 = arith.addi %27, %28 : tensor<4xi32>\n      %30 = tt.splat %arg1 : !tt.ptr<f32> -> tensor<4x!tt.ptr<f32>>\n      %31 = tt.addptr %30, %29 : tensor<4x!tt.ptr<f32>>, tensor<4xi32>\n      %32 = tt.atomic_rmw fadd, relaxed, gpu, %31, %22, %12 {operandSegmentSizes = array<i32: 1, 1, 1>} : (tensor<4x!tt.ptr<f32>>, tensor<4xf32>, tensor<4xi1>) -> tensor<4xf32>\n      scf.yield %24 : i32\n    }\n    tt.return\n  }\n  tt.func public @entry_point(%arg0: !tt.ptr<f32> {tt.divisibility = 16 : i32}, %arg1: !tt.ptr<f32> {tt.divisibility = 16 : i32}, %arg2: i32 {tt.divisibility = 16 : i32}, %arg3: i32 {tt.divisibility = 16 : i32}, %arg4: i32 {tt.divisibility = 16 : i32}, %arg5: i32 {tt.divisibility = 16 : i32}) {\n    tt.call @_RINvCsko2MITgKjHj_83avgpool1d_backward_b9335942b33e944260b9b35e8bbc4265a055bb6e65fbef30da2bb06b28824adc18avgpool1d_backwardNtNtNtNtB2_6triton4llvm6triton10LlvmTritonfKl4_KB2F_KB2F_EB2_(%arg0, %arg1, %arg2, %arg3, %arg4, %arg5) {arg_attrs = [{}, {}, {}, {}, {}, {}], res_attrs = []} : (!tt.ptr<f32>, !tt.ptr<f32>, i32, i32, i32, i32) -> ()\n    tt.return\n  }\n}"
