---
source: kernels/teeny-kernels/tests/test_optim_adagrad.rs
expression: mlir.trim()
---
"module {\n  tt.func private @_RINvCs8Lj8p08p6c7_77adagrad_step_74f65739e8844edef63fdd1250447e6c3d103a0df019d37b5627419ae739ef0312adagrad_stepNtNtNtNtB2_6triton4llvm6triton10LlvmTritonKl80_EB2_(%arg0: !tt.ptr<f32> {tt.divisibility = 16 : i32}, %arg1: !tt.ptr<f32> {tt.divisibility = 16 : i32}, %arg2: !tt.ptr<f32> {tt.divisibility = 16 : i32}, %arg3: i32 {tt.divisibility = 16 : i32}, %arg4: f32 {tt.divisibility = 16 : i32}, %arg5: f32 {tt.divisibility = 16 : i32}, %arg6: f32 {tt.divisibility = 16 : i32}) {\n    %c128_i32 = arith.constant 128 : i32\n    %0 = tt.get_program_id x : i32\n    %1 = arith.muli %0, %c128_i32 : i32\n    %2 = tt.make_range {end = 128 : i32, start = 0 : i32} : tensor<128xi32>\n    %3 = tt.splat %1 : i32 -> tensor<128xi32>\n    %4 = arith.addi %2, %3 : tensor<128xi32>\n    %5 = tt.splat %arg3 : i32 -> tensor<128xi32>\n    %6 = arith.cmpi slt, %4, %5 : tensor<128xi32>\n    %7 = tt.splat %arg0 : !tt.ptr<f32> -> tensor<128x!tt.ptr<f32>>\n    %8 = tt.addptr %7, %4 : tensor<128x!tt.ptr<f32>>, tensor<128xi32>\n    %9 = tt.load %8, %6 : tensor<128x!tt.ptr<f32>>\n    %10 = tt.splat %arg1 : !tt.ptr<f32> -> tensor<128x!tt.ptr<f32>>\n    %11 = tt.addptr %10, %4 : tensor<128x!tt.ptr<f32>>, tensor<128xi32>\n    %12 = tt.load %11, %6 : tensor<128x!tt.ptr<f32>>\n    %13 = tt.splat %arg2 : !tt.ptr<f32> -> tensor<128x!tt.ptr<f32>>\n    %14 = tt.addptr %13, %4 : tensor<128x!tt.ptr<f32>>, tensor<128xi32>\n    %15 = tt.load %14, %6 : tensor<128x!tt.ptr<f32>>\n    %16 = tt.splat %arg4 : f32 -> tensor<128xf32>\n    %17 = tt.splat %arg5 : f32 -> tensor<128xf32>\n    %18 = tt.splat %arg6 : f32 -> tensor<128xf32>\n    %19 = arith.mulf %18, %9 : tensor<128xf32>\n    %20 = arith.addf %12, %19 : tensor<128xf32>\n    %21 = arith.mulf %20, %20 : tensor<128xf32>\n    %22 = arith.addf %15, %21 : tensor<128xf32>\n    %23 = arith.mulf %16, %20 : tensor<128xf32>\n    %24 = tt.precise_sqrt %22 : tensor<128xf32>\n    %25 = arith.addf %24, %17 : tensor<128xf32>\n    %26 = arith.divf %23, %25 : tensor<128xf32>\n    %27 = arith.subf %9, %26 : tensor<128xf32>\n    %28 = tt.splat %arg0 : !tt.ptr<f32> -> tensor<128x!tt.ptr<f32>>\n    %29 = tt.addptr %28, %4 : tensor<128x!tt.ptr<f32>>, tensor<128xi32>\n    tt.store %29, %27, %6 {operandSegmentSizes = array<i32: 1, 1, 1>} : tensor<128x!tt.ptr<f32>>\n    %30 = tt.splat %arg2 : !tt.ptr<f32> -> tensor<128x!tt.ptr<f32>>\n    %31 = tt.addptr %30, %4 : tensor<128x!tt.ptr<f32>>, tensor<128xi32>\n    tt.store %31, %22, %6 {operandSegmentSizes = array<i32: 1, 1, 1>} : tensor<128x!tt.ptr<f32>>\n    tt.return\n  }\n  tt.func public @entry_point(%arg0: !tt.ptr<f32> {tt.divisibility = 16 : i32}, %arg1: !tt.ptr<f32> {tt.divisibility = 16 : i32}, %arg2: !tt.ptr<f32> {tt.divisibility = 16 : i32}, %arg3: i32 {tt.divisibility = 16 : i32}, %arg4: f32 {tt.divisibility = 16 : i32}, %arg5: f32 {tt.divisibility = 16 : i32}, %arg6: f32 {tt.divisibility = 16 : i32}) {\n    tt.call @_RINvCs8Lj8p08p6c7_77adagrad_step_74f65739e8844edef63fdd1250447e6c3d103a0df019d37b5627419ae739ef0312adagrad_stepNtNtNtNtB2_6triton4llvm6triton10LlvmTritonKl80_EB2_(%arg0, %arg1, %arg2, %arg3, %arg4, %arg5, %arg6) {arg_attrs = [{}, {}, {}, {}, {}, {}, {}], res_attrs = []} : (!tt.ptr<f32>, !tt.ptr<f32>, !tt.ptr<f32>, i32, f32, f32, f32) -> ()\n    tt.return\n  }\n}"
