---
source: kernels/teeny-kernels/tests/test_maxpool2d.rs
expression: mlir.trim()
---
"module {\n  tt.func private @_RINvCsdGItAeGAZdD_83maxpool2d_backward_4fe120564e543a831308f76496841a973d5820679f40ea11f6bb2fe3805a98cc18maxpool2d_backwardNtNtNtNtB2_6triton4llvm6triton10LlvmTritonfKl2_KB2F_KB2F_KB2F_Kl4_EB2_(%arg0: !tt.ptr<f32> {tt.divisibility = 16 : i32}, %arg1: !tt.ptr<f32> {tt.divisibility = 16 : i32}, %arg2: !tt.ptr<f32> {tt.divisibility = 16 : i32}, %arg3: !tt.ptr<f32> {tt.divisibility = 16 : i32}, %arg4: i32 {tt.divisibility = 16 : i32}, %arg5: i32 {tt.divisibility = 16 : i32}, %arg6: i32 {tt.divisibility = 16 : i32}, %arg7: i32 {tt.divisibility = 16 : i32}, %arg8: i32 {tt.divisibility = 16 : i32}, %arg9: i32 {tt.divisibility = 16 : i32}) {\n    %cst = arith.constant dense<-3.40282347E+38> : tensor<4xf32>\n    %cst_0 = arith.constant dense<2> : tensor<4xi32>\n    %cst_1 = arith.constant dense<0.000000e+00> : tensor<4xf32>\n    %c3_i32 = arith.constant 3 : i32\n    %c2_i32 = arith.constant 2 : i32\n    %c0_i32 = arith.constant 0 : i32\n    %c1_i32 = arith.constant 1 : i32\n    %c4_i32 = arith.constant 4 : i32\n    %0 = tt.get_program_id x : i32\n    %1 = arith.addi %arg9, %c3_i32 : i32\n    %2 = arith.divsi %1, %c4_i32 : i32\n    %3 = arith.remsi %0, %2 : i32\n    %4 = arith.divsi %0, %2 : i32\n    %5 = arith.remsi %4, %arg8 : i32\n    %6 = arith.divsi %4, %arg8 : i32\n    %7 = arith.remsi %6, %arg5 : i32\n    %8 = arith.divsi %6, %arg5 : i32\n    %9 = arith.muli %3, %c4_i32 : i32\n    %10 = tt.make_range {end = 4 : i32, start = 0 : i32} : tensor<4xi32>\n    %11 = tt.splat %9 : i32 -> tensor<4xi32>\n    %12 = arith.addi %10, %11 : tensor<4xi32>\n    %13 = tt.splat %arg9 : i32 -> tensor<4xi32>\n    %14 = arith.cmpi slt, %12, %13 : tensor<4xi32>\n    %15 = arith.muli %8, %arg5 : i32\n    %16 = arith.addi %15, %7 : i32\n    %17 = arith.muli %16, %arg6 : i32\n    %18 = arith.muli %17, %arg7 : i32\n    %19 = arith.muli %16, %arg8 : i32\n    %20 = arith.muli %19, %arg9 : i32\n    %21 = arith.muli %5, %arg9 : i32\n    %22 = arith.addi %20, %21 : i32\n    %23 = tt.splat %22 : i32 -> tensor<4xi32>\n    %24 = arith.addi %12, %23 : tensor<4xi32>\n    %25 = tt.splat %arg0 : !tt.ptr<f32> -> tensor<4x!tt.ptr<f32>>\n    %26 = tt.addptr %25, %24 : tensor<4x!tt.ptr<f32>>, tensor<4xi32>\n    %27 = tt.load %26, %14, %cst_1 : tensor<4x!tt.ptr<f32>>\n    %28 = tt.splat %arg2 : !tt.ptr<f32> -> tensor<4x!tt.ptr<f32>>\n    %29 = tt.addptr %28, %24 : tensor<4x!tt.ptr<f32>>, tensor<4xi32>\n    %30 = tt.load %29, %14, %cst_1 : tensor<4x!tt.ptr<f32>>\n    %31 = scf.for %arg10 = %c0_i32 to %c4_i32 step %c1_i32 iter_args(%arg11 = %c0_i32) -> (i32)  : i32 {\n      %32 = arith.addi %arg11, %c1_i32 : i32\n      %33 = arith.remsi %arg11, %c2_i32 : i32\n      %34 = arith.divsi %arg11, %c2_i32 : i32\n      %35 = arith.muli %5, %c2_i32 : i32\n      %36 = arith.addi %35, %34 : i32\n      %37 = arith.muli %12, %cst_0 : tensor<4xi32>\n      %38 = tt.splat %33 : i32 -> tensor<4xi32>\n      %39 = arith.addi %37, %38 : tensor<4xi32>\n      %40 = arith.muli %36, %arg7 : i32\n      %41 = arith.addi %18, %40 : i32\n      %42 = tt.splat %41 : i32 -> tensor<4xi32>\n      %43 = arith.addi %39, %42 : tensor<4xi32>\n      %44 = tt.splat %arg1 : !tt.ptr<f32> -> tensor<4x!tt.ptr<f32>>\n      %45 = tt.addptr %44, %43 : tensor<4x!tt.ptr<f32>>, tensor<4xi32>\n      %46 = tt.load %45, %14, %cst : tensor<4x!tt.ptr<f32>>\n      %47 = arith.cmpf oeq, %46, %30 : tensor<4xf32>\n      %48 = arith.select %47, %27, %cst_1 : tensor<4xi1>, tensor<4xf32>\n      %49 = tt.splat %arg3 : !tt.ptr<f32> -> tensor<4x!tt.ptr<f32>>\n      %50 = tt.addptr %49, %43 : tensor<4x!tt.ptr<f32>>, tensor<4xi32>\n      %51 = tt.atomic_rmw fadd, relaxed, gpu, %50, %48, %14 {operandSegmentSizes = array<i32: 1, 1, 1>} : (tensor<4x!tt.ptr<f32>>, tensor<4xf32>, tensor<4xi1>) -> tensor<4xf32>\n      scf.yield %32 : i32\n    }\n    tt.return\n  }\n  tt.func public @entry_point(%arg0: !tt.ptr<f32> {tt.divisibility = 16 : i32}, %arg1: !tt.ptr<f32> {tt.divisibility = 16 : i32}, %arg2: !tt.ptr<f32> {tt.divisibility = 16 : i32}, %arg3: !tt.ptr<f32> {tt.divisibility = 16 : i32}, %arg4: i32 {tt.divisibility = 16 : i32}, %arg5: i32 {tt.divisibility = 16 : i32}, %arg6: i32 {tt.divisibility = 16 : i32}, %arg7: i32 {tt.divisibility = 16 : i32}, %arg8: i32 {tt.divisibility = 16 : i32}, %arg9: i32 {tt.divisibility = 16 : i32}) {\n    tt.call @_RINvCsdGItAeGAZdD_83maxpool2d_backward_4fe120564e543a831308f76496841a973d5820679f40ea11f6bb2fe3805a98cc18maxpool2d_backwardNtNtNtNtB2_6triton4llvm6triton10LlvmTritonfKl2_KB2F_KB2F_KB2F_Kl4_EB2_(%arg0, %arg1, %arg2, %arg3, %arg4, %arg5, %arg6, %arg7, %arg8, %arg9) {arg_attrs = [{}, {}, {}, {}, {}, {}, {}, {}, {}, {}], res_attrs = []} : (!tt.ptr<f32>, !tt.ptr<f32>, !tt.ptr<f32>, !tt.ptr<f32>, i32, i32, i32, i32, i32, i32) -> ()\n    tt.return\n  }\n}"
