---
source: kernels/teeny-kernels/tests/test_optim_adamax.rs
expression: mlir.trim()
---
"module {\n  tt.func private @_RINvCskmgXH8lyLRq_76adamax_step_cf6d95d6ac4dc1e338a95801da3378df0b79c05a6ece70746fc94c62903ef70511adamax_stepNtNtNtNtB2_6triton4llvm6triton10LlvmTritonKl80_EB2_(%arg0: !tt.ptr<f32> {tt.divisibility = 16 : i32}, %arg1: !tt.ptr<f32> {tt.divisibility = 16 : i32}, %arg2: !tt.ptr<f32> {tt.divisibility = 16 : i32}, %arg3: !tt.ptr<f32> {tt.divisibility = 16 : i32}, %arg4: i32 {tt.divisibility = 16 : i32}, %arg5: f32 {tt.divisibility = 16 : i32}, %arg6: f32 {tt.divisibility = 16 : i32}, %arg7: f32 {tt.divisibility = 16 : i32}, %arg8: f32 {tt.divisibility = 16 : i32}, %arg9: f32 {tt.divisibility = 16 : i32}) {\n    %cst = arith.constant 1.000000e+00 : f32\n    %c128_i32 = arith.constant 128 : i32\n    %0 = tt.get_program_id x : i32\n    %1 = arith.muli %0, %c128_i32 : i32\n    %2 = tt.make_range {end = 128 : i32, start = 0 : i32} : tensor<128xi32>\n    %3 = tt.splat %1 : i32 -> tensor<128xi32>\n    %4 = arith.addi %2, %3 : tensor<128xi32>\n    %5 = tt.splat %arg4 : i32 -> tensor<128xi32>\n    %6 = arith.cmpi slt, %4, %5 : tensor<128xi32>\n    %7 = tt.splat %arg0 : !tt.ptr<f32> -> tensor<128x!tt.ptr<f32>>\n    %8 = tt.addptr %7, %4 : tensor<128x!tt.ptr<f32>>, tensor<128xi32>\n    %9 = tt.load %8, %6 : tensor<128x!tt.ptr<f32>>\n    %10 = tt.splat %arg1 : !tt.ptr<f32> -> tensor<128x!tt.ptr<f32>>\n    %11 = tt.addptr %10, %4 : tensor<128x!tt.ptr<f32>>, tensor<128xi32>\n    %12 = tt.load %11, %6 : tensor<128x!tt.ptr<f32>>\n    %13 = tt.splat %arg2 : !tt.ptr<f32> -> tensor<128x!tt.ptr<f32>>\n    %14 = tt.addptr %13, %4 : tensor<128x!tt.ptr<f32>>, tensor<128xi32>\n    %15 = tt.load %14, %6 : tensor<128x!tt.ptr<f32>>\n    %16 = tt.splat %arg3 : !tt.ptr<f32> -> tensor<128x!tt.ptr<f32>>\n    %17 = tt.addptr %16, %4 : tensor<128x!tt.ptr<f32>>, tensor<128xi32>\n    %18 = tt.load %17, %6 : tensor<128x!tt.ptr<f32>>\n    %19 = tt.splat %arg6 : f32 -> tensor<128xf32>\n    %20 = arith.subf %cst, %arg6 : f32\n    %21 = tt.splat %20 : f32 -> tensor<128xf32>\n    %22 = tt.splat %arg7 : f32 -> tensor<128xf32>\n    %23 = tt.splat %arg8 : f32 -> tensor<128xf32>\n    %24 = tt.splat %arg5 : f32 -> tensor<128xf32>\n    %25 = tt.splat %arg9 : f32 -> tensor<128xf32>\n    %26 = arith.mulf %25, %9 : tensor<128xf32>\n    %27 = arith.addf %12, %26 : tensor<128xf32>\n    %28 = arith.mulf %19, %15 : tensor<128xf32>\n    %29 = arith.mulf %21, %27 : tensor<128xf32>\n    %30 = arith.addf %28, %29 : tensor<128xf32>\n    %31 = arith.mulf %22, %18 : tensor<128xf32>\n    %32 = math.absf %27 : tensor<128xf32>\n    %33 = arith.addf %32, %23 : tensor<128xf32>\n    %34 = arith.maximumf %31, %33 : tensor<128xf32>\n    %35 = arith.mulf %24, %30 : tensor<128xf32>\n    %36 = arith.divf %35, %34 : tensor<128xf32>\n    %37 = arith.subf %9, %36 : tensor<128xf32>\n    %38 = tt.splat %arg0 : !tt.ptr<f32> -> tensor<128x!tt.ptr<f32>>\n    %39 = tt.addptr %38, %4 : tensor<128x!tt.ptr<f32>>, tensor<128xi32>\n    tt.store %39, %37, %6 {operandSegmentSizes = array<i32: 1, 1, 1>} : tensor<128x!tt.ptr<f32>>\n    %40 = tt.splat %arg2 : !tt.ptr<f32> -> tensor<128x!tt.ptr<f32>>\n    %41 = tt.addptr %40, %4 : tensor<128x!tt.ptr<f32>>, tensor<128xi32>\n    tt.store %41, %30, %6 {operandSegmentSizes = array<i32: 1, 1, 1>} : tensor<128x!tt.ptr<f32>>\n    %42 = tt.splat %arg3 : !tt.ptr<f32> -> tensor<128x!tt.ptr<f32>>\n    %43 = tt.addptr %42, %4 : tensor<128x!tt.ptr<f32>>, tensor<128xi32>\n    tt.store %43, %34, %6 {operandSegmentSizes = array<i32: 1, 1, 1>} : tensor<128x!tt.ptr<f32>>\n    tt.return\n  }\n  tt.func public @entry_point(%arg0: !tt.ptr<f32> {tt.divisibility = 16 : i32}, %arg1: !tt.ptr<f32> {tt.divisibility = 16 : i32}, %arg2: !tt.ptr<f32> {tt.divisibility = 16 : i32}, %arg3: !tt.ptr<f32> {tt.divisibility = 16 : i32}, %arg4: i32 {tt.divisibility = 16 : i32}, %arg5: f32 {tt.divisibility = 16 : i32}, %arg6: f32 {tt.divisibility = 16 : i32}, %arg7: f32 {tt.divisibility = 16 : i32}, %arg8: f32 {tt.divisibility = 16 : i32}, %arg9: f32 {tt.divisibility = 16 : i32}) {\n    tt.call @_RINvCskmgXH8lyLRq_76adamax_step_cf6d95d6ac4dc1e338a95801da3378df0b79c05a6ece70746fc94c62903ef70511adamax_stepNtNtNtNtB2_6triton4llvm6triton10LlvmTritonKl80_EB2_(%arg0, %arg1, %arg2, %arg3, %arg4, %arg5, %arg6, %arg7, %arg8, %arg9) {arg_attrs = [{}, {}, {}, {}, {}, {}, {}, {}, {}, {}], res_attrs = []} : (!tt.ptr<f32>, !tt.ptr<f32>, !tt.ptr<f32>, !tt.ptr<f32>, i32, f32, f32, f32, f32, f32) -> ()\n    tt.return\n  }\n}"
