---
source: kernels/teeny-kernels/tests/test_constant_pad2d.rs
expression: mlir.trim()
---
"module {\n  tt.func private @_RINvCsia2BbzcLCBK_87constant_pad2d_forward_f6d148ddb95668bfca4ad5783c28d1e02f7e063004b8e3ebeac4c10bdd81ee0622constant_pad2d_forwardNtNtNtNtB2_6triton4llvm6triton10LlvmTritonfKl1_Kl2_KB2R_Kl3_Kl10_EB2_(%arg0: !tt.ptr<f32> {tt.divisibility = 16 : i32}, %arg1: !tt.ptr<f32> {tt.divisibility = 16 : i32}, %arg2: i32 {tt.divisibility = 16 : i32}, %arg3: i32 {tt.divisibility = 16 : i32}, %arg4: i32 {tt.divisibility = 16 : i32}, %arg5: i32 {tt.divisibility = 16 : i32}, %arg6: i32 {tt.divisibility = 16 : i32}, %arg7: i32 {tt.divisibility = 16 : i32}, %arg8: f32 {tt.divisibility = 16 : i32}) {\n    %cst = arith.constant dense<0> : tensor<16xi32>\n    %cst_0 = arith.constant dense<2> : tensor<16xi32>\n    %c15_i32 = arith.constant 15 : i32\n    %c1_i32 = arith.constant 1 : i32\n    %c16_i32 = arith.constant 16 : i32\n    %0 = tt.get_program_id x : i32\n    %1 = arith.addi %arg7, %c15_i32 : i32\n    %2 = arith.divsi %1, %c16_i32 : i32\n    %3 = arith.remsi %0, %2 : i32\n    %4 = arith.divsi %0, %2 : i32\n    %5 = arith.remsi %4, %arg6 : i32\n    %6 = arith.divsi %4, %arg6 : i32\n    %7 = arith.remsi %6, %arg3 : i32\n    %8 = arith.divsi %6, %arg3 : i32\n    %9 = arith.muli %3, %c16_i32 : i32\n    %10 = tt.make_range {end = 16 : i32, start = 0 : i32} : tensor<16xi32>\n    %11 = tt.splat %9 : i32 -> tensor<16xi32>\n    %12 = arith.addi %10, %11 : tensor<16xi32>\n    %13 = tt.splat %arg7 : i32 -> tensor<16xi32>\n    %14 = arith.cmpi slt, %12, %13 : tensor<16xi32>\n    %15 = arith.subi %5, %c1_i32 : i32\n    %16 = arith.subi %12, %cst_0 : tensor<16xi32>\n    %17 = tt.splat %arg8 : f32 -> tensor<16xf32>\n    %18 = tt.splat %15 : i32 -> tensor<16xi32>\n    %19 = arith.cmpi sge, %18, %cst : tensor<16xi32>\n    %20 = tt.splat %arg4 : i32 -> tensor<16xi32>\n    %21 = arith.cmpi slt, %18, %20 : tensor<16xi32>\n    %22 = arith.andi %19, %21 : tensor<16xi1>\n    %23 = arith.cmpi sge, %16, %cst : tensor<16xi32>\n    %24 = tt.splat %arg5 : i32 -> tensor<16xi32>\n    %25 = arith.cmpi slt, %16, %24 : tensor<16xi32>\n    %26 = arith.andi %23, %25 : tensor<16xi1>\n    %27 = arith.muli %8, %arg3 : i32\n    %28 = arith.addi %27, %7 : i32\n    %29 = arith.muli %28, %arg4 : i32\n    %30 = arith.muli %29, %arg5 : i32\n    %31 = arith.muli %15, %arg5 : i32\n    %32 = arith.addi %30, %31 : i32\n    %33 = arith.muli %28, %arg6 : i32\n    %34 = arith.addi %33, %5 : i32\n    %35 = arith.muli %34, %arg7 : i32\n    %36 = arith.andi %14, %22 : tensor<16xi1>\n    %37 = arith.andi %36, %26 : tensor<16xi1>\n    %38 = tt.splat %32 : i32 -> tensor<16xi32>\n    %39 = arith.addi %16, %38 : tensor<16xi32>\n    %40 = tt.splat %arg0 : !tt.ptr<f32> -> tensor<16x!tt.ptr<f32>>\n    %41 = tt.addptr %40, %39 : tensor<16x!tt.ptr<f32>>, tensor<16xi32>\n    %42 = tt.load %41, %37, %17 : tensor<16x!tt.ptr<f32>>\n    %43 = arith.select %37, %42, %17 : tensor<16xi1>, tensor<16xf32>\n    %44 = tt.splat %35 : i32 -> tensor<16xi32>\n    %45 = arith.addi %12, %44 : tensor<16xi32>\n    %46 = tt.splat %arg1 : !tt.ptr<f32> -> tensor<16x!tt.ptr<f32>>\n    %47 = tt.addptr %46, %45 : tensor<16x!tt.ptr<f32>>, tensor<16xi32>\n    tt.store %47, %43, %14 {operandSegmentSizes = array<i32: 1, 1, 1>} : tensor<16x!tt.ptr<f32>>\n    tt.return\n  }\n  tt.func public @entry_point(%arg0: !tt.ptr<f32> {tt.divisibility = 16 : i32}, %arg1: !tt.ptr<f32> {tt.divisibility = 16 : i32}, %arg2: i32 {tt.divisibility = 16 : i32}, %arg3: i32 {tt.divisibility = 16 : i32}, %arg4: i32 {tt.divisibility = 16 : i32}, %arg5: i32 {tt.divisibility = 16 : i32}, %arg6: i32 {tt.divisibility = 16 : i32}, %arg7: i32 {tt.divisibility = 16 : i32}, %arg8: f32 {tt.divisibility = 16 : i32}) {\n    tt.call @_RINvCsia2BbzcLCBK_87constant_pad2d_forward_f6d148ddb95668bfca4ad5783c28d1e02f7e063004b8e3ebeac4c10bdd81ee0622constant_pad2d_forwardNtNtNtNtB2_6triton4llvm6triton10LlvmTritonfKl1_Kl2_KB2R_Kl3_Kl10_EB2_(%arg0, %arg1, %arg2, %arg3, %arg4, %arg5, %arg6, %arg7, %arg8) {arg_attrs = [{}, {}, {}, {}, {}, {}, {}, {}, {}], res_attrs = []} : (!tt.ptr<f32>, !tt.ptr<f32>, i32, i32, i32, i32, i32, i32, f32) -> ()\n    tt.return\n  }\n}"
