---
source: kernels/teeny-kernels/tests/test_loss_nll.rs
expression: mlir.trim()
---
"module {\n  tt.func private @_RINvCste5gTrXdBz_91cross_entropy_loss_forward_b431dd2a9bdd5ad5b3c110582c5873f7c9f8b8c105bf377335610d5e81a7926c26cross_entropy_loss_forwardNtNtNtNtB2_6triton4llvm6triton10LlvmTritonKl10_EB2_(%arg0: !tt.ptr<f32> {tt.divisibility = 16 : i32}, %arg1: !tt.ptr<i32> {tt.divisibility = 16 : i32}, %arg2: !tt.ptr<f32> {tt.divisibility = 16 : i32}, %arg3: i32 {tt.divisibility = 16 : i32}, %arg4: i32 {tt.divisibility = 16 : i32}) {\n    %cst = arith.constant dense<-3.40282347E+38> : tensor<16xf32>\n    %0 = tt.get_program_id x : i32\n    %1 = arith.muli %0, %arg4 : i32\n    %2 = tt.make_range {end = 16 : i32, start = 0 : i32} : tensor<16xi32>\n    %3 = tt.splat %1 : i32 -> tensor<16xi32>\n    %4 = arith.addi %2, %3 : tensor<16xi32>\n    %5 = tt.splat %arg4 : i32 -> tensor<16xi32>\n    %6 = arith.cmpi slt, %2, %5 : tensor<16xi32>\n    %7 = tt.splat %arg0 : !tt.ptr<f32> -> tensor<16x!tt.ptr<f32>>\n    %8 = tt.addptr %7, %4 : tensor<16x!tt.ptr<f32>>, tensor<16xi32>\n    %9 = tt.load %8, %6, %cst : tensor<16x!tt.ptr<f32>>\n    %10 = \"tt.reduce\"(%9) <{axis = 0 : i32}> ({\n    ^bb0(%arg5: f32, %arg6: f32):\n      %31 = arith.maximumf %arg5, %arg6 : f32\n      tt.reduce.return %31 : f32\n    }) : (tensor<16xf32>) -> f32\n    %11 = tt.splat %10 : f32 -> tensor<16xf32>\n    %12 = arith.subf %9, %11 : tensor<16xf32>\n    %13 = math.exp %12 : tensor<16xf32>\n    %14 = \"tt.reduce\"(%13) <{axis = 0 : i32}> ({\n    ^bb0(%arg5: f32, %arg6: f32):\n      %31 = arith.addf %arg5, %arg6 : f32\n      tt.reduce.return %31 : f32\n    }) : (tensor<16xf32>) -> f32\n    %15 = math.log %14 : f32\n    %16 = arith.addf %15, %10 : f32\n    %17 = tt.splat %0 : i32 -> tensor<1xi32>\n    %18 = tt.splat %arg1 : !tt.ptr<i32> -> tensor<1x!tt.ptr<i32>>\n    %19 = tt.addptr %18, %17 : tensor<1x!tt.ptr<i32>>, tensor<1xi32>\n    %20 = tt.load %19 : tensor<1x!tt.ptr<i32>>\n    %21 = tt.splat %1 : i32 -> tensor<1xi32>\n    %22 = arith.addi %21, %20 : tensor<1xi32>\n    %23 = tt.splat %arg0 : !tt.ptr<f32> -> tensor<1x!tt.ptr<f32>>\n    %24 = tt.addptr %23, %22 : tensor<1x!tt.ptr<f32>>, tensor<1xi32>\n    %25 = tt.load %24 : tensor<1x!tt.ptr<f32>>\n    %26 = tt.splat %16 : f32 -> tensor<1xf32>\n    %27 = arith.subf %26, %25 : tensor<1xf32>\n    %28 = tt.splat %0 : i32 -> tensor<1xi32>\n    %29 = tt.splat %arg2 : !tt.ptr<f32> -> tensor<1x!tt.ptr<f32>>\n    %30 = tt.addptr %29, %28 : tensor<1x!tt.ptr<f32>>, tensor<1xi32>\n    tt.store %30, %27 {operandSegmentSizes = array<i32: 1, 1, 0>} : tensor<1x!tt.ptr<f32>>\n    tt.return\n  }\n  tt.func public @entry_point(%arg0: !tt.ptr<f32> {tt.divisibility = 16 : i32}, %arg1: !tt.ptr<i32> {tt.divisibility = 16 : i32}, %arg2: !tt.ptr<f32> {tt.divisibility = 16 : i32}, %arg3: i32 {tt.divisibility = 16 : i32}, %arg4: i32 {tt.divisibility = 16 : i32}) {\n    tt.call @_RINvCste5gTrXdBz_91cross_entropy_loss_forward_b431dd2a9bdd5ad5b3c110582c5873f7c9f8b8c105bf377335610d5e81a7926c26cross_entropy_loss_forwardNtNtNtNtB2_6triton4llvm6triton10LlvmTritonKl10_EB2_(%arg0, %arg1, %arg2, %arg3, %arg4) {arg_attrs = [{}, {}, {}, {}, {}], res_attrs = []} : (!tt.ptr<f32>, !tt.ptr<i32>, !tt.ptr<f32>, i32, i32) -> ()\n    tt.return\n  }\n}"
