---
source: kernels/teeny-kernels/tests/test_constant_pad2d.rs
expression: mlir.trim()
---
"module {\n  tt.func private @_RINvCsql2P5VRwer_87constant_pad2d_forward_dbbd5c7aec071025629e600b18f4be1d8f23bf9fb70eaab66375a2846031b9b322constant_pad2d_forwardNtNtNtNtB2_6triton4llvm6triton10LlvmTritonfKl1_Kl2_KB2Q_Kl3_Kl10_EB2_(%arg0: !tt.ptr<f32> {tt.divisibility = 16 : i32}, %arg1: !tt.ptr<f32> {tt.divisibility = 16 : i32}, %arg2: i32 {tt.divisibility = 16 : i32}, %arg3: i32 {tt.divisibility = 16 : i32}, %arg4: i32 {tt.divisibility = 16 : i32}, %arg5: i32 {tt.divisibility = 16 : i32}, %arg6: i32 {tt.divisibility = 16 : i32}, %arg7: i32 {tt.divisibility = 16 : i32}, %arg8: f32 {tt.divisibility = 16 : i32}) {\n    %cst = arith.constant dense<0> : tensor<16xi32>\n    %cst_0 = arith.constant dense<2> : tensor<16xi32>\n    %c15_i32 = arith.constant 15 : i32\n    %false = arith.constant false\n    %c0_i32 = arith.constant 0 : i32\n    %c1_i32 = arith.constant 1 : i32\n    %c16_i32 = arith.constant 16 : i32\n    %0 = tt.get_program_id x : i32\n    %1 = arith.addi %arg7, %c15_i32 : i32\n    %2 = arith.divsi %1, %c16_i32 : i32\n    %3 = arith.remsi %0, %2 : i32\n    %4 = arith.divsi %0, %2 : i32\n    %5 = arith.remsi %4, %arg6 : i32\n    %6 = arith.divsi %4, %arg6 : i32\n    %7 = arith.remsi %6, %arg3 : i32\n    %8 = arith.divsi %6, %arg3 : i32\n    %9 = arith.muli %3, %c16_i32 : i32\n    %10 = tt.make_range {end = 16 : i32, start = 0 : i32} : tensor<16xi32>\n    %11 = tt.splat %9 : i32 -> tensor<16xi32>\n    %12 = arith.addi %10, %11 : tensor<16xi32>\n    %13 = tt.splat %arg7 : i32 -> tensor<16xi32>\n    %14 = arith.cmpi slt, %12, %13 : tensor<16xi32>\n    %15 = arith.subi %5, %c1_i32 : i32\n    %16 = tt.splat %arg8 : f32 -> tensor<16xf32>\n    %17 = arith.muli %8, %arg3 : i32\n    %18 = arith.addi %17, %7 : i32\n    %19 = arith.muli %18, %arg6 : i32\n    %20 = arith.addi %19, %5 : i32\n    %21 = arith.muli %20, %arg7 : i32\n    %22 = tt.splat %21 : i32 -> tensor<16xi32>\n    %23 = arith.addi %12, %22 : tensor<16xi32>\n    %24 = arith.cmpi slt, %15, %c0_i32 : i32\n    %25 = arith.cmpi eq, %24, %false : i1\n    cf.cond_br %25, ^bb3, ^bb1\n  ^bb1:  // 2 preds: ^bb0, ^bb3\n    %26 = tt.splat %arg1 : !tt.ptr<f32> -> tensor<16x!tt.ptr<f32>>\n    %27 = tt.addptr %26, %23 : tensor<16x!tt.ptr<f32>>, tensor<16xi32>\n    tt.store %27, %16, %14 {operandSegmentSizes = array<i32: 1, 1, 1>} : tensor<16x!tt.ptr<f32>>\n    cf.br ^bb2\n  ^bb2:  // 2 preds: ^bb1, ^bb4\n    tt.return\n  ^bb3:  // pred: ^bb0\n    %28 = arith.cmpi sge, %15, %arg4 : i32\n    %29 = arith.cmpi eq, %28, %false : i1\n    cf.cond_br %29, ^bb4, ^bb1\n  ^bb4:  // pred: ^bb3\n    %30 = arith.subi %12, %cst_0 : tensor<16xi32>\n    %31 = arith.cmpi sge, %30, %cst : tensor<16xi32>\n    %32 = tt.splat %arg5 : i32 -> tensor<16xi32>\n    %33 = arith.cmpi slt, %30, %32 : tensor<16xi32>\n    %34 = arith.andi %31, %33 : tensor<16xi1>\n    %35 = arith.andi %14, %34 : tensor<16xi1>\n    %36 = arith.muli %18, %arg4 : i32\n    %37 = arith.muli %36, %arg5 : i32\n    %38 = arith.muli %15, %arg5 : i32\n    %39 = arith.addi %37, %38 : i32\n    %40 = tt.splat %39 : i32 -> tensor<16xi32>\n    %41 = arith.addi %30, %40 : tensor<16xi32>\n    %42 = tt.splat %arg0 : !tt.ptr<f32> -> tensor<16x!tt.ptr<f32>>\n    %43 = tt.addptr %42, %41 : tensor<16x!tt.ptr<f32>>, tensor<16xi32>\n    %44 = tt.load %43, %35, %16 : tensor<16x!tt.ptr<f32>>\n    %45 = arith.select %35, %44, %16 : tensor<16xi1>, tensor<16xf32>\n    %46 = tt.splat %arg1 : !tt.ptr<f32> -> tensor<16x!tt.ptr<f32>>\n    %47 = tt.addptr %46, %23 : tensor<16x!tt.ptr<f32>>, tensor<16xi32>\n    tt.store %47, %45, %14 {operandSegmentSizes = array<i32: 1, 1, 1>} : tensor<16x!tt.ptr<f32>>\n    cf.br ^bb2\n  }\n  tt.func public @entry_point(%arg0: !tt.ptr<f32> {tt.divisibility = 16 : i32}, %arg1: !tt.ptr<f32> {tt.divisibility = 16 : i32}, %arg2: i32 {tt.divisibility = 16 : i32}, %arg3: i32 {tt.divisibility = 16 : i32}, %arg4: i32 {tt.divisibility = 16 : i32}, %arg5: i32 {tt.divisibility = 16 : i32}, %arg6: i32 {tt.divisibility = 16 : i32}, %arg7: i32 {tt.divisibility = 16 : i32}, %arg8: f32 {tt.divisibility = 16 : i32}) {\n    tt.call @_RINvCsql2P5VRwer_87constant_pad2d_forward_dbbd5c7aec071025629e600b18f4be1d8f23bf9fb70eaab66375a2846031b9b322constant_pad2d_forwardNtNtNtNtB2_6triton4llvm6triton10LlvmTritonfKl1_Kl2_KB2Q_Kl3_Kl10_EB2_(%arg0, %arg1, %arg2, %arg3, %arg4, %arg5, %arg6, %arg7, %arg8) {arg_attrs = [{}, {}, {}, {}, {}, {}, {}, {}, {}], res_attrs = []} : (!tt.ptr<f32>, !tt.ptr<f32>, i32, i32, i32, i32, i32, i32, f32) -> ()\n    tt.return\n  }\n}"
