---
source: kernels/teeny-kernels/tests/test_replication_pad2d.rs
expression: mlir.trim()
---
"module {\n  tt.func private @_RINvCse8vC8iMJFPt_91replication_pad2d_backward_fd0ceb82870464d3725401f1bec84e9c410d92165b4d633da16c8d35168b52ac26replication_pad2d_backwardNtNtNtNtB2_6triton4llvm6triton10LlvmTritonfKl1_Kl2_KB2Z_Kl3_Kl10_EB2_(%arg0: !tt.ptr<f32> {tt.divisibility = 16 : i32}, %arg1: !tt.ptr<f32> {tt.divisibility = 16 : i32}, %arg2: i32 {tt.divisibility = 16 : i32}, %arg3: i32 {tt.divisibility = 16 : i32}, %arg4: i32 {tt.divisibility = 16 : i32}, %arg5: i32 {tt.divisibility = 16 : i32}, %arg6: i32 {tt.divisibility = 16 : i32}, %arg7: i32 {tt.divisibility = 16 : i32}) {\n    %cst = arith.constant dense<0> : tensor<16xi32>\n    %cst_0 = arith.constant dense<2> : tensor<16xi32>\n    %cst_1 = arith.constant dense<0.000000e+00> : tensor<16xf32>\n    %c15_i32 = arith.constant 15 : i32\n    %false = arith.constant false\n    %c0_i32 = arith.constant 0 : i32\n    %c1_i32 = arith.constant 1 : i32\n    %c16_i32 = arith.constant 16 : i32\n    %0 = tt.get_program_id x : i32\n    %1 = arith.addi %arg7, %c15_i32 : i32\n    %2 = arith.divsi %1, %c16_i32 : i32\n    %3 = arith.remsi %0, %2 : i32\n    %4 = arith.divsi %0, %2 : i32\n    %5 = arith.remsi %4, %arg6 : i32\n    %6 = arith.divsi %4, %arg6 : i32\n    %7 = arith.remsi %6, %arg3 : i32\n    %8 = arith.divsi %6, %arg3 : i32\n    %9 = arith.muli %3, %c16_i32 : i32\n    %10 = tt.make_range {end = 16 : i32, start = 0 : i32} : tensor<16xi32>\n    %11 = tt.splat %9 : i32 -> tensor<16xi32>\n    %12 = arith.addi %10, %11 : tensor<16xi32>\n    %13 = tt.splat %arg7 : i32 -> tensor<16xi32>\n    %14 = arith.cmpi slt, %12, %13 : tensor<16xi32>\n    %15 = arith.subi %5, %c1_i32 : i32\n    %16 = arith.cmpi slt, %15, %c0_i32 : i32\n    %17 = arith.cmpi eq, %16, %false : i1\n    cf.cond_br %17, ^bb2, ^bb1(%c0_i32 : i32)\n  ^bb1(%18: i32):  // 3 preds: ^bb0, ^bb2, ^bb3\n    %19 = arith.muli %8, %arg3 : i32\n    %20 = arith.addi %19, %7 : i32\n    %21 = arith.muli %20, %arg6 : i32\n    %22 = arith.addi %21, %5 : i32\n    %23 = arith.muli %22, %arg7 : i32\n    %24 = arith.muli %20, %arg4 : i32\n    %25 = arith.muli %24, %arg5 : i32\n    %26 = arith.muli %18, %arg5 : i32\n    %27 = arith.addi %25, %26 : i32\n    %28 = tt.splat %23 : i32 -> tensor<16xi32>\n    %29 = arith.addi %12, %28 : tensor<16xi32>\n    %30 = tt.splat %arg0 : !tt.ptr<f32> -> tensor<16x!tt.ptr<f32>>\n    %31 = tt.addptr %30, %29 : tensor<16x!tt.ptr<f32>>, tensor<16xi32>\n    %32 = tt.load %31, %14, %cst_1 : tensor<16x!tt.ptr<f32>>\n    %33 = arith.subi %12, %cst_0 : tensor<16xi32>\n    %34 = arith.cmpi slt, %33, %cst : tensor<16xi32>\n    %35 = tt.splat %arg5 : i32 -> tensor<16xi32>\n    %36 = arith.cmpi sge, %33, %35 : tensor<16xi32>\n    %37 = arith.cmpi sge, %33, %cst : tensor<16xi32>\n    %38 = tt.splat %arg5 : i32 -> tensor<16xi32>\n    %39 = arith.cmpi slt, %33, %38 : tensor<16xi32>\n    %40 = arith.andi %37, %39 : tensor<16xi1>\n    %41 = arith.subi %arg5, %c1_i32 : i32\n    %42 = tt.splat %41 : i32 -> tensor<16xi32>\n    %43 = tt.splat %27 : i32 -> tensor<16xi32>\n    %44 = arith.addi %33, %43 : tensor<16xi32>\n    %45 = tt.splat %arg1 : !tt.ptr<f32> -> tensor<16x!tt.ptr<f32>>\n    %46 = tt.addptr %45, %44 : tensor<16x!tt.ptr<f32>>, tensor<16xi32>\n    %47 = arith.andi %14, %40 : tensor<16xi1>\n    %48 = tt.atomic_rmw fadd, relaxed, gpu, %46, %32, %47 {operandSegmentSizes = array<i32: 1, 1, 1>} : (tensor<16x!tt.ptr<f32>>, tensor<16xf32>, tensor<16xi1>) -> tensor<16xf32>\n    %49 = tt.splat %27 : i32 -> tensor<16xi32>\n    %50 = tt.splat %arg1 : !tt.ptr<f32> -> tensor<16x!tt.ptr<f32>>\n    %51 = tt.addptr %50, %49 : tensor<16x!tt.ptr<f32>>, tensor<16xi32>\n    %52 = arith.andi %14, %34 : tensor<16xi1>\n    %53 = tt.atomic_rmw fadd, relaxed, gpu, %51, %32, %52 {operandSegmentSizes = array<i32: 1, 1, 1>} : (tensor<16x!tt.ptr<f32>>, tensor<16xf32>, tensor<16xi1>) -> tensor<16xf32>\n    %54 = tt.splat %27 : i32 -> tensor<16xi32>\n    %55 = arith.addi %42, %54 : tensor<16xi32>\n    %56 = tt.splat %arg1 : !tt.ptr<f32> -> tensor<16x!tt.ptr<f32>>\n    %57 = tt.addptr %56, %55 : tensor<16x!tt.ptr<f32>>, tensor<16xi32>\n    %58 = arith.andi %14, %36 : tensor<16xi1>\n    %59 = tt.atomic_rmw fadd, relaxed, gpu, %57, %32, %58 {operandSegmentSizes = array<i32: 1, 1, 1>} : (tensor<16x!tt.ptr<f32>>, tensor<16xf32>, tensor<16xi1>) -> tensor<16xf32>\n    tt.return\n  ^bb2:  // pred: ^bb0\n    %60 = arith.cmpi sge, %15, %arg4 : i32\n    %61 = arith.cmpi eq, %60, %false : i1\n    cf.cond_br %61, ^bb1(%15 : i32), ^bb3\n  ^bb3:  // pred: ^bb2\n    %62 = arith.subi %arg4, %c1_i32 : i32\n    cf.br ^bb1(%62 : i32)\n  }\n  tt.func public @entry_point(%arg0: !tt.ptr<f32> {tt.divisibility = 16 : i32}, %arg1: !tt.ptr<f32> {tt.divisibility = 16 : i32}, %arg2: i32 {tt.divisibility = 16 : i32}, %arg3: i32 {tt.divisibility = 16 : i32}, %arg4: i32 {tt.divisibility = 16 : i32}, %arg5: i32 {tt.divisibility = 16 : i32}, %arg6: i32 {tt.divisibility = 16 : i32}, %arg7: i32 {tt.divisibility = 16 : i32}) {\n    tt.call @_RINvCse8vC8iMJFPt_91replication_pad2d_backward_fd0ceb82870464d3725401f1bec84e9c410d92165b4d633da16c8d35168b52ac26replication_pad2d_backwardNtNtNtNtB2_6triton4llvm6triton10LlvmTritonfKl1_Kl2_KB2Z_Kl3_Kl10_EB2_(%arg0, %arg1, %arg2, %arg3, %arg4, %arg5, %arg6, %arg7) {arg_attrs = [{}, {}, {}, {}, {}, {}, {}, {}], res_attrs = []} : (!tt.ptr<f32>, !tt.ptr<f32>, i32, i32, i32, i32, i32, i32) -> ()\n    tt.return\n  }\n}"
