---
source: kernels/teeny-kernels/tests/test_elu.rs
expression: mlir.trim()
---
"module {\n  tt.func private @_RINvCskzONMS8ZX8s_77celu_forward_be0c8ac23d4af247f17551fa706caadf70038b0a64a464b77781558a2a45460612celu_forwardNtNtNtNtB2_6triton4llvm6triton10LlvmTritonKl80_EB2_(%arg0: !tt.ptr<f32> {tt.divisibility = 16 : i32}, %arg1: !tt.ptr<f32> {tt.divisibility = 16 : i32}, %arg2: i32 {tt.divisibility = 16 : i32}, %arg3: f32 {tt.divisibility = 16 : i32}) {\n    %cst = arith.constant dense<1.000000e+00> : tensor<128xf32>\n    %cst_0 = arith.constant dense<0.000000e+00> : tensor<128xf32>\n    %cst_1 = arith.constant 1.000000e+00 : f32\n    %c128_i32 = arith.constant 128 : i32\n    %0 = tt.get_program_id x : i32\n    %1 = arith.muli %0, %c128_i32 : i32\n    %2 = tt.make_range {end = 128 : i32, start = 0 : i32} : tensor<128xi32>\n    %3 = tt.splat %1 : i32 -> tensor<128xi32>\n    %4 = arith.addi %2, %3 : tensor<128xi32>\n    %5 = tt.splat %arg2 : i32 -> tensor<128xi32>\n    %6 = arith.cmpi slt, %4, %5 : tensor<128xi32>\n    %7 = tt.splat %arg0 : !tt.ptr<f32> -> tensor<128x!tt.ptr<f32>>\n    %8 = tt.addptr %7, %4 : tensor<128x!tt.ptr<f32>>, tensor<128xi32>\n    %9 = tt.load %8, %6 : tensor<128x!tt.ptr<f32>>\n    %10 = tt.splat %arg3 : f32 -> tensor<128xf32>\n    %11 = arith.divf %cst_1, %arg3 : f32\n    %12 = tt.splat %11 : f32 -> tensor<128xf32>\n    %13 = arith.mulf %9, %12 : tensor<128xf32>\n    %14 = math.exp %13 : tensor<128xf32>\n    %15 = arith.subf %14, %cst : tensor<128xf32>\n    %16 = arith.mulf %10, %15 : tensor<128xf32>\n    %17 = arith.maximumf %9, %cst_0 : tensor<128xf32>\n    %18 = arith.minimumf %16, %cst_0 : tensor<128xf32>\n    %19 = arith.addf %17, %18 : tensor<128xf32>\n    %20 = tt.splat %arg1 : !tt.ptr<f32> -> tensor<128x!tt.ptr<f32>>\n    %21 = tt.addptr %20, %4 : tensor<128x!tt.ptr<f32>>, tensor<128xi32>\n    tt.store %21, %19, %6 {operandSegmentSizes = array<i32: 1, 1, 1>} : tensor<128x!tt.ptr<f32>>\n    tt.return\n  }\n  tt.func public @entry_point(%arg0: !tt.ptr<f32> {tt.divisibility = 16 : i32}, %arg1: !tt.ptr<f32> {tt.divisibility = 16 : i32}, %arg2: i32 {tt.divisibility = 16 : i32}, %arg3: f32 {tt.divisibility = 16 : i32}) {\n    tt.call @_RINvCskzONMS8ZX8s_77celu_forward_be0c8ac23d4af247f17551fa706caadf70038b0a64a464b77781558a2a45460612celu_forwardNtNtNtNtB2_6triton4llvm6triton10LlvmTritonKl80_EB2_(%arg0, %arg1, %arg2, %arg3) {arg_attrs = [{}, {}, {}, {}], res_attrs = []} : (!tt.ptr<f32>, !tt.ptr<f32>, i32, f32) -> ()\n    tt.return\n  }\n}"
