---
source: kernels/teeny-kernels/tests/test_softmax.rs
expression: mlir.trim()
---
"module {\n  tt.func private @_RINvCshLYNYHkEg8q_81softmax_backward_89223bd88b8fb990ef205fda29b9fb4e7ea53c0329d31760959fe765e03be7a416softmax_backwardNtNtNtNtB2_6triton4llvm6triton10LlvmTritonfKl80_EB2_(%arg0: !tt.ptr<f32> {tt.divisibility = 16 : i32}, %arg1: !tt.ptr<f32> {tt.divisibility = 16 : i32}, %arg2: !tt.ptr<f32> {tt.divisibility = 16 : i32}, %arg3: i32 {tt.divisibility = 16 : i32}, %arg4: i32 {tt.divisibility = 16 : i32}) {\n    %0 = tt.get_program_id x : i32\n    %1 = arith.muli %0, %arg4 : i32\n    %2 = tt.make_range {end = 128 : i32, start = 0 : i32} : tensor<128xi32>\n    %3 = tt.splat %1 : i32 -> tensor<128xi32>\n    %4 = arith.addi %2, %3 : tensor<128xi32>\n    %5 = tt.splat %arg0 : !tt.ptr<f32> -> tensor<128x!tt.ptr<f32>>\n    %6 = tt.addptr %5, %4 : tensor<128x!tt.ptr<f32>>, tensor<128xi32>\n    %7 = tt.load %6 : tensor<128x!tt.ptr<f32>>\n    %8 = tt.splat %arg1 : !tt.ptr<f32> -> tensor<128x!tt.ptr<f32>>\n    %9 = tt.addptr %8, %4 : tensor<128x!tt.ptr<f32>>, tensor<128xi32>\n    %10 = tt.load %9 : tensor<128x!tt.ptr<f32>>\n    %11 = arith.mulf %10, %7 : tensor<128xf32>\n    %12 = \"tt.reduce\"(%11) <{axis = 0 : i32}> ({\n    ^bb0(%arg5: f32, %arg6: f32):\n      %18 = arith.addf %arg5, %arg6 : f32\n      tt.reduce.return %18 : f32\n    }) : (tensor<128xf32>) -> f32\n    %13 = tt.splat %12 : f32 -> tensor<128xf32>\n    %14 = arith.subf %7, %13 : tensor<128xf32>\n    %15 = arith.mulf %10, %14 : tensor<128xf32>\n    %16 = tt.splat %arg2 : !tt.ptr<f32> -> tensor<128x!tt.ptr<f32>>\n    %17 = tt.addptr %16, %4 : tensor<128x!tt.ptr<f32>>, tensor<128xi32>\n    tt.store %17, %15 {operandSegmentSizes = array<i32: 1, 1, 0>} : tensor<128x!tt.ptr<f32>>\n    tt.return\n  }\n  tt.func public @entry_point(%arg0: !tt.ptr<f32> {tt.divisibility = 16 : i32}, %arg1: !tt.ptr<f32> {tt.divisibility = 16 : i32}, %arg2: !tt.ptr<f32> {tt.divisibility = 16 : i32}, %arg3: i32 {tt.divisibility = 16 : i32}, %arg4: i32 {tt.divisibility = 16 : i32}) {\n    tt.call @_RINvCshLYNYHkEg8q_81softmax_backward_89223bd88b8fb990ef205fda29b9fb4e7ea53c0329d31760959fe765e03be7a416softmax_backwardNtNtNtNtB2_6triton4llvm6triton10LlvmTritonfKl80_EB2_(%arg0, %arg1, %arg2, %arg3, %arg4) {arg_attrs = [{}, {}, {}, {}, {}], res_attrs = []} : (!tt.ptr<f32>, !tt.ptr<f32>, !tt.ptr<f32>, i32, i32) -> ()\n    tt.return\n  }\n}"
