---
source: kernels/teeny-kernels/tests/test_constant_pad3d.rs
expression: mlir.trim()
---
"module {\n  tt.func private @_RINvCs7WL4vToB3SQ_88constant_pad3d_backward_8886d0e4d7f6f2cd7d0525a39556daa4821dc89e31d42d0bbe28f916f3ece73023constant_pad3d_backwardNtNtNtNtB2_6triton4llvm6triton10LlvmTritonfKl1_KB2P_KB2P_Kl2_KB33_KB33_Kl10_EB2_(%arg0: !tt.ptr<f32> {tt.divisibility = 16 : i32}, %arg1: !tt.ptr<f32> {tt.divisibility = 16 : i32}, %arg2: i32 {tt.divisibility = 16 : i32}, %arg3: i32 {tt.divisibility = 16 : i32}, %arg4: i32 {tt.divisibility = 16 : i32}, %arg5: i32 {tt.divisibility = 16 : i32}, %arg6: i32 {tt.divisibility = 16 : i32}, %arg7: i32 {tt.divisibility = 16 : i32}, %arg8: i32 {tt.divisibility = 16 : i32}, %arg9: i32 {tt.divisibility = 16 : i32}) {\n    %cst = arith.constant dense<0.000000e+00> : tensor<16xf32>\n    %cst_0 = arith.constant dense<0> : tensor<16xi32>\n    %cst_1 = arith.constant dense<2> : tensor<16xi32>\n    %c15_i32 = arith.constant 15 : i32\n    %c1_i32 = arith.constant 1 : i32\n    %c16_i32 = arith.constant 16 : i32\n    %0 = tt.get_program_id x : i32\n    %1 = arith.addi %arg9, %c15_i32 : i32\n    %2 = arith.divsi %1, %c16_i32 : i32\n    %3 = arith.remsi %0, %2 : i32\n    %4 = arith.divsi %0, %2 : i32\n    %5 = arith.remsi %4, %arg8 : i32\n    %6 = arith.divsi %4, %arg8 : i32\n    %7 = arith.remsi %6, %arg7 : i32\n    %8 = arith.divsi %6, %arg7 : i32\n    %9 = arith.remsi %8, %arg3 : i32\n    %10 = arith.divsi %8, %arg3 : i32\n    %11 = arith.muli %3, %c16_i32 : i32\n    %12 = tt.make_range {end = 16 : i32, start = 0 : i32} : tensor<16xi32>\n    %13 = tt.splat %11 : i32 -> tensor<16xi32>\n    %14 = arith.addi %12, %13 : tensor<16xi32>\n    %15 = tt.splat %arg9 : i32 -> tensor<16xi32>\n    %16 = arith.cmpi slt, %14, %15 : tensor<16xi32>\n    %17 = arith.subi %7, %c1_i32 : i32\n    %18 = arith.subi %5, %c1_i32 : i32\n    %19 = arith.subi %14, %cst_1 : tensor<16xi32>\n    %20 = tt.splat %17 : i32 -> tensor<16xi32>\n    %21 = tt.splat %18 : i32 -> tensor<16xi32>\n    %22 = arith.cmpi sge, %20, %cst_0 : tensor<16xi32>\n    %23 = tt.splat %arg4 : i32 -> tensor<16xi32>\n    %24 = arith.cmpi slt, %20, %23 : tensor<16xi32>\n    %25 = arith.andi %22, %24 : tensor<16xi1>\n    %26 = arith.cmpi sge, %21, %cst_0 : tensor<16xi32>\n    %27 = tt.splat %arg5 : i32 -> tensor<16xi32>\n    %28 = arith.cmpi slt, %21, %27 : tensor<16xi32>\n    %29 = arith.andi %26, %28 : tensor<16xi1>\n    %30 = arith.cmpi sge, %19, %cst_0 : tensor<16xi32>\n    %31 = tt.splat %arg6 : i32 -> tensor<16xi32>\n    %32 = arith.cmpi slt, %19, %31 : tensor<16xi32>\n    %33 = arith.andi %30, %32 : tensor<16xi1>\n    %34 = arith.muli %10, %arg3 : i32\n    %35 = arith.addi %34, %9 : i32\n    %36 = arith.muli %35, %arg7 : i32\n    %37 = arith.addi %36, %7 : i32\n    %38 = arith.muli %37, %arg8 : i32\n    %39 = arith.addi %38, %5 : i32\n    %40 = arith.muli %39, %arg9 : i32\n    %41 = arith.muli %35, %arg4 : i32\n    %42 = arith.addi %41, %17 : i32\n    %43 = arith.muli %42, %arg5 : i32\n    %44 = arith.muli %43, %arg6 : i32\n    %45 = arith.muli %18, %arg6 : i32\n    %46 = arith.addi %44, %45 : i32\n    %47 = arith.andi %16, %25 : tensor<16xi1>\n    %48 = arith.andi %47, %29 : tensor<16xi1>\n    %49 = arith.andi %48, %33 : tensor<16xi1>\n    %50 = tt.splat %40 : i32 -> tensor<16xi32>\n    %51 = arith.addi %14, %50 : tensor<16xi32>\n    %52 = tt.splat %arg0 : !tt.ptr<f32> -> tensor<16x!tt.ptr<f32>>\n    %53 = tt.addptr %52, %51 : tensor<16x!tt.ptr<f32>>, tensor<16xi32>\n    %54 = tt.load %53, %16, %cst : tensor<16x!tt.ptr<f32>>\n    %55 = tt.splat %46 : i32 -> tensor<16xi32>\n    %56 = arith.addi %19, %55 : tensor<16xi32>\n    %57 = tt.splat %arg1 : !tt.ptr<f32> -> tensor<16x!tt.ptr<f32>>\n    %58 = tt.addptr %57, %56 : tensor<16x!tt.ptr<f32>>, tensor<16xi32>\n    tt.store %58, %54, %49 {operandSegmentSizes = array<i32: 1, 1, 1>} : tensor<16x!tt.ptr<f32>>\n    tt.return\n  }\n  tt.func public @entry_point(%arg0: !tt.ptr<f32> {tt.divisibility = 16 : i32}, %arg1: !tt.ptr<f32> {tt.divisibility = 16 : i32}, %arg2: i32 {tt.divisibility = 16 : i32}, %arg3: i32 {tt.divisibility = 16 : i32}, %arg4: i32 {tt.divisibility = 16 : i32}, %arg5: i32 {tt.divisibility = 16 : i32}, %arg6: i32 {tt.divisibility = 16 : i32}, %arg7: i32 {tt.divisibility = 16 : i32}, %arg8: i32 {tt.divisibility = 16 : i32}, %arg9: i32 {tt.divisibility = 16 : i32}) {\n    tt.call @_RINvCs7WL4vToB3SQ_88constant_pad3d_backward_8886d0e4d7f6f2cd7d0525a39556daa4821dc89e31d42d0bbe28f916f3ece73023constant_pad3d_backwardNtNtNtNtB2_6triton4llvm6triton10LlvmTritonfKl1_KB2P_KB2P_Kl2_KB33_KB33_Kl10_EB2_(%arg0, %arg1, %arg2, %arg3, %arg4, %arg5, %arg6, %arg7, %arg8, %arg9) {arg_attrs = [{}, {}, {}, {}, {}, {}, {}, {}, {}, {}], res_attrs = []} : (!tt.ptr<f32>, !tt.ptr<f32>, i32, i32, i32, i32, i32, i32, i32, i32) -> ()\n    tt.return\n  }\n}"
