---
source: kernels/teeny-kernels/tests/test_elu.rs
expression: mlir.trim()
---
"module {\n  tt.func private @_RINvCsgFTG5fIjKqJ_76elu_forward_81bbc943e9b2b94df4f14119be72c314bfe6ecc67acf1400b1db3c90f643faaa11elu_forwardNtNtNtNtB2_6triton4llvm6triton10LlvmTritonKl80_EB2_(%arg0: !tt.ptr<f32> {tt.divisibility = 16 : i32}, %arg1: !tt.ptr<f32> {tt.divisibility = 16 : i32}, %arg2: i32 {tt.divisibility = 16 : i32}, %arg3: f32 {tt.divisibility = 16 : i32}) {\n    %cst = arith.constant dense<0.000000e+00> : tensor<128xf32>\n    %cst_0 = arith.constant dense<1.000000e+00> : tensor<128xf32>\n    %c128_i32 = arith.constant 128 : i32\n    %0 = tt.get_program_id x : i32\n    %1 = arith.muli %0, %c128_i32 : i32\n    %2 = tt.make_range {end = 128 : i32, start = 0 : i32} : tensor<128xi32>\n    %3 = tt.splat %1 : i32 -> tensor<128xi32>\n    %4 = arith.addi %2, %3 : tensor<128xi32>\n    %5 = tt.splat %arg2 : i32 -> tensor<128xi32>\n    %6 = arith.cmpi slt, %4, %5 : tensor<128xi32>\n    %7 = tt.splat %arg0 : !tt.ptr<f32> -> tensor<128x!tt.ptr<f32>>\n    %8 = tt.addptr %7, %4 : tensor<128x!tt.ptr<f32>>, tensor<128xi32>\n    %9 = tt.load %8, %6 : tensor<128x!tt.ptr<f32>>\n    %10 = tt.splat %arg3 : f32 -> tensor<128xf32>\n    %11 = arith.cmpf ogt, %9, %cst : tensor<128xf32>\n    %12 = math.exp %9 : tensor<128xf32>\n    %13 = arith.subf %12, %cst_0 : tensor<128xf32>\n    %14 = arith.mulf %10, %13 : tensor<128xf32>\n    %15 = arith.select %11, %9, %14 : tensor<128xi1>, tensor<128xf32>\n    %16 = tt.splat %arg1 : !tt.ptr<f32> -> tensor<128x!tt.ptr<f32>>\n    %17 = tt.addptr %16, %4 : tensor<128x!tt.ptr<f32>>, tensor<128xi32>\n    tt.store %17, %15, %6 {operandSegmentSizes = array<i32: 1, 1, 1>} : tensor<128x!tt.ptr<f32>>\n    tt.return\n  }\n  tt.func public @entry_point(%arg0: !tt.ptr<f32> {tt.divisibility = 16 : i32}, %arg1: !tt.ptr<f32> {tt.divisibility = 16 : i32}, %arg2: i32 {tt.divisibility = 16 : i32}, %arg3: f32 {tt.divisibility = 16 : i32}) {\n    tt.call @_RINvCsgFTG5fIjKqJ_76elu_forward_81bbc943e9b2b94df4f14119be72c314bfe6ecc67acf1400b1db3c90f643faaa11elu_forwardNtNtNtNtB2_6triton4llvm6triton10LlvmTritonKl80_EB2_(%arg0, %arg1, %arg2, %arg3) {arg_attrs = [{}, {}, {}, {}], res_attrs = []} : (!tt.ptr<f32>, !tt.ptr<f32>, i32, f32) -> ()\n    tt.return\n  }\n}"
