---
source: kernels/teeny-kernels/tests/test_loss_embedding.rs
expression: mlir.trim()
---
"module {\n  tt.func private @_RINvCskPyGt7rdxx0_94cosine_embedding_loss_forward_4b1aeaa1f55f5298e4fe1da33b896cb01c1a673b1e6cf8fe59ae827b052a5fa829cosine_embedding_loss_forwardNtNtNtNtB2_6triton4llvm6triton10LlvmTritonKl40_EB2_(%arg0: !tt.ptr<f32> {tt.divisibility = 16 : i32}, %arg1: !tt.ptr<f32> {tt.divisibility = 16 : i32}, %arg2: !tt.ptr<f32> {tt.divisibility = 16 : i32}, %arg3: !tt.ptr<f32> {tt.divisibility = 16 : i32}, %arg4: i32 {tt.divisibility = 16 : i32}, %arg5: i32 {tt.divisibility = 16 : i32}, %arg6: f32 {tt.divisibility = 16 : i32}) {\n    %cst = arith.constant dense<1.000000e+00> : tensor<1xf32>\n    %cst_0 = arith.constant dense<5.000000e-01> : tensor<1xf32>\n    %cst_1 = arith.constant dense<0.000000e+00> : tensor<1xf32>\n    %cst_2 = arith.constant dense<0.000000e+00> : tensor<64xf32>\n    %0 = tt.get_program_id x : i32\n    %1 = arith.muli %0, %arg5 : i32\n    %2 = tt.make_range {end = 64 : i32, start = 0 : i32} : tensor<64xi32>\n    %3 = tt.splat %1 : i32 -> tensor<64xi32>\n    %4 = arith.addi %2, %3 : tensor<64xi32>\n    %5 = tt.splat %arg5 : i32 -> tensor<64xi32>\n    %6 = arith.cmpi slt, %2, %5 : tensor<64xi32>\n    %7 = tt.splat %arg0 : !tt.ptr<f32> -> tensor<64x!tt.ptr<f32>>\n    %8 = tt.addptr %7, %4 : tensor<64x!tt.ptr<f32>>, tensor<64xi32>\n    %9 = tt.load %8, %6, %cst_2 : tensor<64x!tt.ptr<f32>>\n    %10 = tt.splat %arg1 : !tt.ptr<f32> -> tensor<64x!tt.ptr<f32>>\n    %11 = tt.addptr %10, %4 : tensor<64x!tt.ptr<f32>>, tensor<64xi32>\n    %12 = tt.load %11, %6, %cst_2 : tensor<64x!tt.ptr<f32>>\n    %13 = arith.mulf %9, %12 : tensor<64xf32>\n    %14 = \"tt.reduce\"(%13) <{axis = 0 : i32}> ({\n    ^bb0(%arg7: f32, %arg8: f32):\n      %46 = arith.addf %arg7, %arg8 : f32\n      tt.reduce.return %46 : f32\n    }) : (tensor<64xf32>) -> f32\n    %15 = arith.mulf %9, %9 : tensor<64xf32>\n    %16 = \"tt.reduce\"(%15) <{axis = 0 : i32}> ({\n    ^bb0(%arg7: f32, %arg8: f32):\n      %46 = arith.addf %arg7, %arg8 : f32\n      tt.reduce.return %46 : f32\n    }) : (tensor<64xf32>) -> f32\n    %17 = arith.mulf %12, %12 : tensor<64xf32>\n    %18 = \"tt.reduce\"(%17) <{axis = 0 : i32}> ({\n    ^bb0(%arg7: f32, %arg8: f32):\n      %46 = arith.addf %arg7, %arg8 : f32\n      tt.reduce.return %46 : f32\n    }) : (tensor<64xf32>) -> f32\n    %19 = tt.splat %14 : f32 -> tensor<1xf32>\n    %20 = arith.addf %19, %cst_1 : tensor<1xf32>\n    %21 = tt.splat %16 : f32 -> tensor<1xf32>\n    %22 = arith.addf %21, %cst_1 : tensor<1xf32>\n    %23 = tt.splat %18 : f32 -> tensor<1xf32>\n    %24 = arith.addf %23, %cst_1 : tensor<1xf32>\n    %25 = math.log %22 : tensor<1xf32>\n    %26 = arith.mulf %25, %cst_0 : tensor<1xf32>\n    %27 = math.exp %26 : tensor<1xf32>\n    %28 = math.log %24 : tensor<1xf32>\n    %29 = arith.mulf %28, %cst_0 : tensor<1xf32>\n    %30 = math.exp %29 : tensor<1xf32>\n    %31 = arith.mulf %27, %30 : tensor<1xf32>\n    %32 = arith.divf %20, %31 : tensor<1xf32>\n    %33 = tt.splat %0 : i32 -> tensor<1xi32>\n    %34 = tt.splat %arg2 : !tt.ptr<f32> -> tensor<1x!tt.ptr<f32>>\n    %35 = tt.addptr %34, %33 : tensor<1x!tt.ptr<f32>>, tensor<1xi32>\n    %36 = tt.load %35 : tensor<1x!tt.ptr<f32>>\n    %37 = tt.splat %arg6 : f32 -> tensor<1xf32>\n    %38 = arith.cmpf ogt, %36, %cst_1 : tensor<1xf32>\n    %39 = arith.subf %32, %37 : tensor<1xf32>\n    %40 = arith.maximumf %39, %cst_1 : tensor<1xf32>\n    %41 = arith.subf %cst, %32 : tensor<1xf32>\n    %42 = arith.select %38, %41, %40 : tensor<1xi1>, tensor<1xf32>\n    %43 = tt.splat %0 : i32 -> tensor<1xi32>\n    %44 = tt.splat %arg3 : !tt.ptr<f32> -> tensor<1x!tt.ptr<f32>>\n    %45 = tt.addptr %44, %43 : tensor<1x!tt.ptr<f32>>, tensor<1xi32>\n    tt.store %45, %42 {operandSegmentSizes = array<i32: 1, 1, 0>} : tensor<1x!tt.ptr<f32>>\n    tt.return\n  }\n  tt.func public @entry_point(%arg0: !tt.ptr<f32> {tt.divisibility = 16 : i32}, %arg1: !tt.ptr<f32> {tt.divisibility = 16 : i32}, %arg2: !tt.ptr<f32> {tt.divisibility = 16 : i32}, %arg3: !tt.ptr<f32> {tt.divisibility = 16 : i32}, %arg4: i32 {tt.divisibility = 16 : i32}, %arg5: i32 {tt.divisibility = 16 : i32}, %arg6: f32 {tt.divisibility = 16 : i32}) {\n    tt.call @_RINvCskPyGt7rdxx0_94cosine_embedding_loss_forward_4b1aeaa1f55f5298e4fe1da33b896cb01c1a673b1e6cf8fe59ae827b052a5fa829cosine_embedding_loss_forwardNtNtNtNtB2_6triton4llvm6triton10LlvmTritonKl40_EB2_(%arg0, %arg1, %arg2, %arg3, %arg4, %arg5, %arg6) {arg_attrs = [{}, {}, {}, {}, {}, {}, {}], res_attrs = []} : (!tt.ptr<f32>, !tt.ptr<f32>, !tt.ptr<f32>, !tt.ptr<f32>, i32, i32, f32) -> ()\n    tt.return\n  }\n}"
