---
source: kernels/teeny-kernels/tests/test_conv3d.rs
expression: mlir.trim()
---
"module {\n  tt.func private @_RINvCs3ycXaAfcaqf_83conv3d_backward_dw_1d135e7473fccac54360e8f491aba7b6ab7bfc95f2f5a411939a86c7d40a54e018conv3d_backward_dwNtNtNtNtB2_6triton4llvm6triton10LlvmTritonfKl2_KB2F_Kl3_Kl1_KB2S_KB2S_Kl8_EB2_(%arg0: !tt.ptr<f32> {tt.divisibility = 16 : i32}, %arg1: !tt.ptr<f32> {tt.divisibility = 16 : i32}, %arg2: !tt.ptr<f32> {tt.divisibility = 16 : i32}, %arg3: i32 {tt.divisibility = 16 : i32}, %arg4: i32 {tt.divisibility = 16 : i32}, %arg5: i32 {tt.divisibility = 16 : i32}, %arg6: i32 {tt.divisibility = 16 : i32}, %arg7: i32 {tt.divisibility = 16 : i32}, %arg8: i32 {tt.divisibility = 16 : i32}, %arg9: i32 {tt.divisibility = 16 : i32}, %arg10: i32 {tt.divisibility = 16 : i32}, %arg11: i32 {tt.divisibility = 16 : i32}) {\n    %c12_i32 = arith.constant 12 : i32\n    %cst = arith.constant dense<0.000000e+00> : tensor<8xf32>\n    %c7_i32 = arith.constant 7 : i32\n    %c3_i32 = arith.constant 3 : i32\n    %c2_i32 = arith.constant 2 : i32\n    %c0_i32 = arith.constant 0 : i32\n    %c1_i32 = arith.constant 1 : i32\n    %c8_i32 = arith.constant 8 : i32\n    %0 = tt.get_program_id x : i32\n    %1 = arith.addi %arg11, %c7_i32 : i32\n    %2 = arith.divsi %1, %c8_i32 : i32\n    %3 = arith.remsi %0, %2 : i32\n    %4 = arith.divsi %0, %2 : i32\n    %5 = arith.remsi %4, %arg10 : i32\n    %6 = arith.divsi %4, %arg10 : i32\n    %7 = arith.remsi %6, %arg9 : i32\n    %8 = arith.divsi %6, %arg9 : i32\n    %9 = arith.remsi %8, %arg5 : i32\n    %10 = arith.divsi %8, %arg5 : i32\n    %11 = arith.muli %3, %c8_i32 : i32\n    %12 = tt.make_range {end = 8 : i32, start = 0 : i32} : tensor<8xi32>\n    %13 = tt.splat %11 : i32 -> tensor<8xi32>\n    %14 = arith.addi %12, %13 : tensor<8xi32>\n    %15 = tt.splat %arg11 : i32 -> tensor<8xi32>\n    %16 = arith.cmpi slt, %14, %15 : tensor<8xi32>\n    %17 = arith.muli %10, %arg5 : i32\n    %18 = arith.addi %17, %9 : i32\n    %19 = arith.muli %18, %arg9 : i32\n    %20 = arith.muli %19, %arg10 : i32\n    %21 = arith.muli %20, %arg11 : i32\n    %22 = arith.muli %7, %arg10 : i32\n    %23 = arith.muli %22, %arg11 : i32\n    %24 = arith.addi %21, %23 : i32\n    %25 = arith.muli %5, %arg11 : i32\n    %26 = arith.addi %24, %25 : i32\n    %27 = tt.splat %26 : i32 -> tensor<8xi32>\n    %28 = arith.addi %14, %27 : tensor<8xi32>\n    %29 = tt.splat %arg0 : !tt.ptr<f32> -> tensor<8x!tt.ptr<f32>>\n    %30 = tt.addptr %29, %28 : tensor<8x!tt.ptr<f32>>, tensor<8xi32>\n    %31 = tt.load %30, %16, %cst : tensor<8x!tt.ptr<f32>>\n    %32 = arith.muli %arg4, %c12_i32 : i32\n    %33 = scf.for %arg12 = %c0_i32 to %32 step %c1_i32 iter_args(%arg13 = %c0_i32) -> (i32)  : i32 {\n      %34 = arith.addi %arg13, %c1_i32 : i32\n      %35 = arith.remsi %arg13, %c3_i32 : i32\n      %36 = arith.divsi %arg13, %c3_i32 : i32\n      %37 = arith.remsi %36, %c2_i32 : i32\n      %38 = arith.divsi %36, %c2_i32 : i32\n      %39 = arith.remsi %38, %c2_i32 : i32\n      %40 = arith.divsi %38, %c2_i32 : i32\n      %41 = arith.addi %7, %39 : i32\n      %42 = arith.addi %5, %37 : i32\n      %43 = tt.splat %35 : i32 -> tensor<8xi32>\n      %44 = arith.addi %14, %43 : tensor<8xi32>\n      %45 = arith.muli %10, %arg4 : i32\n      %46 = arith.addi %45, %40 : i32\n      %47 = arith.muli %46, %arg6 : i32\n      %48 = arith.muli %47, %arg7 : i32\n      %49 = arith.muli %48, %arg8 : i32\n      %50 = arith.muli %41, %arg7 : i32\n      %51 = arith.muli %50, %arg8 : i32\n      %52 = arith.addi %49, %51 : i32\n      %53 = arith.muli %42, %arg8 : i32\n      %54 = arith.addi %52, %53 : i32\n      %55 = tt.splat %54 : i32 -> tensor<8xi32>\n      %56 = arith.addi %44, %55 : tensor<8xi32>\n      %57 = tt.splat %arg1 : !tt.ptr<f32> -> tensor<8x!tt.ptr<f32>>\n      %58 = tt.addptr %57, %56 : tensor<8x!tt.ptr<f32>>, tensor<8xi32>\n      %59 = tt.load %58, %16, %cst : tensor<8x!tt.ptr<f32>>\n      %60 = arith.mulf %31, %59 : tensor<8xf32>\n      %61 = \"tt.reduce\"(%60) <{axis = 0 : i32}> ({\n      ^bb0(%arg14: f32, %arg15: f32):\n        %75 = arith.addf %arg14, %arg15 : f32\n        tt.reduce.return %75 : f32\n      }) : (tensor<8xf32>) -> f32\n      %62 = tt.splat %61 : f32 -> tensor<1xf32>\n      %63 = arith.muli %9, %arg4 : i32\n      %64 = arith.addi %63, %40 : i32\n      %65 = arith.muli %64, %c2_i32 : i32\n      %66 = arith.addi %65, %39 : i32\n      %67 = arith.muli %66, %c2_i32 : i32\n      %68 = arith.addi %67, %37 : i32\n      %69 = arith.muli %68, %c3_i32 : i32\n      %70 = arith.addi %69, %35 : i32\n      %71 = tt.splat %70 : i32 -> tensor<1xi32>\n      %72 = tt.splat %arg2 : !tt.ptr<f32> -> tensor<1x!tt.ptr<f32>>\n      %73 = tt.addptr %72, %71 : tensor<1x!tt.ptr<f32>>, tensor<1xi32>\n      %74 = tt.atomic_rmw fadd, relaxed, gpu, %73, %62 {operandSegmentSizes = array<i32: 1, 1, 0>} : (tensor<1x!tt.ptr<f32>>, tensor<1xf32>) -> tensor<1xf32>\n      scf.yield %34 : i32\n    }\n    tt.return\n  }\n  tt.func public @entry_point(%arg0: !tt.ptr<f32> {tt.divisibility = 16 : i32}, %arg1: !tt.ptr<f32> {tt.divisibility = 16 : i32}, %arg2: !tt.ptr<f32> {tt.divisibility = 16 : i32}, %arg3: i32 {tt.divisibility = 16 : i32}, %arg4: i32 {tt.divisibility = 16 : i32}, %arg5: i32 {tt.divisibility = 16 : i32}, %arg6: i32 {tt.divisibility = 16 : i32}, %arg7: i32 {tt.divisibility = 16 : i32}, %arg8: i32 {tt.divisibility = 16 : i32}, %arg9: i32 {tt.divisibility = 16 : i32}, %arg10: i32 {tt.divisibility = 16 : i32}, %arg11: i32 {tt.divisibility = 16 : i32}) {\n    tt.call @_RINvCs3ycXaAfcaqf_83conv3d_backward_dw_1d135e7473fccac54360e8f491aba7b6ab7bfc95f2f5a411939a86c7d40a54e018conv3d_backward_dwNtNtNtNtB2_6triton4llvm6triton10LlvmTritonfKl2_KB2F_Kl3_Kl1_KB2S_KB2S_Kl8_EB2_(%arg0, %arg1, %arg2, %arg3, %arg4, %arg5, %arg6, %arg7, %arg8, %arg9, %arg10, %arg11) {arg_attrs = [{}, {}, {}, {}, {}, {}, {}, {}, {}, {}, {}, {}], res_attrs = []} : (!tt.ptr<f32>, !tt.ptr<f32>, !tt.ptr<f32>, i32, i32, i32, i32, i32, i32, i32, i32, i32) -> ()\n    tt.return\n  }\n}"
