---
source: kernels/teeny-kernels/tests/test_conv2d.rs
expression: mlir.trim()
---
"module {\n  tt.func private @_RINvCs3q2kEscls6C_79conv2d_forward_e532620580070ff9985fc47dd2e63bf88305999134dfe584f5667e3fab99e7fd14conv2d_forwardNtNtNtNtB2_6triton4llvm6triton10LlvmTritonfKl3_KB2x_Kl1_KB2G_Kl0_KB2P_Kl8_EB2_(%arg0: !tt.ptr<f32> {tt.divisibility = 16 : i32}, %arg1: !tt.ptr<f32> {tt.divisibility = 16 : i32}, %arg2: !tt.ptr<f32> {tt.divisibility = 16 : i32}, %arg3: i32 {tt.divisibility = 16 : i32}, %arg4: i32 {tt.divisibility = 16 : i32}, %arg5: i32 {tt.divisibility = 16 : i32}, %arg6: i32 {tt.divisibility = 16 : i32}, %arg7: i32 {tt.divisibility = 16 : i32}, %arg8: i32 {tt.divisibility = 16 : i32}, %arg9: i32 {tt.divisibility = 16 : i32}) {\n    %cst = arith.constant dense<0> : tensor<8xi32>\n    %c9_i32 = arith.constant 9 : i32\n    %cst_0 = arith.constant dense<0.000000e+00> : tensor<8xf32>\n    %c7_i32 = arith.constant 7 : i32\n    %c3_i32 = arith.constant 3 : i32\n    %c0_i32 = arith.constant 0 : i32\n    %c1_i32 = arith.constant 1 : i32\n    %c8_i32 = arith.constant 8 : i32\n    %0 = tt.get_program_id x : i32\n    %1 = arith.addi %arg9, %c7_i32 : i32\n    %2 = arith.divsi %1, %c8_i32 : i32\n    %3 = arith.remsi %0, %2 : i32\n    %4 = arith.divsi %0, %2 : i32\n    %5 = arith.remsi %4, %arg8 : i32\n    %6 = arith.divsi %4, %arg8 : i32\n    %7 = arith.remsi %6, %arg5 : i32\n    %8 = arith.divsi %6, %arg5 : i32\n    %9 = arith.muli %3, %c8_i32 : i32\n    %10 = tt.make_range {end = 8 : i32, start = 0 : i32} : tensor<8xi32>\n    %11 = tt.splat %9 : i32 -> tensor<8xi32>\n    %12 = arith.addi %10, %11 : tensor<8xi32>\n    %13 = tt.splat %arg9 : i32 -> tensor<8xi32>\n    %14 = arith.cmpi slt, %12, %13 : tensor<8xi32>\n    %15 = arith.muli %8, %arg5 : i32\n    %16 = arith.addi %15, %7 : i32\n    %17 = arith.muli %16, %arg8 : i32\n    %18 = arith.muli %17, %arg9 : i32\n    %19 = arith.muli %arg4, %c9_i32 : i32\n    %20:2 = scf.for %arg10 = %c0_i32 to %19 step %c1_i32 iter_args(%arg11 = %c0_i32, %arg12 = %cst_0) -> (i32, tensor<8xf32>)  : i32 {\n      %27 = arith.addi %arg11, %c1_i32 : i32\n      %28 = arith.remsi %arg11, %c3_i32 : i32\n      %29 = arith.divsi %arg11, %c3_i32 : i32\n      %30 = arith.remsi %29, %c3_i32 : i32\n      %31 = arith.divsi %29, %c3_i32 : i32\n      %32 = arith.addi %5, %30 : i32\n      %33 = tt.splat %28 : i32 -> tensor<8xi32>\n      %34 = arith.addi %12, %33 : tensor<8xi32>\n      %35 = tt.splat %32 : i32 -> tensor<8xi32>\n      %36 = arith.cmpi sge, %35, %cst : tensor<8xi32>\n      %37 = tt.splat %arg6 : i32 -> tensor<8xi32>\n      %38 = arith.cmpi slt, %35, %37 : tensor<8xi32>\n      %39 = arith.andi %36, %38 : tensor<8xi1>\n      %40 = arith.cmpi sge, %34, %cst : tensor<8xi32>\n      %41 = tt.splat %arg7 : i32 -> tensor<8xi32>\n      %42 = arith.cmpi slt, %34, %41 : tensor<8xi32>\n      %43 = arith.andi %40, %42 : tensor<8xi1>\n      %44 = arith.andi %14, %39 : tensor<8xi1>\n      %45 = arith.andi %44, %43 : tensor<8xi1>\n      %46 = arith.muli %8, %arg4 : i32\n      %47 = arith.addi %46, %31 : i32\n      %48 = arith.muli %47, %arg6 : i32\n      %49 = arith.muli %48, %arg7 : i32\n      %50 = arith.muli %32, %arg7 : i32\n      %51 = arith.addi %49, %50 : i32\n      %52 = tt.splat %51 : i32 -> tensor<8xi32>\n      %53 = arith.addi %34, %52 : tensor<8xi32>\n      %54 = tt.splat %arg0 : !tt.ptr<f32> -> tensor<8x!tt.ptr<f32>>\n      %55 = tt.addptr %54, %53 : tensor<8x!tt.ptr<f32>>, tensor<8xi32>\n      %56 = tt.load %55, %45, %cst_0 : tensor<8x!tt.ptr<f32>>\n      %57 = arith.muli %7, %arg4 : i32\n      %58 = arith.addi %57, %31 : i32\n      %59 = arith.muli %58, %c3_i32 : i32\n      %60 = arith.addi %59, %30 : i32\n      %61 = arith.muli %60, %c3_i32 : i32\n      %62 = arith.addi %61, %28 : i32\n      %63 = tt.splat %62 : i32 -> tensor<1xi32>\n      %64 = tt.splat %arg1 : !tt.ptr<f32> -> tensor<1x!tt.ptr<f32>>\n      %65 = tt.addptr %64, %63 : tensor<1x!tt.ptr<f32>>, tensor<1xi32>\n      %66 = tt.load %65 : tensor<1x!tt.ptr<f32>>\n      %67 = tt.broadcast %66 : tensor<1xf32> -> tensor<8xf32>\n      %68 = arith.mulf %56, %67 : tensor<8xf32>\n      %69 = arith.addf %arg12, %68 : tensor<8xf32>\n      scf.yield %27, %69 : i32, tensor<8xf32>\n    }\n    %21 = arith.muli %5, %arg9 : i32\n    %22 = arith.addi %18, %21 : i32\n    %23 = tt.splat %22 : i32 -> tensor<8xi32>\n    %24 = arith.addi %12, %23 : tensor<8xi32>\n    %25 = tt.splat %arg2 : !tt.ptr<f32> -> tensor<8x!tt.ptr<f32>>\n    %26 = tt.addptr %25, %24 : tensor<8x!tt.ptr<f32>>, tensor<8xi32>\n    tt.store %26, %20#1, %14 {operandSegmentSizes = array<i32: 1, 1, 1>} : tensor<8x!tt.ptr<f32>>\n    tt.return\n  }\n  tt.func public @entry_point(%arg0: !tt.ptr<f32> {tt.divisibility = 16 : i32}, %arg1: !tt.ptr<f32> {tt.divisibility = 16 : i32}, %arg2: !tt.ptr<f32> {tt.divisibility = 16 : i32}, %arg3: i32 {tt.divisibility = 16 : i32}, %arg4: i32 {tt.divisibility = 16 : i32}, %arg5: i32 {tt.divisibility = 16 : i32}, %arg6: i32 {tt.divisibility = 16 : i32}, %arg7: i32 {tt.divisibility = 16 : i32}, %arg8: i32 {tt.divisibility = 16 : i32}, %arg9: i32 {tt.divisibility = 16 : i32}) {\n    tt.call @_RINvCs3q2kEscls6C_79conv2d_forward_e532620580070ff9985fc47dd2e63bf88305999134dfe584f5667e3fab99e7fd14conv2d_forwardNtNtNtNtB2_6triton4llvm6triton10LlvmTritonfKl3_KB2x_Kl1_KB2G_Kl0_KB2P_Kl8_EB2_(%arg0, %arg1, %arg2, %arg3, %arg4, %arg5, %arg6, %arg7, %arg8, %arg9) {arg_attrs = [{}, {}, {}, {}, {}, {}, {}, {}, {}, {}], res_attrs = []} : (!tt.ptr<f32>, !tt.ptr<f32>, !tt.ptr<f32>, i32, i32, i32, i32, i32, i32, i32) -> ()\n    tt.return\n  }\n}"
