---
source: kernels/teeny-kernels/tests/test_constant_pad2d.rs
expression: mlir.trim()
---
"module {\n  tt.func private @_RINvCs1bPlpC5c8jt_88constant_pad2d_backward_4d623e8896922a45137d4e69de6659f31ae8a3762c2dd25559e02ac9380eec5323constant_pad2d_backwardNtNtNtNtB2_6triton4llvm6triton10LlvmTritonfKl1_Kl2_KB2T_Kl3_Kl10_EB2_(%arg0: !tt.ptr<f32> {tt.divisibility = 16 : i32}, %arg1: !tt.ptr<f32> {tt.divisibility = 16 : i32}, %arg2: i32 {tt.divisibility = 16 : i32}, %arg3: i32 {tt.divisibility = 16 : i32}, %arg4: i32 {tt.divisibility = 16 : i32}, %arg5: i32 {tt.divisibility = 16 : i32}, %arg6: i32 {tt.divisibility = 16 : i32}, %arg7: i32 {tt.divisibility = 16 : i32}) {\n    %cst = arith.constant dense<0.000000e+00> : tensor<16xf32>\n    %cst_0 = arith.constant dense<0> : tensor<16xi32>\n    %cst_1 = arith.constant dense<2> : tensor<16xi32>\n    %c15_i32 = arith.constant 15 : i32\n    %c1_i32 = arith.constant 1 : i32\n    %c16_i32 = arith.constant 16 : i32\n    %0 = tt.get_program_id x : i32\n    %1 = arith.addi %arg7, %c15_i32 : i32\n    %2 = arith.divsi %1, %c16_i32 : i32\n    %3 = arith.remsi %0, %2 : i32\n    %4 = arith.divsi %0, %2 : i32\n    %5 = arith.remsi %4, %arg6 : i32\n    %6 = arith.divsi %4, %arg6 : i32\n    %7 = arith.remsi %6, %arg3 : i32\n    %8 = arith.divsi %6, %arg3 : i32\n    %9 = arith.muli %3, %c16_i32 : i32\n    %10 = tt.make_range {end = 16 : i32, start = 0 : i32} : tensor<16xi32>\n    %11 = tt.splat %9 : i32 -> tensor<16xi32>\n    %12 = arith.addi %10, %11 : tensor<16xi32>\n    %13 = tt.splat %arg7 : i32 -> tensor<16xi32>\n    %14 = arith.cmpi slt, %12, %13 : tensor<16xi32>\n    %15 = arith.subi %5, %c1_i32 : i32\n    %16 = arith.subi %12, %cst_1 : tensor<16xi32>\n    %17 = tt.splat %15 : i32 -> tensor<16xi32>\n    %18 = arith.cmpi sge, %17, %cst_0 : tensor<16xi32>\n    %19 = tt.splat %arg4 : i32 -> tensor<16xi32>\n    %20 = arith.cmpi slt, %17, %19 : tensor<16xi32>\n    %21 = arith.andi %18, %20 : tensor<16xi1>\n    %22 = arith.cmpi sge, %16, %cst_0 : tensor<16xi32>\n    %23 = tt.splat %arg5 : i32 -> tensor<16xi32>\n    %24 = arith.cmpi slt, %16, %23 : tensor<16xi32>\n    %25 = arith.andi %22, %24 : tensor<16xi1>\n    %26 = arith.muli %8, %arg3 : i32\n    %27 = arith.addi %26, %7 : i32\n    %28 = arith.muli %27, %arg6 : i32\n    %29 = arith.addi %28, %5 : i32\n    %30 = arith.muli %29, %arg7 : i32\n    %31 = arith.muli %27, %arg4 : i32\n    %32 = arith.muli %31, %arg5 : i32\n    %33 = arith.muli %15, %arg5 : i32\n    %34 = arith.addi %32, %33 : i32\n    %35 = arith.andi %14, %21 : tensor<16xi1>\n    %36 = arith.andi %35, %25 : tensor<16xi1>\n    %37 = tt.splat %30 : i32 -> tensor<16xi32>\n    %38 = arith.addi %12, %37 : tensor<16xi32>\n    %39 = tt.splat %arg0 : !tt.ptr<f32> -> tensor<16x!tt.ptr<f32>>\n    %40 = tt.addptr %39, %38 : tensor<16x!tt.ptr<f32>>, tensor<16xi32>\n    %41 = tt.load %40, %14, %cst : tensor<16x!tt.ptr<f32>>\n    %42 = tt.splat %34 : i32 -> tensor<16xi32>\n    %43 = arith.addi %16, %42 : tensor<16xi32>\n    %44 = tt.splat %arg1 : !tt.ptr<f32> -> tensor<16x!tt.ptr<f32>>\n    %45 = tt.addptr %44, %43 : tensor<16x!tt.ptr<f32>>, tensor<16xi32>\n    tt.store %45, %41, %36 {operandSegmentSizes = array<i32: 1, 1, 1>} : tensor<16x!tt.ptr<f32>>\n    tt.return\n  }\n  tt.func public @entry_point(%arg0: !tt.ptr<f32> {tt.divisibility = 16 : i32}, %arg1: !tt.ptr<f32> {tt.divisibility = 16 : i32}, %arg2: i32 {tt.divisibility = 16 : i32}, %arg3: i32 {tt.divisibility = 16 : i32}, %arg4: i32 {tt.divisibility = 16 : i32}, %arg5: i32 {tt.divisibility = 16 : i32}, %arg6: i32 {tt.divisibility = 16 : i32}, %arg7: i32 {tt.divisibility = 16 : i32}) {\n    tt.call @_RINvCs1bPlpC5c8jt_88constant_pad2d_backward_4d623e8896922a45137d4e69de6659f31ae8a3762c2dd25559e02ac9380eec5323constant_pad2d_backwardNtNtNtNtB2_6triton4llvm6triton10LlvmTritonfKl1_Kl2_KB2T_Kl3_Kl10_EB2_(%arg0, %arg1, %arg2, %arg3, %arg4, %arg5, %arg6, %arg7) {arg_attrs = [{}, {}, {}, {}, {}, {}, {}, {}], res_attrs = []} : (!tt.ptr<f32>, !tt.ptr<f32>, i32, i32, i32, i32, i32, i32) -> ()\n    tt.return\n  }\n}"
