---
source: kernels/teeny-kernels/tests/test_linear.rs
expression: mlir.trim()
---
"module {\n  tt.func private @_RINvCs6KUrL9a30t7_79linear_forward_9bafb957a9819bd22421b3ff0813341f82317dbb6ef30b825d4dad60a69f577d14linear_forwardNtNtNtNtB2_6triton4llvm6triton10LlvmTritonfKb1_Kl20_KB2B_KB2B_Kl8_EB2_(%arg0: !tt.ptr<f32> {tt.divisibility = 16 : i32}, %arg1: !tt.ptr<f32> {tt.divisibility = 16 : i32}, %arg2: !tt.ptr<f32> {tt.divisibility = 16 : i32}, %arg3: !tt.ptr<f32> {tt.divisibility = 16 : i32}, %arg4: i32 {tt.divisibility = 16 : i32}, %arg5: i32 {tt.divisibility = 16 : i32}, %arg6: i32 {tt.divisibility = 16 : i32}, %arg7: i32 {tt.divisibility = 16 : i32}, %arg8: i32 {tt.divisibility = 16 : i32}, %arg9: i32 {tt.divisibility = 16 : i32}, %arg10: i32 {tt.divisibility = 16 : i32}, %arg11: i32 {tt.divisibility = 16 : i32}, %arg12: i32 {tt.divisibility = 16 : i32}) {\n    %cst = arith.constant dense<0.000000e+00> : tensor<32xf32>\n    %cst_0 = arith.constant dense<0.000000e+00> : tensor<32x32xf32>\n    %c31_i32 = arith.constant 31 : i32\n    %false = arith.constant false\n    %c0_i32 = arith.constant 0 : i32\n    %c8_i32 = arith.constant 8 : i32\n    %c1_i32 = arith.constant 1 : i32\n    %c32_i32 = arith.constant 32 : i32\n    %0 = tt.get_program_id x : i32\n    %1 = arith.addi %arg4, %c31_i32 : i32\n    %2 = arith.divsi %1, %c32_i32 : i32\n    %3 = arith.addi %arg5, %c31_i32 : i32\n    %4 = arith.divsi %3, %c32_i32 : i32\n    %5 = arith.muli %4, %c8_i32 : i32\n    %6 = arith.divsi %0, %5 : i32\n    %7 = arith.muli %6, %c8_i32 : i32\n    %8 = arith.subi %2, %7 : i32\n    %9 = arith.cmpi slt, %8, %c8_i32 : i32\n    %10 = arith.cmpi eq, %9, %false : i1\n    %11 = arith.select %10, %c8_i32, %8 : i32\n    %12 = arith.remsi %0, %5 : i32\n    %13 = arith.remsi %12, %11 : i32\n    %14 = arith.addi %7, %13 : i32\n    %15 = arith.divsi %12, %11 : i32\n    %16 = arith.extsi %arg7 : i32 to i64\n    %17 = arith.extsi %arg8 : i32 to i64\n    %18 = tt.make_tensor_descriptor %arg0, [%arg4, %arg6], [%16, %17] : <f32>, <tensor<32x32xf32>>\n    %19 = arith.extsi %arg9 : i32 to i64\n    %20 = arith.extsi %arg10 : i32 to i64\n    %21 = tt.make_tensor_descriptor %arg1, [%arg5, %arg6], [%19, %20] : <f32>, <tensor<32x32xf32>>\n    %22 = arith.addi %arg6, %c31_i32 : i32\n    %23 = arith.divsi %22, %c32_i32 : i32\n    %24:2 = scf.for %arg13 = %c0_i32 to %23 step %c1_i32 iter_args(%arg14 = %c0_i32, %arg15 = %cst_0) -> (i32, tensor<32x32xf32>)  : i32 {\n      %42 = arith.addi %arg14, %c1_i32 : i32\n      %43 = arith.muli %14, %c32_i32 : i32\n      %44 = arith.muli %arg14, %c32_i32 : i32\n      %45 = tt.descriptor_load %18[%43, %44] : !tt.tensordesc<tensor<32x32xf32>> -> tensor<32x32xf32>\n      %46 = arith.muli %15, %c32_i32 : i32\n      %47 = tt.descriptor_load %21[%46, %44] : !tt.tensordesc<tensor<32x32xf32>> -> tensor<32x32xf32>\n      %48 = tt.trans %47 {order = array<i32: 1, 0>} : tensor<32x32xf32> -> tensor<32x32xf32>\n      %49 = tt.dot %45, %48, %arg15 : tensor<32x32xf32> * tensor<32x32xf32> -> tensor<32x32xf32>\n      scf.yield %42, %49 : i32, tensor<32x32xf32>\n    }\n    %25 = tt.make_range {end = 32 : i32, start = 0 : i32} : tensor<32xi32>\n    %26 = arith.muli %15, %c32_i32 : i32\n    %27 = tt.splat %26 : i32 -> tensor<32xi32>\n    %28 = arith.addi %25, %27 : tensor<32xi32>\n    %29 = tt.splat %arg5 : i32 -> tensor<32xi32>\n    %30 = arith.cmpi slt, %28, %29 : tensor<32xi32>\n    %31 = tt.splat %arg2 : !tt.ptr<f32> -> tensor<32x!tt.ptr<f32>>\n    %32 = tt.addptr %31, %28 : tensor<32x!tt.ptr<f32>>, tensor<32xi32>\n    %33 = tt.load %32, %30, %cst : tensor<32x!tt.ptr<f32>>\n    %34 = tt.expand_dims %33 {axis = 0 : i32} : tensor<32xf32> -> tensor<1x32xf32>\n    %35 = tt.broadcast %34 : tensor<1x32xf32> -> tensor<32x32xf32>\n    %36 = arith.addf %24#1, %35 : tensor<32x32xf32>\n    %37 = arith.extsi %arg11 : i32 to i64\n    %38 = arith.extsi %arg12 : i32 to i64\n    %39 = tt.make_tensor_descriptor %arg3, [%arg4, %arg5], [%37, %38] : <f32>, <tensor<32x32xf32>>\n    %40 = arith.muli %14, %c32_i32 : i32\n    %41 = arith.muli %15, %c32_i32 : i32\n    tt.descriptor_store %39[%40, %41], %36 : !tt.tensordesc<tensor<32x32xf32>>, tensor<32x32xf32>\n    tt.return\n  }\n  tt.func public @entry_point(%arg0: !tt.ptr<f32> {tt.divisibility = 16 : i32}, %arg1: !tt.ptr<f32> {tt.divisibility = 16 : i32}, %arg2: !tt.ptr<f32> {tt.divisibility = 16 : i32}, %arg3: !tt.ptr<f32> {tt.divisibility = 16 : i32}, %arg4: i32 {tt.divisibility = 16 : i32}, %arg5: i32 {tt.divisibility = 16 : i32}, %arg6: i32 {tt.divisibility = 16 : i32}, %arg7: i32 {tt.divisibility = 16 : i32}, %arg8: i32 {tt.divisibility = 16 : i32}, %arg9: i32 {tt.divisibility = 16 : i32}, %arg10: i32 {tt.divisibility = 16 : i32}, %arg11: i32 {tt.divisibility = 16 : i32}, %arg12: i32 {tt.divisibility = 16 : i32}) {\n    tt.call @_RINvCs6KUrL9a30t7_79linear_forward_9bafb957a9819bd22421b3ff0813341f82317dbb6ef30b825d4dad60a69f577d14linear_forwardNtNtNtNtB2_6triton4llvm6triton10LlvmTritonfKb1_Kl20_KB2B_KB2B_Kl8_EB2_(%arg0, %arg1, %arg2, %arg3, %arg4, %arg5, %arg6, %arg7, %arg8, %arg9, %arg10, %arg11, %arg12) {arg_attrs = [{}, {}, {}, {}, {}, {}, {}, {}, {}, {}, {}, {}, {}], res_attrs = []} : (!tt.ptr<f32>, !tt.ptr<f32>, !tt.ptr<f32>, !tt.ptr<f32>, i32, i32, i32, i32, i32, i32, i32, i32, i32) -> ()\n    tt.return\n  }\n}"
