---
source: kernels/teeny-kernels/tests/test_optim_sgd.rs
expression: mlir.trim()
---
"module {\n  tt.func private @_RINvCs6uK7mR8N3CQ_73sgd_step_f1d5f33ca3d9171a63634cf05b5d7b72fff0a4f15c9852e3e176733f8227acf78sgd_stepNtNtNtNtB2_6triton4llvm6triton10LlvmTritonKl80_EB2_(%arg0: !tt.ptr<f32> {tt.divisibility = 16 : i32}, %arg1: !tt.ptr<f32> {tt.divisibility = 16 : i32}, %arg2: i32 {tt.divisibility = 16 : i32}, %arg3: f32 {tt.divisibility = 16 : i32}, %arg4: f32 {tt.divisibility = 16 : i32}) {\n    %c128_i32 = arith.constant 128 : i32\n    %0 = tt.get_program_id x : i32\n    %1 = arith.muli %0, %c128_i32 : i32\n    %2 = tt.make_range {end = 128 : i32, start = 0 : i32} : tensor<128xi32>\n    %3 = tt.splat %1 : i32 -> tensor<128xi32>\n    %4 = arith.addi %2, %3 : tensor<128xi32>\n    %5 = tt.splat %arg2 : i32 -> tensor<128xi32>\n    %6 = arith.cmpi slt, %4, %5 : tensor<128xi32>\n    %7 = tt.splat %arg0 : !tt.ptr<f32> -> tensor<128x!tt.ptr<f32>>\n    %8 = tt.addptr %7, %4 : tensor<128x!tt.ptr<f32>>, tensor<128xi32>\n    %9 = tt.load %8, %6 : tensor<128x!tt.ptr<f32>>\n    %10 = tt.splat %arg1 : !tt.ptr<f32> -> tensor<128x!tt.ptr<f32>>\n    %11 = tt.addptr %10, %4 : tensor<128x!tt.ptr<f32>>, tensor<128xi32>\n    %12 = tt.load %11, %6 : tensor<128x!tt.ptr<f32>>\n    %13 = tt.splat %arg3 : f32 -> tensor<128xf32>\n    %14 = tt.splat %arg4 : f32 -> tensor<128xf32>\n    %15 = arith.mulf %14, %9 : tensor<128xf32>\n    %16 = arith.addf %12, %15 : tensor<128xf32>\n    %17 = arith.mulf %13, %16 : tensor<128xf32>\n    %18 = arith.subf %9, %17 : tensor<128xf32>\n    %19 = tt.splat %arg0 : !tt.ptr<f32> -> tensor<128x!tt.ptr<f32>>\n    %20 = tt.addptr %19, %4 : tensor<128x!tt.ptr<f32>>, tensor<128xi32>\n    tt.store %20, %18, %6 {operandSegmentSizes = array<i32: 1, 1, 1>} : tensor<128x!tt.ptr<f32>>\n    tt.return\n  }\n  tt.func public @entry_point(%arg0: !tt.ptr<f32> {tt.divisibility = 16 : i32}, %arg1: !tt.ptr<f32> {tt.divisibility = 16 : i32}, %arg2: i32 {tt.divisibility = 16 : i32}, %arg3: f32 {tt.divisibility = 16 : i32}, %arg4: f32 {tt.divisibility = 16 : i32}) {\n    tt.call @_RINvCs6uK7mR8N3CQ_73sgd_step_f1d5f33ca3d9171a63634cf05b5d7b72fff0a4f15c9852e3e176733f8227acf78sgd_stepNtNtNtNtB2_6triton4llvm6triton10LlvmTritonKl80_EB2_(%arg0, %arg1, %arg2, %arg3, %arg4) {arg_attrs = [{}, {}, {}, {}, {}], res_attrs = []} : (!tt.ptr<f32>, !tt.ptr<f32>, i32, f32, f32) -> ()\n    tt.return\n  }\n}"
