---
source: kernels/teeny-kernels/tests/test_conv1d.rs
expression: mlir.trim()
---
"module {\n  tt.func private @_RINvCsdXGLhpOxXLe_79conv1d_forward_b92400eb81b7db1b7fd2fa4ec3e8a93af2f86696f14570023efbf68e70df9fc214conv1d_forwardNtNtNtNtB2_6triton4llvm6triton10LlvmTritonfKl3_Kl1_Kl8_EB2_(%arg0: !tt.ptr<f32> {tt.divisibility = 16 : i32}, %arg1: !tt.ptr<f32> {tt.divisibility = 16 : i32}, %arg2: !tt.ptr<f32> {tt.divisibility = 16 : i32}, %arg3: i32 {tt.divisibility = 16 : i32}, %arg4: i32 {tt.divisibility = 16 : i32}, %arg5: i32 {tt.divisibility = 16 : i32}, %arg6: i32 {tt.divisibility = 16 : i32}, %arg7: i32 {tt.divisibility = 16 : i32}) {\n    %cst = arith.constant dense<0.000000e+00> : tensor<8xf32>\n    %c7_i32 = arith.constant 7 : i32\n    %c3_i32 = arith.constant 3 : i32\n    %c0_i32 = arith.constant 0 : i32\n    %c1_i32 = arith.constant 1 : i32\n    %c8_i32 = arith.constant 8 : i32\n    %0 = tt.get_program_id x : i32\n    %1 = arith.addi %arg7, %c7_i32 : i32\n    %2 = arith.divsi %1, %c8_i32 : i32\n    %3 = arith.remsi %0, %2 : i32\n    %4 = arith.divsi %0, %2 : i32\n    %5 = arith.remsi %4, %arg5 : i32\n    %6 = arith.divsi %4, %arg5 : i32\n    %7 = arith.muli %3, %c8_i32 : i32\n    %8 = tt.make_range {end = 8 : i32, start = 0 : i32} : tensor<8xi32>\n    %9 = tt.splat %7 : i32 -> tensor<8xi32>\n    %10 = arith.addi %8, %9 : tensor<8xi32>\n    %11 = tt.splat %arg7 : i32 -> tensor<8xi32>\n    %12 = arith.cmpi slt, %10, %11 : tensor<8xi32>\n    %13 = arith.muli %6, %arg5 : i32\n    %14 = arith.addi %13, %5 : i32\n    %15 = arith.muli %14, %arg7 : i32\n    %16 = arith.muli %arg4, %c3_i32 : i32\n    %17:2 = scf.for %arg8 = %c0_i32 to %16 step %c1_i32 iter_args(%arg9 = %c0_i32, %arg10 = %cst) -> (i32, tensor<8xf32>)  : i32 {\n      %22 = arith.addi %arg9, %c1_i32 : i32\n      %23 = arith.remsi %arg9, %c3_i32 : i32\n      %24 = arith.divsi %arg9, %c3_i32 : i32\n      %25 = tt.splat %23 : i32 -> tensor<8xi32>\n      %26 = arith.addi %10, %25 : tensor<8xi32>\n      %27 = arith.muli %6, %arg4 : i32\n      %28 = arith.addi %27, %24 : i32\n      %29 = arith.muli %28, %arg6 : i32\n      %30 = tt.splat %29 : i32 -> tensor<8xi32>\n      %31 = arith.addi %26, %30 : tensor<8xi32>\n      %32 = tt.splat %arg0 : !tt.ptr<f32> -> tensor<8x!tt.ptr<f32>>\n      %33 = tt.addptr %32, %31 : tensor<8x!tt.ptr<f32>>, tensor<8xi32>\n      %34 = tt.load %33, %12, %cst : tensor<8x!tt.ptr<f32>>\n      %35 = arith.muli %5, %arg4 : i32\n      %36 = arith.addi %35, %24 : i32\n      %37 = arith.muli %36, %c3_i32 : i32\n      %38 = arith.addi %37, %23 : i32\n      %39 = tt.splat %38 : i32 -> tensor<1xi32>\n      %40 = tt.splat %arg1 : !tt.ptr<f32> -> tensor<1x!tt.ptr<f32>>\n      %41 = tt.addptr %40, %39 : tensor<1x!tt.ptr<f32>>, tensor<1xi32>\n      %42 = tt.load %41 : tensor<1x!tt.ptr<f32>>\n      %43 = tt.broadcast %42 : tensor<1xf32> -> tensor<8xf32>\n      %44 = arith.mulf %34, %43 : tensor<8xf32>\n      %45 = arith.addf %arg10, %44 : tensor<8xf32>\n      scf.yield %22, %45 : i32, tensor<8xf32>\n    }\n    %18 = tt.splat %15 : i32 -> tensor<8xi32>\n    %19 = arith.addi %10, %18 : tensor<8xi32>\n    %20 = tt.splat %arg2 : !tt.ptr<f32> -> tensor<8x!tt.ptr<f32>>\n    %21 = tt.addptr %20, %19 : tensor<8x!tt.ptr<f32>>, tensor<8xi32>\n    tt.store %21, %17#1, %12 {operandSegmentSizes = array<i32: 1, 1, 1>} : tensor<8x!tt.ptr<f32>>\n    tt.return\n  }\n  tt.func public @entry_point(%arg0: !tt.ptr<f32> {tt.divisibility = 16 : i32}, %arg1: !tt.ptr<f32> {tt.divisibility = 16 : i32}, %arg2: !tt.ptr<f32> {tt.divisibility = 16 : i32}, %arg3: i32 {tt.divisibility = 16 : i32}, %arg4: i32 {tt.divisibility = 16 : i32}, %arg5: i32 {tt.divisibility = 16 : i32}, %arg6: i32 {tt.divisibility = 16 : i32}, %arg7: i32 {tt.divisibility = 16 : i32}) {\n    tt.call @_RINvCsdXGLhpOxXLe_79conv1d_forward_b92400eb81b7db1b7fd2fa4ec3e8a93af2f86696f14570023efbf68e70df9fc214conv1d_forwardNtNtNtNtB2_6triton4llvm6triton10LlvmTritonfKl3_Kl1_Kl8_EB2_(%arg0, %arg1, %arg2, %arg3, %arg4, %arg5, %arg6, %arg7) {arg_attrs = [{}, {}, {}, {}, {}, {}, {}, {}], res_attrs = []} : (!tt.ptr<f32>, !tt.ptr<f32>, !tt.ptr<f32>, i32, i32, i32, i32, i32) -> ()\n    tt.return\n  }\n}"
