---
source: kernels/teeny-kernels/tests/test_misc_acts.rs
expression: mlir.trim()
---
"module {\n  tt.func private @_RINvCs5vGTjieAw4G_81softplus_forward_cbbc766157bf5e7e600238e5c8626a6c0ca51e92736da460cf61d345b089e56516softplus_forwardNtNtNtNtB2_6triton4llvm6triton10LlvmTritonKl80_EB2_(%arg0: !tt.ptr<f32> {tt.divisibility = 16 : i32}, %arg1: !tt.ptr<f32> {tt.divisibility = 16 : i32}, %arg2: i32 {tt.divisibility = 16 : i32}, %arg3: f32 {tt.divisibility = 16 : i32}, %arg4: f32 {tt.divisibility = 16 : i32}) {\n    %cst = arith.constant dense<1.000000e+00> : tensor<128xf32>\n    %cst_0 = arith.constant 1.000000e+00 : f32\n    %c128_i32 = arith.constant 128 : i32\n    %0 = tt.get_program_id x : i32\n    %1 = arith.muli %0, %c128_i32 : i32\n    %2 = tt.make_range {end = 128 : i32, start = 0 : i32} : tensor<128xi32>\n    %3 = tt.splat %1 : i32 -> tensor<128xi32>\n    %4 = arith.addi %2, %3 : tensor<128xi32>\n    %5 = tt.splat %arg2 : i32 -> tensor<128xi32>\n    %6 = arith.cmpi slt, %4, %5 : tensor<128xi32>\n    %7 = tt.splat %arg0 : !tt.ptr<f32> -> tensor<128x!tt.ptr<f32>>\n    %8 = tt.addptr %7, %4 : tensor<128x!tt.ptr<f32>>, tensor<128xi32>\n    %9 = tt.load %8, %6 : tensor<128x!tt.ptr<f32>>\n    %10 = tt.splat %arg3 : f32 -> tensor<128xf32>\n    %11 = arith.divf %cst_0, %arg3 : f32\n    %12 = tt.splat %11 : f32 -> tensor<128xf32>\n    %13 = tt.splat %arg4 : f32 -> tensor<128xf32>\n    %14 = arith.mulf %10, %9 : tensor<128xf32>\n    %15 = arith.cmpf ogt, %14, %13 : tensor<128xf32>\n    %16 = math.exp %14 : tensor<128xf32>\n    %17 = arith.addf %16, %cst : tensor<128xf32>\n    %18 = math.log %17 : tensor<128xf32>\n    %19 = arith.mulf %12, %18 : tensor<128xf32>\n    %20 = arith.select %15, %9, %19 : tensor<128xi1>, tensor<128xf32>\n    %21 = tt.splat %arg1 : !tt.ptr<f32> -> tensor<128x!tt.ptr<f32>>\n    %22 = tt.addptr %21, %4 : tensor<128x!tt.ptr<f32>>, tensor<128xi32>\n    tt.store %22, %20, %6 {operandSegmentSizes = array<i32: 1, 1, 1>} : tensor<128x!tt.ptr<f32>>\n    tt.return\n  }\n  tt.func public @entry_point(%arg0: !tt.ptr<f32> {tt.divisibility = 16 : i32}, %arg1: !tt.ptr<f32> {tt.divisibility = 16 : i32}, %arg2: i32 {tt.divisibility = 16 : i32}, %arg3: f32 {tt.divisibility = 16 : i32}, %arg4: f32 {tt.divisibility = 16 : i32}) {\n    tt.call @_RINvCs5vGTjieAw4G_81softplus_forward_cbbc766157bf5e7e600238e5c8626a6c0ca51e92736da460cf61d345b089e56516softplus_forwardNtNtNtNtB2_6triton4llvm6triton10LlvmTritonKl80_EB2_(%arg0, %arg1, %arg2, %arg3, %arg4) {arg_attrs = [{}, {}, {}, {}, {}], res_attrs = []} : (!tt.ptr<f32>, !tt.ptr<f32>, i32, f32, f32) -> ()\n    tt.return\n  }\n}"
