---
source: kernels/teeny-kernels/tests/test_loss_embedding.rs
expression: mlir.trim()
---
"module {\n  tt.func private @_RINvCs1NdiqeCSdsD_94cosine_embedding_loss_forward_238134bb90c845db583df7346ca5d12274df0608a44f0dbd95b60005fef593b829cosine_embedding_loss_forwardNtNtNtNtB2_6triton4llvm6triton10LlvmTritonKl40_EB2_(%arg0: !tt.ptr<f32> {tt.divisibility = 16 : i32}, %arg1: !tt.ptr<f32> {tt.divisibility = 16 : i32}, %arg2: !tt.ptr<f32> {tt.divisibility = 16 : i32}, %arg3: !tt.ptr<f32> {tt.divisibility = 16 : i32}, %arg4: i32 {tt.divisibility = 16 : i32}, %arg5: i32 {tt.divisibility = 16 : i32}, %arg6: f32 {tt.divisibility = 16 : i32}) {\n    %cst = arith.constant dense<1.000000e+00> : tensor<1xf32>\n    %cst_0 = arith.constant dense<0.000000e+00> : tensor<1xf32>\n    %cst_1 = arith.constant dense<0.000000e+00> : tensor<64xf32>\n    %0 = tt.get_program_id x : i32\n    %1 = arith.muli %0, %arg5 : i32\n    %2 = tt.make_range {end = 64 : i32, start = 0 : i32} : tensor<64xi32>\n    %3 = tt.splat %1 : i32 -> tensor<64xi32>\n    %4 = arith.addi %2, %3 : tensor<64xi32>\n    %5 = tt.splat %arg5 : i32 -> tensor<64xi32>\n    %6 = arith.cmpi slt, %2, %5 : tensor<64xi32>\n    %7 = tt.splat %arg0 : !tt.ptr<f32> -> tensor<64x!tt.ptr<f32>>\n    %8 = tt.addptr %7, %4 : tensor<64x!tt.ptr<f32>>, tensor<64xi32>\n    %9 = tt.load %8, %6, %cst_1 : tensor<64x!tt.ptr<f32>>\n    %10 = tt.splat %arg1 : !tt.ptr<f32> -> tensor<64x!tt.ptr<f32>>\n    %11 = tt.addptr %10, %4 : tensor<64x!tt.ptr<f32>>, tensor<64xi32>\n    %12 = tt.load %11, %6, %cst_1 : tensor<64x!tt.ptr<f32>>\n    %13 = arith.mulf %9, %12 : tensor<64xf32>\n    %14 = \"tt.reduce\"(%13) <{axis = 0 : i32}> ({\n    ^bb0(%arg7: f32, %arg8: f32):\n      %42 = arith.addf %arg7, %arg8 : f32\n      tt.reduce.return %42 : f32\n    }) : (tensor<64xf32>) -> f32\n    %15 = arith.mulf %9, %9 : tensor<64xf32>\n    %16 = \"tt.reduce\"(%15) <{axis = 0 : i32}> ({\n    ^bb0(%arg7: f32, %arg8: f32):\n      %42 = arith.addf %arg7, %arg8 : f32\n      tt.reduce.return %42 : f32\n    }) : (tensor<64xf32>) -> f32\n    %17 = arith.mulf %12, %12 : tensor<64xf32>\n    %18 = \"tt.reduce\"(%17) <{axis = 0 : i32}> ({\n    ^bb0(%arg7: f32, %arg8: f32):\n      %42 = arith.addf %arg7, %arg8 : f32\n      tt.reduce.return %42 : f32\n    }) : (tensor<64xf32>) -> f32\n    %19 = tt.splat %14 : f32 -> tensor<1xf32>\n    %20 = arith.addf %19, %cst_0 : tensor<1xf32>\n    %21 = tt.splat %16 : f32 -> tensor<1xf32>\n    %22 = arith.addf %21, %cst_0 : tensor<1xf32>\n    %23 = tt.splat %18 : f32 -> tensor<1xf32>\n    %24 = arith.addf %23, %cst_0 : tensor<1xf32>\n    %25 = tt.precise_sqrt %22 : tensor<1xf32>\n    %26 = tt.precise_sqrt %24 : tensor<1xf32>\n    %27 = arith.mulf %25, %26 : tensor<1xf32>\n    %28 = arith.divf %20, %27 : tensor<1xf32>\n    %29 = tt.splat %0 : i32 -> tensor<1xi32>\n    %30 = tt.splat %arg2 : !tt.ptr<f32> -> tensor<1x!tt.ptr<f32>>\n    %31 = tt.addptr %30, %29 : tensor<1x!tt.ptr<f32>>, tensor<1xi32>\n    %32 = tt.load %31 : tensor<1x!tt.ptr<f32>>\n    %33 = tt.splat %arg6 : f32 -> tensor<1xf32>\n    %34 = arith.cmpf ogt, %32, %cst_0 : tensor<1xf32>\n    %35 = arith.subf %28, %33 : tensor<1xf32>\n    %36 = arith.maximumf %35, %cst_0 : tensor<1xf32>\n    %37 = arith.subf %cst, %28 : tensor<1xf32>\n    %38 = arith.select %34, %37, %36 : tensor<1xi1>, tensor<1xf32>\n    %39 = tt.splat %0 : i32 -> tensor<1xi32>\n    %40 = tt.splat %arg3 : !tt.ptr<f32> -> tensor<1x!tt.ptr<f32>>\n    %41 = tt.addptr %40, %39 : tensor<1x!tt.ptr<f32>>, tensor<1xi32>\n    tt.store %41, %38 {operandSegmentSizes = array<i32: 1, 1, 0>} : tensor<1x!tt.ptr<f32>>\n    tt.return\n  }\n  tt.func public @entry_point(%arg0: !tt.ptr<f32> {tt.divisibility = 16 : i32}, %arg1: !tt.ptr<f32> {tt.divisibility = 16 : i32}, %arg2: !tt.ptr<f32> {tt.divisibility = 16 : i32}, %arg3: !tt.ptr<f32> {tt.divisibility = 16 : i32}, %arg4: i32 {tt.divisibility = 16 : i32}, %arg5: i32 {tt.divisibility = 16 : i32}, %arg6: f32 {tt.divisibility = 16 : i32}) {\n    tt.call @_RINvCs1NdiqeCSdsD_94cosine_embedding_loss_forward_238134bb90c845db583df7346ca5d12274df0608a44f0dbd95b60005fef593b829cosine_embedding_loss_forwardNtNtNtNtB2_6triton4llvm6triton10LlvmTritonKl40_EB2_(%arg0, %arg1, %arg2, %arg3, %arg4, %arg5, %arg6) {arg_attrs = [{}, {}, {}, {}, {}, {}, {}], res_attrs = []} : (!tt.ptr<f32>, !tt.ptr<f32>, !tt.ptr<f32>, !tt.ptr<f32>, i32, i32, f32) -> ()\n    tt.return\n  }\n}"
