---
source: kernels/teeny-kernels/tests/test_conv1d.rs
expression: mlir.trim()
---
"module {\n  tt.func private @_RINvCsVVFoxdFEGU_79conv1d_forward_5c4326ecfbb7ee2c6e79fd8aafb3efaf2d6c492e8515c5f32b155176744ab99a14conv1d_forwardNtNtNtNtB2_6triton4llvm6triton10LlvmTritonfKl3_Kl1_Kl0_Kl8_EB2_(%arg0: !tt.ptr<f32> {tt.divisibility = 16 : i32}, %arg1: !tt.ptr<f32> {tt.divisibility = 16 : i32}, %arg2: !tt.ptr<f32> {tt.divisibility = 16 : i32}, %arg3: i32 {tt.divisibility = 16 : i32}, %arg4: i32 {tt.divisibility = 16 : i32}, %arg5: i32 {tt.divisibility = 16 : i32}, %arg6: i32 {tt.divisibility = 16 : i32}, %arg7: i32 {tt.divisibility = 16 : i32}) {\n    %cst = arith.constant dense<0> : tensor<8xi32>\n    %cst_0 = arith.constant dense<0.000000e+00> : tensor<8xf32>\n    %c7_i32 = arith.constant 7 : i32\n    %c3_i32 = arith.constant 3 : i32\n    %c0_i32 = arith.constant 0 : i32\n    %c1_i32 = arith.constant 1 : i32\n    %c8_i32 = arith.constant 8 : i32\n    %0 = tt.get_program_id x : i32\n    %1 = arith.addi %arg7, %c7_i32 : i32\n    %2 = arith.divsi %1, %c8_i32 : i32\n    %3 = arith.remsi %0, %2 : i32\n    %4 = arith.divsi %0, %2 : i32\n    %5 = arith.remsi %4, %arg5 : i32\n    %6 = arith.divsi %4, %arg5 : i32\n    %7 = arith.muli %3, %c8_i32 : i32\n    %8 = tt.make_range {end = 8 : i32, start = 0 : i32} : tensor<8xi32>\n    %9 = tt.splat %7 : i32 -> tensor<8xi32>\n    %10 = arith.addi %8, %9 : tensor<8xi32>\n    %11 = tt.splat %arg7 : i32 -> tensor<8xi32>\n    %12 = arith.cmpi slt, %10, %11 : tensor<8xi32>\n    %13 = arith.muli %6, %arg5 : i32\n    %14 = arith.addi %13, %5 : i32\n    %15 = arith.muli %14, %arg7 : i32\n    %16 = arith.muli %arg4, %c3_i32 : i32\n    %17:2 = scf.for %arg8 = %c0_i32 to %16 step %c1_i32 iter_args(%arg9 = %c0_i32, %arg10 = %cst_0) -> (i32, tensor<8xf32>)  : i32 {\n      %22 = arith.addi %arg9, %c1_i32 : i32\n      %23 = arith.remsi %arg9, %c3_i32 : i32\n      %24 = arith.divsi %arg9, %c3_i32 : i32\n      %25 = tt.splat %23 : i32 -> tensor<8xi32>\n      %26 = arith.addi %10, %25 : tensor<8xi32>\n      %27 = arith.cmpi sge, %26, %cst : tensor<8xi32>\n      %28 = tt.splat %arg6 : i32 -> tensor<8xi32>\n      %29 = arith.cmpi slt, %26, %28 : tensor<8xi32>\n      %30 = arith.andi %27, %29 : tensor<8xi1>\n      %31 = arith.andi %12, %30 : tensor<8xi1>\n      %32 = arith.muli %6, %arg4 : i32\n      %33 = arith.addi %32, %24 : i32\n      %34 = arith.muli %33, %arg6 : i32\n      %35 = tt.splat %34 : i32 -> tensor<8xi32>\n      %36 = arith.addi %26, %35 : tensor<8xi32>\n      %37 = tt.splat %arg0 : !tt.ptr<f32> -> tensor<8x!tt.ptr<f32>>\n      %38 = tt.addptr %37, %36 : tensor<8x!tt.ptr<f32>>, tensor<8xi32>\n      %39 = tt.load %38, %31, %cst_0 : tensor<8x!tt.ptr<f32>>\n      %40 = arith.muli %5, %arg4 : i32\n      %41 = arith.addi %40, %24 : i32\n      %42 = arith.muli %41, %c3_i32 : i32\n      %43 = arith.addi %42, %23 : i32\n      %44 = tt.splat %43 : i32 -> tensor<1xi32>\n      %45 = tt.splat %arg1 : !tt.ptr<f32> -> tensor<1x!tt.ptr<f32>>\n      %46 = tt.addptr %45, %44 : tensor<1x!tt.ptr<f32>>, tensor<1xi32>\n      %47 = tt.load %46 : tensor<1x!tt.ptr<f32>>\n      %48 = tt.broadcast %47 : tensor<1xf32> -> tensor<8xf32>\n      %49 = arith.mulf %39, %48 : tensor<8xf32>\n      %50 = arith.addf %arg10, %49 : tensor<8xf32>\n      scf.yield %22, %50 : i32, tensor<8xf32>\n    }\n    %18 = tt.splat %15 : i32 -> tensor<8xi32>\n    %19 = arith.addi %10, %18 : tensor<8xi32>\n    %20 = tt.splat %arg2 : !tt.ptr<f32> -> tensor<8x!tt.ptr<f32>>\n    %21 = tt.addptr %20, %19 : tensor<8x!tt.ptr<f32>>, tensor<8xi32>\n    tt.store %21, %17#1, %12 {operandSegmentSizes = array<i32: 1, 1, 1>} : tensor<8x!tt.ptr<f32>>\n    tt.return\n  }\n  tt.func public @entry_point(%arg0: !tt.ptr<f32> {tt.divisibility = 16 : i32}, %arg1: !tt.ptr<f32> {tt.divisibility = 16 : i32}, %arg2: !tt.ptr<f32> {tt.divisibility = 16 : i32}, %arg3: i32 {tt.divisibility = 16 : i32}, %arg4: i32 {tt.divisibility = 16 : i32}, %arg5: i32 {tt.divisibility = 16 : i32}, %arg6: i32 {tt.divisibility = 16 : i32}, %arg7: i32 {tt.divisibility = 16 : i32}) {\n    tt.call @_RINvCsVVFoxdFEGU_79conv1d_forward_5c4326ecfbb7ee2c6e79fd8aafb3efaf2d6c492e8515c5f32b155176744ab99a14conv1d_forwardNtNtNtNtB2_6triton4llvm6triton10LlvmTritonfKl3_Kl1_Kl0_Kl8_EB2_(%arg0, %arg1, %arg2, %arg3, %arg4, %arg5, %arg6, %arg7) {arg_attrs = [{}, {}, {}, {}, {}, {}, {}, {}], res_attrs = []} : (!tt.ptr<f32>, !tt.ptr<f32>, !tt.ptr<f32>, i32, i32, i32, i32, i32) -> ()\n    tt.return\n  }\n}"
