---
source: kernels/teeny-kernels/tests/test_conv1d.rs
expression: mlir.trim()
---
"module {\n  tt.func private @_RINvCsllG5NnzR95w_83conv1d_backward_dw_3a82f4f6031e969d02bfa693f641b2f75c04743491dd0bc0601073257dafe61818conv1d_backward_dwNtNtNtNtB2_6triton4llvm6triton10LlvmTritonfKl3_Kl1_Kl8_EB2_(%arg0: !tt.ptr<f32> {tt.divisibility = 16 : i32}, %arg1: !tt.ptr<f32> {tt.divisibility = 16 : i32}, %arg2: !tt.ptr<f32> {tt.divisibility = 16 : i32}, %arg3: i32 {tt.divisibility = 16 : i32}, %arg4: i32 {tt.divisibility = 16 : i32}, %arg5: i32 {tt.divisibility = 16 : i32}, %arg6: i32 {tt.divisibility = 16 : i32}, %arg7: i32 {tt.divisibility = 16 : i32}) {\n    %cst = arith.constant dense<0.000000e+00> : tensor<8xf32>\n    %c7_i32 = arith.constant 7 : i32\n    %c3_i32 = arith.constant 3 : i32\n    %c0_i32 = arith.constant 0 : i32\n    %c1_i32 = arith.constant 1 : i32\n    %c8_i32 = arith.constant 8 : i32\n    %0 = tt.get_program_id x : i32\n    %1 = arith.addi %arg7, %c7_i32 : i32\n    %2 = arith.divsi %1, %c8_i32 : i32\n    %3 = arith.remsi %0, %2 : i32\n    %4 = arith.divsi %0, %2 : i32\n    %5 = arith.remsi %4, %arg5 : i32\n    %6 = arith.divsi %4, %arg5 : i32\n    %7 = arith.muli %3, %c8_i32 : i32\n    %8 = tt.make_range {end = 8 : i32, start = 0 : i32} : tensor<8xi32>\n    %9 = tt.splat %7 : i32 -> tensor<8xi32>\n    %10 = arith.addi %8, %9 : tensor<8xi32>\n    %11 = tt.splat %arg7 : i32 -> tensor<8xi32>\n    %12 = arith.cmpi slt, %10, %11 : tensor<8xi32>\n    %13 = arith.muli %6, %arg5 : i32\n    %14 = arith.addi %13, %5 : i32\n    %15 = arith.muli %14, %arg7 : i32\n    %16 = tt.splat %15 : i32 -> tensor<8xi32>\n    %17 = arith.addi %10, %16 : tensor<8xi32>\n    %18 = tt.splat %arg0 : !tt.ptr<f32> -> tensor<8x!tt.ptr<f32>>\n    %19 = tt.addptr %18, %17 : tensor<8x!tt.ptr<f32>>, tensor<8xi32>\n    %20 = tt.load %19, %12, %cst : tensor<8x!tt.ptr<f32>>\n    %21 = arith.muli %arg4, %c3_i32 : i32\n    %22 = scf.for %arg8 = %c0_i32 to %21 step %c1_i32 iter_args(%arg9 = %c0_i32) -> (i32)  : i32 {\n      %23 = arith.addi %arg9, %c1_i32 : i32\n      %24 = arith.remsi %arg9, %c3_i32 : i32\n      %25 = arith.divsi %arg9, %c3_i32 : i32\n      %26 = tt.splat %24 : i32 -> tensor<8xi32>\n      %27 = arith.addi %10, %26 : tensor<8xi32>\n      %28 = arith.muli %6, %arg4 : i32\n      %29 = arith.addi %28, %25 : i32\n      %30 = arith.muli %29, %arg6 : i32\n      %31 = tt.splat %30 : i32 -> tensor<8xi32>\n      %32 = arith.addi %27, %31 : tensor<8xi32>\n      %33 = tt.splat %arg1 : !tt.ptr<f32> -> tensor<8x!tt.ptr<f32>>\n      %34 = tt.addptr %33, %32 : tensor<8x!tt.ptr<f32>>, tensor<8xi32>\n      %35 = tt.load %34, %12, %cst : tensor<8x!tt.ptr<f32>>\n      %36 = arith.mulf %20, %35 : tensor<8xf32>\n      %37 = \"tt.reduce\"(%36) <{axis = 0 : i32}> ({\n      ^bb0(%arg10: f32, %arg11: f32):\n        %47 = arith.addf %arg10, %arg11 : f32\n        tt.reduce.return %47 : f32\n      }) : (tensor<8xf32>) -> f32\n      %38 = tt.splat %37 : f32 -> tensor<1xf32>\n      %39 = arith.muli %5, %arg4 : i32\n      %40 = arith.addi %39, %25 : i32\n      %41 = arith.muli %40, %c3_i32 : i32\n      %42 = arith.addi %41, %24 : i32\n      %43 = tt.splat %42 : i32 -> tensor<1xi32>\n      %44 = tt.splat %arg2 : !tt.ptr<f32> -> tensor<1x!tt.ptr<f32>>\n      %45 = tt.addptr %44, %43 : tensor<1x!tt.ptr<f32>>, tensor<1xi32>\n      %46 = tt.atomic_rmw fadd, relaxed, gpu, %45, %38 {operandSegmentSizes = array<i32: 1, 1, 0>} : (tensor<1x!tt.ptr<f32>>, tensor<1xf32>) -> tensor<1xf32>\n      scf.yield %23 : i32\n    }\n    tt.return\n  }\n  tt.func public @entry_point(%arg0: !tt.ptr<f32> {tt.divisibility = 16 : i32}, %arg1: !tt.ptr<f32> {tt.divisibility = 16 : i32}, %arg2: !tt.ptr<f32> {tt.divisibility = 16 : i32}, %arg3: i32 {tt.divisibility = 16 : i32}, %arg4: i32 {tt.divisibility = 16 : i32}, %arg5: i32 {tt.divisibility = 16 : i32}, %arg6: i32 {tt.divisibility = 16 : i32}, %arg7: i32 {tt.divisibility = 16 : i32}) {\n    tt.call @_RINvCsllG5NnzR95w_83conv1d_backward_dw_3a82f4f6031e969d02bfa693f641b2f75c04743491dd0bc0601073257dafe61818conv1d_backward_dwNtNtNtNtB2_6triton4llvm6triton10LlvmTritonfKl3_Kl1_Kl8_EB2_(%arg0, %arg1, %arg2, %arg3, %arg4, %arg5, %arg6, %arg7) {arg_attrs = [{}, {}, {}, {}, {}, {}, {}, {}], res_attrs = []} : (!tt.ptr<f32>, !tt.ptr<f32>, !tt.ptr<f32>, i32, i32, i32, i32, i32) -> ()\n    tt.return\n  }\n}"
