---
source: kernels/teeny-kernels/tests/test_conv3d.rs
expression: mlir.trim()
---
"module {\n  tt.func private @_RINvCs1foy1BP7foN_79conv3d_forward_50616e7455911b3e0784692b0f4be6689abcc64ad329ea95ffc6a9478bd3d21414conv3d_forwardNtNtNtNtB2_6triton4llvm6triton10LlvmTritonfKl2_KB2x_Kl3_Kl1_KB2K_KB2K_Kl8_EB2_(%arg0: !tt.ptr<f32> {tt.divisibility = 16 : i32}, %arg1: !tt.ptr<f32> {tt.divisibility = 16 : i32}, %arg2: !tt.ptr<f32> {tt.divisibility = 16 : i32}, %arg3: i32 {tt.divisibility = 16 : i32}, %arg4: i32 {tt.divisibility = 16 : i32}, %arg5: i32 {tt.divisibility = 16 : i32}, %arg6: i32 {tt.divisibility = 16 : i32}, %arg7: i32 {tt.divisibility = 16 : i32}, %arg8: i32 {tt.divisibility = 16 : i32}, %arg9: i32 {tt.divisibility = 16 : i32}, %arg10: i32 {tt.divisibility = 16 : i32}, %arg11: i32 {tt.divisibility = 16 : i32}) {\n    %c12_i32 = arith.constant 12 : i32\n    %cst = arith.constant dense<0.000000e+00> : tensor<8xf32>\n    %c7_i32 = arith.constant 7 : i32\n    %c3_i32 = arith.constant 3 : i32\n    %c2_i32 = arith.constant 2 : i32\n    %c0_i32 = arith.constant 0 : i32\n    %c1_i32 = arith.constant 1 : i32\n    %c8_i32 = arith.constant 8 : i32\n    %0 = tt.get_program_id x : i32\n    %1 = arith.addi %arg11, %c7_i32 : i32\n    %2 = arith.divsi %1, %c8_i32 : i32\n    %3 = arith.remsi %0, %2 : i32\n    %4 = arith.divsi %0, %2 : i32\n    %5 = arith.remsi %4, %arg10 : i32\n    %6 = arith.divsi %4, %arg10 : i32\n    %7 = arith.remsi %6, %arg9 : i32\n    %8 = arith.divsi %6, %arg9 : i32\n    %9 = arith.remsi %8, %arg5 : i32\n    %10 = arith.divsi %8, %arg5 : i32\n    %11 = arith.muli %3, %c8_i32 : i32\n    %12 = tt.make_range {end = 8 : i32, start = 0 : i32} : tensor<8xi32>\n    %13 = tt.splat %11 : i32 -> tensor<8xi32>\n    %14 = arith.addi %12, %13 : tensor<8xi32>\n    %15 = tt.splat %arg11 : i32 -> tensor<8xi32>\n    %16 = arith.cmpi slt, %14, %15 : tensor<8xi32>\n    %17 = arith.muli %10, %arg5 : i32\n    %18 = arith.addi %17, %9 : i32\n    %19 = arith.muli %18, %arg9 : i32\n    %20 = arith.muli %19, %arg10 : i32\n    %21 = arith.muli %20, %arg11 : i32\n    %22 = arith.muli %7, %arg10 : i32\n    %23 = arith.muli %22, %arg11 : i32\n    %24 = arith.addi %21, %23 : i32\n    %25 = arith.muli %5, %arg11 : i32\n    %26 = arith.addi %24, %25 : i32\n    %27 = arith.muli %arg4, %c12_i32 : i32\n    %28:2 = scf.for %arg12 = %c0_i32 to %27 step %c1_i32 iter_args(%arg13 = %c0_i32, %arg14 = %cst) -> (i32, tensor<8xf32>)  : i32 {\n      %33 = arith.addi %arg13, %c1_i32 : i32\n      %34 = arith.remsi %arg13, %c3_i32 : i32\n      %35 = arith.divsi %arg13, %c3_i32 : i32\n      %36 = arith.remsi %35, %c2_i32 : i32\n      %37 = arith.divsi %35, %c2_i32 : i32\n      %38 = arith.remsi %37, %c2_i32 : i32\n      %39 = arith.divsi %37, %c2_i32 : i32\n      %40 = arith.addi %7, %38 : i32\n      %41 = arith.addi %5, %36 : i32\n      %42 = tt.splat %34 : i32 -> tensor<8xi32>\n      %43 = arith.addi %14, %42 : tensor<8xi32>\n      %44 = arith.muli %10, %arg4 : i32\n      %45 = arith.addi %44, %39 : i32\n      %46 = arith.muli %45, %arg6 : i32\n      %47 = arith.muli %46, %arg7 : i32\n      %48 = arith.muli %47, %arg8 : i32\n      %49 = arith.muli %40, %arg7 : i32\n      %50 = arith.muli %49, %arg8 : i32\n      %51 = arith.addi %48, %50 : i32\n      %52 = arith.muli %41, %arg8 : i32\n      %53 = arith.addi %51, %52 : i32\n      %54 = tt.splat %53 : i32 -> tensor<8xi32>\n      %55 = arith.addi %43, %54 : tensor<8xi32>\n      %56 = tt.splat %arg0 : !tt.ptr<f32> -> tensor<8x!tt.ptr<f32>>\n      %57 = tt.addptr %56, %55 : tensor<8x!tt.ptr<f32>>, tensor<8xi32>\n      %58 = tt.load %57, %16, %cst : tensor<8x!tt.ptr<f32>>\n      %59 = arith.muli %9, %arg4 : i32\n      %60 = arith.addi %59, %39 : i32\n      %61 = arith.muli %60, %c2_i32 : i32\n      %62 = arith.addi %61, %38 : i32\n      %63 = arith.muli %62, %c2_i32 : i32\n      %64 = arith.addi %63, %36 : i32\n      %65 = arith.muli %64, %c3_i32 : i32\n      %66 = arith.addi %65, %34 : i32\n      %67 = tt.splat %66 : i32 -> tensor<1xi32>\n      %68 = tt.splat %arg1 : !tt.ptr<f32> -> tensor<1x!tt.ptr<f32>>\n      %69 = tt.addptr %68, %67 : tensor<1x!tt.ptr<f32>>, tensor<1xi32>\n      %70 = tt.load %69 : tensor<1x!tt.ptr<f32>>\n      %71 = tt.broadcast %70 : tensor<1xf32> -> tensor<8xf32>\n      %72 = arith.mulf %58, %71 : tensor<8xf32>\n      %73 = arith.addf %arg14, %72 : tensor<8xf32>\n      scf.yield %33, %73 : i32, tensor<8xf32>\n    }\n    %29 = tt.splat %26 : i32 -> tensor<8xi32>\n    %30 = arith.addi %14, %29 : tensor<8xi32>\n    %31 = tt.splat %arg2 : !tt.ptr<f32> -> tensor<8x!tt.ptr<f32>>\n    %32 = tt.addptr %31, %30 : tensor<8x!tt.ptr<f32>>, tensor<8xi32>\n    tt.store %32, %28#1, %16 {operandSegmentSizes = array<i32: 1, 1, 1>} : tensor<8x!tt.ptr<f32>>\n    tt.return\n  }\n  tt.func public @entry_point(%arg0: !tt.ptr<f32> {tt.divisibility = 16 : i32}, %arg1: !tt.ptr<f32> {tt.divisibility = 16 : i32}, %arg2: !tt.ptr<f32> {tt.divisibility = 16 : i32}, %arg3: i32 {tt.divisibility = 16 : i32}, %arg4: i32 {tt.divisibility = 16 : i32}, %arg5: i32 {tt.divisibility = 16 : i32}, %arg6: i32 {tt.divisibility = 16 : i32}, %arg7: i32 {tt.divisibility = 16 : i32}, %arg8: i32 {tt.divisibility = 16 : i32}, %arg9: i32 {tt.divisibility = 16 : i32}, %arg10: i32 {tt.divisibility = 16 : i32}, %arg11: i32 {tt.divisibility = 16 : i32}) {\n    tt.call @_RINvCs1foy1BP7foN_79conv3d_forward_50616e7455911b3e0784692b0f4be6689abcc64ad329ea95ffc6a9478bd3d21414conv3d_forwardNtNtNtNtB2_6triton4llvm6triton10LlvmTritonfKl2_KB2x_Kl3_Kl1_KB2K_KB2K_Kl8_EB2_(%arg0, %arg1, %arg2, %arg3, %arg4, %arg5, %arg6, %arg7, %arg8, %arg9, %arg10, %arg11) {arg_attrs = [{}, {}, {}, {}, {}, {}, {}, {}, {}, {}, {}, {}], res_attrs = []} : (!tt.ptr<f32>, !tt.ptr<f32>, !tt.ptr<f32>, i32, i32, i32, i32, i32, i32, i32, i32, i32) -> ()\n    tt.return\n  }\n}"
