---
source: kernels/teeny-kernels/tests/test_replication_pad2d.rs
expression: mlir.trim()
---
"module {\n  tt.func private @_RINvCs118PrYQjzup_90replication_pad2d_forward_b1f8ac38a58bfb7a629813d348f10f009f63e0ad06413c4a4744368b49d71ab125replication_pad2d_forwardNtNtNtNtB2_6triton4llvm6triton10LlvmTritonfKl1_Kl2_KB2X_Kl3_Kl10_EB2_(%arg0: !tt.ptr<f32> {tt.divisibility = 16 : i32}, %arg1: !tt.ptr<f32> {tt.divisibility = 16 : i32}, %arg2: i32 {tt.divisibility = 16 : i32}, %arg3: i32 {tt.divisibility = 16 : i32}, %arg4: i32 {tt.divisibility = 16 : i32}, %arg5: i32 {tt.divisibility = 16 : i32}, %arg6: i32 {tt.divisibility = 16 : i32}, %arg7: i32 {tt.divisibility = 16 : i32}) {\n    %cst = arith.constant dense<0.000000e+00> : tensor<16xf32>\n    %cst_0 = arith.constant dense<0> : tensor<16xi32>\n    %cst_1 = arith.constant dense<2> : tensor<16xi32>\n    %c15_i32 = arith.constant 15 : i32\n    %false = arith.constant false\n    %c0_i32 = arith.constant 0 : i32\n    %c1_i32 = arith.constant 1 : i32\n    %c16_i32 = arith.constant 16 : i32\n    %0 = tt.get_program_id x : i32\n    %1 = arith.addi %arg7, %c15_i32 : i32\n    %2 = arith.divsi %1, %c16_i32 : i32\n    %3 = arith.remsi %0, %2 : i32\n    %4 = arith.divsi %0, %2 : i32\n    %5 = arith.remsi %4, %arg6 : i32\n    %6 = arith.divsi %4, %arg6 : i32\n    %7 = arith.remsi %6, %arg3 : i32\n    %8 = arith.divsi %6, %arg3 : i32\n    %9 = arith.muli %3, %c16_i32 : i32\n    %10 = tt.make_range {end = 16 : i32, start = 0 : i32} : tensor<16xi32>\n    %11 = tt.splat %9 : i32 -> tensor<16xi32>\n    %12 = arith.addi %10, %11 : tensor<16xi32>\n    %13 = tt.splat %arg7 : i32 -> tensor<16xi32>\n    %14 = arith.cmpi slt, %12, %13 : tensor<16xi32>\n    %15 = arith.subi %5, %c1_i32 : i32\n    %16 = arith.cmpi slt, %15, %c0_i32 : i32\n    %17 = arith.cmpi eq, %16, %false : i1\n    cf.cond_br %17, ^bb1, ^bb3(%c0_i32 : i32)\n  ^bb1:  // pred: ^bb0\n    %18 = arith.cmpi sge, %15, %arg4 : i32\n    %19 = arith.cmpi eq, %18, %false : i1\n    cf.cond_br %19, ^bb3(%15 : i32), ^bb2\n  ^bb2:  // pred: ^bb1\n    %20 = arith.subi %arg4, %c1_i32 : i32\n    cf.br ^bb3(%20 : i32)\n  ^bb3(%21: i32):  // 3 preds: ^bb0, ^bb1, ^bb2\n    %22 = arith.muli %8, %arg3 : i32\n    %23 = arith.addi %22, %7 : i32\n    %24 = arith.muli %23, %arg4 : i32\n    %25 = arith.muli %24, %arg5 : i32\n    %26 = arith.muli %21, %arg5 : i32\n    %27 = arith.addi %25, %26 : i32\n    %28 = arith.muli %23, %arg6 : i32\n    %29 = arith.addi %28, %5 : i32\n    %30 = arith.muli %29, %arg7 : i32\n    %31 = arith.subi %12, %cst_1 : tensor<16xi32>\n    %32 = arith.cmpi slt, %31, %cst_0 : tensor<16xi32>\n    %33 = tt.splat %arg5 : i32 -> tensor<16xi32>\n    %34 = arith.cmpi sge, %31, %33 : tensor<16xi32>\n    %35 = arith.cmpi sge, %31, %cst_0 : tensor<16xi32>\n    %36 = tt.splat %arg5 : i32 -> tensor<16xi32>\n    %37 = arith.cmpi slt, %31, %36 : tensor<16xi32>\n    %38 = arith.andi %35, %37 : tensor<16xi1>\n    %39 = arith.subi %arg5, %c1_i32 : i32\n    %40 = tt.splat %39 : i32 -> tensor<16xi32>\n    %41 = tt.splat %27 : i32 -> tensor<16xi32>\n    %42 = arith.addi %31, %41 : tensor<16xi32>\n    %43 = tt.splat %arg0 : !tt.ptr<f32> -> tensor<16x!tt.ptr<f32>>\n    %44 = tt.addptr %43, %42 : tensor<16x!tt.ptr<f32>>, tensor<16xi32>\n    %45 = arith.andi %14, %38 : tensor<16xi1>\n    %46 = tt.load %44, %45, %cst : tensor<16x!tt.ptr<f32>>\n    %47 = tt.splat %27 : i32 -> tensor<16xi32>\n    %48 = tt.splat %arg0 : !tt.ptr<f32> -> tensor<16x!tt.ptr<f32>>\n    %49 = tt.addptr %48, %47 : tensor<16x!tt.ptr<f32>>, tensor<16xi32>\n    %50 = arith.andi %14, %32 : tensor<16xi1>\n    %51 = tt.load %49, %50, %cst : tensor<16x!tt.ptr<f32>>\n    %52 = tt.splat %27 : i32 -> tensor<16xi32>\n    %53 = arith.addi %40, %52 : tensor<16xi32>\n    %54 = tt.splat %arg0 : !tt.ptr<f32> -> tensor<16x!tt.ptr<f32>>\n    %55 = tt.addptr %54, %53 : tensor<16x!tt.ptr<f32>>, tensor<16xi32>\n    %56 = arith.andi %14, %34 : tensor<16xi1>\n    %57 = tt.load %55, %56, %cst : tensor<16x!tt.ptr<f32>>\n    %58 = arith.select %34, %57, %46 : tensor<16xi1>, tensor<16xf32>\n    %59 = arith.select %32, %51, %58 : tensor<16xi1>, tensor<16xf32>\n    %60 = tt.splat %30 : i32 -> tensor<16xi32>\n    %61 = arith.addi %12, %60 : tensor<16xi32>\n    %62 = tt.splat %arg1 : !tt.ptr<f32> -> tensor<16x!tt.ptr<f32>>\n    %63 = tt.addptr %62, %61 : tensor<16x!tt.ptr<f32>>, tensor<16xi32>\n    tt.store %63, %59, %14 {operandSegmentSizes = array<i32: 1, 1, 1>} : tensor<16x!tt.ptr<f32>>\n    tt.return\n  }\n  tt.func public @entry_point(%arg0: !tt.ptr<f32> {tt.divisibility = 16 : i32}, %arg1: !tt.ptr<f32> {tt.divisibility = 16 : i32}, %arg2: i32 {tt.divisibility = 16 : i32}, %arg3: i32 {tt.divisibility = 16 : i32}, %arg4: i32 {tt.divisibility = 16 : i32}, %arg5: i32 {tt.divisibility = 16 : i32}, %arg6: i32 {tt.divisibility = 16 : i32}, %arg7: i32 {tt.divisibility = 16 : i32}) {\n    tt.call @_RINvCs118PrYQjzup_90replication_pad2d_forward_b1f8ac38a58bfb7a629813d348f10f009f63e0ad06413c4a4744368b49d71ab125replication_pad2d_forwardNtNtNtNtB2_6triton4llvm6triton10LlvmTritonfKl1_Kl2_KB2X_Kl3_Kl10_EB2_(%arg0, %arg1, %arg2, %arg3, %arg4, %arg5, %arg6, %arg7) {arg_attrs = [{}, {}, {}, {}, {}, {}, {}, {}], res_attrs = []} : (!tt.ptr<f32>, !tt.ptr<f32>, i32, i32, i32, i32, i32, i32) -> ()\n    tt.return\n  }\n}"
